rl/models/v.s. Basic Bot/pong_dueling_ddqn.pth (torch, 286940 bytes, 9 tensors)

_fc1.weight f4 [256, 12]
000000 dd 60 95 3e 73 c7 8e be e5 34 83 bc 0c 89 29 bc
       0.29175463 -0.27886543 -0.016016433 -0.010347616
000010 2b cf 33 3e e8 12 83 be c1 8e f3 bd 03 7d 2f be
       0.17559497 -0.25600362 -0.118924625 -0.17137532
000020 f5 76 57 3e d6 59 51 bd ab 1e 56 be 62 95 a3 be
       0.21041472 -0.051111065 -0.20910136 -0.31949908
000030 ce 6e 1c 3e be 98 3b 3e fc 2a 65 bd e0 ef f6 bb
       0.15276644 0.18319985 -0.055949196 -0.0075359195
000040 b1 e0 a7 bd 41 57 1f bf 47 c1 c8 be 8f a5 5f 3e
       -0.08197153 -0.62242514 -0.3920996 0.218405
000050 98 f8 6b 3b 23 37 c3 bd a4 11 c1 be 2a 09 74 be
       0.0036006328 -0.09532001 -0.3770877 -0.23831621
000060 9a e4 09 3e 52 3b 52 3d fb ee 93 bd 07 fa 1b bd
       0.13466111 0.051326104 -0.07223316 -0.03808024
000070 de df 7d be 90 80 f0 be 43 2d 0a 3b 22 bb ae be
       -0.2479243 -0.46973085 0.0021084107 -0.34127146
000080 b8 df 46 3d 60 04 98 3e 77 4d f6 3d fa 3d e8 be
       0.0485532 0.29690838 0.12026494 -0.45359784
000090 77 f3 a2 bd 79 cf c1 bb 97 50 37 be 95 97 90 3a
       -0.079565935 -0.0059146252 -0.17901836 0.0011031503
0000a0 61 1b 4b be bd 98 0d 3f 16 90 d5 3d ae af 0a 3e
       -0.19834663 0.55311185 0.10427873 0.13543579
0000b0 22 e0 e2 3e c4 26 0b bf b7 d3 fb 3c 54 1e 8f bb
       0.44311625 -0.54356027 0.030740602 -0.004367629
0000c0 56 9f 7d 3e cf 5e 87 3e 4f 9e 67 3d 3c 77 8a 3c
       0.24767813 0.2643952 0.05654746 0.016902559
0000d0 f7 0c 68 3d e1 57 86 3e 17 06 5e be 2f c5 06 3d
       0.05665299 0.2623892 -0.2168201 0.032902893
0000e0 c0 c9 d4 3e 93 ac ab 3c 06 48 5a 3e 59 f8 ce be
       0.41560173 0.020956313 0.21316537 -0.4042385
0000f0 21 ab 8c 3e 40 e4 06 bd b6 1c 09 be cb e4 0d 3c
       0.2747431 -0.03293252 -0.13389859 0.0086605055
000100 ab e4 fb 3d 97 7a d0 be fe 43 49 be 23 bb 84 bd
       0.12299474 -0.4071853 -0.19654843 -0.06481006
000110 67 42 c4 bd cd 0b ce 3d e2 58 42 3e be a5 a5 3e
       -0.09582978 0.100608446 0.18979219 0.32353014
000120 30 03 36 be 0b d3 23 3b 26 8e fc bd 99 7e 56 3b
       -0.17774653 0.0024997618 -0.123318 0.0032729267
000130 72 f4 98 be 97 be aa bd 4d 66 be bd a4 e4 4f be
       -0.29873997 -0.083371334 -0.09296856 -0.20302063
000140 d1 c3 95 be 21 13 ac 3e 1e 4f 17 be 5b ce 22 be
       -0.2925096 0.33608344 -0.14776275 -0.15899031
000150 fa 05 9f 3d 3b d1 82 bd 86 fc b6 3d c3 ce 86 bb
       0.07764812 -0.06387564 0.08934884 -0.0041140034
000160 eb 77 af 3d 02 70 f6 3c ca 75 c9 bd 06 b7 09 3d
       0.085677944 0.030082706 -0.098369196 0.03362181
000170 24 bd 99 3b 67 7c 39 3c 9b 43 9c bd 5a 56 53 be
       0.004691737 0.011321164 -0.07630082 -0.2063841
000180 da 22 9e 3e 94 c3 84 bd 5f 3f e2 3d 82 d6 a1 3c
       0.30885965 -0.06482616 0.11047243 0.019755606
000190 0c f8 cc 3d fc 44 dd bd 60 a0 d1 bc ee 52 69 be
       0.10008249 -0.10804173 -0.025589168 -0.22785541
0001a0 e7 2d 9b be 1a 14 fe bd f0 86 8f 3d 90 a8 fe 3e
       -0.30308458 -0.12406178 0.07008159 0.49737978
0001b0 cb 19 73 bd 22 aa c2 3e 91 e1 97 bd 7b d4 af 3a
       -0.05935077 0.38020426 -0.0741607 0.0013414765
0001c0 d2 c1 90 bd ed 42 1c bd 44 cd dd 3d e5 e5 dd 3d
       -0.07068218 -0.038149763 0.10830167 0.108348645
0001d0 d3 8e e7 bd 51 62 db be 83 47 d7 bd 31 fe a0 3e
       -0.113065384 -0.42848447 -0.10511687 0.31443933
0001e0 0f c1 cd 3d b0 49 02 3d 59 51 eb be 32 61 92 bb
       0.10046589 0.031808555 -0.459605 -0.004467153
0001f0 fd 41 71 be 01 a7 43 be 98 28 0f be a9 48 5e bd
       -0.23560329 -0.19106676 -0.13980329 -0.054268513
000200 d5 af 89 3e a6 a6 af 3e 44 ed 58 bd 3b 5a bd bd
       0.26891962 0.3430683 -0.05296065 -0.09245726
000210 57 e1 f7 3d ef 6f a7 bd 1e 39 4f be c2 e8 1e 3c
       0.12103527 -0.081756465 -0.20236632 0.0096990485
000220 ab 12 1f be 54 82 c0 3e 38 f9 41 3d c2 ef 2d 3f
       -0.15534465 0.37599432 0.047356814 0.67943966
000230 bc 73 bb 3d ef b3 96 be 0e e0 27 be 08 26 c9 be
       0.09152934 -0.29434153 -0.16394064 -0.39286828
000240 06 cd 34 be 73 fd d5 3d ef 32 a0 be 28 c0 fe 3b
       -0.17656335 0.10448732 -0.3128886 0.0077743717
000250 c4 6c ec 3c 5e a9 04 3e 1a 12 63 3e 09 88 35 3e
       0.028860457 0.12955233 0.22174874 0.17727675
000260 5c c8 7e bd 6c 60 63 be 46 cb 03 be 53 68 b7 be
       -0.062202796 -0.22204751 -0.12870511 -0.3582178
000270 cf 94 68 3e 21 64 25 3e 93 21 bb 3e f9 f3 60 bc
       0.22713016 0.16151477 0.36549053 -0.013730043
000280 98 d6 b7 bd 26 15 9d 3e 86 8b 4f be 65 2f 3b 3e
       -0.089764774 0.30680197 -0.20268068 0.18279798
000290 5a ff a2 3e 73 29 34 be ea 2a b1 3e b1 80 61 be
       0.31835443 -0.17593937 0.34603053 -0.22021748
0002a0 c6 e1 d5 3c f6 73 0f 3b 8b 40 fb 3d c1 23 63 3d
       0.026108634 0.0021889186 0.1226817 0.05545402
0002b0 7e f5 02 3d d0 b7 b4 be cb 2d 3b 3e 1d 51 66 3e
       0.0319724 -0.35296488 0.18279187 0.2249188
0002c0 ce a3 1e 3e 82 46 ad 3e 2c e9 5e 3d 58 36 3a be
       0.15492174 0.33842856 0.05442159 -0.18184793
0002d0 b7 96 c4 3d 1d 99 af bc 1d e5 c3 3d 7f 3d 9d bb
       0.09599059 -0.021435315 0.09565184 -0.0047985907
0002e0 1a eb b3 bd 96 80 b0 be a5 09 e7 bd 17 df e5 3c
       -0.087850764 -0.34473103 -0.112811364 0.02806048
0002f0 f2 7d a8 3e 4d cc 52 3e 41 de e0 ba 8a 25 b1 3b
       0.3290859 0.20585747 -0.001715608 0.0054060863
000300 0e 7c f6 bd 25 a0 d9 3e 68 1f b7 be e6 84 ab bb
       -0.1203538 0.42504993 -0.3576615 -0.0052343486
000310 a3 14 59 be a6 9a 4e 3e 37 8c 91 3a fe 98 bb 3d
       -0.21199279 0.20176181 0.0011104409 0.0916004
000320 b2 da cf be 0f 12 6e be bb fb 42 be 84 1c 6e 3d
       -0.4059654 -0.23249076 -0.1904134 0.058132663
000330 95 21 5f 3e dd c0 7f be b4 e2 28 bd 10 8d ab bc
       0.21790154 -0.24975915 -0.041231826 -0.020941287
000340 45 f8 27 3e df 6c 9e 3e 19 18 ec bd 36 9e 5a 3d
       0.16403301 0.30942437 -0.11528034 0.053373538
000350 e4 59 44 3e 64 5e 2d be 60 0e d5 3d 99 15 0a 3c
       0.19174916 -0.16930538 0.104031324 0.008428001
000360 57 b3 63 3d d7 36 b0 3c 70 51 fa bd 73 d4 96 38
       0.055590954 0.021510525 -0.12222564 7.192129e-05
000370 c1 0e c0 3c 0c ca 58 be 0f 08 dc bd 6b 8a 78 be
       0.023444535 -0.21170825 -0.107437246 -0.24271552
000380 3b be b2 bd 92 73 65 3e 54 0b 52 3a 1f 6a 6c 3f
       -0.0872769 0.22407368 0.0008012552 0.9234943
000390 e2 c4 dd bd 53 78 72 3d 1a 0d 4b 3e 17 51 f3 ba
       -0.10828568 0.05919678 0.19829217 -0.0018563595
0003a0 44 ce 19 be ac e9 ae bd 5d 25 0a 3b 8b a2 3d 3e
       -0.1502009 -0.08540663 0.00210794 0.18519036
0003b0 d3 64 ca 3d bb 50 47 be b7 42 c4 bd 03 fa bd be
       0.09882512 -0.1946439 -0.09583037 -0.37104806
0003c0 36 4a a1 3e cf d3 56 bd 4f bd ca 3e 36 25 a5 3a
       0.3150193 -0.05244809 0.39597556 0.0012599591
0003d0 82 df 53 3e 8d c8 99 bc 3e f9 ee bc 02 e3 9f 3d
       0.2069073 -0.018772388 -0.029171582 0.0780697
0003e0 c8 a7 99 3d f1 4e 81 be 1b 85 82 3e 17 d0 29 bf
       0.07502705 -0.2525554 0.25492176 -0.66333145
0003f0 48 28 52 3e 5e ea 03 bf bb 36 fa 3c 46 28 20 bc
       0.20523179 -0.5152949 0.030543676 -0.009775227

_fc1.bias f4 [256]
000000 98 ea ee bd 71 6a 4e be 66 fa 59 bd 79 42 98 be
       -0.11665839 -0.20157792 -0.053217314 -0.29738215
000010 4c 95 74 be a3 c5 26 3e 78 86 fe bd 63 fb bc bd
       -0.23885077 0.1628633 -0.12427992 -0.09227636
000020 df 9e a9 bd f0 85 b7 bd 8f 58 eb 3d 32 f9 7c bc
       -0.082822554 -0.089610934 0.114915006 -0.015440272
000030 76 c7 c6 bd 7b 74 db 3d a0 4c 40 be 09 91 a4 bd
       -0.09706013 0.10715576 -0.1877923 -0.08035476
000040 ee 80 98 be b1 74 c5 bc ed 1e 0d 3d 97 5a b2 bd
       -0.29785866 -0.024103494 0.03445332 -0.08708685
000050 95 8b 09 3d 69 8e a3 bd 3c a5 fd bc 9d 91 4a 3d
       0.03358038 -0.07986147 -0.030962579 0.049455274
000060 05 43 3e be 48 ac 14 bd 3a 10 3d 3e 4b ea 84 3d
       -0.18580253 -0.036297113 0.18463221 0.0649
000070 10 3e 8d 3c 7e ca 68 be 7c d5 fe bd c6 04 29 bd
       0.017241508 -0.22733495 -0.12443063 -0.041264318
000080 8c ba 76 be 49 05 d4 3c 70 a4 8d be d8 a3 93 bd
       -0.240946 0.025881426 -0.27664518 -0.07208985
000090 4e c3 40 bd 5b f8 88 bd 7a 72 0b 3e 79 89 7e bd
       -0.047061257 -0.06687995 0.13617888 -0.062142823
0000a0 97 5f 3c 3e e7 52 1f 3d 67 dd 48 be 64 79 62 3d
       0.1839584 0.03889742 -0.19615708 0.05529155
0000b0 fe ae 96 bc 79 38 19 be c9 bc 2d be 13 bd 59 bb
       -0.01839399 -0.14962949 -0.16966547 -0.003322427
0000c0 48 c4 5d 3e ac 57 5d be 6d 44 21 be 3c d6 79 be
       0.21656907 -0.21615475 -0.15748759 -0.2439813
0000d0 7c e5 60 bd 00 84 0a bd 49 ff 6e 3e e4 36 2f 3e
       -0.054906353 -0.03381729 0.23339571 0.17110783
0000e0 1d 9a 53 be d6 0d 82 3d 29 05 e2 3d f0 5a d4 bd
       -0.20664258 0.06350295 0.110361405 -0.103689075
0000f0 3b 6a da 3d b8 4f b2 3c ae b4 2f 3e 66 86 96 be
       0.10664793 0.021766528 0.17158768 -0.29399413
000100 3b ef 69 be 5e 1f 34 3e a2 ad 20 be a6 fa 3d 3d
       -0.22845165 0.1759009 -0.15691236 0.046381615
000110 f6 4d 37 3d fb ce 52 bd 44 dd 9e bd ae 16 47 be
       0.044752084 -0.051466923 -0.07757047 -0.19442245
000120 4a 3a cb bd 83 db ae be 79 85 6a 3e cf fe 41 be
       -0.09923227 -0.3415185 0.22902478 -0.18944858
000130 47 73 67 bc ea 1b da bd ec 14 88 be aa b9 23 bc
       -0.014126605 -0.106498554 -0.26578462 -0.009992996
000140 83 6e fb 3d 21 03 68 be 80 e6 84 3d 22 54 c7 3d
       0.12276938 -0.22657444 0.06489277 0.09732844
000150 e9 9f ba bc 8a 51 fe 3d f2 f9 7d bd a9 98 f6 3c
       -0.02278133 0.12417896 -0.062005945 0.03010209
000160 61 a5 00 3e 45 ae c3 bd 6d 37 ba 3d 5c f1 5d be
       0.12563087 -0.09554724 0.09092603 -0.21674103
000170 db 0b 03 3e ba 81 46 3e 64 94 6d be a6 a7 8b bd
       0.12797491 0.19385424 -0.23201138 -0.06819086
000180 1c 6a 63 3d ff b4 95 bd bd 11 91 be 95 71 81 be
       0.055521116 -0.07309913 -0.28333846 -0.2528197
000190 4c 3f ef 3d 1b f4 05 3d fa ac 75 be 1c a8 18 be
       0.11681995 0.0327035 -0.23991767 -0.14907879
0001a0 ec a2 16 3c 8b 6a b4 3d 04 29 af bd 11 85 8a be
       0.009194117 0.08809384 -0.08552745 -0.27054647
0001b0 5f 5d aa 3d 6c a9 6b 3e d8 90 8f be 2d 3f 2d 3d
       0.083185904 0.23013848 -0.28040195 0.042296577
0001c0 43 cc fc 3d ce 47 83 3d 12 6e 02 3e e9 9d ee 3d
       0.12343647 0.0641018 0.12737301 0.11651213
0001d0 d0 24 eb bd 2a dc 32 3d db 10 8d be 49 ca 13 3d
       -0.11481631 0.043666996 -0.27551922 0.036081586
0001e0 9f 8b 92 bd 10 fd 94 be 10 70 2a be 6a 84 75 bc
       -0.07155537 -0.2909932 -0.16644311 -0.014985183
0001f0 45 74 c3 3d b8 27 89 be 15 30 41 3a d7 50 fe bd
       0.09543661 -0.26788116 0.00073695305 -0.12417763
000200 47 a1 97 be c8 c7 0f 3e 25 f5 1a 3e dd d8 c0 bc
       -0.29615232 0.14041054 0.15132578 -0.023540908
000210 df 82 93 bd 1c 1d 46 bd d6 f9 43 be bb 5b 40 ba
       -0.07202696 -0.048367605 -0.19138274 -0.00073378877
000220 d5 8b 93 bd 81 07 48 bd ee 96 53 bd 0b 50 05 3e
       -0.07204405 -0.04883528 -0.05165761 0.13018815
000230 c5 ae 68 3d e4 8b 35 be 79 f6 6b 3e ce 47 f6 3d
       0.0568073 -0.17729145 0.2304324 0.120254144
000240 d8 76 01 be 59 21 8c be 72 55 5b 3d a5 d6 e7 3c
       -0.12642992 -0.27369192 0.053548284 0.028300593
000250 61 f0 d8 3c 40 cf f3 3d 76 06 c7 bd f3 89 e3 3d
       0.02648181 0.11904764 -0.09718029 0.11110296
000260 df 88 ed bd e6 9e bc bd 73 1d 17 3e 69 7f 2c be
       -0.11598372 -0.09209995 0.14757328 -0.16845478
000270 82 ba eb 3d cb 45 00 be 92 3f a9 bd b5 fa 69 3d
       0.11510183 -0.12526624 -0.08264078 0.05712386
000280 8a ce 83 be 9c c9 b4 bd 38 17 05 3d cf aa 8b bd
       -0.25743514 -0.088275164 0.032492846 -0.068196885
000290 33 d5 18 3e 76 58 73 be b1 4a 4f be 8f 44 75 3c
       0.14925079 -0.23764214 -0.20243336 0.014969959
0002a0 d8 cd ce 3d 0d d2 3d 3e 70 fc d1 bd 64 b8 a4 be
       0.10097855 0.1853716 -0.10253227 -0.3217193
0002b0 ce 77 3d be 1f 6d 42 be dc ad bc 3d 76 b9 79 be
       -0.18502733 -0.18986939 0.092128485 -0.24387154
0002c0 54 58 87 be a5 ac 0a be a2 ef 46 bd dd bd 99 bd
       -0.26434577 -0.13542421 -0.048568375 -0.07506917
0002d0 d7 60 d5 3d ab b4 58 3e ff e0 62 bc c0 62 23 be
       0.10418861 0.2116267 -0.013847589 -0.15955639
0002e0 c6 2a 1f 3e 8d 63 71 bd cd c1 6b bd 64 9f 34 3e
       0.1554366 -0.05893283 -0.05755787 0.17638928
0002f0 34 5e 4d 3d 53 21 c7 be eb 62 6d 3d 17 b5 1d 3e
       0.050138667 -0.38892612 0.057955664 0.15401112
000300 e1 49 a5 be d3 2b 46 be 59 29 a2 be a5 5a 18 3d
       -0.32282928 -0.19352655 -0.3167217 0.03719582
000310 e2 79 92 bd 26 33 cb 3d 38 de 5f be 41 df 32 3d
       -0.071521536 0.09921865 -0.21862113 0.043669943
000320 48 09 bf bd 46 53 ac bd 7f d4 26 be d6 d6 3a be
       -0.09327942 -0.08414321 -0.16291998 -0.18246016
000330 b0 23 36 be de 20 95 bd a5 d4 7d be 80 8a 35 be
       -0.17787051 -0.072816595 -0.24788149 -0.17728615
000340 05 cc 7c 3d ff 93 eb bd b8 37 51 be c5 6a b5 3c
       0.061718006 -0.115028374 -0.20431411 0.022145638
000350 8d 7d 00 be 08 f6 bb 3a 8d 88 93 bd 16 95 36 3e
       -0.12547894 0.0014340291 -0.07203779 0.1783031
000360 4b b6 37 be d3 c1 39 be 1d fa 50 be 13 71 cd bd
       -0.17940633 -0.18140344 -0.2040791 -0.10031333
000370 f4 08 ed bd c6 18 ee 3d db 88 24 3d 64 9e 38 3d
       -0.11573973 0.11625819 0.040169578 0.045072928
000380 42 31 a0 3d 26 f4 9b 3b aa 8f 82 3d f1 63 3b bd
       0.07821895 0.0047593294 0.06375058 -0.04574961
000390 ed c7 89 be a2 35 a3 bc e1 e3 8e 3d d7 d1 65 be
       -0.26910344 -0.019923035 0.06977058 -0.22443329
0003a0 09 18 cf bd b4 91 85 bd b6 36 5f 3e 3a 5f 3a be
       -0.10112006 -0.06521931 0.21798214 -0.18200389
0003b0 df 6d 14 3e 10 d6 59 be 2a b8 50 3e 7f 3f 14 be
       0.14495037 -0.21273065 0.20382753 -0.14477347
0003c0 23 65 0a be d4 50 4e be aa 3d fb 3d c9 96 e2 bd
       -0.13515143 -0.20148021 0.12267621 -0.11063916
0003d0 6a 26 bc 3d f1 fb 29 be 66 5d 81 be 3c 91 8f be
       0.091870144 -0.16600014 -0.2526657 -0.28040493
0003e0 1c a1 10 be 0f 41 19 be 88 48 74 3d 21 3b ec 3d
       -0.14123958 -0.14966224 0.059639484 0.115347154
0003f0 75 aa 4b be 87 cc 59 be 28 01 bc 3d 50 b9 40 3e
       -0.19889243 -0.21269427 0.09179908 0.18820691

_fc2.weight f4 [256, 256]
000000 05 be c8 3d 7c 4c 4a be 99 f8 4d 3e 5f 1c 01 be
       0.09801868 -0.19755739 0.20114364 -0.12608479
000010 ab e8 94 bd fe 19 0c bd 6f 2a c4 bd 83 80 19 be
       -0.072709404 -0.034204476 -0.09578406 -0.1499043
000020 f0 d0 28 be c4 fc 35 bd 56 8c 0c 3e ab e5 77 3e
       -0.16485953 -0.04443051 0.13725409 0.24208705
000030 a7 2e a0 be 32 e6 04 bd fd e1 08 bd f9 ba 6d bd
       -0.31285593 -0.032446094 -0.033418644 -0.05803964
000040 ad fb 66 bd bd b5 a2 bc d1 cb 56 3d ac 6e c0 bc
       -0.05639236 -0.01986205 0.05244047 -0.023490272
000050 cd 73 82 3b 56 c1 b3 bd cd 2e 2c 3c 2a a1 2d bd
       0.0039810897 -0.0877711 0.010509205 -0.042390026
000060 b7 1d 57 be 8f e2 70 3b f1 51 92 3c 70 84 d0 bd
       -0.21007429 0.0036756133 0.017861338 -0.101815104
000070 cf 2a 53 be cc 71 0c be 9b 80 61 3e 47 72 a2 be
       -0.20621799 -0.13715285 0.22021715 -0.31727812
000080 9b 2f 92 be 4d 41 e0 3d 57 fb d5 bc b0 68 91 3e
       -0.28551945 0.10949955 -0.026120825 0.28400183
000090 73 01 f6 bd db 10 12 3e 76 cb 40 be 19 d1 2c 3e
       -0.12011995 0.14264242 -0.18827614 0.1687664
0000a0 d1 f0 b5 be a6 59 e8 bc eb ef 4d 3c 91 78 1d be
       -0.3553529 -0.02836306 0.012569408 -0.15378024
0000b0 77 d4 be 3c 10 fa b9 3d 8c 64 04 bc 82 25 80 bd
       0.02329467 0.09080899 -0.008080613 -0.06257154
0000c0 02 8a db bc b7 41 14 3e b2 e5 cc bd fc 43 2c be
       -0.026799206 0.14478193 -0.100047484 -0.16822809
0000d0 03 0e af 3e 56 69 09 3d 3a e3 0b be f3 86 91 be
       0.34190378 0.03354772 -0.13660899 -0.2842327
0000e0 c0 4c 53 be 4f 1b eb bd 79 73 a5 3c 8a f1 05 be
       -0.20634747 -0.11479818 0.020196663 -0.13080421
0000f0 de 9a a7 bb bc a2 93 bc e8 90 47 3c fa 6c c9 3d
       -0.005114897 -0.018021934 0.012180544 0.09835239
000100 8e 7d b2 bc e4 6d 67 bd 17 69 75 3c c0 e0 36 3b
       -0.021788385 -0.056501284 0.014978669 0.0027904958
000110 50 a4 90 3d 79 b4 1a 3d 48 69 18 3e 41 87 2c 3d
       0.0706259 0.03776977 0.14883912 0.042121176
000120 c1 f5 4d 3e 44 0e 91 bc 04 7e 82 3e 0a b6 3b bc
       0.20113279 -0.017706998 0.25486767 -0.011456976
000130 cc 5a 89 be 4f 88 21 bc e9 b9 f7 3d e8 70 9d bc
       -0.26827085 -0.009859159 0.120960064 -0.019218877
000140 de 62 77 bc b0 19 32 be 09 50 ad 3b 46 af 1a 3e
       -0.015099255 -0.17392612 0.005289082 0.15105924
000150 5f 08 51 3d 3c 76 55 bd fe 99 fb be d8 de eb bc
       0.051033374 -0.05211471 -0.49140924 -0.028792784
000160 8e 1c 7f bb d7 85 bd 3a 5a eb c0 bd 0f af b8 3c
       -0.0038926932 0.0014459443 -0.0941989 0.022544412
000170 9c a2 05 3c 47 f2 9f be e0 85 cf bd b4 a6 a3 3d
       0.008156445 -0.3123953 -0.101329565 0.079907805
000180 f9 c7 88 3e 7a 0a 95 be 49 a4 17 be 9b 5a 37 be
       0.26715067 -0.29109555 -0.14808764 -0.17905657
000190 ee f6 85 bd 44 f7 a4 3c 6a 9e 0d 3b 90 72 5e bd
       -0.06541239 0.020137437 0.0021609315 -0.054308474
0001a0 95 3f 81 be eb 09 34 bd 1d a7 2d 3e a0 1f ff 3e
       -0.25243822 -0.04395477 0.1695828 0.49828815
0001b0 2d f8 49 3d 5b 05 cc bc 9e b1 be 3d 9b d0 45 bd
       0.049308944 -0.024904897 0.093112215 -0.048294645
0001c0 a3 c0 8f 3d a0 fb cf be 50 b3 03 3e 3a 13 34 bc
       0.070191644 -0.40621662 0.12861371 -0.010990912
0001d0 02 a5 3d bd a8 47 1a 3e d8 89 ae 3d e5 15 80 be
       -0.04629994 0.15066397 0.08522385 -0.25016704
0001e0 d1 54 10 bd e6 12 17 bf 34 23 18 3d 9b cd ab 3d
       -0.035237137 -0.5901321 0.037142947 0.083888255
0001f0 0a 5e 81 3d cc 5c 84 bd 4a 40 f9 bd c5 85 be be
       0.06316765 -0.06463012 -0.12170465 -0.37211433
000200 38 1b 5d 3e f3 14 48 3e ab da 58 bd cc 79 9e 3d
       0.21592414 0.19539241 -0.052942913 0.07738075
000210 2e 3c 6a 3d 26 e3 87 3e 19 4f 92 3c 52 8b 4b 3d
       0.057186298 0.26540488 0.017859982 0.049693413
000220 9b 14 c9 be e9 76 d6 3c 38 dd ff bd b0 34 fe 3c
       -0.39273533 0.026179748 -0.12493366 0.031030983
000230 f2 cc af 3d 8e 0f 04 be 61 64 38 be bd ef 0c be
       0.08584012 -0.12896559 -0.18007042 -0.13763328
000240 e1 14 2c 3f f2 5d c1 be 4f 28 df 3c f7 d2 e5 bd
       0.6721936 -0.37766987 0.0272409 -0.11221879
000250 a4 3c 76 3e 2a 33 87 bd 31 a4 58 3d a7 aa 91 be
       0.2404657 -0.06601556 0.05289096 -0.2845051
000260 21 30 af be fe 06 19 be 3e c8 1a bd c2 32 9c 3d
       -0.34216407 -0.14944074 -0.037788622 0.07626869
000270 a4 57 a3 bc 0f 11 38 be b4 2e d8 be ba cb 88 3b
       -0.019939251 -0.17975257 -0.42223132 0.0041746767
000280 8a eb dd 3d f5 cc 8c bd 71 b5 8e 3d 9a b3 0f 3e
       0.10835941 -0.0687503 0.06968201 0.14033356
000290 c6 9b 7e bd 08 38 2e bd 3f b8 cb bc 6c 27 e5 be
       -0.062160276 -0.042533904 -0.024868129 -0.4475664
0002a0 91 c8 58 bd ce 23 89 3d 21 a3 48 3e 90 80 29 be
       -0.05292565 0.06696282 0.19593479 -0.16552949
0002b0 c1 56 c1 3d e5 e7 54 be eb 1f 9c be c2 68 52 3d
       0.09440375 -0.20791586 -0.304931 0.051369436
0002c0 d3 8b f8 3c c9 f6 d6 bc 8a bf cb 3d a4 77 40 3e
       0.03034011 -0.026240723 0.099486426 0.1879564
0002d0 74 68 89 bd 60 92 44 bc 74 f7 9d be 26 06 95 3d
       -0.06709376 -0.011997789 -0.30852854 0.07276563
0002e0 84 5b a0 bf 36 af cc bd f5 94 01 3f 9e 43 e0 bd
       -1.2527928 -0.09994356 0.50617915 -0.10950397
0002f0 30 d2 77 3d a1 77 a0 3e 76 9c 58 3d 5e 81 2f 3d
       0.060503185 0.3134127 0.052883588 0.042847984
000300 22 e4 4b be ed b1 1f bf 0d 9e 33 3b 69 e4 38 be
       -0.19911245 -0.6238087 0.0027407438 -0.18055882
000310 74 00 c6 3c 60 5e 8b 3d 39 92 ea 3d a2 9e db bd
       0.024170138 0.0680511 0.11453671 -0.10723616
000320 25 02 18 be 55 5d df 3c a0 9c 3a 3f 3f a3 93 be
       -0.14844568 0.027266184 0.7289524 -0.28835484
000330 4c ac db bc b7 bf 7a 3e 0f b3 47 3b 01 f3 92 3d
       -0.026815556 0.24487196 0.0030471717 0.071752556
000340 60 85 9c bc 1f 9e c5 3c 88 97 f4 3d 8d c5 6a bd
       -0.019106567 0.02412325 0.11942965 -0.057317305
000350 2b 7f 83 be 9b 1c 5e 3d 92 21 c2 bc f7 cd bf 3b
       -0.2568296 0.0542265 -0.023697648 0.0058534103
000360 2e 0a 1b 3c a1 33 07 3e 79 d3 8a 3d fe 8c 86 bd
       0.009462876 0.13203289 0.067786165 -0.06569861
000370 a9 d7 08 3d 7b 7d a4 bc 46 bd aa 3c 0a b4 da 3d
       0.033408795 -0.020079365 0.020842206 0.10678871
000380 4f a6 b5 3e 92 6d e5 3b fa 3c 17 be e3 43 81 bd
       0.35478446 0.007001587 -0.14769354 -0.063117765
000390 a2 c3 a7 3d f6 6e 9b bc 8f 4b 5f 3d 48 00 d9 be
       0.08191611 -0.018973809 0.054515418 -0.42383027
0003a0 49 9b bd bc 3b 1b 4a 3e f2 70 07 3d 74 b3 b3 3c
       -0.023145335 0.1973695 0.033066697 0.021936156
0003b0 0c cf 80 3d 61 ca 02 3e 63 45 3d 3d ba 3a a6 be
       0.06289491 0.12772514 0.04620875 -0.3246668
0003c0 79 ad ac bd 12 da ac bf 17 78 b0 3d 55 f5 18 3d
       -0.08431525 -1.350405 0.08616655 0.03734334
0003d0 31 67 b3 be 84 48 cd 3c 5a 83 e4 be 3b 18 f1 bd
       -0.35039666 0.025058992 -0.44631463 -0.117722
0003e0 23 00 40 3d ed 6c d7 3c e4 07 90 3d 6c 83 e8 bc
       0.04687513 0.026297057 0.07032755 -0.02838298
0003f0 7a f0 63 be bc bb 97 bd 60 88 b9 bc 3b 4b 9a 3d
       -0.22259703 -0.07408854 -0.022648036 0.0753388

_fc2.bias f4 [256]
000000 3d 7f e0 bd 9e 81 9b 3c da db 2c bd 2b 80 69 3d
       -0.10961769 0.018982705 -0.042201854 0.057006996
000010 03 d3 fb bd d4 e4 e4 bc 84 99 b8 bc 53 11 23 3d
       -0.12296107 -0.027941145 -0.02253414 0.039811444
000020 9b bb af bb 45 b0 ae 3b 4c 66 29 3c 60 f3 1b 3d
       -0.0053629405 0.0053310716 0.010339331 0.038073897
000030 a3 7b b8 bd eb a5 74 bd f0 9b 82 bd 1c c3 10 bd
       -0.09007957 -0.059728544 -0.06377399 -0.03534232
000040 b0 5a 9d 3c 6d 4e 9a 3c 39 c1 39 bd 50 11 0f 3c
       0.019208282 0.018836224 -0.045350287 0.008732155
000050 7f 17 54 bd b4 fa 0f bd 12 09 f6 3c 5d 17 81 3b
       -0.05178022 -0.0351512 0.030033622 0.0039395527
000060 dd 7f 06 be e6 62 5a bd 2e b2 8c 3d 6c ba 2f 3d
       -0.13134713 -0.053316973 0.068699226 0.042902395
000070 30 78 5b bd 98 3c 90 bd ab 07 81 bb 3a 5f 0e 3d
       -0.053581417 -0.07042807 -0.0039376817 0.034758784
000080 e3 ba 4c bb d7 c9 50 bd f6 aa 7a 3d 70 ee 7d bd
       -0.0031239323 -0.05097374 0.061198197 -0.06199497
000090 49 04 2f 3a bd 06 12 bd be a2 31 bd 47 68 5c 3c
       0.0006676359 -0.035650957 -0.043368094 0.013452596
0000a0 0e 42 07 bd 4c db ab bd d4 6b 34 bd 72 9a 0f be
       -0.03302198 -0.08391437 -0.044048145 -0.1402376
0000b0 0e 28 89 bc dd 33 4b bc c4 71 77 bd 09 87 98 3c
       -0.016742732 -0.012402502 -0.06041123 0.018619077
0000c0 9d e3 15 bd 07 44 59 3d 8b c8 a3 bd 9a d1 d0 bd
       -0.036594022 0.05304339 -0.07997235 -0.10196228
0000d0 a3 2e 4e bd 9e 9c a1 bd d4 73 ef 3b af c1 07 3d
       -0.050337445 -0.078912005 0.007307509 0.033143695
0000e0 cc f4 1d be fa 72 0a bd 34 7a 86 3d 7b 13 71 bd
       -0.15425414 -0.033801056 0.06566277 -0.05885647
0000f0 c7 43 5e bd 5c 7a e6 bd 4e 19 07 bd d8 16 9e 3c
       -0.054263856 -0.11253807 -0.032983117 0.019298002
000100 52 c4 86 bd 08 a4 99 3d 0c c8 88 ba 7b 2d f1 bd
       -0.06580414 0.075019896 -0.0010435595 -0.11776253
000110 aa bd bf bd 89 e1 82 3d cc 23 55 bd 4a 7c 7c bd
       -0.093623474 0.06390674 -0.05203609 -0.06164197
000120 3f aa 89 bd c3 1a 91 bc 8b 70 02 bd 16 04 01 be
       -0.06721925 -0.017712956 -0.03184561 -0.12599215
000130 d3 e0 5b bd 79 00 b2 3c f9 64 95 3c 2e 72 aa bd
       -0.053681206 0.021728741 0.018236624 -0.08322559
000140 c8 9e 50 3d 45 27 5c bd 95 a6 bd 3d d9 37 5f 3c
       0.050932676 -0.053748388 0.092602886 0.013624155
000150 19 e6 4b bd 9b 81 0f bd 88 3d c2 bd 77 f7 fd bc
       -0.049779985 -0.03503571 -0.094843924 -0.03100179
000160 5a f5 05 bd 96 46 92 bd f5 1d 33 b8 b4 83 90 bd
       -0.03270469 -0.071423694 -4.2704825e-05 -0.070563704
000170 23 bd 96 3c 80 2b b4 bc 7e ff 89 3c 68 85 90 bd
       0.018400734 -0.021993399 0.016845461 -0.07056695
000180 f0 8c b3 bb e4 29 03 3d 03 82 a9 bc af ec 98 bd
       -0.0054794475 0.032022372 -0.020691877 -0.07467019
000190 e4 4d f1 bd 80 7c 8b bd 72 ca 59 bd d5 19 aa bd
       -0.117824346 -0.06810856 -0.053171583 -0.08305708
0001a0 9e ae 9f 39 52 da 0a bd 51 66 32 bd 2f 81 09 3d
       0.00030456943 -0.033899613 -0.043554608 0.033570465
0001b0 8f 27 1b be 09 39 84 bd bc f8 f6 bc 14 41 fe bc
       -0.15151809 -0.06456191 -0.030147903 -0.031036891
0001c0 1d df cd bd ff 30 d6 3c f8 00 a5 bd 20 a7 9c bd
       -0.10052321 0.02614641 -0.080568254 -0.07649064
0001d0 f3 7a 8b bd ad 70 03 bd 9d 8d 6b bc 4b 7f bc bc
       -0.0681056 -0.032089878 -0.014377025 -0.023009917
0001e0 90 db 70 bd 00 a6 1e bd a8 23 fd 3c cb e5 4c bb
       -0.05880314 -0.03873253 0.030900791 -0.0031264897
0001f0 b7 1b f6 3d 3d d3 22 bd 12 71 94 bd 12 82 c5 bc
       0.12017005 -0.039752234 -0.07248129 -0.024109874
000200 f6 82 40 bc 7d e4 7b 3d ea 30 dd 3c 6d ef 3a bc
       -0.0117499735 0.0614972 0.027000863 -0.011409623
000210 da e4 3a 3c 9e 4f 99 bd cb 43 dc 3c a8 c8 e4 bc
       0.0114071015 -0.07485889 0.026887795 -0.027927712
000220 dd d4 84 bd 3f 06 8e bc 86 1c 40 bd 2b 07 0a 3d
       -0.06485913 -0.017336963 -0.046902202 0.033698242
000230 25 84 2d be d0 66 1e 3d 2e 2b 6a 3c fd 0e 07 3d
       -0.1694494 0.03867227 0.014292521 0.03297328
000240 5d 54 03 bd 3e 29 90 bc 26 30 17 bd 35 d3 c9 3b
       -0.032062877 -0.01759779 -0.036911152 0.006159211
000250 13 df 76 3c eb 10 af 3b 12 9a ed bc e2 8a d3 bd
       0.0150678335 0.005342593 -0.02900413 -0.10329224
000260 cc eb 05 3e 4c c8 c2 bd 61 f2 df 3c 17 bf eb 3c
       0.1307823 -0.0951086 0.027337255 0.028777642
000270 5a b2 88 3c aa 3b c1 bc 2a d1 b0 3c 44 b8 2d 3d
       0.016686607 -0.02358802 0.021584112 0.042412058
000280 43 4c 50 3d e7 9a 14 bb 1b 4b 69 3c e6 96 ee bc
       0.05085398 -0.0022675337 0.014239098 -0.029124688
000290 00 6c 5a bd 4d eb bb bc b1 a1 8f 3c 87 12 df bc
       -0.053325653 -0.022939349 0.017533155 -0.027230514
0002a0 bc d1 b0 bd 61 c7 60 bd ee 6e 05 3b 6e 34 00 3d
       -0.08633754 -0.054877643 0.0020360309 0.0313
0002b0 6f 9d a9 bc 48 ec 71 bc 4f 98 31 3d e9 90 59 bd
       -0.020704953 -0.0147658065 0.043358143 -0.053116713
0002c0 4e 70 8e bd d6 4f 8b bd a0 91 c9 bd 88 d9 cb 3b
       -0.06955014 -0.06802337 -0.09842229 0.006221
0002d0 74 97 20 bd 33 55 88 bd 67 2a 69 bd 2e 6e ce bd
       -0.039206937 -0.066568755 -0.056925204 -0.10079609
0002e0 36 54 0b bd ae 2b ad bd 9c 95 a5 3c 26 f4 0a 3d
       -0.034015857 -0.08455597 0.02021294 0.033924244
0002f0 e8 1a 3c bd c8 d8 2a bc 93 0b 61 bd 5a b3 da bd
       -0.045924097 -0.010427661 -0.05494268 -0.1067874
000300 31 f9 5a 3c d3 f7 2c 3d 72 2d 82 bd 46 84 14 bd
       0.013365076 0.04222853 -0.06356324 -0.03625896
000310 91 f2 83 bd 24 88 ba 3b ec e4 42 bd 0e 09 58 bc
       -0.0644275 0.0056924988 -0.0475816 -0.013185753
000320 fc 07 de 3c 03 16 38 3b 43 75 82 bd 70 42 f1 bc
       0.027103417 0.0028089292 -0.06370022 -0.029450625
000330 d1 a3 5f bd b8 f5 4c 3a 05 c1 b3 bd 07 93 96 bd
       -0.054599587 0.00078185974 -0.0877705 -0.07352262
000340 3e 20 b0 bc 5b 20 28 bd b2 9a 7e bd 9f 9c 72 3c
       -0.02149975 -0.04104648 -0.062159248 0.014807849
000350 07 15 4c 3c 11 a0 92 bd c4 21 50 bb 9f 78 e6 bc
       0.012456185 -0.071594365 -0.0031758407 -0.028133688
000360 be 87 c1 bc e4 2e 34 bd 0c 47 88 bd 24 02 e8 bd
       -0.023624297 -0.04399003 -0.06654176 -0.11328533
000370 dc 75 01 bd 62 38 2d bd 62 0c 80 bd b8 80 86 bd
       -0.03160654 -0.0422901 -0.06252362 -0.0656752
000380 1f 12 bb bd f7 7b bd bc 44 62 18 bd 8b ab 95 bc
       -0.09134316 -0.0231304 -0.03720309 -0.018270275
000390 0a 29 20 bc b7 43 7b bd 05 be 6a 3c 83 67 a9 3c
       -0.0097754095 -0.061343875 0.014327531 0.020679241
0003a0 62 97 6e bd 46 16 ab bd be 03 fb bc d1 7c 89 3b
       -0.05824984 -0.08353858 -0.030641433 0.0041957875
0003b0 d1 be e8 3c b4 86 68 bd 74 2b 84 bd 1b 7c b8 bd
       0.0284113 -0.056769088 -0.064536005 -0.09008046
0003c0 4d 07 9f bd 61 6c 56 3c 7d 81 43 bd 39 15 a1 bc
       -0.077650644 0.013087363 -0.04773091 -0.01966344
0003d0 15 96 9a 3c 89 48 24 3b 5a 9d d4 bd d0 7b d4 bd
       0.018870393 0.0025067648 -0.10381575 -0.10375178
0003e0 40 7b a1 bd 03 f5 ff bc 38 ad 8d bc 86 2d 68 ba
       -0.07884836 -0.03124476 -0.017294511 -0.0008856881
0003f0 ff 21 90 3c 18 c8 3c 3a 74 13 52 3c 2b 52 d9 bc
       0.017594336 0.0007201447 0.012822021 -0.026528439

_value.weight f4 [1, 256]
000000 07 c6 52 be 75 08 65 3e db 9d c4 3c c8 fc 02 bd
       -0.20583354 0.22366507 0.024001053 -0.031979352
000010 f6 87 59 3e 78 8f 10 3e 99 f9 bb bd b8 13 9d 3d
       0.21243271 0.14117229 -0.09178466 0.07669777
000020 b5 b0 ae 3e 53 63 bd 3d 5a 19 c5 bd 48 a5 45 3d
       0.34119192 0.0924746 -0.09623976 0.048253328
000030 00 73 08 3f 31 54 bb be 27 2a 9d 38 56 7d fe 3d
       0.53300476 -0.3658767 7.494195e-05 0.1242625
000040 e6 59 5e 3b 7b b6 11 3e 48 ca 1e bc e8 7c 89 bd
       0.0033928095 0.14229767 -0.009691782 -0.06713277
000050 bf 5b 44 3c 2a 04 c2 bc 20 73 a6 3d 6c 02 b1 3e
       0.011984765 -0.023683626 0.08127427 0.3457216
000060 14 ed ac 3e b3 91 eb bc 28 cf 7e bd e7 0c 3e be
       0.33774626 -0.028755998 -0.06220928 -0.1855961
000070 14 96 09 bd 42 3b 01 3d 04 73 96 ba af 31 6c 3e
       -0.03359039 0.031550653 -0.0011478369 0.23065828
000080 70 ad 35 3e 86 60 9c bc a5 10 7b bf c3 dc fe bd
       0.17741942 -0.019088995 -0.9807227 -0.12444451
000090 b4 eb 5a bd ea 8a f5 be 62 81 a5 3d b3 0e 04 be
       -0.05344744 -0.47957546 0.080813184 -0.12896232
0000a0 8a 18 5c 3c e7 af 13 bc a9 4c 14 bd 06 64 26 be
       0.013433585 -0.009014106 -0.03620592 -0.16249093
0000b0 d7 8e 82 3e 59 5c 24 bc a4 e2 9e 3e 6d 03 52 bf
       0.25499603 -0.010031783 0.31032288 -0.8203648
0000c0 82 61 84 3e 54 b9 44 3d c2 30 aa 3e 18 85 9a be
       0.25855643 0.048028305 0.33240324 -0.30179667
0000d0 6e ec 2c 3e 5e f4 6a 3e 6e 18 64 bc 13 e6 59 3d
       0.16887066 0.22944781 -0.01392184 0.05319793
0000e0 95 cd 21 bf 12 0e 88 be 5d 75 43 be 9b a8 9a 3d
       -0.6320432 -0.26573235 -0.1908774 0.0755169
0000f0 ad 2e e0 3c d2 cb 10 bf ff 81 de 3e 45 43 67 bd
       0.027366007 -0.56561005 0.43458554 -0.056460638
000100 42 1d 6b 3d 5d 11 15 3e da ef 59 3c f4 b8 19 3f
       0.05740095 0.14557405 0.013301814 0.6004784
000110 85 75 91 3e c5 85 99 bd a1 89 cf 3e 41 6d 03 3f
       0.28409973 -0.07496218 0.4053469 0.51338583
000120 8c 5d 18 be 00 fd 41 3d 1f 01 53 bc 6e c4 05 3f
       -0.14879435 0.04736042 -0.012878685 0.5225285
000130 46 9e 40 bd 85 48 ed 3e 95 22 df bd 07 60 35 be
       -0.04702594 0.4634439 -0.10895268 -0.17712413
000140 7d b0 1e be ae 64 40 3d b5 b4 91 3c 43 af 87 3e
       -0.15497012 0.046971016 0.017786363 0.26500902
000150 a2 eb b3 bd e1 c3 95 3d 0f e0 80 3e ed 96 1b bd
       -0.08785178 0.073127516 0.25170943 -0.03798573
000160 22 8f 0c 3d d0 5f 8f bd 9b 09 c0 3d 7d 00 27 be
       0.03431619 -0.07000697 0.09376832 -0.1630878
000170 dd d8 42 be 40 b3 88 be fa 81 27 bb e7 2f 00 3e
       -0.1902804 -0.26699257 -0.002555965 0.12518273
000180 4d 46 ac 3d 30 81 8b 3d 87 30 8f bc 70 af 30 bd
       0.08411846 0.0681175 -0.017479194 -0.04313606
000190 63 7c e0 3d 6b 42 ae 3e c3 cf 1c 3e 92 fa 6d 3e
       0.10961225 0.34035048 0.1531363 0.23240116
0001a0 be 56 92 3e 3b dd 00 3d cc bb 86 be e3 5d f0 3b
       0.28581804 0.03146098 -0.26315153 0.007335411
0001b0 cf 46 b6 3d a8 d6 81 3d 66 15 10 bf a0 54 3a 3d
       0.089002244 0.063397706 -0.5628265 0.04549086
0001c0 2a 32 42 3d 5c be ad 3b f3 a2 95 be 33 64 c1 bc
       0.04741112 0.0053022336 -0.29225883 -0.023607349
0001d0 2c 34 97 bd cd 82 46 bc b4 45 32 bd 14 e9 65 3d
       -0.07382998 -0.012116146 -0.043523505 0.056130484
0001e0 59 86 c5 bd 93 a2 dd be 40 eb 61 bc 7b 4e 4b bd
       -0.096447654 -0.43288097 -0.013788998 -0.04963539
0001f0 4c 4e 69 3d 3f 85 e1 3d da 54 f7 bd d0 0d 1a bc
       0.056959435 0.11011743 -0.12076731 -0.009402707
000200 bb 10 71 3a 9d b7 89 3e 1f 35 84 3e eb aa 13 3e
       0.00091959134 0.26897898 0.25821778 0.14420669
000210 9b 61 0d bf 71 31 91 be 85 b6 8c 3c 7d de 70 bd
       -0.5522706 -0.28358033 0.017176876 -0.05880593
000220 b6 c8 78 3d 65 50 41 bd 5b 59 5e 3c 60 c5 6b bb
       0.060738288 -0.04719581 0.013571109 -0.00359758
000230 3b 11 33 3f 37 7f e4 bc 3f 6c 27 be 52 ae 90 bb
       0.69948167 -0.027892692 -0.16349886 -0.004415312
000240 5b 08 fe bd 68 d4 2b bb 19 dc 22 bf 35 78 dc bc
       -0.124039374 -0.0026219133 -0.6361709 -0.026912788
000250 41 46 26 3e 59 e4 8c 3d 50 8e 82 3c f4 ca e7 3d
       0.16237737 0.06879491 0.015937 0.11318007
000260 2b ff be 3d 10 7a b4 be d4 f6 5b bd 30 18 af bd
       0.09326013 -0.35249376 -0.05370219 -0.08549535
000270 c3 ba a8 bc 9b 99 e6 3c 51 d0 b2 bc 71 5a 02 3d
       -0.020596867 0.028149417 -0.021827849 0.031824533
000280 e5 dd 73 bd 2e 71 07 bd f5 bf 2e bd df 71 fb bd
       -0.059537787 -0.03306692 -0.042663533 -0.122775786
000290 f3 9b 16 bd 66 23 57 bd 3b a8 ff 3d b3 46 93 bd
       -0.03676982 -0.052523993 0.12483259 -0.07191219
0002a0 b4 2c 10 3d 51 c3 74 3e 13 60 ef bc d4 c7 99 3d
       0.035198882 0.23902632 -0.029220616 0.07508817
0002b0 91 d4 9b 3d 7c cf 56 3d fd 1e 8b 3d bb 53 11 3d
       0.07608903 0.052443966 0.0679302 0.035480242
0002c0 9d f6 13 3e e3 a0 20 3d 4b 05 5e be 9a 10 62 bb
       0.14449544 0.039215934 -0.21681707 -0.0034494759
0002d0 29 5d f9 bc 8c 1f 75 3d bc db f5 3a 94 19 c6 3e
       -0.03043993 0.05984454 0.0018757503 0.3869139
0002e0 26 84 6a 3c 2e ff 8b be be 29 f5 3b 1e b3 64 3d
       0.014313733 -0.27343124 0.0074817827 0.055834882
0002f0 21 52 c6 be c0 77 29 3f 3d 0f 94 be f5 dc 0d bf
       -0.38734534 0.6619835 -0.28917876 -0.5541528
000300 e2 d6 02 3e d2 9e ab bd d7 66 02 bf 73 b8 f0 bd
       0.12777284 -0.08379902 -0.5093817 -0.11753931
000310 a9 a6 87 3e 82 82 3a bd c9 2a f6 bd 19 68 cc be
       0.2649434 -0.04553462 -0.12019879 -0.3992317
000320 63 01 6f 3c 1f 59 ba bb 91 be 80 3e c7 a0 b5 3d
       0.014587733 -0.0056868936 0.2514539 0.088685565
000330 57 7d e6 be 27 f3 e0 3c 35 36 92 3d 5d ef dd be
       -0.45017502 0.027459694 0.071392454 -0.43346682
000340 77 ea 06 bf 58 38 8f be 5b cb eb 3d bb ae 1f 3d
       -0.52701515 -0.27972674 0.11513396 0.038984995
000350 6b b6 7a bc 9f f9 0b be f9 9b 5b be b9 22 76 3d
       -0.015302281 -0.13669442 -0.21446218 0.060091708
000360 73 dc a7 3d c5 ec 22 bd 79 f2 15 3f d3 a7 a9 3e
       0.08196344 -0.039776582 0.5857311 0.33135852
000370 23 bb a8 bc ed c8 5a bd da ae fc be 54 1f 68 bd
       -0.020597046 -0.053414274 -0.4935215 -0.0566705
000380 84 ff 18 3e 2f 3c 3c 3c 2a 38 8a bd f9 d0 57 bd
       0.14941221 0.011488958 -0.06748994 -0.052689526
000390 2d e0 35 3f 1c cf f5 be d6 b0 82 bc fa f5 92 3e
       0.7104519 -0.48009574 -0.015953463 0.2870329
0003a0 74 d2 0c bf 93 7c f5 3e 24 d1 3d 3f 42 d0 d3 bc
       -0.55008626 0.47946605 0.7414725 -0.025856141
0003b0 c8 cc 2a bc 22 20 a9 3e e7 30 09 3c 08 9a 24 be
       -0.0104248 0.33032328 0.008373476 -0.16074383
0003c0 6f a6 23 3b 21 f9 ae 3c bb 0b 1d bd 17 aa 8d 3e
       0.0024971028 0.021359028 -0.038341265 0.2766883
0003d0 d9 c9 a9 3d fb 21 16 be 2d 41 ca 3d 1b d9 1a 3e
       0.082904525 -0.146614 0.098757125 0.15121882
0003e0 0e cc 08 bd 13 04 d4 3b 09 a2 07 3e a2 54 5d be
       -0.033397727 0.0064702122 0.13245405 -0.21614316
0003f0 8d b1 9b bd 02 c4 73 bd 7f 79 14 bf f7 cb 49 3e
       -0.076022245 -0.0595131 -0.5799789 0.19706713

_advantage.weight f4 [3, 256]
000000 86 bd 00 be 15 f1 32 3e 3a 4d cd 3c 21 5e 98 bd
       -0.12572297 0.17474778 0.025061239 -0.07439829
000010 b2 01 d3 3d a6 90 bb 3d 63 00 00 be a6 1b c2 3c
       0.10303058 0.09158449 -0.12500148 0.023694824
000020 db 91 62 3e 61 62 4a 3d 1e ba a5 bc 94 6e 5f 3d
       0.22125952 0.049410228 -0.02023035 0.054548815
000030 5e b2 a7 3e 18 f5 3f be 4b 6f 07 bb 37 b8 9f 3d
       0.3275327 -0.1874584 -0.00206657 0.07798808
000040 82 78 e9 3c 80 6d a3 3d 55 63 5f 3d 02 cc 7b bd
       0.028499845 0.0797987 0.05453809 -0.061473854
000050 c8 b7 05 bd 03 b3 a6 3d cf 44 c7 3c e4 55 7e 3e
       -0.03264597 0.081396125 0.024324803 0.24837452
000060 ff fb 71 3e 7c b9 2b 3c 82 fd 19 bd f5 ef 01 be
       0.23631285 0.010481235 -0.03759528 -0.12689193
000070 b5 8b 06 bc b0 b9 df 3c 0e 90 45 bd 8f d3 ba 3d
       -0.00821202 0.027310222 -0.048233084 0.09122383
000080 49 29 40 3d ae 6e 59 3c 01 19 54 bf 0d b2 df bd
       0.046914373 0.013271017 -0.8285065 -0.10922632
000090 9f 01 d5 bc 71 8a 96 be 05 05 d7 3b e4 06 c8 bd
       -0.02600175 -0.29402497 0.0065618777 -0.09766939
0000a0 24 fb 9a bc 0b 28 d0 b9 7f c1 59 3d e9 32 b0 bd
       -0.018918581 -0.00039702686 0.053163048 -0.0860346
0000b0 37 b5 3a 3e ef 29 2c bd e5 d4 87 3e 24 ec af be
       0.1823319 -0.04203218 0.26529613 -0.34359848
0000c0 14 2c 22 3e 1b de 14 3d eb a8 27 3e bf 7c 52 be
       0.15837127 0.03634463 0.16373031 -0.205554
0000d0 34 de e5 3d f1 d5 0e 3e a4 0c 93 3b ec d8 1a 3d
       0.112240225 0.139488 0.004487591 0.03780453
0000e0 b1 bc 8f be c5 ff fc bd eb c6 46 be 60 57 bc 3c
       -0.28073648 -0.12353472 -0.19411819 0.022990882
0000f0 30 f3 21 3b 0c 11 c4 bd d4 53 63 3e 4e 2d 1b bd
       0.0024711601 -0.09573564 0.22199947 -0.037885003
000100 cc c0 5e 3b c2 25 a6 3d e4 35 39 3b 24 17 b4 3e
       0.0033989428 0.081126705 0.002826088 0.35173905
000110 a3 8b 71 3e 1e 06 cb bc bc 3a f9 3d 90 cf 95 3e
       0.23588423 -0.02478319 0.12169406 0.2925992
000120 13 d0 33 be 94 53 91 3c 88 ce 1f bd 48 f4 85 3e
       -0.17559843 0.017740048 -0.039015323 0.26162934
000130 8c 79 ae bc 4d 9f 83 3e 99 83 60 bd e8 2d 6b bd
       -0.021298192 0.25707474 -0.054813 -0.057416826
000140 45 b2 8b bd 0a b7 80 3d 9d f8 c8 3c 12 97 f7 3d
       -0.068211116 0.06284912 0.02453261 0.12089361
000150 3a ff 74 bd d5 74 03 3d a1 a1 20 3e 3d fe 8e bd
       -0.059813716 0.03209384 0.15686657 -0.06982086
000160 00 22 6d 3c 5d 78 81 bd 1a b1 89 3d d8 39 d9 bd
       0.014473438 -0.063217856 0.067232326 -0.10606736
000170 32 69 27 be 41 b4 12 be b8 0e 90 bd c4 ae cc 3d
       -0.16348723 -0.14326574 -0.070340574 0.099942714
000180 0c 52 46 3d 30 12 23 3c fc fe ee bc 3d ac 79 bd
       0.04841809 0.009953067 -0.02917432 -0.060955275
000190 b1 33 52 3c fb e0 13 3e 58 60 88 3d b0 66 a1 3d
       0.012829707 0.14441292 0.06659001 0.07880914
0001a0 50 29 af 3e b7 02 11 3d 81 a8 d1 bd 88 04 a3 bd
       0.34211206 0.03540298 -0.10237218 -0.07959849
0001b0 db 9d 10 3d 01 a5 dd 3c 6b 8a 84 be b8 a6 51 3c
       0.035306793 0.027056219 -0.25886855 0.0127960965
0001c0 c3 a4 8e 3c e5 63 c7 bd bb 10 58 be 69 85 8e 3d
       0.017412549 -0.0973585 -0.21100132 0.0695904
0001d0 cf 09 8f bc db a5 b8 3d de a0 3e 3e e6 9d d5 bc
       -0.017460732 0.090160094 0.18616053 -0.026076268
0001e0 29 98 c7 bd 96 bc 88 be 85 bc c3 bd 4b af 53 3d
       -0.09745819 -0.2670638 -0.095574416 0.051680844
0001f0 dc 8e 0d 3d 88 b7 db 3d 64 40 bb bd eb f1 54 bd
       0.03456007 0.10728365 -0.09143141 -0.051988523
000200 4a b2 a4 bd 55 20 21 3e d3 94 41 3e 5c 8b 07 3d
       -0.080418184 0.1573499 0.18904428 0.033091888
000210 b3 ce a1 be 37 ee 1c 3e fd e8 a1 3c 10 05 e3 3b
       -0.3160301 0.15325247 0.019764418 0.0069280937
000220 a8 b4 1f 3d f6 21 e5 3d 9c 8f 12 bd 4a f4 c2 3b
       0.038990647 0.11188118 -0.035781488 0.0059495317
000230 85 cf d8 3e 37 ea a8 bd 9a 19 d7 bc 60 88 38 b9
       0.42345825 -0.08247798 -0.026257325 -0.00017598411
000240 e0 4b 2c bd ac 9e 6a 3c a9 0b 43 be 9d c2 27 bd
       -0.042064548 0.014320057 -0.19047417 -0.040957082
000250 08 3e 92 3d fd 56 c6 3c 48 7f a0 bc 0c f0 7d 3d
       0.07140738 0.024211401 -0.019591942 0.061996505
000260 2a 32 2d 3d 64 67 50 be 32 e1 15 3d 3a e9 c6 bd
       0.04228417 -0.2035194 0.036591716 -0.09712453
000270 07 26 98 3b 01 d0 4d bc e2 e4 69 bc 4d a1 1b 3d
       0.004643205 -0.012561799 -0.014275761 0.037995625
000280 c4 58 a4 3d 9e e9 21 bd bb 83 9d bd 3f 51 6c 3c
       0.08024743 -0.039529435 -0.07691141 0.014423667
000290 49 5e 8e bb 88 b2 c8 bd 94 fe e2 3d eb 6c b4 bd
       -0.0043447358 -0.09799677 0.11083713 -0.08809837
0002a0 ec a6 40 3c 68 06 11 3e d4 d3 24 3d ef 69 2f 3c
       0.011758547 0.141626 0.040241078 0.010706409
0002b0 6d df c8 3b 8b 13 0c 3e e5 c8 39 3d 17 37 c7 3d
       0.00613015 0.1367933 0.045357604 0.097273044
0002c0 a6 1f ca 3d 3e 13 81 bd ed 82 1f be 1f 2b 8b bd
       0.09869318 -0.06302498 -0.15577288 -0.06795334
0002d0 3d 12 c7 3c 97 d7 d0 3c 17 e6 bd 38 cf 7b 79 3e
       0.024300689 0.025493426 9.05508e-05 0.24363635
0002e0 cc b0 c1 bd d3 15 62 be d4 f5 61 bd 7a ba c4 3c
       -0.094575495 -0.22078638 -0.05516608 0.0240147
0002f0 fe 2e 51 be 8a 0c a1 3e da d8 1c be e9 b8 9c be
       -0.20428082 0.3145488 -0.15317097 -0.30609825
000300 b4 5f a1 3d 74 d3 df bd 89 c5 8a be 55 a0 05 be
       0.07879582 -0.10929003 -0.27103832 -0.13049443
000310 1c 8a 55 3e 4f 3f 7a bd fa a4 da bd e7 e9 57 be
       0.20853466 -0.061095532 -0.10675998 -0.2108532
000320 fe e8 15 3d 31 0c bf bd 93 23 07 3e ec 14 71 3d
       0.03659915 -0.09328497 0.13197164 0.058857843
000330 a2 ef 3e be 72 e7 a3 bd e1 25 45 3d 6f 57 96 be
       -0.186461 -0.08003129 0.048131827 -0.29363582
000340 df 6f 29 be d1 da 0f be a9 13 1b 3d b9 c8 4b bb
       -0.16546582 -0.14048316 0.037860546 -0.0031094982
000350 7e c2 37 3d 7f 81 17 be fc b2 11 be 88 20 35 3d
       0.044863217 -0.14795493 -0.14228433 0.044220477
000360 a3 d1 40 3d bd d8 cb 3d 08 5c 39 3e 9e e5 82 3e
       0.047074925 0.09953449 0.18101513 0.2556581
000370 9d e7 88 3c 70 4b e9 bd 33 d7 56 be 7d a6 95 3b
       0.016712004 -0.11391342 -0.2098053 0.004566966
000380 3f 75 1d 3e 49 b9 c9 3b 6d 84 7b bd f0 01 f4 3a
       0.15376757 0.006156121 -0.061405588 0.00186163
000390 6c a0 cd 3e b0 dc 51 be d5 38 a4 bd fa 1a 32 3e
       0.40161455 -0.20494342 -0.08018652 0.17393103
0003a0 55 f8 87 be d9 cf 36 3e 43 e0 db 3e 35 17 da bc
       -0.2655665 0.17852725 0.42944536 -0.026622394
0003b0 b2 7b e3 ba 3a f1 61 3e f6 fd f0 bd b7 ef 7a bd
       -0.001735559 0.22064677 -0.11767189 -0.061263766
0003c0 c1 3f 98 bc 27 1f ea 3c d7 3e 2f bd 95 cf 19 bd
       -0.018585088 0.028579308 -0.042784538 -0.03755148
0003d0 01 3c 8c 3d bd c7 29 be 9e 87 ca 3c 1d 5d 1e 3d
       0.06847382 -0.165801 0.02472287 0.03866302
0003e0 59 6b 8a bc df 02 2b be f7 7e d2 3d 27 f5 29 be
       -0.01689689 -0.16700314 0.10278123 -0.16597424
0003f0 b2 08 7b bd a2 19 a5 bb ac 5e 94 be ed 75 eb 3d
       -0.06128759 -0.005038456 -0.2897848 0.11497102

_advantage.bias f4 [3]
000000 4a 0f cd 3c de 08 d6 3c 1f 13 cd 3c
       0.025031704 0.026127275 0.025033532

_out.weight f4 [3, 256]
000000 20 fe 9e 3c 8c 41 94 bc d4 ed b9 bc 78 02 33 bd
       0.019408286 -0.018097661 -0.022696413 -0.043703526
000010 24 54 f0 bc 30 91 43 3c 84 73 63 bd 80 59 a4 bc
       -0.029336996 0.011936471 -0.055530086 -0.020062208
000020 e4 d2 a6 3c 08 c6 0d 3d 56 86 0c bd 74 ac e7 bc
       0.020364232 0.034612685 -0.0343078 -0.028280474
000030 f8 50 13 bd 4c 13 30 bd 1a af 54 3d 00 f3 73 3a
       -0.03596589 -0.042987153 0.051924802 0.0009305924
000040 ec d5 a1 bc 5c a3 16 3d b4 05 61 3d 18 3c 44 bc
       -0.019755326 0.036776885 0.05493708 -0.011977218
000050 c0 1c 9a bb 88 48 84 3c 10 7b cd bc b0 cc 49 bd
       -0.0047031343 0.016147867 -0.025083095 -0.04926747
000060 64 c3 e9 3c f0 4c d6 3c 8a ba 58 3d 60 57 75 bc
       0.028535552 0.026159734 0.052912273 -0.014974445
000070 10 53 cf bc 50 13 a0 bb ce 8e 10 bd ea ff 33 3d
       -0.025308162 -0.0048851147 -0.03529244 0.04394523
000080 6c 47 ab 3c 64 98 15 3d 7c 8a 91 bc c8 4c 81 bc
       0.02090808 0.036522284 -0.01776623 -0.015783682
000090 50 f9 66 bd 2a 4d 5c 3d c0 d3 14 bc 24 98 c1 3c
       -0.056390107 0.053784527 -0.009083688 0.023632117
0000a0 88 f4 30 bd 00 90 80 b7 54 e1 f0 bc 28 9d 76 3d
       -0.043201953 -1.5325844e-05 -0.02940432 0.06020847
0000b0 e8 1f 6a bc 04 fd 66 3d d6 c5 4b 3d 7c 5c 7f bd
       -0.014289834 0.05639364 0.049749218 -0.06234406
0000c0 00 2d 90 39 8c 3d 62 3d 68 56 3a bc b0 aa d8 3b
       0.00027499348 0.055234477 -0.01137314 0.0066121444
0000d0 a4 ea 7e 3d 90 45 70 bc 8a 6a 40 bd 0e d6 37 3d
       0.06223549 -0.0146650225 -0.046976604 0.044881873
0000e0 60 b0 26 bd 46 03 3e 3d a2 fe 48 3d e0 8c 19 bd
       -0.040695548 0.04638984 0.04907096 -0.037487864
0000f0 10 f6 46 bd 50 9b be bb 88 4c 83 bc 5c 90 39 bd
       -0.048574507 -0.0058168545 -0.016027704 -0.045303687
000100 d8 79 fe bc 76 3f 4f 3d 26 4b 36 3d 2c 9c 3b bd
       -0.031063959 0.05059763 0.04450526 -0.045803234
000110 00 ec 6e bb 28 6d 66 3d d0 9f 1e bc 66 92 65 bd
       -0.0036456585 0.056256443 -0.009681657 -0.05604782
000120 6e ca 1e 3d 10 7b d3 bb 38 15 d8 bc d0 f4 9c bc
       0.03876727 -0.006453879 -0.026377305 -0.019159704
000130 e0 55 1d 3d 2e 7c 4b 3d 5e b9 36 bd 30 f2 8e 3b
       0.038411975 0.049678974 -0.044610374 0.004362367
000140 d0 33 27 3d 40 7a 1b bb b2 05 29 bd 48 d8 fd 3c
       0.040820897 -0.002372399 -0.041265197 0.03098692
000150 6a 68 33 bd 2e da 69 3d ec 14 03 3d ba b6 46 bd
       -0.04380075 0.057092838 0.032002375 -0.048514105
000160 64 11 86 bc c0 22 ea ba 10 c5 a5 3c ec 8b 12 3d
       -0.016365714 -0.001786314 0.020235568 0.03577797
000170 8e ec 1a bd 2c fc 79 bd 44 46 f2 bc 58 f1 43 3c
       -0.037823252 -0.061031505 -0.02957452 0.011959396
000180 50 83 09 3c 80 01 1e 3b 56 6e 04 3d 40 63 75 bc
       0.008393124 0.002410978 0.032331787 -0.014977276
000190 90 af 2b 3d 56 a3 52 3d 38 3a 01 bc f0 3f fb bb
       0.041915476 0.0514253 -0.007887416 -0.007667534
0001a0 f0 4a 18 3c 6c c0 82 3c a0 6d 3a 3c d2 c6 54 3d
       0.00929521 0.015960895 0.011378676 0.051947422
0001b0 c8 75 6c 3c a4 0b c0 3c 3e 06 02 bd 82 7c 7e bd
       0.014432378 0.02344305 -0.031744234 -0.06213046
0001c0 58 19 9a bc 70 b2 d7 bb 54 84 4b bd d8 f3 d0 bc
       -0.018810913 -0.0065825507 -0.049686745 -0.025506899
0001d0 00 ec 22 b9 f4 72 f6 bc 38 04 bd 3c 30 45 23 3d
       -0.00015537441 -0.03008411 0.0230733 0.039860904
0001e0 00 57 0b 3d 30 ea 26 bc 14 d1 62 3d d2 82 18 bd
       0.034018517 -0.010187671 0.055375174 -0.037234135
0001f0 8e af 18 bd ee 5e 42 3d 9e ed 36 3d bc 8e 4d bd
       -0.037276797 0.047453813 0.044660203 -0.05018495
000200 e6 3f 25 bd 1a 71 42 bd a0 b7 25 3c 6c 37 0b 3d
       -0.04034414 -0.047471143 0.01011458 0.0339884
000210 64 52 e3 bc d4 67 d4 3c 40 d9 72 3b 58 60 a1 bc
       -0.027749248 0.025928415 0.003705576 -0.01969926
000220 66 2c 0a 3d 74 86 1d bd 28 3c 78 bc a4 9b 37 bd
       0.033733748 -0.038458303 -0.015151061 -0.044826165
000230 6e 02 7c 3d 62 38 78 3d 10 01 c0 bc 68 e7 47 bd
       0.061525755 0.060600646 -0.023438007 -0.04880467
000240 c8 c0 b4 bc 6c 50 b2 3c 20 71 6e bb 18 b7 b1 bc
       -0.022064582 0.021766864 -0.0036383346 -0.021693751
000250 60 93 50 bd 50 b2 f5 bb d6 0b 54 bd 46 db 4f bd
       -0.050921798 -0.007498063 -0.0517691 -0.050746225
000260 50 4c ac bc e0 b2 21 bb b0 54 6a bc f4 33 1d bd
       -0.021032482 -0.0024673268 -0.014302418 -0.038379624
000270 a4 28 d1 3c fc 2c 2e bd 54 5e 49 3d 60 95 4c bc
       0.025532074 -0.04252337 0.049162224 -0.012486786
000280 d0 57 a8 bc 70 ce 1c bd 28 bf 46 bd 34 56 e2 bc
       -0.020549685 -0.03828281 -0.048522145 -0.027628995
000290 64 3d e9 bc ec 68 0c 3d 82 a2 37 3d 06 30 14 bd
       -0.028471656 0.03427975 0.044832714 -0.03617861
0002a0 9c 56 b0 bc 26 c2 77 3d d8 a1 03 3c 88 52 f2 3c
       -0.021525674 0.06048789 0.008034192 0.02958037
0002b0 00 82 40 bb c2 2d 5f 3d 0a fd 3a 3d ca b4 65 bd
       -0.002937436 0.054486997 0.045651473 -0.056080617
0002c0 c4 8e 9c bc f4 56 15 bd ce 6d 35 3d 7e 9f 78 bd
       -0.019111045 -0.036459878 0.04429417 -0.06069898
0002d0 f0 40 8d bc f6 46 4a 3d d4 f7 a0 3c b0 34 8f 3b
       -0.017242879 0.04938408 0.019649424 0.0043702945
0002e0 f8 4e 79 bd 42 b7 74 bd 32 06 50 bd e0 a4 0d bb
       -0.060866326 -0.05974508 -0.05078716 -0.0021613166
0002f0 38 4b 46 3d e4 3f 0b bd e8 67 57 bd ee c3 0b 3d
       0.048411578 -0.033996478 -0.052589327 0.0341224
000300 2e b5 4f bd 20 23 b9 bc 94 9f 96 bc 80 6d 39 ba
       -0.050709896 -0.022599757 -0.01838664 -0.0007073507
000310 6e 21 7a 3d 18 f7 cb 3c 0a a3 77 3d 00 27 80 3c
       0.061067037 0.024898097 0.06045822 0.015643597
000320 fa e7 5d 3d e2 34 63 bd b8 a1 41 bd ca f8 78 bd
       0.05417631 -0.055470355 -0.047273368 -0.06078414
000330 50 ba e4 bb 3a bf 56 bd 24 da 75 bd 54 7c 0b 3d
       -0.006980218 -0.05242846 -0.06002249 0.034054115
000340 10 84 bc 3c 0c 8a 93 3c 26 ff 78 3d 00 e9 9f ba
       0.023012191 0.018010162 0.060790204 -0.0012200177
000350 2e 33 54 bd 40 ca 85 3b 48 fb ba bc 44 85 c8 bc
       -0.05180662 0.004082948 -0.022824898 -0.024477609
000360 80 7a 1b 3c d0 b3 7f bd 20 f9 65 bd c6 7e 46 3d
       0.0094896555 -0.062427342 -0.056145787 0.048460744
000370 a6 33 5e 3d 60 73 13 bc f0 f0 df 3c d0 ab 60 bc
       0.054248475 -0.0089996755 0.027336568 -0.013712838
000380 78 40 24 3c 5e ea 38 bd 70 f3 1f 3c 04 7f ba 3c
       0.010025136 -0.045145385 0.00976263 0.022765644
000390 30 16 65 bd c8 37 d8 bc 08 7a 4f bd 14 8f bf 3c
       -0.055929363 -0.026393786 -0.050653487 0.023383655
0003a0 58 64 fa bc 3c 47 f0 bc ce 4a 32 bd 30 e3 cc 3b
       -0.030565426 -0.029330842 -0.04352837 0.006252669
0003b0 b0 a0 a8 bc 04 6a 98 bc c0 c8 e7 bc d0 fd 45 3c
       -0.020584434 -0.01860524 -0.028293967 0.012084439
0003c0 30 42 f4 bc 40 98 5f bc 8c 75 ef 3c e8 c6 e3 3c
       -0.029816717 -0.013647139 0.029230855 0.027804807
0003d0 0a 7d 16 3d 18 1d 49 3d e8 1c 00 3c 32 fd 20 3d
       0.03674034 0.04910001 0.007819392 0.039303966
0003e0 80 14 bc 3a e2 a6 79 3d 8c 85 b1 bc 20 ab d0 3b
       0.0014349371 0.060950167 -0.021670125 0.006368056
0003f0 28 91 1d bc d0 a5 9f 3c 80 b6 f6 ba 08 3b 37 bd
       -0.0096171275 0.019488245 -0.00188227 -0.04473403

_out.bias f4 [3]
000000 b0 f0 3d 3c 00 e2 ff ba a0 ff c0 3c
       0.011593029 -0.0019522309 0.023559391
