rl/models/v.s. Basic Bot/pong_ddqn.pth (torch, 281844 bytes, 6 tensors)

_fc1.weight f4 [256, 12]
00000000: 4813 813c 91d6 a23d 42bb b1bd 62d3 5a3b
00000010: 2e01 a53c 4183 d1be 9a8f 2b3d f202 3c3b
00000020: 0927 ae3e af17 003f eaf9 153e 2c35 9fbe
00000030: 4572 f03d c1eb e33e 2d48 103f 0e29 0a3c
00000040: d530 acbd be4a 623e d418 163e 7e34 ff3d
00000050: 7344 8abd 6cac dfbd b2c2 2e3e 402a 12bf
00000060: d015 103b ff7d 1c3e 745c 0bbf 9bb8 243c
00000070: 21df acbd 1cff c83e 2a66 04be 305e a7bc
00000080: 1244 8d3d 9395 1bbc 0e1a 89be 14d5 583e
00000090: 558b 283e 3126 eebc 23be f13e 363f d5ba
000000a0: b981 0ebe 91b2 aabe 9ddd 2cbe fd80 d7be
000000b0: 9287 b13e b0bf 8a3e b423 cd3e 9c2d 443e
000000c0: 3686 443e eabf bebe cc5b a73e 656a 14bd
000000d0: b2c6 32be 866d 6dbd 7bb7 87bd f44a ea3c
000000e0: 2f38 24be d37f b93e 45b8 a63c 2adb a63e
000000f0: f60c c9bd 8dbb 9fbc f76b aebd 144e efbb
00000100: b6c0 e73d 2d8d a13d 34b1 3c3d 3784 c13e
00000110: 7979 c5be f957 a2bd 34c9 8c3c 85c1 263e
00000120: 0f6f 913d b78b 05be e699 723e 74f9 62bb
00000130: c9ab 683d 2706 ae3e 3d35 293d 4255 96be
00000140: 2be4 e03d 6bc1 19bf 8e1b 32bd e14e 4fbe
00000150: d03c 24bd 651f d0bd 6360 afbd 614e 2fbc
00000160: fe9c bbbc dae6 49be d02d 093e 2d74 22bc
00000170: 31ab 3c3e 570e 8cbd 23ac be3d ccc2 71bf
00000180: 6121 ab3e baa5 c9be 3eee 4abe e29e 1d3c
00000190: 4d0a d4bc e319 373d aa83 46bd 8af9 ae3d
000001a0: ee50 82be 0b82 823e 942f acbd 5e42 91be
000001b0: ff33 e6bb d377 f8bd fe81 51be f7d6 e939
000001c0: eb6e 323d 35f9 2bbf b23e 553d 059e cc3d
000001d0: 345b 483d 56a8 733e 64bf 073e 792a f4be
000001e0: cf6a 47bb cfb5 85be dcaa 48be 898f 94bb
000001f0: b298 9cbd 62b4 e4bd 5477 933e 87d6 76bb
00000200: 56f8 173e aa85 70be da94 463e 4815 bfbe
00000210: fcab a5bd 1662 e4bb 9b27 dcbd fd42 a5bb
00000220: 2f10 82bd bf6d 49be 7ab9 9dbc 75fa e3be
00000230: ee47 8abc ad59 733e e0ce 2a3d 123c 8f3f
00000240: cfde 233e 9c37 9fbe cfcb a6be 19fb 51bb
00000250: 6420 dc3d a465 f43e 46b3 903e bcd8 acbb
00000260: 6a60 0e3e a524 09bf 56ab c13d 656b 99be
00000270: e963 253d d080 08be 4451 693e 8aaa 0f3e
00000280: 4c24 87be 8b0f e9bd 9db6 a33e 4084 e03e
00000290: 19e9 243d 1f20 863e 65d3 81be e9d3 e53c
000002a0: 2ac2 663d cf83 31bd f366 313e b124 253b
000002b0: 3688 2f3e 50c8 cdbc dda3 f4bd 0ce6 cf3c
000002c0: 0dfc cbbd c26e 213e b4a9 74be adb6 183f
000002d0: afeb 3f3e 47ae ecbc 7b8a 203e 0e1e 1abc
000002e0: 4377 8abd 7045 713e 6d73 4b3e 6b40 703e
000002f0: d1f2 57be 6944 92bd 9ece bfbd 0a85 383f
00000300: eb1f 083e 82a7 d23c f23b 1f3e 5b50 9dbc
00000310: f229 8ebd 53d7 e93c 990c 3fbd d0f0 bebd
00000320: 3de5 923d b4e3 2c3e 648c b03d 4b6b 3f3e
00000330: 2f34 823d aeb9 423c ac74 21be 8e56 5a3b
00000340: 04e9 eb3d 4e9d d03e 3cb9 20be 7bbe b03e
00000350: f4da 06be 2571 8bbe 482f 2bbd 9207 c5be
00000360: 9a03 f5bc d6b2 ffbe 4b08 f7bd d89c 2dbd
00000370: 6c4b 4fbd 3e8a f93d 7b07 71be 232b b83d
00000380: c41a 0dbf 3e8f 8d3e bdc4 f5bd 7b28 b6be
00000390: b9dd f63d f2a7 33be 8ed7 da3d a342 91bc
000003a0: 06a4 2a3d ab73 b53e 11ac d33e e422 963c
000003b0: b4d9 c8bc b799 2dbd 6d1a 9e3e a89d 6fbe
000003c0: 3716 c6bd af17 63be 91d4 f83d ffb5 c7ba
000003d0: 52e6 45bc b405 87bd 50ab 7bbd 8373 053d
000003e0: f703 2cbe 4ef2 7dbc 3192 d1bd f662 21be
000003f0: 6547 973d 7c05 dbbd 39eb 0fbe 334b ecbc
0.015756264 0.079510815 -0.08678295 0.0033390154 0.020142164 -0.4092045 0.041884996 0.002868828
0.34014156 0.5003614 0.14646116 -0.31095254 0.11740545 0.44515803 0.5636013 0.00843264
-0.084077515 0.22098824 0.14657909 0.12461184 -0.06751337 -0.10921559 0.17066458 -0.5709572
0.0021985658 0.15282439 -0.5443795 0.010053779 -0.08440996 0.39257133 -0.12929597 -0.020430654
0.06897749 -0.0094961105 -0.2677769 0.21175033 0.16459401 -0.029070945 0.47215375 -0.0016269449
-0.13916673 -0.3333936 -0.16881414 -0.42090598 0.34673744 0.2709937 0.40066302 0.19158024
0.19191822 -0.37255794 0.32687223 -0.03623428 -0.17458609 -0.057965778 -0.06626793 0.028600194
-0.16037057 0.36230335 0.020351538 0.32589084 -0.09816925 -0.01949861 -0.085166864 -0.007303009
0.113160536 0.07888255 0.04606743 0.37796184 -0.3856924 -0.07926936 0.017185785 0.1628476
0.07101261 -0.13041578 0.2369152 -0.003463355 0.056804452 0.3398907 0.041310538 -0.29361922
0.109810196 -0.6006076 -0.04348331 -0.20244934 -0.040097058 -0.10162238 -0.08563306 -0.010699839
-0.022902008 -0.19716969 0.13396382 -0.009915394 0.1842468 -0.068386726 0.09310176 -0.9443786
0.33423904 -0.39384252 -0.19817445 0.0096204 -0.025883818 0.044702422 -0.04846541 0.085436895
-0.2545237 0.2548984 -0.08407512 -0.28370947 -0.0070252414 -0.1213223 -0.20459744 0.00044601384
0.04356281 -0.67177135 0.052061744 0.09991077 0.048915103 0.23794684 0.13256603 -0.47688654
-0.0030428653 -0.2611527 -0.19596428 -0.0045337123 -0.07646312 -0.11167218 0.28801978 -0.003766449
0.14840826 -0.23488489 0.1939272 -0.37320924 -0.08089444 -0.0069697006 -0.10749742 -0.005043386
-0.06350743 -0.19670771 -0.019253481 -0.4452702 -0.016880002 0.23764677 0.041701198 1.1190207
0.16002963 -0.31097114 -0.3257737 -0.0032040535 0.107483655 0.47733796 0.28261775 -0.00527486
0.13903967 -0.5357154 0.09456508 -0.29964748 0.040378485 -0.13330388 0.22784907 0.14029899
-0.2639488 -0.11379918 0.3197526 0.438509 0.04026136 0.2619638 -0.25356594 0.028055148
0.056337513 -0.043338593 0.17324428 0.0025198872 0.17141804 -0.02511993 -0.11945317 0.02537825
-0.09960184 0.15764907 -0.23892862 0.5965374 0.1874225 -0.028891696 0.15677826 -0.00940658
-0.067610286 0.23561645 0.1986825 0.23462074 -0.21088721 -0.071419545 -0.09365581 0.72078
0.13293426 0.02571464 0.15550211 -0.019203356 -0.06941594 0.028545057 -0.046642873 -0.09323275
0.0717263 0.16883737 0.086205274 0.18693273 0.063576095 0.01188509 -0.15767163 0.003331575
0.115190536 0.40745014 -0.15695661 0.34520325 -0.13169461 -0.2723476 -0.041793138 -0.38482338
-0.029908944 -0.49941128 -0.12062129 -0.042385906 -0.050609037 0.12184571 -0.2353801 0.08992603
-0.55118966 0.27648348 -0.120004155 -0.3557776 0.12054009 -0.17544535 0.10685645 -0.01773197
0.04166033 0.3543981 0.41342214 0.018327184 -0.024517871 -0.042382922 0.30879536 -0.23399985
-0.09672206 -0.22177003 0.12149919 -0.0015236734 -0.012078838 -0.06592885 -0.061442673 0.032580864
-0.16798387 -0.0154996645 -0.10232962 -0.15760407 0.07386664 -0.106944054 -0.14054574 -0.028844452

_fc1.bias f4 [256]
00000000: cb95 98be fdb2 f8bc 95f0 21be 6b54 8a3e
00000010: 3caa d13c 5266 93be a646 0ebe 08cd 323e
00000020: 54df ce3d 5caf b3bd 97c7 9c3a ac5d 4bbd
00000030: 4f93 cfbd fe2b a6be bff7 82bd 1f49 94bd
00000040: a138 ba3d 9f64 a6bd 7656 b6be f66a d13d
00000050: 3817 6ebe e7be aa3c 1de9 35bd 7994 4fbd
00000060: 4a4c a1bb cec3 b0bd ea73 ba3d dd0f 27be
00000070: e987 e23c 3f0b 88bc 6983 16bd 30d3 c73d
00000080: def7 16be 8dbb 40be 98c9 96be 8e3f 80be
00000090: 31f8 23bd 71a4 e4bd 4888 143d c15b 13be
000000a0: dd2a 69be cde8 933d 772b 543e 702b 8e3c
000000b0: 0efb 9dbe ec5b 1ebe 7415 85be cbfa 5a3e
000000c0: 42a8 c2bd 07d0 393d 9baa 993d 3de6 833d
000000d0: 80bb 023e 76a6 24be dae9 56be 938d 67be
000000e0: abc5 9e3d 352a f13c e903 f0ba 78fb 9d3a
000000f0: 3e83 6ebd 721c 8fbd 4c58 183e 4005 7b3d
00000100: 8110 26be 6b8c 60bd 80a7 dfbd 7d4a 933e
00000110: 39f1 633d b8fe cd3c 2527 1c3e 9596 85be
00000120: 5662 003e 01b6 c7bc d166 a6be 0b0d 4e3e
00000130: 1419 e9bb d013 acbe c8d0 f33d f709 71bd
00000140: 159c 6dbe 08dc ec3b 6140 a5bc d5bb 93bd
00000150: 49ef 453e 66ba aaba f9ea 7cbe 460d 94bd
00000160: 9eac ad3c 0e10 46bd e21a 033d 61db 7bbe
00000170: 291a 57be b595 033e 579c 5ebe 3472 333e
00000180: 273f 93bd 0b9a efbd dd68 2fbe 4d6b ac3d
00000190: 83c2 533e 38ee 85be 3fb1 8dbd 0aa6 2fbe
000001a0: e160 b1be 7f63 263e 2647 5b3b f0c9 04be
000001b0: aba8 86be f759 303e 09b6 c83d 9169 ee3d
000001c0: 8778 1b3e cbf7 86be ff0c 573e 96c8 a5be
000001d0: 0285 153e b0ca 3f3e ddc8 bebd aa17 203c
000001e0: 3813 023e c34d fc3d 6705 65bd 03ad 9cbe
000001f0: ad3f 8bbe 903c 48be c848 fbbc 4717 6d3e
00000200: c4ac 7d3e da79 3bbd 2289 b0bd b797 d1be
00000210: ef6c 513e 247b 0d3d 61f0 bebb 9fcb 50be
00000220: b5db b2bd a009 02be c46d 1c3e d668 32bd
00000230: 4703 13be b48c 04bd c30c 733e 15bb 993d
00000240: 651b 71be f76b e0bb c782 9ebd 9a71 60be
00000250: 9b54 8abe 226f 733a e46b a3be 451a 7ebd
00000260: 2b42 40be d556 4bbe 2895 26be 8bc7 213e
00000270: 280b 94be 9e83 0ebd 3af1 25be 9059 22be
00000280: 1628 033e 6bf3 2f3e db82 04be 868c 953d
00000290: 9bd0 07bd f64f 8abc e912 f13d 3980 3bbe
000002a0: dbcc e63d 5db9 aabd f9a7 78be b90a 763d
000002b0: ef40 903c a6e8 3bbe 8739 803d 944c 6a3e
000002c0: bf5d d23d 914d 12be b86a ddbe e5a1 563e
000002d0: 3481 61bc 9b88 fb3d ead9 63be 2e86 1f3e
000002e0: e088 72bd ce6c e83d d9f5 943c 2045 353c
000002f0: 8f13 113d 4dcf 30be 534a c2bd f637 0ebe
00000300: 6697 4dbe b612 08be fe9c 11be 8d3c 5c3e
00000310: cb3f 463e 60aa 81bd eeed 3ebe 1496 83be
00000320: e485 703e adba 3cbe 2e8c f23d d9e6 82be
00000330: 3aa5 5a3d e2c4 04be 8479 b0bd 1d5a 33be
00000340: c2a7 533b e70a 733e 17f1 b6bb 2782 343e
00000350: 6d41 fa3c 32eb 85be 4874 80be a3a3 373e
00000360: 0144 733e 56b3 0bbe 11fd ad3d c692 01bd
00000370: 6853 023e 186b bd3d ebfc f83d c955 e83d
00000380: ae00 9fbd 3ea8 a8bd badf c4bd b645 17be
00000390: 0456 f33d 6490 22bc ea68 af3d b056 9b3e
000003a0: d716 d03d 9947 f0bd 7b9d 443e e8ba 7cbe
000003b0: eb50 013e 9aec 76be afd0 8cbd 9209 513e
000003c0: b5f4 63bd 52ea dabd 6f37 65bd 4390 80be
000003d0: 345e 2cbd 8e84 c4bc 4f6a 05be 5f5c d23d
000003e0: 5abc 29be 989e cdbd e082 5bbe 7a18 7abe
000003f0: 1365 e03c 4220 b9bd 24d0 3a3c 0688 84be
-0.29801783 -0.030358786 -0.15814431 0.2701753 0.02559387 -0.28789002 -0.13894138 0.17461026
0.1010119 -0.087736815 0.0011961338 -0.04964988 -0.10135519 -0.32455438 -0.0639491 -0.07240509
0.09092832 -0.08124661 -0.3561284 0.10225479 -0.23251045 0.020842982 -0.044411767 -0.050678704
-0.0049224244 -0.08631097 0.0910414 -0.16314645 0.027652698 -0.016606925 -0.036746416 0.09757078
-0.14742991 -0.18821545 -0.2945068 -0.25048488 -0.040031616 -0.11164177 0.03626278 -0.1439047
-0.22770257 0.072221376 0.20719706 0.017354697 -0.30855602 -0.15464753 -0.2599293 0.21384732
-0.09504749 0.045364406 0.075032435 0.06440399 0.12766838 -0.16079125 -0.20987645 -0.226126
0.07752546 0.029439071 -0.0018311712 0.0012053093 -0.05823063 -0.069878474 0.14877433 0.061284304
-0.16217233 -0.054821413 -0.1092062 0.28767768 0.05564997 0.025145873 0.15249307 -0.26091447
0.12537512 -0.024378778 -0.32500318 0.20122163 -0.0071135852 -0.33608866 0.11905056 -0.058847394
-0.23204072 0.007228378 -0.0201723 -0.072135605 0.19329561 -0.0013025522 -0.2469901 -0.07229094
0.021200474 -0.048355155 0.03200806 -0.24595405 -0.21006073 0.12850077 -0.21739326 0.17524034
-0.0718978 -0.11699303 -0.17129846 0.084189035 0.20679669 -0.2615831 -0.06918573 -0.17153183
-0.34644225 0.16248892 0.0033459156 -0.12967658 -0.26300558 0.17221819 0.098003455 0.11641229
0.15182696 -0.26360926 0.21001051 -0.32379597 0.1460152 0.18729663 -0.093156554 0.009771267
0.12702644 0.12319519 -0.055913355 -0.30600747 -0.27197018 -0.19554353 -0.030674353 0.23153411
0.24772936 -0.045770504 -0.08619906 -0.40936062 0.20451711 0.034541264 -0.0058269952 -0.20390175
-0.08733312 -0.12698984 0.15276247 -0.04355701 -0.14356719 -0.032360747 0.23735337 0.07506386
-0.23545606 -0.006848808 -0.077397875 -0.21918336 -0.27017674 0.00092862744 -0.31918252 -0.06203677
-0.18775241 -0.19857343 -0.16267836 0.15798776 -0.28914762 -0.03479349 -0.16205302 -0.15854478
0.1280826 0.171827 -0.12940542 0.07302193 -0.033157926 -0.016883831 0.11771185 -0.18310632
0.11269542 -0.083361365 -0.24282826 0.06006882 0.017609088 -0.18350467 0.062609725 0.22880775
0.10271787 -0.14287402 -0.43245482 0.20960195 -0.013763715 0.12281915 -0.22251096 0.15578529
-0.059212565 0.11348878 0.018183636 0.011063844 0.035419043 -0.17266579 -0.094868325 -0.13888535
-0.20077285 -0.13288388 -0.14220044 0.21507473 0.19360273 -0.063313246 -0.1864545 -0.25700438
0.23488575 -0.18430586 0.118431434 -0.25566748 0.05338023 -0.1296573 -0.08616927 -0.17514844
0.0032296036 0.23734628 -0.0055829394 0.17627774 0.030548776 -0.26156002 -0.25088716 0.17933516
0.2375641 -0.1364263 0.08495534 -0.031634115 0.1272713 0.09248942 0.12157615 0.11344487
-0.077638015 -0.08235215 -0.09612985 -0.14772686 0.118816406 -0.009922121 0.08564933 0.30339575
0.10160606 -0.11732406 0.19200699 -0.24680674 0.12628524 -0.24113694 -0.06875741 0.20413807
-0.055653293 -0.10689224 -0.05596107 -0.25110063 -0.042082027 -0.023988988 -0.13028835 0.10271525
-0.16575757 -0.10040015 -0.21436644 -0.244234 0.027391946 -0.09039356 0.011402164 -0.25885028

_fc2.weight f4 [256, 256]
00000000: 590f ce3e 88f9 8f3d 641f 87bd cf39 1abe
00000010: 3f21 623e bb42 8a3e 800f 803e 0fff 5b3e
00000020: 8f11 5bbf 25ae 8b3d 145b 9d3e fd2a 15be
00000030: 5efe 423e bea0 b53e 2e99 50be 1e1a 093e
00000040: 6b2b dabe eeb9 953c 3132 5cbf 286f 3abd
00000050: 2235 b03d 5d7f 45be fa6b 49be bcda 20bf
00000060: 9afb e93e 8dfb 103e 65f3 f7be 9e4b 853d
00000070: cfaa a13d 224d 933d 9073 0bbf 4651 e03b
00000080: 88e6 17be 6225 183d cee2 383e a28f 85be
00000090: e9d5 093e 68d5 d33d 1cb9 16bf 689e 583e
000000a0: 37c9 da3d c5b6 443e 587a 49bf a6fb 01be
000000b0: 2085 2ebd 1e33 ebbe 4d78 833e 29e2 01bd
000000c0: 6c57 c7bf b8b6 563f 2463 633c 7559 20bf
000000d0: da22 e73a 4fe6 65bc fada 90bd ad64 0cbf
000000e0: 0d77 98bd d036 f1bd cb42 d7bd 2632 01be
000000f0: a67a 98bb f7a7 f23d 7fb7 0f3e 7c40 3ebf
00000100: 7212 603e 9350 dcbe d036 9b3e ed79 313c
00000110: 9825 ac3e ded2 06bd b3c5 bebe 3376 783e
00000120: 9597 933e 32cc 9a3c 7473 603e 8995 6a3d
00000130: 86eb 833e 8648 45be f9bd 7bbf 4d45 ad3e
00000140: e1cd bebd 5651 10bd 6826 2ebc 0f6e cbbe
00000150: 4865 3ebd 9d26 9a3d 5b06 ea3c 60ec 57be
00000160: d6e8 e53c 12b7 4dbd 92c5 93bc 772d efbe
00000170: c16a 013d 3df6 7f3d 9c98 30be b193 193d
00000180: 03b7 d53e 331e a9be 794f 8dbd 17c1 27be
00000190: acae 983e b29f 58bf e8c8 a53e 8a29 fd3d
000001a0: 5e2f cabd 887a 2dbe 4161 253e 1907 7abe
000001b0: 7885 563e 4566 023e 84f5 85bd 5160 08bf
000001c0: c201 2dbf 47d1 c43e a405 d23c a1e9 183d
000001d0: 7b54 013d 122a df3e 9e54 cabc 17e3 c43d
000001e0: 7394 05be d0d7 6c3d bd54 b03e 7962 a63e
000001f0: 03bf c63e b76c 58be 4a28 a93d a082 5a3c
00000200: 247f 00bf 809a b33e 1859 7cbe fb64 63bf
00000210: 98e7 30bc 8c33 45bf a6c1 4c3d e4d2 7a3d
00000220: 3d73 a03e 0da5 9bbe 9ad6 4c3d a78a 2c3e
00000230: 15d0 98be 18a2 c23d 60d1 75bf 6677 d93d
00000240: 7969 6b3e 99e2 a03e ad4a 9b3e c521 913e
00000250: 5639 e13b fd19 0abf 0c33 753d 3ffa 343e
00000260: 0044 1bbe 4e0b e4bd 5907 713d 45ac 3fbe
00000270: 67e9 823e 1774 303d 14e1 02be 6f58 dfbd
00000280: 2f18 b83d 7891 b53e 9015 09bf f699 3ebd
00000290: f323 873b d0c5 ddbb e885 25bd 1977 143f
000002a0: 9ba2 393d 55c8 febd 0e0e 25bf 69bb 2dbe
000002b0: a00e 90bf 6080 4fbe 2c62 7d3d 19bc e2bd
000002c0: 4c52 a7bd 02d6 0dc0 1902 f03e fc66 92bd
000002d0: d324 b73b 171f 753d cc54 07be 2c48 cf3c
000002e0: 7b31 95be 50e0 bcbd ba76 3abe af5f bdbe
000002f0: b850 a7bd bc05 d4bd 0fb1 a93e d6f6 593d
00000300: dbc0 083f 51cf e13d 99ab 273e c46b db3c
00000310: f27e 91be aca8 a03d 7d5f 833d 8c3c 79bc
00000320: 2ce9 c2bb 8cfa bfbe 9889 a1be 32c4 6d3e
00000330: 2769 683d b7f5 8bbf 6a5c f8bd becb 663d
00000340: 38aa 943e d2f6 f6be 3abb 163e bbc5 fa3b
00000350: 0b1a 04be 488d f63d 5faf 92bd 3253 593e
00000360: c655 a7bd 3dde 4bbe de06 4a3d dc15 f13d
00000370: a861 7b3e 4291 a0be f6f4 913d 17e0 9a3e
00000380: b3ba e43d b094 ab3e 09fb 72be 9189 043f
00000390: f820 8f3e 06ce 243d 930e bfbc 68c8 bbbf
000003a0: 7cc8 d73d 89a2 0fbd f1f2 103c ac55 d63d
000003b0: 77fb b83b 12a5 16be f2f0 653e 0ea3 a9bf
000003c0: ecba a53d 3514 253d 4c6e 2d3e 2898 933d
000003d0: 4eb2 6dbd f5bf 973c 10de b03c 0953 653f
000003e0: 4dd2 3fbe 3f90 6abf 70a6 053f fddb 8e3e
000003f0: c067 713e ad0b 1fbc 40be a53e 8c14 b23e
0.40246084 0.07030016 -0.06597784 -0.15061115 0.22082995 0.27004036 0.25011826 0.21484016
-0.8557367 0.06820325 0.3073355 -0.1456718 0.19042346 0.354742 -0.20370933 0.13388869
-0.4261125 0.018277135 -0.86014086 -0.045516163 0.08603884 -0.19286866 -0.19670096 -0.6283376
0.4569977 0.14158459 -0.48427883 0.065085635 0.07893907 0.07192446 -0.5447321 0.006845626
-0.14834034 0.037145026 0.18055269 -0.26086146 0.13460506 0.103434384 -0.58876204 0.21154177
0.1068291 0.19210346 -0.78702307 -0.12693653 -0.042607427 -0.45937437 0.2567772 -0.031709824
-1.5573554 0.83872557 0.013878617 -0.626365 0.0017634288 -0.014031961 -0.070730165 -0.5484112
-0.07444582 -0.11778033 -0.105107866 -0.12616786 -0.0046532927 0.11848443 0.14034842 -0.74317145
0.21882036 -0.43030223 0.30315256 0.010832292 0.33622432 -0.032915942 -0.37260208 0.2426384
0.28826585 0.018896196 0.21919042 0.057271514 0.25765628 -0.19265947 -0.9833675 0.33841935
-0.09316612 -0.035233818 -0.010629274 -0.39732406 -0.046483308 0.07526896 0.028567484 -0.21086264
0.028065126 -0.050223418 -0.018038545 -0.46714374 0.03159595 0.06249069 -0.17245716 0.037494365
0.4174119 -0.33030853 -0.06899924 -0.16382252 0.29820764 -0.84618676 0.32379842 0.123614386
-0.09872316 -0.16941273 0.1615038 -0.2441677 0.20949352 0.12734325 -0.06540969 -0.5327197
-0.6758081 0.38440916 0.025637455 0.03733218 0.031574707 0.43586785 -0.024698552 0.096136265
-0.1304491 0.057823002 0.3443965 0.32497004 0.38817605 -0.21135221 0.08259638 0.0133368075
-0.50194 0.35078812 -0.24643362 -0.8882596 -0.010797404 -0.7703178 0.049989365 0.061236277
0.3133792 -0.3039936 0.050009347 0.16849767 -0.29846254 0.09503573 -0.96022606 0.106184766
0.22989453 0.3142288 0.3033041 0.28346077 0.00687329 -0.53945905 0.059863135 0.17673586
-0.15162659 -0.11134969 0.058844898 -0.1871806 0.25568697 0.043079462 -0.12781173 -0.10905539
0.08988988 0.35462546 -0.53548527 -0.046533547 0.0041241585 -0.006767966 -0.040410906 0.5799423
0.04532109 -0.12440554 -0.6447457 -0.16966023 -1.1254463 -0.20263815 0.061861202 -0.11071033
-0.08169994 -2.216187 0.468766 -0.07148549 0.0055891066 0.059844103 -0.13215941 0.025302969
-0.29139313 -0.09222472 -0.18209353 -0.36987063 -0.08169693 -0.10352656 0.33142897 0.053213917
0.53419274 0.110258706 0.16374053 0.026784785 -0.28417164 0.078446716 0.06414697 -0.015212189
-0.0059482064 -0.3749584 -0.31550288 0.23219374 0.056740906 -1.0934361 -0.121270016 0.056346647
0.29036117 -0.48235184 0.14719859 0.007652966 -0.1290056 0.12038666 -0.07162356 0.21223143
-0.08170657 -0.19908996 0.049322955 0.117717475 0.24548972 -0.31360823 0.07126801 0.30249092
0.111684225 0.33511877 -0.23728575 0.5177241 0.2795484 0.04023554 -0.02332238 -1.4670534
0.10536286 -0.035067115 0.008846984 0.10465559 0.0056452113 -0.14711407 0.22455195 -1.3252885
0.08092293 0.040302474 0.16936606 0.07206756 -0.058031373 0.01852415 0.021590263 0.89579827
-0.18732567 -0.9162635 0.5220709 0.27902213 0.23574734 -0.009707374 0.32371712 0.347813

_fc2.bias f4 [256]
00000000: 232a b7bb 8bcf f4bc 7ea2 4b3c 2141 ce3c
00000010: 39d4 90bb 49a6 da3b 18c3 8bba c634 863c
00000020: fae9 f83b 3547 da3c 9861 b9bd 3cd3 65bd
00000030: 2f1d 5a3c 079b 1ebd 5ee4 0dbd b23b 5d3c
00000040: f896 91bd a5c9 443d bfdb 303d 6a79 abbd
00000050: 692e 9bbd 0735 aebd 0530 b9bd d49a a13c
00000060: 522a 03be 67f2 0dba a872 1a3d 95b3 debd
00000070: 66ab b1bc 6e89 99bd f1f6 b8bc b59d cebd
00000080: 4483 2ebd f3d2 65bd c832 8cbd 81d5 d8bd
00000090: 726f 3cbd ea40 69bd 2388 62bc 6d8f 0b3d
000000a0: 43ae cb3d 436e 283d 538a 57bd dea9 54bc
000000b0: 2eae 89bd 1ac8 a5bd b617 99bc 87fc 8dbd
000000c0: 728a d8bc 6e2c d93d 7ad5 b8bb ea40 a23d
000000d0: 5ff3 88bd 9595 dbbc 896b 14be c359 a8bc
000000e0: 4879 ffbd 2f13 e7bb b5ec 7abd 0593 9fbd
000000f0: 9df6 a4bd 14b6 20be 57ec 6bbc fe32 1dbd
00000100: 17f5 fd3b 7c88 573c 7ea9 6bbd d414 88bd
00000110: 2fef 15bd 56c6 b2bd 738e a9bd 1160 1b3e
00000120: 559b 1cbd e816 f4bc cacc ddbd c14b eabc
00000130: 28e4 d13c f7dd 20bc 924c bc3c 3fe1 a2bd
00000140: 0e15 19bc 492c a93c 91f8 1ebd 09cd d6bb
00000150: 9384 353c 8719 13bd 7e2f 7bbd faa8 aabb
00000160: f632 cabd 90da c6bd fd75 423c f5d0 debd
00000170: 34cb c139 6c45 41bd 68e8 80bd dbe9 83bd
00000180: 04a2 f93d 9c03 d13b b091 77bd 76a8 c2bd
00000190: 6763 e8bc ea87 bdbd 4ec6 21bc 5984 93bc
000001a0: 728e a3bd f287 acbd 5b58 6f3b b492 58bd
000001b0: b7fe babd 53a1 bcbd 99e8 823c c411 80bd
000001c0: 5f2d 11be c675 efba 43dc 073d aa05 97bd
000001d0: 11ee 1cbe 2cae 5cbd ca74 513d 6989 8dbd
000001e0: 2717 273e 4ac8 9abd bd93 18bd ab0b a3bd
000001f0: ceda 93bd b1d7 1bbd 383d efbb 7339 1dbd
00000200: ab3a be3b 1294 23be ddfd 593d c6dd 99bd
00000210: e676 01be ea66 29bd f979 80bd 7580 573d
00000220: 7fb4 10be ad31 9a3c ffeb b4bc afe8 c6bd
00000230: e945 293d 6a72 59bd 61fa 07be 98f1 373a
00000240: 1513 a6bc fe8e 20bd ca9e 33bd bbf3 00bd
00000250: 9322 57bd c689 a23c 444a 34bd 0b76 1bbd
00000260: f64c 01bd e622 17be f056 a8bd ccc6 4dbe
00000270: 773f e1bc 419e fe3c 38fa 95bd 7924 c8bd
00000280: c9c0 29bc ce1a 293d 8d23 d1bd 17ac 8abd
00000290: d364 febc ff68 e4bc 68dc a53c d129 4dbd
000002a0: 777f 10be b0d8 553b cdfc fb3c cbfc 04be
000002b0: 1046 85ba 9a2e 233b 19df 383c 562b f0bc
000002c0: 7b1b 1ebe b947 cebc ab7a 66bd 8139 843c
000002d0: 215e 173d 1371 4ebd 5f66 8abd 2782 79bd
000002e0: 663f afbd f8c1 14bd 4fa8 47bd cce7 2fbd
000002f0: eaf2 afbd 8ad0 913c f6b1 6b3b 6f05 26bd
00000300: 3172 02be 35e2 35be 338e 76bb ec00 8dbd
00000310: 753a f8bc 6df4 f4bb d91a 09bd c7dd 0e3c
00000320: 938e e3bc 9b13 1c3d f36a b93d d00e d0bd
00000330: 056e 2dbd 7b25 1bbd 3e08 6cbd 1e24 81bd
00000340: a250 533a 743d 90bd 8942 75bd dc26 72bb
00000350: d854 f5bc caa1 8cbd 4ddc 913c 57d8 14ba
00000360: 1b8c 3ebd 1e85 0ebe c4bb 09bd 404b a0bd
00000370: 1982 05be bf55 3bbd cb3d d4bc 0974 c93d
00000380: b05d 453c e62d 4fbd 2d33 dabc 3542 c6bd
00000390: fbd1 d4bc 5f2d 52bc 3bcf 6bbd cd8a bebb
000003a0: 8d34 99bd a630 633d 412a 20bd 9dcb 07bc
000003b0: 750e 9cbd 04c2 39bb 3900 4c3c c6a2 48be
000003c0: 2522 a7bd f9ef 00bd 510a e93a aa4f 023d
000003d0: 1353 eabc a32a 82bd 558e d4bd de2a a9bc
000003e0: b8dd a1bd 2fbf c43d 8b4f 08bd b0f8 47bd
000003f0: 144d 91bd db22 7fbc 01fe 1abc 3bae 92bd
-0.00558974 -0.02988412 0.012428878 0.02517754 -0.00441983 0.0066726548 -0.0010663001 0.016382586
0.0075962516 0.026645282 -0.09051818 -0.056109652 0.013312622 -0.038722064 -0.034641616 0.013503002
-0.07108873 0.048043866 0.043178316 -0.08372767 -0.075772114 -0.08506208 -0.09042362 0.019727148
-0.12809113 -0.0005414844 0.037707 -0.10874096 -0.021688174 -0.07496916 -0.022578688 -0.10088674
-0.042605653 -0.05610938 -0.06845623 -0.10587598 -0.04600472 -0.056946672 -0.013826403 0.03407233
0.09945347 0.04112078 -0.05262215 -0.012979953 -0.06722675 -0.08094807 -0.018688064 -0.069329314
-0.026433203 0.106041774 -0.0056406828 0.079225376 -0.06687044 -0.026804725 -0.14494146 -0.020550614
-0.124743044 -0.0070518474 -0.061260898 -0.077917136 -0.0805485 -0.15694457 -0.0143996095 -0.038378708
0.0077501643 0.013155099 -0.057534687 -0.06644598 -0.036605056 -0.08729236 -0.08279123 0.15173365
-0.038234074 -0.029796079 -0.10830076 -0.028600575 0.025621489 -0.009818546 0.02298573 -0.079531185
-0.009343399 0.020651 -0.03881127 -0.006555204 0.011078971 -0.035913017 -0.06132459 -0.005208132
-0.09873001 -0.09709656 0.011868951 -0.10879699 0.00036963227 -0.047185346 -0.06294328 -0.06441089
0.12189105 0.006378604 -0.060441673 -0.095047876 -0.028367711 -0.09254439 -0.00987394 -0.018007444
-0.07986154 -0.08424367 0.003652117 -0.052874282 -0.09130614 -0.09210458 0.015980052 -0.062533885
-0.14177464 -0.0018269352 0.033169042 -0.07374127 -0.1532519 -0.05387704 0.05113677 -0.069109745
0.16317426 -0.07557733 -0.03725027 -0.0796121 -0.07219468 -0.038047496 -0.007300999 -0.038384866
0.0058053336 -0.15974453 0.05322062 -0.07513003 -0.12643012 -0.041357912 -0.062732644 0.05261274
-0.14131354 0.018822515 -0.022085188 -0.097123496 0.041326437 -0.05308763 -0.13279106 0.0007016896
-0.02027277 -0.039198868 -0.043852605 -0.03148244 -0.052523207 0.019841086 -0.044016138 -0.03795437
-0.031567536 -0.14759406 -0.08219707 -0.20095366 -0.027496083 0.03108132 -0.07323116 -0.097725816
-0.010360905 0.04128533 -0.10211859 -0.06771105 -0.031053936 -0.027882097 0.0202467 -0.050088707
-0.14111124 0.0032630377 0.030760193 -0.12987058 -0.0010167975 0.0024899603 0.011283659 -0.02931754
-0.1544017 -0.025180684 -0.05626933 0.016140701 0.036955003 -0.050400805 -0.06757807 -0.06091514
-0.08557014 -0.036317796 -0.048744496 -0.042945668 -0.08591254 0.017799634 0.0035964227 -0.040532526
-0.12738873 -0.17762072 -0.0037621378 -0.068849415 -0.030301312 -0.007475427 -0.03347287 0.008719868
-0.027777946 0.038104635 0.09053602 -0.10159075 -0.04234125 -0.03787754 -0.057625048 -0.06305717
0.00080610265 -0.07042971 -0.059877906 -0.0036949432 -0.029947683 -0.06866796 0.017805243 -0.0005677989
-0.046520334 -0.13917968 -0.033626333 -0.07826853 -0.1303791 -0.04573607 -0.025908371 0.09836585
0.012046263 -0.05058088 -0.02663573 -0.09680597 -0.025979033 -0.0128282 -0.057570677 -0.005814886
-0.074807264 0.055466317 -0.039102796 -0.008288291 -0.07619945 -0.0028344402 0.012451225 -0.19593343
-0.081608094 -0.031478856 0.0017779564 0.031814255 -0.028604066 -0.063557886 -0.1037871 -0.020650323
-0.079036176 0.09606778 -0.033278983 -0.04882115 -0.070947796 -0.015572275 -0.009459973 -0.07162138

_out.weight f4 [3, 256]
00000000: ef19 a93e 9783 4d3c 24dd 98bd cd76 0d3c
00000010: 4efc 4e3d aac3 9a3e 70dc 02bd 40c3 a13a
00000020: 2689 37be c9cd 173d 4b47 8bbe 79cc 22be
00000030: 219c 2bbc b6e0 99bd 4c73 b1bc 8e58 13be
00000040: 9333 bcbe 53b1 69bd a938 123e ca0f 6e3d
00000050: e952 13bd f438 5e3d 4aae 83be 741a 853e
00000060: 153e 49be df92 ce3d e1b2 36bf 5f3b 8b3e
00000070: bd95 37bc 86a6 cdbe bd7a 243d 55c4 bdbe
00000080: 8ab8 3fbd 5efc 0c3d 242c 373d 1b10 593e
00000090: 617e 3ebd 943b a2ba e5f1 febd c6af d93d
000000a0: 7e48 733d e737 473c d583 acbc a56e 2f3e
000000b0: 9711 703f 8504 c83e 0125 06be f7b5 f3bc
000000c0: 3ab0 8a3e e018 1d3d 4efe fabd 8872 86bc
000000d0: 1d6f e2bd 5612 853d 364f 613e 3085 95be
000000e0: 4d70 f53b 8763 eb3e 3269 28bd 9fd6 8a3d
000000f0: 83e7 c3be c9b8 e23e c9d3 bebe bdbd c83b
00000100: 2502 d63d 7321 003f dca5 a8be d968 99ba
00000110: 6f33 253b faab 4f3f c4b7 b7bd ea90 a93d
00000120: 00de 10bd 3bc6 1f3e 02e0 5ebe a71d 1bbd
00000130: 4a0a 98bd 6b35 bdbc 908c 3cbf 2e61 78be
00000140: a61a 1dbd b4f3 843d f765 643e 4317 9ebd
00000150: 8bef 913e a2c7 b4bd b824 3e3e 796c cebc
00000160: f62a f63e d535 8dbe 2690 113b 5507 7c3e
00000170: 45b5 17bc c030 50bd 0da7 3dbf 6c85 bd3e
00000180: 34f3 f63d 607e 1ebf 59df c93d 8031 5d3f
00000190: 5ac7 863e 8705 c6be e82e 153f 8c3e 8ebd
000001a0: 4b8d 28bf 1189 d7bd f9f4 1b3b 3cc8 f7bd
000001b0: f8a3 fb3d b3d2 74be 4d81 0e3e 0623 783b
000001c0: 3b87 ef3d 5db5 08bb 0959 423e 28d8 9bbe
000001d0: f24d 833e 7eb3 1fbe 4806 c63d 7ff5 e9bd
000001e0: abb6 c33d 6e96 83be d861 953d 9670 30be
000001f0: 0eaf 9abe 114b 0e3f 1efa b73d 4d49 22be
00000200: 5a81 a33c 5626 2f3e c69b 67be 701d 833e
00000210: bd8a d03e 4930 8c3e 4eb3 c2bd 7811 6cbe
00000220: da7a c63e e7d4 87be f382 5cbb e9c1 1dbf
00000230: bc45 45bd 221a b8bc 94ec f13e d3a3 8d3c
00000240: 273e 0c3e 960e 9a3a e37d 953e 2b94 c3be
00000250: 829b 08bf fa8a 043d 7a50 25bd 3fee 4bbc
00000260: fe85 d73e 5fb4 c13e c341 e63d aeb7 06bf
00000270: 3552 8d3c f8e1 aebd dbea dfbc e186 77be
00000280: 074f 2e3d 1d93 95bd 71b7 60be 8308 02bd
00000290: e596 ac3e 0783 d4be 3a4e 14ba 8c9e 11bd
000002a0: 299b 863e 3d04 153d bd35 303e 22b3 adbe
000002b0: 18fe d63c 41e6 50bd f7fc 59bc a014 a0bd
000002c0: 7079 813e 75a8 a0bd 7eac d0bc 2304 fd3c
000002d0: c241 0b3f da2d bcbe a92f bdbc 6a3e 56bd
000002e0: 0196 60be cdf1 bebe 6c5c 67be 0ce3 13be
000002f0: 2779 80bd cfe1 513d 503f 21bd f193 d13c
00000300: 0e9c 1dbf 7053 21bd f2c1 403e 4533 a63d
00000310: c061 873d 1cb1 3fbe 1d04 89bd d8ed 23bc
00000320: 0718 13bb 509e 7b3d 2e38 d33d 088a 86bd
00000330: ccc2 253e b294 cc3c 16d3 fcbd 1ff4 493d
00000340: 1348 8c3c 7995 ce3e 6865 efbd 4255 443e
00000350: fdc9 bebe 7c8c 7b3d 1bf9 093d d9ed b03c
00000360: 7c03 ab3b d209 e0be 4da4 583e 5d73 a23c
00000370: 103b efbe 7852 db3d cb51 373b 26cc b93c
00000380: 9871 84be 032c 2fbe b9e7 0c3d 84d2 1ebe
00000390: 7dbe 27be f55a 823d a592 4cbe cf09 f4bd
000003a0: 4a6d 273d ca83 6c3e b6c7 093d a9cf babe
000003b0: 2aa8 4fbe ea9e c93c 022c e5be 4766 223e
000003c0: c27d 38bd 87b3 a23d 939a 0b3d 3c3b 3f3e
000003d0: 98fb a6be 0ba5 dcbd eb66 d5be 5231 8d3e
000003e0: ef85 e7bc e966 4c3d 5530 f03d 79d6 8e3d
000003f0: 9a1a 2c3e 408e 50be d888 9bbd d12a 02bd
0.33027598 0.0125435805 -0.07464054 0.008634281 0.050533585 0.30227405 -0.031948507 0.0012341514
-0.17923412 0.037061486 -0.2720283 -0.15898313 -0.010474236 -0.07513563 -0.021661423 -0.1438925
-0.36758098 -0.057053875 0.14279427 0.058120526 -0.03596774 0.054253533 -0.2571891 0.25996745
-0.19652589 0.10086607 -0.713667 0.27193734 -0.011205134 -0.4016611 0.040156115 -0.37063852
-0.04680685 0.034420364 0.04471983 0.2119755 -0.046507243 -0.0012377375 -0.124484815 0.10629229
0.059395306 0.012159324 -0.021058956 0.17132051 0.9377684 0.39065948 -0.13100053 -0.029749854
0.27087575 0.0383538 -0.12255536 -0.016412035 -0.110563494 0.06497638 0.22002873 -0.29203176
0.007490194 0.4597437 -0.041115947 0.06779217 -0.38262567 0.44281605 -0.37270954 0.006126134
0.10449628 0.5005104 -0.3293904 -0.0011704221 0.0025207659 0.8112179 -0.089705974 0.08279593
-0.035367966 0.15602963 -0.2176514 -0.037870076 -0.074238375 -0.02309676 -0.7365198 -0.24255821
-0.038355492 0.06491795 0.22304522 -0.077192806 0.2850307 -0.088271394 0.18568695 -0.025198208
0.48079652 -0.27580133 0.0022211163 0.24612172 -0.009259527 -0.05082774 -0.74083024 0.37015855
0.12058106 -0.6191158 0.09857053 0.86403656 0.26323968 -0.38676092 0.582747 -0.069455236
-0.65840596 -0.1052419 0.0023797138 -0.120987386 0.12287134 -0.239085 0.13916512 0.0037862672
0.11695715 -0.0020860054 0.18979277 -0.30438352 0.25645405 -0.15595815 0.09669167 -0.11423778
0.095563255 -0.25700706 0.07294053 -0.17230448 -0.3021168 0.5558329 0.08983253 -0.15848275
0.01995914 0.17104468 -0.22618017 0.25608397 0.4073085 0.2738059 -0.09506856 -0.23053539
0.38765603 -0.2652962 -0.0033647388 -0.6162401 -0.048162207 -0.022473399 0.47250807 0.017290032
0.13695584 0.0011753615 0.29197606 -0.3819898 -0.53362286 0.0323591 -0.04035995 -0.012446939
0.42094415 0.37832925 0.11243012 -0.5262402 0.017251113 -0.08539194 -0.027333668 -0.24172546
0.042555835 -0.0730345 -0.21944977 -0.0317464 0.33708873 -0.41506216 -0.00056574086 -0.035551593
0.26290253 0.036380995 0.17208 -0.3392573 0.026244208 -0.051000837 -0.01330494 -0.07816434
0.25287962 -0.07844631 -0.025472876 0.030885762 0.54397213 -0.36753732 -0.023094015 -0.052305616
-0.21932222 -0.37293854 -0.2259385 -0.1444208 -0.06273108 0.05124074 -0.03936702 0.02558324
-0.61566246 -0.039386213 0.18823984 0.08115248 0.06610441 -0.18719906 -0.06690238 -0.010005437
-0.0022444741 0.061430275 0.1031345 -0.06569296 0.1618759 0.024973247 -0.12344949 0.049305078
0.017124211 0.40348414 -0.116892636 0.19173148 -0.3726348 0.061413273 0.03368483 0.02159779
0.005218921 -0.43757492 0.21156426 0.0198304 -0.4672475 0.10709089 0.0027972336 0.022680353
-0.25867915 -0.17106633 0.034400675 -0.15509993 -0.1638126 0.06365005 -0.19977815 -0.11915933
0.04087571 0.23097149 0.033637725 -0.36486557 -0.20278993 0.024611909 -0.44760138 0.15859328
-0.045041807 0.079443984 0.03408296 0.1867494 -0.32613826 -0.10773667 -0.41680083 0.2757669
-0.028262107 0.04990283 0.117279686 0.06974501 0.16807023 -0.20366764 -0.0759446 -0.031779114

_out.bias f4 [3]
00000000: a94d 143e d734 153e 51ab 103e
0.1448275 0.14570938 0.14127852
