rl/models/single_agent/pong_dueling_ddqn_vs_BASIC_BOT.pth (torch, 286940 bytes, 9 tensors)

_fc1.weight f4 [256, 12]
0	0x3e32439a	0.174086
1	0xbec8a146	-0.39185542
2	0xbd241cdc	-0.040066585
3	0xbc8c1269	-0.017098622
4	0xbe6dc8fe	-0.23221204
5	0x3d9ef58a	0.077616766
6	0x3eb28439	0.34866503
7	0xbe186481	-0.14882089
8	0xbeb6cfce	-0.35705417
9	0x3eb8111a	0.35950547
10	0xbddfab8f	-0.10921394
11	0xbe8b5d31	-0.27219537
12	0x3e54bd15	0.20775254
13	0xbe2aa30e	-0.16663763
14	0x3ed43e37	0.41453716
15	0xbccc0254	-0.024903454
16	0x3d3b738d	0.045764495
17	0xbece404b	-0.40283427
18	0xbef0a0d6	-0.46997708
19	0xbe5080b7	-0.20361601
20	0x3d91c0f3	0.0711688
21	0x3e2912c5	0.16511066
22	0xbdd34482	-0.10315801
23	0xbe873a65	-0.2641174
24	0x3ddb5f4b	0.10711535
25	0x3e94fc3a	0.29098684
26	0xbdb44a28	-0.08803207
27	0xbbc1a982	-0.0059100995
28	0x3c5427d5	0.01294895
29	0xbeff072c	-0.4981016
30	0xbe5449ff	-0.20731352
31	0xbe95917a	-0.29212552
32	0xbeddb91a	-0.43305284
33	0xbd8fe096	-0.07025258
34	0xbdbcbc8b	-0.09215649
35	0xbe4fb492	-0.20283726
36	0x3ddf3a7b	0.10899826
37	0x3e4c0db0	0.19927096
38	0x3f2b5af9	0.6693569
39	0x3bb39adc	0.005481107
40	0xbe24aec7	-0.16082297
41	0xbe9e1586	-0.30875796
42	0x3ddab093	0.1067821
43	0x3e044f5a	0.12920895
44	0x3d4f2186	0.05056908
45	0x3ea4d603	0.32194528
46	0x3b3f7bd1	0.0029218087
47	0x3f431b04	0.762131
48	0x3cdc403c	0.026886098
49	0xbc56257a	-0.013070459
50	0xbe840e23	-0.25792035
51	0xbabc39df	-0.0014360509
52	0x3d1dd6e5	0.038535018
53	0xbe82db7b	-0.25558075
54	0x3e2ddee8	0.16979563
55	0x3cd79667	0.026316835
56	0x3c6a5277	0.014301888
57	0x3e8fda52	0.28096253
58	0x3dfb702a	0.12277253
59	0xbe260017	-0.16210972
60	0xbda82a8d	-0.08211241
61	0x3ea276f8	0.3173139
62	0xbe4d48d4	-0.20047313
63	0x3c290bfe	0.010317801
64	0xbe82947a	-0.25503904
65	0xbd645223	-0.055742394
66	0xbe1309bc	-0.14359182
67	0xbb8c8099	-0.004287791
68	0xbe06f059	-0.13177623
69	0x3dc8a903	0.097978614
70	0xbe83bd91	-0.25730565
71	0x3c6be871	0.01439868
72	0xbda6c699	-0.08143348
73	0xbebaa34b	-0.36452708
74	0x3dd42975	0.1035947
75	0xbc9fc414	-0.019502677
76	0xbe39dc7b	-0.18150513
77	0xbe149c2b	-0.14512698
78	0xbd700152	-0.05859501
79	0x3c007cd8	0.007842265
80	0xbddaaa83	-0.10677054
81	0xbda4dd6e	-0.08050047
82	0xbe8af286	-0.27138156
83	0xbcb91c4d	-0.022596503
84	0x3dd7f68b	0.10545071
85	0x3efac64e	0.4897942
86	0x3e0635de	0.13106486
87	0x3c46064e	0.012086464
88	0xbdfec141	-0.12439204
89	0x3ceecdba	0.029150832
90	0xbe101aa4	-0.14072663
91	0x3d06aea3	0.03288139
92	0x3c15c1c6	0.0091404375
93	0xbeff711c	-0.49890983
94	0x3d299143	0.041398298
95	0xbe840caf	-0.25790927
96	0xbd417595	-0.047231276
97	0x3ec0404f	0.37549064
98	0xbe840142	-0.2578221
99	0x3b38e597	0.0028213018
100	0xbe842c69	-0.25815132
101	0xbdd49273	-0.103794955
102	0xbf2f0d58	-0.68379736
103	0xbd78e8fe	-0.060769074
104	0xbe96b723	-0.29436597
105	0xbeefd1e3	-0.46839818
106	0xbe1372b4	-0.14399225
107	0x3e9a7d71	0.3017383
108	0x3d774712	0.060370512
109	0xbd9e107e	-0.077179894
110	0x3baaaa46	0.0052082865
111	0x3bb88bc2	0.005631895
112	0x3dbfb5d7	0.09360855
113	0xbf1c6441	-0.61090475
114	0xbbd6b5c3	-0.0065524294
115	0xbeb8dcd8	-0.3610599
116	0xbc517fed	-0.012786848
117	0x3defb51b	0.11704465
118	0xbd33a42b	-0.043857735
119	0xbde7d21b	-0.11319371
120	0x3da7c71c	0.08192274
121	0xbd266232	-0.04062099
122	0x3f0c8276	0.5488657
123	0xb9fb1c23	-0.00047895414
124	0x3e813da6	0.25242347
125	0x3d9c4333	0.07630005
126	0xbcb4fbf5	-0.022092799
127	0x3ea5797f	0.32319257
128	0xbd351f48	-0.044219285
129	0xbe36edde	-0.17864177
130	0x3d81c8c9	0.06337125
131	0xbf818423	-1.011845
132	0x3e58390c	0.21115512
133	0xbe393889	-0.18087973
134	0x3e98d652	0.29851013
135	0xbbce34fa	-0.0062929364
136	0x3e1e7492	0.15474156
137	0xbb2ac1d5	-0.0026055474
138	0xbd5daed4	-0.054121807
139	0x3b9098b5	0.0044127353
140	0x3e8665e1	0.26249602
141	0xbe892625	-0.26786914
142	0x3ea9a1e2	0.3313132
143	0xbf6dc239	-0.92874485
144	0x3e438696	0.19094309
145	0x3dd4416a	0.10364039
146	0x3dab5646	0.08366065
147	0xbcece7eb	-0.02891918
148	0x3b969ee8	0.00459658
149	0x3d71e6e6	0.059058093
150	0x3d6ce8ee	0.057839327
151	0x3ddb2218	0.10699862
152	0xbf044cfa	-0.51679957
153	0xbe613b2e	-0.21995232
154	0xbdf74f48	-0.120756686
155	0xbe89dc17	-0.26925728
156	0xbd8c450d	-0.06849108
157	0x3df5a603	0.11994555
158	0xbe8ca693	-0.27470836
159	0x3c15d462	0.009144874
160	0xbe744001	-0.2385254
161	0x3d897123	0.06711032
162	0x3e42df9f	0.19030617
163	0x3e8c66a1	0.2742205
164	0xbe5cfacc	-0.21580046
165	0xbe83693f	-0.25666234
166	0xbe3624b5	-0.1778744
167	0xbf715776	-0.9427408
168	0x3e42bc63	0.19017176
169	0x3de5e57b	0.112254106
170	0xbcad6e4a	-0.021170754
171	0x3c4d3a1f	0.012526064
172	0x3da52404	0.0806351
173	0xbe94cb8a	-0.29061538
174	0xbe40b2cb	-0.18818204
175	0xbd5e4b35	-0.05427094
176	0xbe7ea7a2	-0.24868634
177	0xbe4c6b55	-0.19962819
178	0x3db2d2fb	0.087316476
179	0x3ee85e14	0.45384276
180	0x3eba5e57	0.364001
181	0x3d0422f8	0.03225991
182	0xbe8ff629	-0.28117493
183	0xbba86485	-0.005138936
184	0xbe0e1c5c	-0.13878006
185	0xbd6b8db4	-0.057508186
186	0x3ebff713	0.3749319
187	0xbd4f472b	-0.05060498
188	0x3e865743	0.2623845
189	0xbeb00c0f	-0.343842
190	0x3e680755	0.22659047
191	0x3efc16a6	0.4923603
192	0x3ebf60f8	0.3737867
193	0x3df8b1f7	0.12143319
194	0xbc2e21cf	-0.010628178
195	0xba624902	-0.0008632095
196	0x3bdefe5a	0.0068052234
197	0xbe4b4d71	-0.1985376
198	0x3e98e9f6	0.29865998
199	0xbdf19c1d	-0.11797354
200	0xbe3d2c98	-0.18474042
201	0x3d9d33de	0.076759085
202	0xbdf535a5	-0.119731225
203	0xbed08fbe	-0.40734667
204	0x3e8c52a2	0.27406794
205	0x3e0e4ce9	0.13896526
206	0x3d68a248	0.05679539
207	0x3e4d8638	0.20070732
208	0xbe55be3a	-0.20873347
209	0x3e20f1ce	0.15717241
210	0xbd304b00	-0.043040276
211	0xbddbab00	-0.10725975
212	0x3c07d26c	0.008289915
213	0xbe1fa9fd	-0.15592189
214	0xbdab48ce	-0.08363496
215	0xbe207d43	-0.15672784
216	0x3e2a5225	0.16632898
217	0x3de480a0	0.11157346
218	0x3ea89838	0.32928634
219	0xbc14156a	-0.009038309
220	0xbe2b8173	-0.167486
221	0xbe3cb886	-0.18429765
222	0xbefeaa42	-0.4973927
223	0x3e97346f	0.2953219
224	0x3e02ea46	0.1278468
225	0x3e7da4fb	0.24769966
226	0xbe1b4f09	-0.15166868
227	0x3f95467b	1.1662134
228	0x3d77145c	0.06032215
229	0x3ce50562	0.027956668
230	0x3e809b58	0.25118518
231	0x3a84bf41	0.0010127799
232	0xbe47cdfa	-0.19512168
233	0xbe2c3da2	-0.16820386
234	0x3d6dbb92	0.05804021
235	0xbdb0ace8	-0.08626729
236	0xbe68645f	-0.22694539
237	0xbe6e4f51	-0.23272444
238	0xbe362fa6	-0.17791614
239	0xbf09ae4e	-0.5378159
240	0xbd888bfe	-0.066673264
241	0xbe5ed017	-0.21759067
242	0x3ea66f33	0.32506713
243	0xbc53e992	-0.0129341055
244	0xbe19d325	-0.15021951
245	0xbedf8355	-0.43654886
246	0xbe6c4b2c	-0.23075551
247	0xbeac819b	-0.3369263
248	0xbdf62a34	-0.12019768
249	0x3d9133cc	0.070899576
250	0xbc0f137f	-0.008732676
251	0xbc030f80	-0.007999301
252	0xbe032a1f	-0.12809037
253	0xbc2899a2	-0.010290535
254	0xbd275aee	-0.0408582
255	0xbb0029ff	-0.0019556282

_fc1.bias f4 [256]
0	0x3ddf2f1c	0.10897657
1	0x3d83652c	0.064157814
2	0xbeb3a385	-0.35085693
3	0xbcbfbfb4	-0.02340684
4	0xbbc1ed07	-0.0059181484
5	0xbd98ddd9	-0.07464189
6	0xbe8c9922	-0.2746058
7	0x3d57eec1	0.052717928
8	0xbc6400da	-0.013916219
9	0xbdcb6d68	-0.09932977
10	0xbe749666	-0.23885497
11	0xbd8d8786	-0.06910615
12	0xbe26410a	-0.16235748
13	0x3cb7416d	0.022370065
14	0xbe856039	-0.26049975
15	0x3e2a9793	0.16659383
16	0x3cc1a8f9	0.023640143
17	0xbe66d45e	-0.22541949
18	0xbe261ef7	-0.1622275
19	0x3d3c5291	0.04597718
20	0xbe02d059	-0.12774791
21	0xbe8e5fc6	-0.27807444
22	0x3df1c77b	0.11805626
23	0x3e67f85e	0.22653338
24	0xbca82d2c	-0.020529352
25	0xbde3f4dd	-0.11130688
26	0xbcf1a915	-0.02949957
27	0xbd1c556a	-0.038167395
28	0xbdc946bc	-0.09827945
29	0xbe8dc8c2	-0.2769223
30	0x3ccd2421	0.025041642
31	0xbd834f18	-0.0641157
32	0xbe85b8e8	-0.26117635
33	0xbcb2fd28	-0.02184923
34	0xbe2c2aa6	-0.16813144
35	0xbdb19f21	-0.086729296
36	0xbd085ed1	-0.03329355
37	0xbdeaf48d	-0.114724256
38	0xbeaeaa6c	-0.34114397
39	0xbe0404f7	-0.12892519
40	0xbe510c83	-0.20414929
41	0x3d8e7963	0.069567464
42	0x3e2d6622	0.16933492
43	0xbe07f3f1	-0.1327665
44	0xbe9c9ab3	-0.30586776
45	0x3e3e44ee	0.18580982
46	0xbe9277a7	-0.28606912
47	0x3d883a4a	0.06651743
48	0xbe80387b	-0.2504309
49	0xbdfe8405	-0.124275245
50	0xbda92398	-0.08258742
51	0xbe44ca8c	-0.1921789
52	0x3e4b8955	0.19876607
53	0x3d67e559	0.056615207
54	0x3d3c4e24	0.04597296
55	0xbd847fa2	-0.064696565
56	0x3da0a3e8	0.07843763
57	0xbe35d657	-0.17757545
58	0x3d98488d	0.07435713
59	0x3e93ad27	0.28843042
60	0xbe1f84e6	-0.1557804
61	0xbe90f90d	-0.2831501
62	0xbdbbf682	-0.09177877
63	0x3e018893	0.12649755
64	0x3dbe24d5	0.09284369
65	0xbd916ef1	-0.071012385
66	0xbd94f500	-0.072732925
67	0xbd0b97e1	-0.03408039
68	0xbe4dd641	-0.20101263
69	0x3e054a7b	0.13016693
70	0xbe6f3bb3	-0.23362617
71	0xbe7fef92	-0.24993733
72	0xbd204114	-0.039124563
73	0x3c09889f	0.008394389
74	0xbc605a84	-0.013693456
75	0x3cfcce13	0.030859983
76	0x3deb6515	0.11493889
77	0xbe08a14b	-0.13342778
78	0x3e9932bf	0.2992153
79	0x3df495b5	0.11942617
80	0x3e8c8263	0.27443227
81	0xbcbb3e08	-0.022856727
82	0xbd9be8c7	-0.07612758
83	0xbe8e4f62	-0.2779494
84	0xbd2f99b4	-0.042871192
85	0xbe93e7e2	-0.2888785
86	0x3cc2212f	0.023697464
87	0x3dbb95fb	0.09159466
88	0x3e7b4186	0.24536714
89	0xbe09d60e	-0.13460562
90	0xbd9a3985	-0.07530502
91	0xbdb772b4	-0.08957425
92	0xbe851d5c	-0.25998962
93	0xbce3b0ea	-0.02779432
94	0xbe26fbde	-0.16307017
95	0xbdc6d29e	-0.09708141
96	0x3d9fad29	0.077966996
97	0xbe43bf98	-0.19116056
98	0xbd90e6d6	-0.070752785
99	0xbdbf75fb	-0.09348675
100	0xbce8dc82	-0.028425459
101	0x3e1e2ba0	0.15446329
102	0xbe947cfb	-0.29001603
103	0xbe91d81c	-0.2848519
104	0x3d41e6f7	0.047339406
105	0xbeab206b	-0.3342317
106	0xbdcac3c4	-0.099006206
107	0xbd3acf9e	-0.045608155
108	0x3e152ab1	0.14567067
109	0x3da47eda	0.080320075
110	0x3e3e4a5e	0.18583056
111	0xbe2c628e	-0.1683447
112	0x3e36d6c1	0.1785536
113	0xbdc0859e	-0.094004855
114	0x3d992f81	0.07479764
115	0xbd8b4e96	-0.068020985
116	0xbe7927db	-0.2433161
117	0xbe25fb82	-0.16209224
118	0xbc910748	-0.017703667
119	0xbe6f514b	-0.23370855
120	0x3e51e009	0.20495619
121	0xbe96e297	-0.2946975
122	0x3d9a4acc	0.075337976
123	0x3deeab26	0.11653738
124	0xbe2c380a	-0.16818252
125	0xbd99661b	-0.07490178
126	0xbeb4fe5d	-0.35350314
127	0xbe5c3bc8	-0.2150718
128	0x3ce84a29	0.028355675
129	0xbe517b8d	-0.20457287
130	0xbcb31f68	-0.021865562
131	0x3e0a6967	0.1351677
132	0x3e15b55c	0.14619964
133	0xbd2f93dd	-0.042865623
134	0x3d27430b	0.04083542
135	0x3cd82b25	0.02638776
136	0xbdd6a33a	-0.10480352
137	0x3e61a2e4	0.22034794
138	0x3e002130	0.1251266
139	0xbe113736	-0.14181218
140	0x3de90eb1	0.11379755
141	0x3d4a2b69	0.049357805
142	0xbe99eb10	-0.3006215
143	0x3e4aa113	0.19788007
144	0xbe3867fa	-0.18008414
145	0x3e0ec453	0.13942079
146	0x3e079895	0.13241799
147	0xbe2edd4e	-0.17076609
148	0xbe550814	-0.20803863
149	0xbe884c8a	-0.26620895
150	0xbd301d39	-0.04299662
151	0xbe7d108b	-0.24713342
152	0x3d7c6a02	0.061624534
153	0x3e27e6c8	0.1639663
154	0xbe9e3e38	-0.30906844
155	0xbe33d51c	-0.17561764
156	0xbe42f928	-0.19040358
157	0x3d3c2964	0.04593791
158	0xbeaa8e46	-0.3331167
159	0xbeada539	-0.33915117
160	0x3ce9ace1	0.028524818
161	0xbd9bc693	-0.076062344
162	0xbdb216a7	-0.08695727
163	0xbd665cb2	-0.056240745
164	0xbdb95053	-0.09048524
165	0xbe0d7b19	-0.1381649
166	0xbe658f03	-0.22417836
167	0xbd5b12ea	-0.053484835
168	0x3dfeb42c	0.12436709
169	0x3e4e3d93	0.20140676
170	0x3d44f0af	0.048081096
171	0x3e56b7e6	0.20968589
172	0xbe57f9e3	-0.21091418
173	0x3d71487e	0.058907025
174	0xbe1b7066	-0.15179595
175	0xbe3be4c8	-0.18348992
176	0xbea56d48	-0.32309937
177	0x3df96970	0.12178314
178	0xbd80c643	-0.062878154
179	0xbda92411	-0.08258832
180	0xbd35d455	-0.04439195
181	0xbda2f8c1	-0.07957602
182	0x3d0b4bd9	0.03400788
183	0xbe5d3d98	-0.21605527
184	0xbb9f3382	-0.004858435
185	0x3d9838cc	0.07432708
186	0xbdd5cbf3	-0.10439291
187	0xbe1c52d4	-0.15265971
188	0xbca9ba13	-0.02071861
189	0xbdc9b2cb	-0.09848555
190	0xbc42c013	-0.011886614
191	0x3e99b17a	0.30018216
192	0xbe189be1	-0.14903213
193	0x3d7b5362	0.061358817
194	0xbe5d15b7	-0.21590315
195	0xbe2f499e	-0.17117926
196	0xbdb9e59a	-0.09076996
197	0xbe9373b7	-0.2879922
198	0x3b07e80b	0.0020737674
199	0xbd8f68a7	-0.07002383
200	0x3e1139bf	0.14182185
201	0xbe936a70	-0.28792143
202	0x3d265e04	0.040617004
203	0x3dc624e1	0.09675003
204	0xbe599022	-0.21246389
205	0xbe2980f1	-0.16553093
206	0x3c2bf5ee	0.010495646
207	0x3e3d02bc	0.18458074
208	0x3e2a0050	0.16601682
209	0xbe8758c9	-0.26434925
210	0x3d03c49f	0.032169934
211	0xbe8a7768	-0.27044225
212	0x3d3731fd	0.044725407
213	0xbddad787	-0.1068564
214	0xbe481ebd	-0.19542976
215	0xbe05f0de	-0.13080165
216	0xbe6cb94f	-0.23117565
217	0xbd20de3a	-0.03927443
218	0xbe344630	-0.176049
219	0x3dba355c	0.09092209
220	0xbd11a9c6	-0.0355623
221	0xbe1781c1	-0.14795591
222	0xbd8ebf78	-0.069701135
223	0x3e3218c2	0.17392257
224	0xbc5fcac9	-0.013659188
225	0x3e1c95ea	0.15291563
226	0xbe742e16	-0.23845705
227	0xbe025b5e	-0.12730166
228	0xbe9823ee	-0.29714912
229	0xbda1ba67	-0.078968816
230	0x3e78245a	0.24232617
231	0x3cf58ec3	0.0299753
232	0xbe557c73	-0.20848255
233	0xbc82518d	-0.015908027
234	0x3b66ec71	0.0035236145
235	0xbe42ca93	-0.19022588
236	0xbd8aeb77	-0.067831926
237	0x3d8619b5	0.06547872
238	0xbe80db16	-0.2516715
239	0x3d9d9a21	0.076954134
240	0x3d03e152	0.032197304
241	0xbe1b5324	-0.15168434
242	0x3e087258	0.13324869
243	0xbe86ef5d	-0.26354495
244	0xbdeae2ae	-0.11469017
245	0xbcc8ca27	-0.024510456
246	0x3ddda413	0.1082231
247	0xbe50dabb	-0.20395939
248	0xbe9290e2	-0.28626162
249	0x3daec040	0.085327625
250	0xbdfbc032	-0.12292518
251	0xbeace315	-0.33767
252	0x3e14f709	0.14547361
253	0x3e2e7456	0.17036566
254	0x3d806e42	0.0627103
255	0xbe9077ea	-0.28216487

_fc2.weight f4 [256, 256]
0	0xbe103508	-0.1408273
1	0xbdaa8058	-0.08325261
2	0xbe2dcebc	-0.16973394
3	0xbefd427f	-0.49464795
4	0xbe24f482	-0.16108897
5	0xbe7c1352	-0.24616745
6	0xbe339ffe	-0.17541501
7	0xbdc2efe5	-0.095184125
8	0xbe8437e3	-0.25823888
9	0xbf00d681	-0.50327307
10	0xbd738283	-0.059450638
11	0xbdd368a7	-0.10322695
12	0x3ea0928a	0.313618
13	0x3e57287a	0.21011534
14	0x3d6837a8	0.056693703
15	0xbe0d6955	-0.13809712
16	0xbe9b5554	-0.30338538
17	0x3b4ced40	0.0031269342
18	0x3da93f9b	0.08264085
19	0xbdfe25f3	-0.12409582
20	0xbedb13cc	-0.4278854
21	0x3d9b969b	0.07597085
22	0xbdb4131f	-0.087927096
23	0xbe483310	-0.19550729
24	0x3d8304bc	0.063973874
25	0x3d1aa809	0.037757907
26	0xbd8226e3	-0.06355073
27	0xbc00db51	-0.007864789
28	0x3eaac485	0.33353058
29	0xbe3336f8	-0.17501438
30	0xbe0f111e	-0.13971373
31	0xbeb0a636	-0.3450181
32	0x3d77aa63	0.060465228
33	0x3e6b35c3	0.22969727
34	0x3d0b182f	0.03395861
35	0x3ca50ce9	0.020147758
36	0xbd0eda76	-0.03487631
37	0xbd905f3d	-0.07049415
38	0x3da130fb	0.078706704
39	0x3e5872c6	0.21137533
40	0xbda3fa8d	-0.08006773
41	0xbe7efb73	-0.24900608
42	0x3e376c6d	0.17912455
43	0x3c832f77	0.016013844
44	0xbf0542c2	-0.5205499
45	0xbd5ff6c8	-0.05467871
46	0xbe5f09d3	-0.21781091
47	0xbe645b45	-0.22300442
48	0xbda85200	-0.08218765
49	0xbe10b885	-0.14132889
50	0x3f23eeeb	0.64036435
51	0x3d7db654	0.06194146
52	0x3d03cf23	0.032179963
53	0xbe15c23c	-0.14624876
54	0x3d59af9e	0.053145997
55	0xbe3c9362	-0.18415597
56	0xbcf69a1d	-0.030102784
57	0xbe338294	-0.1753028
58	0x3cd926fa	0.026507843
59	0x3b8830d4	0.0041562114
60	0xbf503e46	-0.8134502
61	0xbdfdd01e	-0.12393211
62	0x3c6ef5f9	0.014585012
63	0x3db8fcc6	0.09032588
64	0x3d9845db	0.07435199
65	0xbe677cd4	-0.22606212
66	0xbe37f38e	-0.17964002
67	0xbe8271b0	-0.25477362
68	0x3df04298	0.11731452
69	0xbeca69bf	-0.39533803
70	0xbe7e9dd5	-0.24864896
71	0xbf0f5ec4	-0.56003976
72	0xbe25e91b	-0.16202204
73	0xbe5f5e3b	-0.2181329
74	0xbda5fcd2	-0.08104862
75	0x3dd17a2e	0.10228382
76	0xbd7d5cad	-0.06185596
77	0x3e0acabf	0.13553904
78	0xbcdbc9fd	-0.026829714
79	0x3dad5024	0.08462551
80	0xbd4a1498	-0.049336046
81	0xbede0e66	-0.4337036
82	0x3e861a9e	0.26192182
83	0xbd7a2f3f	-0.061080214
84	0xbb964c0a	-0.0045867013
85	0x3da85ee9	0.08221228
86	0x3cfdfbed	0.031003917
87	0x3e078aa2	0.13236478
88	0xbf1a4320	-0.60258675
89	0x3dc761a8	0.09735423
90	0x3dd5bbbb	0.10436197
91	0x3d6461ae	0.055757217
92	0x3dad7434	0.084694296
93	0xbd877fce	-0.06616174
94	0xbf9bafd6	-1.2163036
95	0x3c8fdb8a	0.01756074
96	0xbedfcbdf	-0.4371023
97	0xbdd0d023	-0.10195949
98	0x3e629c45	0.22129925
99	0x3e6e5736	0.23275456
100	0x3d7f7cb4	0.062374786
101	0x3dc3cec9	0.095609255
102	0xbe38a876	-0.18033013
103	0xbe076fed	-0.1322629
104	0x3d56f685	0.052481193
105	0x3e1d6351	0.15369917
106	0xbe986bd1	-0.29769757
107	0xbd84f910	-0.064928174
108	0xbe96c636	-0.29448098
109	0x3db6ab46	0.089193866
110	0x3eca802f	0.3955092
111	0x3e945936	0.28974313
112	0x3e5fcc04	0.2185517
113	0xbd7ff916	-0.062493406
114	0x3e9f5936	0.3112275
115	0xbc86cc7d	-0.01645493
116	0x3e3305fd	0.17482753
117	0x3e5855f4	0.21126539
118	0xbc5022bf	-0.012703597
119	0xbdc1c357	-0.09461086
120	0x3e798ca0	0.2437005
121	0xbe53d9af	-0.20688508
122	0xbe87661f	-0.264451
123	0xbee7cc49	-0.45273045
124	0xbedd565d	-0.43229952
125	0xbd3da1a9	-0.04629675
126	0x3db6816c	0.08911404
127	0x3ea7eb31	0.32796624
128	0xbdd517ec	-0.10404953
129	0xbe016d4d	-0.12639351
130	0xbe727531	-0.23677517
131	0x3c73fce0	0.014891833
132	0xbe17ed06	-0.14836511
133	0xbe3ba804	-0.18325812
134	0x3ded52d5	0.115880646
135	0xbcab7273	-0.020928597
136	0xbe99f09b	-0.3006638
137	0x3ce4ed7e	0.027945276
138	0xbd0e1760	-0.03469026
139	0xbef3ef62	-0.47643572
140	0x3d360a7a	0.044443585
141	0x3e65ebb0	0.22453189
142	0xbe835985	-0.25654235
143	0xbed89a38	-0.4230516
144	0xbe7fc21b	-0.24976389
145	0xbf0763c2	-0.52886593
146	0x3e0dbdab	0.13841884
147	0xbfba0335	-1.4532229
148	0x3e7ac7b9	0.2449025
149	0xbdcd0d32	-0.100122824
150	0x3d110222	0.035402425
151	0x3e0b9fc2	0.13635162
152	0x3dbbd0fe	0.091707215
153	0x3e0b2e5c	0.13591903
154	0xbd9d22f9	-0.07672686
155	0xbf203af6	-0.6258997
156	0x3ed4bf81	0.41552356
157	0x3d4634a9	0.048390064
158	0x3e44ee93	0.19231634
159	0xbec3aaa5	-0.3821613
160	0xbf1a4d78	-0.6027446
161	0xbbf8f164	-0.0075971354
162	0xbc8eedfe	-0.017447468
163	0x3b93b37a	0.0045074793
164	0xbe719594	-0.23592216
165	0x3d5ef5cd	0.054433633
166	0xbe11a74d	-0.14223976
167	0xbe26ac8b	-0.16276757
168	0x3daffb8d	0.085929014
169	0x3c918f83	0.017768627
170	0xbc9c38a5	-0.019069979
171	0x3e0b172c	0.13583058
172	0x3e00c635	0.1257561
173	0xbeecb6b3	-0.46233138
174	0x3d8d5961	0.06901813
175	0xbd787c18	-0.06066522
176	0x3dc20fed	0.09475694
177	0xbefd70ab	-0.4950002
178	0xbdab341e	-0.0835955
179	0xbe2d248f	-0.16908477
180	0xbe54a237	-0.20765005
181	0x3cd18cec	0.025579892
182	0x3dc811d4	0.097690254
183	0xbeb1d5a2	-0.347333
184	0xbdceda89	-0.10100276
185	0xbe0402ad	-0.12891646
186	0xbed8a5dd	-0.42314044
187	0x3e380940	0.17972279
188	0x3de5fa21	0.11229349
189	0xbd836f0b	-0.06417664
190	0xbe415f92	-0.18884113
191	0xbe990389	-0.2988551
192	0x3d536e64	0.05161895
193	0xbca6e8ad	-0.02037462
194	0xbb1f0dd4	-0.0024269717
195	0xbe68ef70	-0.22747588
196	0xbe3d03ae	-0.18458435
197	0xbdb4672c	-0.08808741
198	0x3d658119	0.05603132
199	0xbe7a6b82	-0.24455073
200	0x3e1ebf85	0.15502746
201	0xbf823134	-1.0171266
202	0xbd74c0dc	-0.059754238
203	0xbc022ef5	-0.007945766
204	0x3e9605a1	0.2930117
205	0x3ed1634e	0.40896076
206	0xbf6a3fd0	-0.9150362
207	0xbc841905	-0.016125211
208	0x3ea7cc82	0.32773215
209	0xbef59212	-0.47963005
210	0xbdf94b1a	-0.121725276
211	0x3e604306	0.21900567
212	0xbe4f35d2	-0.20235375
213	0x3d887828	0.06663543
214	0x3dfe662c	0.124218315
215	0x3ccc268e	0.024920728
216	0xbeb6041b	-0.35550007
217	0x3cd35db7	0.025801523
218	0x3e4816f8	0.19540012
219	0xbecef91b	-0.40424427
220	0xbd190a28	-0.0373632
221	0xbcfcd556	-0.030863445
222	0xbe8af734	-0.27141726
223	0xbca6e685	-0.020373592
224	0xbe89c740	-0.26909828
225	0xbb9e6d6e	-0.0048348224
226	0xbe943141	-0.28943828
227	0xbcf64de6	-0.030066442
228	0xbe094f32	-0.13409117
229	0x3e95752f	0.29190966
230	0xbd995c69	-0.07488329
231	0x3e8cbc09	0.2748721
232	0x3cfa5e7a	0.030562628
233	0x3e2272e9	0.15864147
234	0x3d39d725	0.045371193
235	0x3eed01e3	0.46290502
236	0x3de8c28d	0.113652326
237	0x3e4c29ec	0.19937867
238	0xbef853e2	-0.48501498
239	0x3e641aa5	0.22275789
240	0xbe143277	-0.14472376
241	0x3da158d2	0.07878269
242	0xbdcfd8b7	-0.10148757
243	0xbfd909c7	-1.6956109
244	0xbe65942a	-0.22419801
245	0xbf54e012	-0.83154404
246	0x3ecafb86	0.39645022
247	0x3e4c1187	0.19928561
248	0xbd7df827	-0.062004235
249	0xbd8a74e9	-0.0676058
250	0xbdbde576	-0.09272282
251	0xbe04e0ff	-0.12976454
252	0xbce512af	-0.02796301
253	0xbe8e44d9	-0.27786902
254	0x3eb4f8de	0.3534612
255	0xbe91c351	-0.28469327

_fc2.bias f4 [256]
0	0xbe26f871	-0.1630571
1	0xbde8a2ca	-0.113591745
2	0xbc98bf7c	-0.018645994
3	0x3b05a74d	0.0020393908
4	0xbdf84951	-0.12123359
5	0xbde7eba0	-0.11324239
6	0xbc8a802a	-0.016906817
7	0xbd573f79	-0.052550767
8	0xbdce858e	-0.10084067
9	0x3d74638e	0.059665255
10	0xbe02efc3	-0.12786774
11	0x3d115517	0.03548154
12	0xbda95e4d	-0.082699396
13	0xbb069663	-0.0020536415
14	0xbc9f2b21	-0.019429745
15	0x3c96b8bd	0.018398637
16	0xbad93872	-0.0016572608
17	0xbe2c6deb	-0.16838805
18	0xbda1143e	-0.07865189
19	0xbc39c0b3	-0.011337447
20	0x3d4d8191	0.050172392
21	0xbd05669c	-0.03256856
22	0xbd6e03d6	-0.058109127
23	0x3dd05c5c	0.10173866
24	0xbe2277bc	-0.15865988
25	0xbd92eb46	-0.07173781
26	0xbc3e0a67	-0.01159916
27	0x3d2646fe	0.040595047
28	0xbda8e365	-0.08246497
29	0xbd5628f5	-0.052285153
30	0xbdc64640	-0.09681368
31	0xbe15b4e8	-0.14619792
32	0xbd6b913b	-0.05751155
33	0xbb9e8207	-0.004837278
34	0xbdaa24c2	-0.08307792
35	0xbdd2bd08	-0.10289961
36	0xba849e50	-0.0010117982
37	0xbdf56195	-0.11981503
38	0xbcb5623c	-0.022141568
39	0xbd9e08f4	-0.077165514
40	0xbdcda826	-0.100418374
41	0x3cd286d1	0.025699051
42	0xbdf2c642	-0.11854221
43	0xbda94807	-0.08265691
44	0xbdcf91be	-0.1013522
45	0xbd4efb3d	-0.05053257
46	0xbc163cb4	-0.009169746
47	0xbd9f3410	-0.07773602
48	0xbdb3c832	-0.087784186
49	0xbc90a809	-0.01765825
50	0xbd655d6b	-0.055997293
51	0xbd847658	-0.06467885
52	0xbca1835b	-0.019715955
53	0xbd5c0039	-0.05371115
54	0x3c3ce7f6	0.011529913
55	0xbe0f18a2	-0.1397424
56	0xbe1be6d4	-0.15224773
57	0xbe0bc450	-0.13649106
58	0xbdf618f7	-0.120164804
59	0xbe03b803	-0.12863164
60	0xbbf68f29	-0.0075243902
61	0xbd3cbaa8	-0.046076447
62	0x3d0206a9	0.031744633
63	0xbced0f88	-0.02893807
64	0xbb96de2c	-0.0046041217
65	0x3c719bb2	0.014746593
66	0xbda23748	-0.079207
67	0xbdb4e0a5	-0.0883191
68	0xbbcd0274	-0.006256396
69	0xbe1bb9a1	-0.1520753
70	0xbced5ed3	-0.02897588
71	0xbd9728e3	-0.073808454
72	0xbe064660	-0.13112783
73	0x3cb7df42	0.022445325
74	0x3dff69a2	0.1247132
75	0xbcb942d7	-0.02261488
76	0xbd92a65f	-0.07160639
77	0xbc3fc15c	-0.011703815
78	0xbdaf51e7	-0.085605435
79	0xbda10641	-0.07862521
80	0xbc9c56eb	-0.019084414
81	0xba30b33f	-0.0006740577
82	0xbd911c77	-0.07085507
83	0x3d45b19d	0.04826509
84	0xbd8714c1	-0.06595755
85	0x3ca1db19	0.019757794
86	0x3c02b77a	0.0079783145
87	0xbd6db38a	-0.05803255
88	0xbd836600	-0.06415939
89	0xbd27a7f4	-0.040931657
90	0xbd9a9b32	-0.075491324
91	0xbd93a6c1	-0.0720954
92	0x3bd146ba	0.006386605
93	0x3b6b2cb6	0.0035884804
94	0x3aedba64	0.0018137214
95	0xbbcd58d4	-0.0062666927
96	0xbc30f074	-0.010799516
97	0xbc9262ef	-0.01786944
98	0x3d1a8ed1	0.037733857
99	0x3b821c9a	0.0039706947
100	0xbd9f0cd3	-0.07766118
101	0xbe0801aa	-0.13281885
102	0xbda726ad	-0.08161674
103	0xbba9408a	-0.0051651644
104	0xbe0e0157	-0.13867699
105	0xbe216111	-0.15759684
106	0xbe1e0ed4	-0.15435344
107	0xbe11ea50	-0.1424954
108	0xbd22ffaa	-0.0397946
109	0xbd1b95f5	-0.037984807
110	0xbde9774d	-0.11399708
111	0xbd7104b9	-0.058842395
112	0xbd6b1884	-0.057396427
113	0x3dce7134	0.100801855
114	0xbc64940d	-0.013951314
115	0x3ba688d9	0.0050822315
116	0x3be6cee3	0.007043706
117	0x3c929844	0.017894872
118	0xbdb4ec56	-0.0883414
119	0xbdd8c007	-0.10583501
120	0xbd53a65a	-0.051672317
121	0xbc3a9ccb	-0.011389921
122	0xbd1d4711	-0.038397852
123	0xbd0aa1d8	-0.033845752
124	0x3daf08b5	0.085465826
125	0xbdefd1fa	-0.11709972
126	0xbdfec447	-0.12439781
127	0x3e084e87	0.13311206
128	0xbca4203e	-0.020034906
129	0xbda4aac1	-0.08040381
130	0x3caf81d8	0.021424219
131	0xbcac76ff	-0.021052836
132	0xbda65bdc	-0.081229895
133	0xbe239b3b	-0.15977184
134	0xbd91eb58	-0.071249664
135	0xbc9fcf56	-0.019508045
136	0x3c555af3	0.013022172
137	0xbd95d97e	-0.07316874
138	0x3daa230f	0.08307468
139	0xbd015c2d	-0.031582046
140	0x3d15d4f5	0.036580045
141	0x3dc7950f	0.097452275
142	0xbdcd7bdb	-0.10033389
143	0xbd416034	-0.047210887
144	0x3d2393b9	0.0399358
145	0xbd9e870b	-0.07740601
146	0x3d806bac	0.06270537
147	0x3c5df67a	0.013547534
148	0xbdcc3073	-0.099701785
149	0xbdab5b3e	-0.083670124
150	0xbd320873	-0.04346509
151	0x3e34cb5e	0.17655703
152	0xbd7047ca	-0.058662213
153	0xbc05188e	-0.00812353
154	0xbe082039	-0.13293542
155	0xbd91caca	-0.07118757
156	0xbd856245	-0.06512884
157	0x3d02099d	0.03174745
158	0xbd99e143	-0.075136684
159	0xbd8c1a96	-0.06841008
160	0xbe0e2eb2	-0.13885
161	0x3db63b0e	0.088979825
162	0xbcbae9dd	-0.022816593
163	0xbd839c48	-0.06426293
164	0x3c3102a7	0.010803855
165	0x3dc46ba3	0.095908426
166	0x3d3245d2	0.043523617
167	0x3d00d53a	0.03145335
168	0xbd55089d	-0.052010167
169	0xbde6b39f	-0.11264729
170	0x3c32c569	0.010911324
171	0xbe082d27	-0.13298474
172	0xbd91a1c9	-0.07110936
173	0xbdda4c20	-0.10659051
174	0xbcfac0b3	-0.030609464
175	0xbdd94b60	-0.1061008
176	0xbe00cab6	-0.12577328
177	0xbd944edd	-0.072416045
178	0xbe018cec	-0.12651414
179	0xbd44acab	-0.04801623
180	0xbd7ebbd9	-0.062190864
181	0x3c9e0e9c	0.019294076
182	0xbdca7a06	-0.098865554
183	0xbc2c0092	-0.010498183
184	0xbd0f1849	-0.03493527
185	0xbd895236	-0.067051336
186	0x3d95202c	0.07281527
187	0xbc94c733	-0.018161392
188	0xbd870135	-0.06592027
189	0xbdc85fe0	-0.09783912
190	0xbd9a47f8	-0.07533258
191	0xbdb123d9	-0.086494155
192	0xbdcf7fe6	-0.101318166
193	0xbdd2a5e7	-0.102855496
194	0x3d881515	0.06644646
195	0xbe296724	-0.16543251
196	0xbe2ae930	-0.16690516
197	0xbe6bb12e	-0.23016807
198	0xbd8bff69	-0.06835825
199	0xbe2a1dfb	-0.16612999
200	0xbce77b12	-0.028256927
201	0xbc3a5866	-0.011373615
202	0xbcc541a4	-0.024079151
203	0xbadf01fe	-0.0017014144
204	0x3bf79748	0.007555876
205	0x3bf35933	0.007426405
206	0xbd24a98c	-0.040200755
207	0xbd02d437	-0.031940665
208	0x3db339a3	0.08751228
209	0x3dae5855	0.08512942
210	0xbdf762b7	-0.12079375
211	0xbc2600d8	-0.010132037
212	0x3c9b58da	0.018963266
213	0xbd31e9d8	-0.0434359
214	0xbd8460f8	-0.06463808
215	0x3d2d0ae9	0.042246733
216	0xbd4adb0a	-0.0495253
217	0xbcaceea8	-0.021109894
218	0xbde32395	-0.11090771
219	0xbc558a4c	-0.013033461
220	0x3e0020f2	0.12512568
221	0x3d8fe537	0.07026141
222	0xbc630498	-0.013856076
223	0xbdb0dd70	-0.08635986
224	0xbc81f3ac	-0.015863262
225	0xbd44052a	-0.047856487
226	0xbd4fe2cc	-0.0507534
227	0x3d438566	0.04773464
228	0xbcd31978	-0.02576898
229	0xbd1d508a	-0.038406886
230	0xbccc5c5d	-0.024946386
231	0x3c9efcd6	0.019407671
232	0xbe413150	-0.18866467
233	0xbd620dbc	-0.05518888
234	0xbc965c46	-0.018354546
235	0xbd85f167	-0.065401845
236	0xbd913f03	-0.07092097
237	0xbd966ff9	-0.07345576
238	0xbda28f7d	-0.079375245
239	0xbdb80c24	-0.08986691
240	0x3c93defa	0.01805066
241	0xbd0633b1	-0.03276414
242	0xbd8b4477	-0.06800168
243	0xbe0f4668	-0.13991702
244	0xbca18cc8	-0.01972045
245	0xbd4fef01	-0.05076504
246	0xbdfeb358	-0.12436551
247	0xbd8bafc9	-0.06820638
248	0xbe0a8840	-0.13528538
249	0xbe3a3523	-0.18184333
250	0x3d38a476	0.045078717
251	0xbcc4f2d1	-0.024041565
252	0xbd683a80	-0.056696415
253	0xbc42d82f	-0.0118923625
254	0xbe4fc361	-0.20289375
255	0xbd94248f	-0.072335355

_value.weight f4 [1, 256]
0	0xbeef26c2	-0.46709257
1	0xbdf29c4b	-0.11846217
2	0x3f89e7ce	1.0773866
3	0xbe193de5	-0.14965017
4	0xbedb5fc6	-0.42846507
5	0xbf385c26	-0.7201561
6	0xbc9f19a1	-0.0194214
7	0x3e03c86c	0.12869424
8	0x3ed3d7b9	0.4137552
9	0x3e2a8dd9	0.16655673
10	0xbe701849	-0.23446764
11	0x3d5e08f4	0.054207757
12	0x3dfb2f10	0.12264836
13	0x3d331100	0.043717384
14	0xb9ee075b	-0.00045400378
15	0xbdf0bd64	-0.117548734
16	0xbe28ab83	-0.16471677
17	0x3ea4e078	0.32202506
18	0x3bb1f020	0.0054302365
19	0xbc426b66	-0.011866426
20	0x3e32e161	0.17468788
21	0x3ea7fd65	0.32810512
22	0xbdfce7fc	-0.12348935
23	0x3e0ce8c2	0.13760665
24	0x3f1c6097	0.61084884
25	0x3f14794f	0.579976
26	0x3de680ed	0.112550594
27	0x3dc1da58	0.09465474
28	0xbeea9519	-0.45816877
29	0xbdfeeb3a	-0.1244721
30	0x3ec7b3d4	0.39004385
31	0x3ee08910	0.4385457
32	0x3da6e280	0.0814867
33	0xbe050dd2	-0.12993553
34	0xbe83d311	-0.25746968
35	0x3e1c898b	0.15286843
36	0xbdf42e10	-0.11922848
37	0x3e3cde1d	0.18444104
38	0xbd02de6d	-0.031950403
39	0x3e814da1	0.2525454
40	0xbe6affd3	-0.22949152
41	0xbe578c2b	-0.21049564
42	0xbd097f3d	-0.03356861
43	0x3f713672	0.942237
44	0xbeca1c0f	-0.39474532
45	0xbd24e438	-0.04025671
46	0x3ddd394a	0.10801943
47	0xbf47dff5	-0.78076106
48	0xbef8acd5	-0.4856936
49	0x3e902fe4	0.28161538
50	0x3c36616f	0.011131628
51	0xbc5cdb63	-0.01348004
52	0xbe0d2401	-0.13783266
53	0x3d4b81c8	0.049684316
54	0x3c03da8e	0.008047713
55	0x3e8c894f	0.27448508
56	0x3f1cf3fe	0.613098
57	0xbd8f6018	-0.0700075
58	0xbd4ded18	-0.05027494
59	0xbee21a2a	-0.44160587
60	0x3d32bb26	0.04363551
61	0xbd13aa3e	-0.036051027
62	0x3d1d8fb7	0.038467135
63	0x3d3670bd	0.04454111
64	0x3e13a266	0.14417419
65	0x3ec23d61	0.37937453
66	0x3ea5c8fe	0.32379907
67	0xbd35c058	-0.044372886
68	0xbca320af	-0.019913046
69	0xbf5378a9	-0.8260599
70	0x3ed1659c	0.40897834
71	0x3cc276ee	0.02373835
72	0x3d384220	0.044984937
73	0xbc69e976	-0.014276853
74	0x3e10708b	0.14105432
75	0xbf36d5aa	-0.71419775
76	0x3eb9907e	0.3624305
77	0xbe15bd59	-0.14623012
78	0x3ea90123	0.3300868
79	0x3de99b43	0.11406567
80	0xbf06cbc5	-0.5265468
81	0xbdf0aee0	-0.11752105
82	0x3e2978bb	0.16549961
83	0x3d95a323	0.073065065
84	0x3c7e3262	0.015514942
85	0x3e23a204	0.15979773
86	0x3d217c4c	0.03942518
87	0xbb38b3d9	-0.002818337
88	0xbcaf2503	-0.021379953
89	0x3d708e23	0.058729302
90	0x3d8ae3cf	0.06781732
91	0xbbb98acc	-0.005662298
92	0xbdef5cf2	-0.1168765
93	0xbe7e5018	-0.24835241
94	0xbc5c6ae7	-0.013453222
95	0x3de82c64	0.11336592
96	0x3a737991	0.0009287829
97	0x3d50d0a3	0.05098022
98	0xbd83be1c	-0.06432745
99	0x3d45d810	0.048301756
100	0x3e5b0b4b	0.21391027
101	0xbf2d11c0	-0.6760521
102	0xbdf46a8c	-0.11934385
103	0x3c58722d	0.013210815
104	0xbd29ff59	-0.041503284
105	0x3efea186	0.49732608
106	0xbef0c25f	-0.47023293
107	0x3ebb4a0e	0.36579937
108	0xbcad9b74	-0.02119229
109	0x3e343310	0.17597604
110	0xbdbcaafe	-0.09212302
111	0xbc793380	-0.015210032
112	0x3c59d091	0.013294355
113	0xbe8bf26d	-0.27333394
114	0x3d219255	0.039446194
115	0x3afb4404	0.001917005
116	0xbd5d6c55	-0.05405839
117	0x3d03c3c7	0.03216913
118	0x3f4110c4	0.7541621
119	0x3e946093	0.2897993
120	0x3e4b8716	0.1987575
121	0x3d8130f4	0.06308165
122	0x3d24447c	0.040104374
123	0x3d7dc42f	0.061954673
124	0x3d9a55a0	0.07535863
125	0x3eb3383d	0.35003844
126	0x3d8b81f1	0.06811894
127	0x3da95879	0.08268828
128	0xbd448c19	-0.04798517
129	0xbcd31ccd	-0.02577057
130	0x3ca96098	0.020675942
131	0xbd4841b8	-0.0488908
132	0x3f2fbb76	0.6864542
133	0x3ebec603	0.37260446
134	0xbde84a84	-0.11342338
135	0xbdddc8e2	-0.10829331
136	0xbf5ed4a0	-0.8704319
137	0xbc975df1	-0.018477412
138	0x3dc0c1ea	0.09411986
139	0xbc96a9c8	-0.018391505
140	0xbb8f2f09	-0.0043696207
141	0x3cddac87	0.027059807
142	0x3e249304	0.16071707
143	0xbd8f327b	-0.0699205
144	0x3d98209c	0.07428095
145	0xbe65ec3e	-0.224534
146	0x3da00ea5	0.07815293
147	0x3e6fa9d8	0.23404634
148	0xbf00df9d	-0.50341207
149	0x3d9501a6	0.07275705
150	0xbeb8a04d	-0.360598
151	0x3dc6277f	0.09675502
152	0xbbb73794	-0.005591342
153	0xbe4b17c1	-0.1983328
154	0x3e81a0bd	0.25317946
155	0x3e810279	0.251972
156	0xbda8ac27	-0.082359605
157	0x3dde991e	0.108690485
158	0x3f3b87a0	0.7325382
159	0xbcebfd04	-0.02880717
160	0x3e5caf8b	0.2155134
161	0x3d861831	0.06547583
162	0xbf04ce5b	-0.51877373
163	0xbe54029d	-0.20704122
164	0x3ce30bfe	0.02771568
165	0xbd8646d8	-0.06556481
166	0xbd9a291b	-0.075273715
167	0x3de3638e	0.11102973
168	0x3e65c83c	0.22439665
169	0xbf069980	-0.5257797
170	0xbcb2c32e	-0.021821585
171	0xbe3e380b	-0.18576066
172	0xbd72b75b	-0.059256893
173	0xbde00430	-0.10938299
174	0xbd4d4120	-0.050110936
175	0x3eacca2a	0.3374799
176	0xbdc80f6b	-0.09768566
177	0x3ce8d477	0.028421624
178	0xbe02d8a3	-0.12777953
179	0xbe27dad9	-0.16392078
180	0x3e101e49	0.14074053
181	0xbc969da8	-0.018385723
182	0xbe1d802c	-0.15380925
183	0xbd11cb20	-0.035594106
184	0xbd018779	-0.031623337
185	0x3dbbe494	0.09174457
186	0x3dedbeb0	0.116086364
187	0x3e90bb3d	0.2826785
188	0x3cc8f585	0.024531135
189	0x3e26bae8	0.16282237
190	0x3d77c7dd	0.06049334
191	0x3e07da3e	0.13266847
192	0xbe51db04	-0.20493704
193	0xbe0075d0	-0.12544942
194	0xbcc7d31a	-0.024392653
195	0xbeca23d2	-0.39480454
196	0x3dadb5d5	0.08481947
197	0xbed9454f	-0.4243569
198	0x3e222127	0.15832959
199	0x3e52c5d7	0.20583282
200	0x3e095486	0.1341115
201	0x3f20a2ce	0.6274842
202	0xbe5320aa	-0.20617929
203	0xbdf29472	-0.1184472
204	0x3cfab940	0.030605912
205	0xbd8e2000	-0.06939697
206	0x3db99e8b	0.09063443
207	0x3fa0db51	1.256693
208	0x3da20613	0.07911315
209	0x3d1bb854	0.038017586
210	0xbf14c2f2	-0.5810996
211	0x3cc76b82	0.024343256
212	0x3d82af92	0.06381144
213	0x3d0f5168	0.034989744
214	0x3cf7b05a	0.030235458
215	0x3d007c5e	0.031368606
216	0x3d44af8b	0.048018973
217	0x3e27ef5a	0.16399899
218	0x3dfbef1f	0.12301468
219	0xbd472e83	-0.04862834
220	0xbe2253b0	-0.15852237
221	0x3d6493b8	0.055804938
222	0x3d01a135	0.03164788
223	0xbecf978c	-0.4054531
224	0xbe66ab01	-0.2252617
225	0x3f54c009	0.8310552
226	0x3f6548aa	0.89564
227	0xbd927097	-0.07150381
228	0xbca558cd	-0.020183945
229	0x3c3674ad	0.011136216
230	0xbe8c1c71	-0.2736545
231	0x3e38c671	0.1804445
232	0x3e75f691	0.24019839
233	0x3e306c3a	0.17228785
234	0xbe91808a	-0.2841838
235	0xbc529542	-0.012852969
236	0xbdec2f27	-0.11532431
237	0xbf5a2084	-0.85205865
238	0x3d9ed3f5	0.07755271
239	0xbed83e6f	-0.42235133
240	0x3d0bff1e	0.034178846
241	0x3f4321d3	0.76223487
242	0xba329218	-0.0006811931
243	0x3d7a9898	0.06118068
244	0xbe18aec5	-0.1491042
245	0x3d195959	0.037438724
246	0x3df11db4	0.117732435
247	0xbbc265dc	-0.0059325527
248	0x3ea2ebd7	0.31820557
249	0xbd28d6b2	-0.041220374
250	0x3dc8e841	0.09809924
251	0xbec889ba	-0.39167577
252	0xbe118a79	-0.1421298
253	0x3d885d1b	0.066583835
254	0x3df65cf1	0.12029446
255	0x3efdca62	0.49568468

_advantage.weight f4 [3, 256]
0	0xbc81f35b	-0.015863111
1	0xbd02f004	-0.031967178
2	0x3f490014	0.78515744
3	0xbd4ead80	-0.05045843
4	0xbe458453	-0.19288759
5	0x3e081334	0.13288575
6	0xbe058b36	-0.13041386
7	0x3d986838	0.07441753
8	0x3e8805c9	0.26566914
9	0x3dea2f43	0.11434796
10	0xbe8e6ac9	-0.27815846
11	0x3d13bf01	0.036070827
12	0x3b9305f6	0.0044867946
13	0x3d4b0c8d	0.049572516
14	0xbcd805e2	-0.026369993
15	0xbd8b37fe	-0.06797789
16	0xbd0e93e8	-0.034809023
17	0xbc188e38	-0.009311251
18	0xbd9d331e	-0.076757655
19	0xbc260227	-0.010132349
20	0x3d9f9feb	0.07794174
21	0x3e279f0a	0.16369262
22	0xbdc656a5	-0.09684495
23	0x3d8d7faa	0.069091156
24	0x3ead2bc5	0.33822456
25	0x3eb2f0eb	0.3494943
26	0x3d53a410	0.051670134
27	0x3d7325ea	0.05936233
28	0xbe88ed56	-0.26743573
29	0xbd2b9e12	-0.041898794
30	0x3e9bd2fd	0.3043441
31	0x3e26b534	0.16280061
32	0x3cd410f3	0.025886988
33	0xbd8a1596	-0.067423984
34	0xbda99ad4	-0.08281484
35	0x3e6169b2	0.22012976
36	0x3bd74ff3	0.00657081
37	0x3bdfb09a	0.0068264725
38	0xbcdcf566	-0.026972484
39	0x3dae9ba4	0.0852578
40	0xbe1c59de	-0.15268657
41	0xbd8c3126	-0.06845312
42	0xbdcdf975	-0.10057346
43	0x3f26b208	0.65115404
44	0xbe92217a	-0.28541166
45	0xbd2f9379	-0.04286525
46	0x3cf8a544	0.030352242
47	0xbed67679	-0.41887262
48	0x3d46e5f9	0.048559163
49	0x3e04f58a	0.1298429
50	0xbc666812	-0.014062898
51	0x3d1a320e	0.037645392
52	0xbd967f80	-0.073485374
53	0xbb17570c	-0.0023092655
54	0x3c8fdf9a	0.017562676
55	0x3e55d997	0.20883785
56	0x3eba6776	0.3640706
57	0xbdb41e45	-0.08794836
58	0xbd9c23e8	-0.07624036
59	0xbda92adb	-0.08260127
60	0x3da0455a	0.07825728
61	0x3d01e6ce	0.031714253
62	0x3d1f2b6b	0.038859766
63	0x3d4588bb	0.0482261
64	0xbbd9e232	-0.006649279
65	0x3d9a51aa	0.075351074
66	0x3dbd7751	0.092512734
67	0xbd7b3e7b	-0.061338883
68	0xbca2ee1d	-0.019888932
69	0xbeee87e6	-0.46588057
70	0x3ea93640	0.33049202
71	0x3d5d6068	0.05404702
72	0x3dab8ceb	0.08376487
73	0x3c3c65ac	0.01149885
74	0x3bdaa6fb	0.0066727377
75	0xbe255c5a	-0.1614851
76	0x3e632072	0.22180346
77	0xbd8d2b25	-0.06892995
78	0x3e2acf4b	0.16680638
79	0x3cb9389e	0.022610005
80	0xbeaf82e7	-0.34279558
81	0xbdda5768	-0.10661203
82	0x3d9ba6bb	0.07600161
83	0x3d69ecc0	0.057110548
84	0xbd489a5a	-0.048975326
85	0x3deb2d87	0.11483293
86	0x3d63ed24	0.055646077
87	0x3c18ad9d	0.009318736
88	0x3a82a366	0.000996691
89	0x3ca910b8	0.020637855
90	0x3cf1bb51	0.029508265
91	0x3bf02f63	0.0073298677
92	0xbda50818	-0.080581844
93	0xbdff086d	-0.12452779
94	0x3cea8390	0.028627187
95	0x3d4fe74a	0.050757684
96	0x3c71161b	0.014714743
97	0xbd30f49f	-0.04320204
98	0xbd871f1c	-0.065977305
99	0xbd5b7f78	-0.05358836
100	0x3e0e7327	0.13911115
101	0xbee4b5c4	-0.44669926
102	0x3a214fdf	0.00061535643
103	0xbd6ff2db	-0.058581214
104	0xbdaf3460	-0.085549116
105	0x3db3c8db	0.087785445
106	0xbe928d3f	-0.28623387
107	0x3e45b912	0.1930888
108	0x3cee1e80	0.029067278
109	0x3e24ea6a	0.16105047
110	0xbd1f799f	-0.038934346
111	0x3c07ffa3	0.008300695
112	0x3cebfeec	0.02880808
113	0xbd470c77	-0.04859587
114	0x3de667fd	0.11250303
115	0xbcb1ad0f	-0.021688966
116	0xbda5b719	-0.08091564
117	0xbd64d2e8	-0.0558652
118	0x3ed24153	0.41065463
119	0x3e18ae1a	0.14910164
120	0x3e513fc6	0.20434484
121	0x3e06b084	0.13153273
122	0x3cfe731e	0.031060752
123	0x3d301b47	0.042994764
124	0x3dad0601	0.08448411
125	0x3e8f47b4	0.27984393
126	0x3eb8b020	0.36071873
127	0x3d3ff895	0.046867926
128	0xbd28962b	-0.041158836
129	0xbc8a65a7	-0.016894175
130	0x3d691e52	0.05691368
131	0xbd010cb8	-0.03150627
132	0x3ea29258	0.31752276
133	0x3e313f69	0.17309345
134	0xbdab0291	-0.08350099
135	0xbc81203a	-0.015762437
136	0xbf8561b3	-1.042044
137	0x3c905b29	0.017621594
138	0x3d48cf68	0.049025923
139	0xbd57b262	-0.052660353
140	0xbab5bbe9	-0.0013865206
141	0xbbf6e0c9	-0.0075341207
142	0x3dc051ac	0.09390578
143	0xbdcd7683	-0.1003237
144	0x3d201572	0.03908295
145	0xbdda302f	-0.106537215
146	0xbc4decb7	-0.012568644
147	0x3de2297e	0.1104307
148	0xbeba8b11	-0.36434224
149	0x3be43185	0.006963911
150	0xbe58c2da	-0.2116808
151	0x3d3d66b3	0.04624052
152	0xbd11b961	-0.03557718
153	0x3d4d94fb	0.050190907
154	0x3dd1a9c0	0.10237455
155	0x3d6ec251	0.058290783
156	0x3db05d01	0.08611489
157	0x3c9ef905	0.019405851
158	0x3edbbcc5	0.42917457
159	0xbc8ce9b2	-0.017201278
160	0x3ddd9b5d	0.10820649
161	0x3bc76652	0.0060851956
162	0xbdddd07b	-0.1083078
163	0xbd89de2d	-0.0673183
164	0x3bcd24ae	0.006260476
165	0xbc954df1	-0.018225642
166	0xbd8d6057	-0.06903141
167	0x3dbcffd6	0.09228484
168	0x3dccc7e5	0.09999064
169	0xbe6fd824	-0.23422295
170	0xbcf99ce5	-0.030470321
171	0xbd48b45f	-0.04900014
172	0xbd87e198	-0.066348255
173	0xbdc5f266	-0.096653745
174	0x3d01ccbb	0.031689387
175	0x3e6b650d	0.22987767
176	0xbb09024a	-0.0020905905
177	0x3a21991c	0.00061644777
178	0xbe27d304	-0.1638909
179	0xbe420e60	-0.18950796
180	0x3cf018ea	0.029308755
181	0x3d824538	0.06360859
182	0xbd911805	-0.070846595
183	0x3d5f1cb5	0.054470737
184	0xbd772788	-0.060340434
185	0x3d49ad20	0.04923737
186	0x3d73999c	0.059472665
187	0x3da67839	0.081283994
188	0x3dac9fe4	0.08428934
189	0x3d81cdc2	0.06338073
190	0xbe961263	-0.29310903
191	0x3e41587e	0.18881413
192	0x3c1833fe	0.00928974
193	0xbd57c42c	-0.05267732
194	0xbd3f3e35	-0.046690185
195	0xbe36cb9c	-0.17851108
196	0xb99f3c85	-0.00030371934
197	0xbe850cd8	-0.25986362
198	0x3e6a7d30	0.22899318
199	0x3e1ed79a	0.15511933
200	0x3d2583e0	0.04040897
201	0x3e4f832c	0.20264882
202	0xbd91829b	-0.07104989
203	0xbdae8c82	-0.085228935
204	0x3d62d560	0.05537927
205	0xbb822331	-0.0039714803
206	0x3d673346	0.056445383
207	0x3f0430ab	0.5163676
208	0x3c805282	0.015664343
209	0x3d4a457a	0.049382664
210	0xbe710ee3	-0.23540835
211	0x3c9174ae	0.017755833
212	0x3d70874e	0.058722787
213	0x3b885472	0.0041604573
214	0xbd0d347c	-0.03447388
215	0x3d47113a	0.048600413
216	0xbcf48004	-0.029846199
217	0x3e86dd1a	0.26340562
218	0x3ca03ede	0.019561227
219	0xbd1816fe	-0.037131302
220	0xbcdde217	-0.027085347
221	0x3d14296e	0.036172323
222	0xbd6bf672	-0.057608075
223	0xbc6ac294	-0.014328618
224	0xbd8fce04	-0.07021716
225	0x3ec66a26	0.3875286
226	0x3efbb409	0.49160793
227	0xbe7101cd	-0.23535843
228	0x3c5d7c44	0.013518397
229	0xbdb0a4b1	-0.086251624
230	0xbe83f7b1	-0.2577491
231	0x3cafeedc	0.021476202
232	0x3d90158f	0.07035362
233	0x3d951b37	0.072805814
234	0xbcc4cb0a	-0.024022598
235	0xbd7d655a	-0.061864235
236	0xbd239bac	-0.039943382
237	0xbf275686	-0.653664
238	0x3cc04940	0.023472428
239	0xbe7f549f	-0.24934624
240	0x3c0a5d38	0.008445077
241	0x3e79d1df	0.24396466
242	0xbbf92c84	-0.0076041836
243	0x3e5449e9	0.2073132
244	0xbd088f11	-0.033339564
245	0x3cd893cd	0.026437664
246	0x3db9bb04	0.090688735
247	0xbd32d9de	-0.043664806
248	0x3ed670c5	0.4188291
249	0xbd2bfe79	-0.04199073
250	0x3d030019	0.031982515
251	0xbe9094fa	-0.2823866
252	0x3bdc41da	0.0067217173
253	0x3e0ae6f2	0.13564661
254	0x3d72c00b	0.059265178
255	0x3e7a78ce	0.24460146

_advantage.bias f4 [3]
0	0x3c52f918	0.012876771
1	0x3c860110	0.016357929
2	0x3c77e5e7	0.015130497

_out.weight f4 [3, 256]
0	0xbc26cda8	-0.010180868
1	0xbccbc84c	-0.024875782
2	0xbcf101c8	-0.029419795
3	0x3d20768a	0.039175548
4	0xbd15ae5a	-0.036543228
5	0xbd4cc52e	-0.049992733
6	0xbd71fe26	-0.059080265
7	0xbd7e3f3c	-0.062072024
8	0xbce9e60c	-0.028552078
9	0xbd39f3ae	-0.045398407
10	0xbc1799f8	-0.009253018
11	0xbd6fbf10	-0.05853182
12	0x3d432b14	0.047648504
13	0x3c4ba9c0	0.012430608
14	0xbcdab9dc	-0.026699953
15	0x3cc1566c	0.02360078
16	0xbd50f09c	-0.051010713
17	0xbd1b71a2	-0.037950166
18	0xbd759d62	-0.059964545
19	0x3d7bae60	0.061445594
20	0xbd61d8d2	-0.055138417
21	0x39afc300	0.00033523887
22	0xbd5d9ca6	-0.05410447
23	0x3d3b16ca	0.04567603
24	0xbd4eed0a	-0.050519027
25	0xbd624c18	-0.05524835
26	0x3cff00a4	0.031128235
27	0xbd41192a	-0.04714314
28	0x3d57d552	0.052693672
29	0x3cb03344	0.02150882
30	0x3d250f58	0.040297836
31	0x3d3537de	0.044242732
32	0x3cfe225c	0.031022243
33	0x3d4c3a92	0.049860545
34	0xbccc4000	-0.024932861
35	0xbd7c1aea	-0.061549105
36	0x3d3b57a4	0.045737877
37	0x3d54bfb8	0.05194065
38	0xbd2a6c5e	-0.041607253
39	0x3b8c2ef0	0.0042780563
40	0xbc3d7e98	-0.011565827
41	0x3d5f30c6	0.054489873
42	0x3d5eca2a	0.054392017
43	0x3ce08610	0.027407676
44	0xbd1f372c	-0.038870975
45	0xbd4fdd84	-0.050748363
46	0x3d7713c4	0.060321584
47	0x3c4f3960	0.012647957
48	0x3d5294a8	0.0514113
49	0xbd6b0e2e	-0.05738657
50	0x3d7fd202	0.06245614
51	0xbc8833b8	-0.016626224
52	0x3c9fa678	0.019488558
53	0x3c089cd0	0.008338168
54	0xbbeb7d80	-0.0071865916
55	0x3d61f590	0.055165827
56	0x3c296110	0.010338083
57	0xbd5526b4	-0.052038863
58	0x3d15c99e	0.03656923
59	0xbd63eb8e	-0.055644564
60	0xbd7cf5c8	-0.061757833
61	0xbd1f9ae8	-0.03896609
62	0xbd53463e	-0.05158066
63	0x3c6fbee8	0.014632918
64	0x3d54e500	0.051976204
65	0x3c8a0734	0.016849138
66	0x3c86b754	0.01644484
67	0x3cb3a784	0.021930464
68	0xbc8103a0	-0.015748799
69	0x3cbd6600	0.023119926
70	0xbd73ebf2	-0.059551187
71	0xbbf096b0	-0.007342182
72	0xbd5ea3e8	-0.054355532
73	0xbcca5d14	-0.024702586
74	0xbd7855ec	-0.060628816
75	0x3d15c5b4	0.036565498
76	0x3d7fa7c8	0.062415868
77	0x3d5f722a	0.054552235
78	0x3d0517e6	0.032493494
79	0xbc975438	-0.018472776
80	0xbd794016	-0.060852133
81	0xbd0e5634	-0.03475018
82	0x3b090fe0	0.0020914003
83	0x3c50e720	0.012750417
84	0x3c946d0c	0.018118404
85	0x3d7e9d5a	0.06216178
86	0xbce949c0	-0.02847755
87	0x3d046440	0.03232217
88	0x3c9e8c24	0.019353934
89	0x3d773a7e	0.060358517
90	0x3b91b330	0.0044464096
91	0xbd111d10	-0.035428107
92	0x3d149522	0.036275037
93	0xbcb5a144	-0.022171624
94	0x3d03881a	0.03211222
95	0x3d2c5bf4	0.04207988
96	0xbd2ea9e6	-0.042642497
97	0xbc8653bc	-0.01639735
98	0x3b7fe000	0.0039043427
99	0x3c7e39d8	0.015516721
100	0xbbf8ce70	-0.0075929686
101	0xbbda8cf0	-0.006669633
102	0xbd5c882e	-0.05384081
103	0xbcff52dc	-0.03116744
104	0xbcb4bddc	-0.022063188
105	0xbd4a37b8	-0.049369544
106	0x3cb2c188	0.021820799
107	0xbd569ab4	-0.05239363
108	0xbd47621a	-0.04867754
109	0xbd5cd2be	-0.053911917
110	0x3d60d778	0.054892987
111	0x3b2db0c0	0.0026503056
112	0x3ccf1598	0.025278851
113	0xbba14bb0	-0.0049223527
114	0xbd57165c	-0.052511558
115	0xbcd97bfc	-0.026548378
116	0x3d6f86f8	0.058478326
117	0xbd067ce4	-0.03283395
118	0xbd00ffa6	-0.031493805
119	0x3c3a4c20	0.011370689
120	0xbc3ddd30	-0.01158838
121	0xbbdd32a0	-0.0067504197
122	0xbd33fd42	-0.043942697
123	0xbd69ce66	-0.057081603
124	0x3c89f330	0.016839594
125	0xbcc22100	-0.023697376
126	0x3cf60bc4	0.030034907
127	0xbd14785a	-0.03624759
128	0xbd0959b8	-0.033532828
129	0xbd7aefa0	-0.06126368
130	0x3d1c3fa0	0.038146615
131	0x3cb93bdc	0.022611551
132	0xbd69ce82	-0.057081707
133	0x3ceccbf4	0.028905846
134	0x3d063b9c	0.03277169
135	0xbd4f7648	-0.05064991
136	0x3d5b90cc	0.053604886
137	0xbd68fa10	-0.056879103
138	0x3d0436b0	0.032278717
139	0x3cf8fc10	0.03039363
140	0x3bab95c0	0.0052363575
141	0x3d47a918	0.048745245
142	0x3d356826	0.044288777
143	0x3d7bb3b0	0.06145066
144	0xbd6960ae	-0.056976967
145	0xbc00f440	-0.007870734
146	0x3a6e7100	0.0009095818
147	0xbd430260	-0.047609687
148	0xbd33ac1c	-0.04386531
149	0xbd726f84	-0.05918838
150	0xbc356b90	-0.011073008
151	0xbcbf5a54	-0.023358501
152	0xbd30c084	-0.043152347
153	0x3d61ae32	0.055097766
154	0xbca788ac	-0.020450912
155	0x3b9bc760	0.004753992
156	0xbd63f6e0	-0.05565536
157	0xbced4550	-0.028963715
158	0x3d68899a	0.056771852
159	0x3d45b3fa	0.048267342
160	0x3bf456f0	0.007456653
161	0x3cb2db48	0.021833077
162	0x3ceab3bc	0.028650157
163	0xbafbd800	-0.0019214153
164	0x3d4bee20	0.04978764
165	0xbd3a7e14	-0.045530394
166	0x3b3b5ba0	0.0028588548
167	0xbd6cbdce	-0.0577982
168	0xbcd458e8	-0.0259213
169	0x3ce31f50	0.027724892
170	0xbd66aba2	-0.056316026
171	0xbd3ed8ac	-0.046593353
172	0xbd76a072	-0.060211606
173	0xbd217d84	-0.03942634
174	0x3d6d7484	0.057972446
175	0xbcac31cc	-0.021019839
176	0x3d5522b6	0.052035056
177	0x3d089522	0.03334535
178	0xbcd048f8	-0.02542542
179	0x3d3a9510	0.045552313
180	0xbb62baa0	-0.00345961
181	0x3c46dde8	0.0121378675
182	0x3d62e9a0	0.055398583
183	0x3be0c980	0.006859958
184	0x3ced8020	0.028991759
185	0x3c4f02a0	0.012634903
186	0xbcb8903c	-0.022529714
187	0x3cfc36ac	0.030787788
188	0xbd5112fc	-0.051043496
189	0xbd74081a	-0.05957804
190	0xbd3560f6	-0.044281922
191	0x3ca86a64	0.020558544
192	0x3d74ab34	0.059733585
193	0xbcf6b64c	-0.030116223
194	0x3c9d5a48	0.019208089
195	0x3ca4dbc8	0.020124331
196	0xbd62fd38	-0.05541727
197	0x3c3f16b0	0.011663124
198	0xbd4a3236	-0.04936429
199	0x3d35c100	0.044373512
200	0xbc79be10	-0.015243068
201	0x3cf13418	0.029443786
202	0xbc07a340	-0.008278668
203	0xbd35b12a	-0.04435841
204	0x3d13c33c	0.036074862
205	0xbd7d056c	-0.06177275
206	0x3d3d8296	0.046267115
207	0xbc82609c	-0.015915208
208	0xbb15f0e0	-0.0022879168
209	0xbad3fc80	-0.0016173273
210	0xbd63271e	-0.055457227
211	0x3d41a182	0.047273166
212	0x3d70e09a	0.058807947
213	0xbcef6624	-0.02922351
214	0x3d280c24	0.041027203
215	0x3d4e91ca	0.050432004
216	0x3c60bfe8	0.013717629
217	0x3c43c9f0	0.011950001
218	0x3d351156	0.044205986
219	0xbd28d8f2	-0.04122252
220	0x3cedd00c	0.029029869
221	0xbd308770	-0.043097913
222	0x3cec1a94	0.028821267
223	0x3bb6f8f0	0.005583875
224	0xbcacef40	-0.021110177
225	0xbcff56f0	-0.031169385
226	0x3d2a20ce	0.04153519
227	0x3d6b9cd4	0.05752261
228	0x3c0a04f0	0.008424029
229	0x3c6a7a38	0.014311366
230	0xbc325fd8	-0.010887109
231	0x3d79ba26	0.06096854
232	0xbd400534	-0.046879962
233	0xbcb2d1c8	-0.021828547
234	0x3d482812	0.04886634
235	0xbca54b6c	-0.020177566
236	0xbb13d0e0	-0.002255492
237	0x3d1150b4	0.035477355
238	0x3c957680	0.018244982
239	0xbd20aa22	-0.03922475
240	0xbd7359d2	-0.05941183
241	0xba93ed80	-0.001128599
242	0x3c743220	0.014904529
243	0x3ce7fbfc	0.028318398
244	0xbd60ec4a	-0.054912843
245	0xbcc69d4c	-0.024244927
246	0x3d67f55a	0.05663047
247	0xbd7ccc1c	-0.06171809
248	0x3cbdec78	0.023184046
249	0x3d2c810e	0.042115264
250	0xbd74f53e	-0.059804194
251	0x3ba00c40	0.004884273
252	0xbce6da84	-0.028180368
253	0xbc0246e8	-0.007951476
254	0xbc18ee80	-0.009334207
255	0xba0ed800	-0.00054490566

_out.bias f4 [3]
0	0xbc3413d8	-0.010991059
1	0x3d3b8b8e	0.045787387
2	0x3d47d6c4	0.0487888
