rl/models/single_agent/pong_dueling_ddqn_vs_BOT.pth (torch, 286940 bytes, 9 tensors)

_fc1.weight f4 [256, 12]
00000000: eca0 4bbe f45a b9bd 9f50 5dbd 3dc4 953b
00000010: 850a 0ebe c043 d33d 2a29 723e 404e 103d
00000020: 4b8d 3c3e 9e86 0cbd 5725 803e 5264 8ebf
00000030: 15f9 e3bd 5b6c d7be 1e53 babe b3bf ac3c
00000040: 4e38 6e3e bc0c ccbd 835f 563e 5857 f13c
00000050: 335c 423e 9bf4 143f 77c2 65be e68a b83e
00000060: c566 38be 94af 9dbe 8bd2 9ebc 2012 003b
00000070: c210 71bd 71fa 82bd fc9b dfbd 0b51 953c
00000080: 87eb 663e 285a 043f a863 18bd f1a1 643e
00000090: c480 a43e 6bcb 36be f460 673e 7281 bebc
000000a0: 9cdf 87be d8b2 693e aa2c 783e 08eb bbbe
000000b0: 8d43 503e fc85 9d3e ed46 3f3d 193a 3aba
000000c0: f6ce 6f3e 630e 293e 1868 663e f5de f53b
000000d0: 9f52 adbd 288b d83c f310 10bd beff de3e
000000e0: 346b 10be dcee 273e 2d4c 723e e71a aebe
000000f0: cfcf 303e c555 95be d603 fdbe d49e e0bc
00000100: 5ab5 3d3d e1c5 113d e730 6d3c b920 c1bd
00000110: 6c3a dd3c a534 083e 2c88 143e 4c67 3e3f
00000120: e3d6 e13d 982f dfbc 8f93 263d 15bf a2ba
00000130: 11b3 e03d ba20 133e 0104 e73d d6d9 4e3e
00000140: 4bfc f53c 67d7 97be aa31 593e 85e1 c9be
00000150: c2ab f63e 0e37 bfbc e896 c2bc b2b4 163c
00000160: 8300 3ebe 2afd 9abd fb9e 89bd 8bf3 34bc
00000170: 05d4 8b3e ef30 b9be ff3b fbbd 2984 513f
00000180: 59f0 223e b929 d93c 3f38 bebe fb22 703a
00000190: 2066 17bc 7b75 e03e 5a49 793e 37b9 78bb
000001a0: f7a1 583e 1511 3fbf 7c0e 893e 5e2c 2dbc
000001b0: eb0c 5d3d c367 55bd a935 8f3f b575 d53a
000001c0: eb88 8ebe 8682 92bd ca4d a5be 5c9d 1e3d
000001d0: 1f81 4a3e 839e 873e ca01 963e 75b0 16bf
000001e0: 526b 1fbe 4d94 04bf a1de 693e f8d5 e0bb
000001f0: 7ff5 87be aacd 86be 4307 fdbb 905b 6e3d
00000200: 3535 9abd 7892 283f 5c78 70be 83b3 163c
00000210: 844e 863e 0f3e 92bd 9e90 153c ee7d 05bb
00000220: 3641 bdbe 74d1 af3e de4c 3a3e 9a0a 783e
00000230: 296c 1ebe e0ba 0a3f 3e23 953d 70a0 e3bd
00000240: e432 e13d f23f 9dbd ed43 b2be 0559 903c
00000250: 3195 bbbd d2a1 cc3d 3fd7 eb3e 3e78 8abe
00000260: ca92 013e a1db 05bf dfc5 9e3e 6b62 8cbe
00000270: 6f25 d1ba ce3c 4b3e db36 c13d 8194 e13b
00000280: 4f66 923d 7622 343d f6ce 47bd 0a28 3a3d
00000290: dd26 d5bd b455 3ebe fcb8 7e3e faa4 d2be
000002a0: 344d 5f3e 3e75 22be cc5e b73d 4fe9 a23b
000002b0: 8021 85be 326f 973e 1e26 17be c514 473d
000002c0: c9b9 acbd 4e5b 8b3d 35b6 853d 30c3 8c3f
000002d0: a0d5 2d3e 6b58 303a b78a b4be 3f8d 34bb
000002e0: 8a47 99be 5cf6 883e 57c0 c0be b1b3 9e3c
000002f0: 00e2 0f3f 1d83 f9be bfae 62be c06a ba3e
00000300: 2d9f 5d3e 3b93 36bd 6204 24be cd63 f33d
00000310: 4b53 d23c 5b3b 94be e358 703d e61e 41be
00000320: 9ca0 02bc a54a ce3e 1b99 18be e355 cd3e
00000330: af75 f1bc 28c0 843e 4a92 75be ab06 d53c
00000340: 4154 01be 8c62 883e 1fbf 22be d63d 993e
00000350: 2103 823e 3b17 d9bd a1e5 b13e c6a3 52be
00000360: 3608 973e 73d9 b5bd 9234 d53e ef56 e43b
00000370: 6023 9ebe 8849 4e3e 9bbf 77be 1912 4f3f
00000380: d961 813e 5c80 54be c3ff 233f 2059 d63e
00000390: de39 6bbc 93d4 083d 984a 9b3f c2c4 57bc
000003a0: cebe 513e 3022 14bf 4d3c 3c3e 1dea 4fbd
000003b0: 158c 1f3e f1b8 253f dc51 4a3e 63a0 203f
000003c0: ca4b ac3e 5da2 993b 688a 40be 38c6 fb3c
000003d0: dd66 ddbd ef66 8dbe 4836 05bd b150 8c3d
000003e0: deb7 38bf ce9f ab3e d040 70bd 4bc5 863e
000003f0: 8d5d 683c 6efe 4f3e 7df5 963e e212 843c
-0.19885606 -0.09050551 -0.054031964 0.0045705126 -0.138712 0.10315657 0.23648515 0.035230875
0.18413274 -0.03430807 0.25028488 -1.1124365 -0.11131493 -0.42074856 -0.36391538 0.021087503
0.23263666 -0.099633664 0.20934872 0.029460594 0.18980484 0.5818574 -0.22437464 0.3604347
-0.18007953 -0.30798018 -0.019387504 0.0019542053 -0.058853872 -0.06395424 -0.109184235 0.01822712
0.22550784 0.5170007 -0.037204415 0.223274 0.3212949 -0.17851035 0.22595578 -0.023255084
-0.26537788 0.2282213 0.24235788 -0.36702752 0.20338269 0.30766284 0.0466985 -0.0007103994
0.23418793 0.16509394 0.22500646 0.007503385 -0.08463024 0.026433542 -0.035172414 0.4355449
-0.14103395 0.16399711 0.23661871 -0.340049 0.17266773 -0.29167 -0.4941699 -0.027419485
0.04631553 0.035589103 0.014476991 -0.094300695 0.027005397 0.13301332 0.1450507 0.7437637
0.110273145 -0.027244374 0.040668067 -0.0012416566 0.10971654 0.14367953 0.112800606 0.20200285
0.03002753 -0.29656526 0.21210352 -0.3942987 0.48177916 -0.023341682 -0.023753598 0.009198355
-0.18554883 -0.075678185 -0.06719776 -0.011044393 0.27310196 -0.36170146 -0.12267303 0.81842285
0.15911998 0.026509153 -0.37152287 0.0009160486 -0.009240657 0.4383963 0.24344388 -0.0037952194
0.21155535 -0.7463544 0.26768863 -0.01056966 0.053967398 -0.052100908 1.1188251 0.001628569
-0.27838835 -0.071538016 -0.3228591 0.03872429 0.19775818 0.26488122 0.2929824 -0.58863
-0.15568283 -0.5178879 0.22838832 -0.0068614446 -0.26554486 -0.26328784 -0.007721813 0.05819279
-0.0752968 0.65848494 -0.23483413 0.009198072 0.26231778 -0.07140743 0.009128718 -0.002036925
-0.36963814 0.34339488 0.18193385 0.24222794 -0.15470947 0.541914 0.072821125 -0.111145854
0.10996035 -0.07678212 -0.34817448 0.017620573 -0.091593154 0.09991802 0.46062657 -0.27044863
0.12653652 -0.5228825 0.3101034 -0.27418837 -0.0015956591 0.19847414 0.09434291 0.006884158
0.0714842 0.043978177 -0.048781358 0.04544834 -0.10407803 -0.1858738 0.24875253 -0.41141492
0.21806794 -0.15865037 0.08953628 0.00497166 -0.2600212 0.29577023 -0.14760634 0.04860379
-0.08433873 0.06804524 0.06528894 1.0997066 0.16976023 0.00067270425 -0.3526208 -0.002755001
-0.29937392 0.26750457 -0.37646744 0.019372793 0.56204224 -0.48732844 -0.22136973 0.3640957
0.21642752 -0.044574004 -0.16017297 0.1188427 0.025674483 -0.28951535 0.05867852 -0.18859443
-0.007972863 0.40291324 -0.14902155 0.4010459 -0.029475061 0.25927854 -0.23981586 0.026004156
-0.12629797 0.26637685 -0.1589322 0.2992999 0.25393012 -0.10600134 0.34745505 -0.20570287
0.29498452 -0.08879366 0.4164167 0.006968371 -0.30886364 0.20145237 -0.24194185 0.8088699
0.25269964 -0.2075209 0.64062136 0.41864872 -0.014357058 0.03340585 1.2132139 -0.013169469
0.20482942 -0.57864666 0.18382378 -0.050760377 0.15580781 0.64735323 0.1975779 0.6274473
0.33651572 0.0046885447 -0.18802798 0.030734167 -0.10810635 -0.27617595 -0.03252247 0.06851328
-0.7215556 0.3352036 -0.05865556 0.26322398 0.0141824605 0.20311901 0.29484168 0.016122285

_fc1.bias f4 [256]
00000000: a2f0 a1be 2d79 ebbd 344d 3d3e d9b9 32be
00000010: 0b56 d2bd f029 16be 9798 d9bd 11d8 2fbe
00000020: 1795 b83d 7004 913d 53a0 be3d 983c c5bd
00000030: 8640 30be 3fc9 a3bd aab4 1b3e 785f 5bbe
00000040: 678f 29be 7892 54bd 26f1 403d 6461 93bd
00000050: 0d1e 96be 224c 39bd c147 3c3e bc55 f03c
00000060: c837 323d 307a a43c aaa3 25bd 7213 8fbe
00000070: f56b 4fbe 4a57 95be 4028 8abe afa1 8d3e
00000080: d51e 81be 6143 163e e5c6 63bb 175c 013e
00000090: 5e74 65be 83d1 973d 3628 4ebe 2a8a 34bb
000000a0: fbbb c73b aac6 f7bb e836 71be 109d 0ebe
000000b0: 1ab4 08be 4aae abbc 6f58 04be 243c 9cbe
000000c0: 0788 623c a4bc a2be 57f3 57be 9166 363e
000000d0: 430c 86be 58d8 4539 2052 ffbe b20a b4bd
000000e0: 81e7 17be 884b 02bb b572 43be e339 20be
000000f0: c149 873c e470 dd3d 3378 1b3e a731 b53d
00000100: 1ebc bd3d 289c 803c 03b2 f63c cdab d73d
00000110: 7d0a f6bd 7069 153e 3ea1 99be b570 88be
00000120: c0bd 95be 4712 a7be 6a3f 5a3d 8d61 43be
00000130: 8122 b53c d6e6 013e 107a 95be b25a 2b3d
00000140: e486 18be 23e0 8cbd 4bfc c4be af0f d93d
00000150: 637a 43be 57fb 83be ef95 03be 6820 613e
00000160: c8db 71be 53f9 773d 770e 39bc 80cc f2bd
00000170: 3c76 29be 2803 78bb e947 1dbe ed8a a6bc
00000180: f19e 383c 883b 14be 47f7 67be f25a de3d
00000190: 5c08 88be d362 753d 82d7 36be bab9 bd3c
000001a0: f2b4 a3be 39fd 113d a572 1dbd 7a0d 0c3e
000001b0: 8716 3dbe ba07 49bd 4dfb 033d f7c7 44be
000001c0: 6111 d0bd 38f6 a2be be9f 77be a02d ef3d
000001d0: 9a5f 87be 597f 363e b458 813d 6379 9c3d
000001e0: df69 d23d 7303 89be 72d0 c0be 210d c63c
000001f0: a80e 5abe 4cf8 8dbc ff84 c9bd dee2 a03d
00000200: 3a83 8ebe 81bd 9ebe 240d bdbe 38ad adbd
00000210: 5aed aebe baff ae3d c2ee d6bc 127e 5bbc
00000220: 362e 2abe fb74 b9be 749f 24bd 71ac 36be
00000230: f01a ffbd 0d09 49bc 2ed0 78be 1c5d 9ebd
00000240: bc52 63bc 1dec 1ebe dd85 a5be 5b14 15be
00000250: 2a41 debe cc18 59bd 204e 18be d43e 84bd
00000260: c6d3 e63c b367 63be 7e36 a73d c7bd ff3d
00000270: ef2f 6dbe 06b9 7f3d 7b49 30be 855b 83be
00000280: 364b 8e3d d331 23be d15b bb3d 5fd9 2cbd
00000290: 221a 30bd 85cd 303e aec8 f3bd 01a3 89be
000002a0: c4f9 85be 17ff 0ebe c6be 8cbd 95f9 163e
000002b0: 3001 e93d ed4a cdbe 3f17 d5bb 86fe 7cbe
000002c0: 3343 0bbe 39b2 033e 15e3 043d d32d df3d
000002d0: dc53 37be 978c 48be 8d82 3bbe da8e 01be
000002e0: 00bc 80be 7c90 073e 8d5a 34be 71bf 57bd
000002f0: e5a7 9cbe 30c9 b23d 858a 29be 080d 493e
00000300: 972b 79be b93b 1cbd 89af 1cbe 9840 06be
00000310: 2a31 b5bc a5b3 f6bd 64b2 243e a3c3 a2bd
00000320: 7cfd ea3c 6e39 81bd d74c 1fbe 06cf cf3d
00000330: 9856 19be ffbf 1b3e 4a50 a7bd 86e9 c4bd
00000340: 63e3 67be 30a1 94be cae1 873d 1c5d 36be
00000350: 4919 69be f524 fcbc a793 a9be 2637 97be
00000360: 7f30 d5bd a363 c8bd cab4 dbbd fa84 8d3c
00000370: c691 69bd d3c0 b43c 78d6 1ebe cf0f 80be
00000380: 6ce8 23bc 70ef 3fbd 25ce cd3d c22b ae3d
00000390: e34d 50be ed78 a63d 780a 81be 6a9e b43d
000003a0: 356d 0dbe 2cbb 77bd 301e c3bd 8119 09be
000003b0: 7e85 183d b717 65be 16ce 87bd cfdf c2bd
000003c0: 45e2 58be 7ff8 8c3c dd53 cd3d 98b9 abbc
000003d0: ce7c 87be 4a3b e33d 4dfd b23d 1df6 fabd
000003e0: a214 013e 967b bb3d cc51 53be b600 adbc
000003f0: ba44 30bd 00ae 6e3c 368f 413d 7489 7f3d
-0.316289 -0.11497722 0.18486482 -0.17453708 -0.10270318 -0.14664435 -0.10624807 -0.17172267
0.09012812 0.070809245 0.09307923 -0.09630698 -0.17212114 -0.07997369 0.15205637 -0.21423137
-0.1655861 -0.051897496 0.047104977 -0.0719631 -0.29319802 -0.04523862 0.18386747 0.029337756
0.04351023 0.020077795 -0.040439285 -0.27944523 -0.20256026 -0.2916816 -0.26983833 0.27662417
-0.25218835 0.1467414 -0.0034756002 0.12632786 -0.22407672 0.07413008 -0.20132527 -0.0027548173
0.006095407 -0.0075615244 -0.23556101 -0.13927102 -0.13349953 -0.020957131 -0.1292436 -0.30514634
0.013826377 -0.31784546 -0.2108892 0.17812563 -0.2618123 0.00018867978 -0.49867344 -0.087911025
-0.14834405 -0.0019881446 -0.19086726 -0.15647082 0.01651466 0.10812548 0.15182571 0.08847361
0.09264396 0.015699461 0.03011418 0.10530815 -0.12013719 0.14591002 -0.3000583 -0.2664849
-0.2924633 -0.32631132 0.053283133 -0.19080181 0.02211118 0.12685713 -0.2919469 0.04183454
-0.14895207 -0.06878688 -0.38473734 0.105986945 -0.19089656 -0.25777695 -0.12850164 0.21985018
-0.23618996 0.06054051 -0.011294953 -0.118554115 -0.16549009 -0.0037843678 -0.15359463 -0.020329917
0.011268363 -0.14475834 -0.22652923 0.1085719 -0.26568878 0.0599087 -0.17855647 0.02315985
-0.31973988 0.035641883 -0.03843941 0.13677016 -0.18465625 -0.049079634 0.03222208 -0.19216906
-0.10159565 -0.31828475 -0.2418203 0.11678624 -0.26440126 0.17822017 0.06315747 0.0764034
0.102740996 -0.26760444 -0.3765903 0.024176182 -0.21294653 -0.017330311 -0.0983982 0.078557715
-0.27834493 -0.31003955 -0.36924088 -0.084803045 -0.3416546 0.0854487 -0.026236895 -0.013396757
-0.1661919 -0.36222062 -0.04019113 -0.17839219 -0.1245631 -0.012270224 -0.24298164 -0.07732603
-0.013874706 -0.15519758 -0.32328692 -0.14558546 -0.4340909 -0.053002164 -0.14873552 -0.06457296
0.028177153 -0.22207527 0.081646904 0.12487369 -0.23162816 0.06243231 -0.1721553 -0.2565576
0.06947939 -0.15936975 0.09148372 -0.04219949 -0.042993672 0.172659 -0.11903511 -0.26882175
-0.2616712 -0.13964497 -0.06872325 0.14743645 0.113771796 -0.40096226 -0.0065030153 -0.24706468
-0.13599853 0.12860955 0.032443125 0.10897412 -0.17903084 -0.19584881 -0.1831152 -0.1265215
-0.25143433 0.1323871 -0.17612667 -0.052672807 -0.30596843 0.0872978 -0.16556747 0.19633877
-0.24333034 -0.038142893 -0.15301336 -0.13110578 -0.02211817 -0.12045983 0.16083676 -0.07947471
0.028685324 -0.06309782 -0.15556656 0.101469085 -0.14974439 0.1520996 -0.08169611 -0.096148536
-0.22645335 -0.29029226 0.06634863 -0.17808956 -0.22763552 -0.030779341 -0.33120462 -0.29534262
-0.104096405 -0.09784629 -0.10727842 0.017275322 -0.057023786 0.022064602 -0.15511501 -0.2501206
-0.010004144 -0.046859205 0.100490846 0.0850444 -0.20342211 0.081285335 -0.252033 0.088192776
-0.1381119 -0.060481235 -0.09527242 -0.13388635 0.037236683 -0.22372328 -0.06631105 -0.09515344
-0.21180065 0.017208336 0.10025761 -0.020962521 -0.26462406 0.11095293 0.087397195 -0.12253974
0.12605527 0.091544315 -0.20636672 -0.021118503 -0.043034293 0.014567852 0.047255717 0.062386945

_fc2.weight f4 [256, 256]
00000000: b21e fbbc 177f bd3d 1c08 dcbb 451f 9ebe
00000010: 31bf 1e3e 2298 6cbe c550 4e3e be01 d8bb
00000020: c97c 93be 46dc 1abf be3d 563e 1699 003d
00000030: 13e0 3abe 1d6c 28be 4a58 8abc 4f1b 00bb
00000040: 7419 153d eb9a f3bd ffd9 9b3e f335 123e
00000050: fe6d b53d df28 25bf 112c 423d d557 40be
00000060: 95e0 22bf ebee 82be e954 0e3d 7c85 1a3e
00000070: d49c 113e 7690 af3d ca56 75bf a6b4 afbd
00000080: 43e4 ddbd a897 ce3c 8c52 c2be cb8c bf3d
00000090: 01f0 e63d b282 0a3f 8fab d33d 08c2 68bf
000000a0: 9956 3fbe 0847 c83d 0650 8dbe 9898 bd3c
000000b0: b981 9ebe 9fcc ce3d c5ec fbbd 6dc3 49be
000000c0: 0477 9f3d b6c1 60bd 55d2 bdbe 4813 f0b9
000000d0: a3c2 553d 78c7 08be d601 c63d d77c 52bc
000000e0: bc44 8f3d 5e10 d3be 0f94 afbe 4731 69be
000000f0: e1b6 4abe 0685 8a3d d65f 3ebf 561a e0be
00000100: 99a1 16be 466a 103d c925 cabe 9198 44bc
00000110: 66c6 19be ff27 f7be 44b0 073d 1621 dc3d
00000120: 79a6 24bf a61c 0a3d 6c90 09bf 32fc 7e3e
00000130: 946b 3abf 2023 2c3e aae4 7e3e 5a67 4e3c
00000140: 7872 d03c 40cb 69be 6658 cf3c 7566 fabe
00000150: 84b6 8a3e 2acb 503e 664c acbc 30c1 9c3c
00000160: 0814 af3e 1386 6e3d b431 b8ba 44eb 26be
00000170: 64f0 21bd 1b5d 44be ea56 a7bd 150b de3d
00000180: a491 803d 33c2 0b3f daa8 363d 6cbc e93d
00000190: a28f 93bd 4a91 4c3d 811e e9bd 41e8 02be
000001a0: b3e3 0cbd c30b 05bf ba4b 6e3d 52e1 3cbd
000001b0: 403d 9b3c 9ae6 a43c 09af 803d d04e 173e
000001c0: 1e3a a0bd 59d7 b33d b0c8 cdbe b32b bb3d
000001d0: 6abd 6e3d d482 fe3d 5d80 b83d 6078 61be
000001e0: 9c41 40bc bdc7 463c 2a68 0d3e 2acf 033e
000001f0: 583a 5f3c 9d97 60be 6ff9 7fbe 2518 273d
00000200: c006 e43a d93d 75be 814f a73e 2853 e13c
00000210: 4ccc 3e3e 5e64 0a3e 7a58 02bf 6fbe debd
00000220: 018e 9ebd 5a09 113d 2ec0 a1be 70d9 b2be
00000230: 19f0 423e cf6c 893e a8b0 0bbf 57b3 b8bd
00000240: 6b53 64be 037d 4f3d ef19 4e3e e0b7 023e
00000250: f846 b93d ffed a33e 33b6 843d d4cf c3be
00000260: 647b 1b3e 7733 41be 503e 1a3d f763 923d
00000270: 228c b03d 731f f63d 43f6 b0bf 1f44 41be
00000280: 196f c73c 6fed 183e 2087 1abe cb88 503c
00000290: 507c 233d 8195 213e dfdd 003e ed4d 80bd
000002a0: 0b6d 733e cc96 14bf 78fb 353d 5fb6 4cbd
000002b0: 9a33 033e bc38 163f 3b89 a43e 13e5 113d
000002c0: f457 d2bd 4eb6 b8be 7842 0f3e 00f7 233e
000002d0: 50bd 82be 0bf7 143e 45d0 84be 9cc8 e5bf
000002e0: 3c93 51be 1d59 d4bd be7f 82bd f2ca e6bf
000002f0: 8400 94bf 7d4a 73be d0c8 00be 917f 6ebd
00000300: 80ff e63e d38e 0cbe 7e6c 2fbc a0ff 99be
00000310: aea6 a03d 17f5 6fbe cd17 0a3d a89e 8e3e
00000320: 1819 a93d d20f 78be 0650 273e ecc1 edbe
00000330: eabf 793c 9558 403d c764 aabe f596 bebf
00000340: d0b1 5fbe 3fe4 7e3d c4f8 92be bd48 a0bd
00000350: e62c 72bd 521b 883d 0e6c b6bd 4263 d53b
00000360: da3c ddbd 785c 8fbe 8a7a 823d 1eb3 b53e
00000370: 960a 36bd 7fd5 22be c491 f73d 33a6 8abe
00000380: b4da 1e3e 7b54 a2bc e833 b33d a8f9 d63d
00000390: 28e7 7f3e 5c60 cbbd 8061 d03d 6cf3 e23d
000003a0: a9e8 cebe bc2e 70be 8cc1 933d 967f d13d
000003b0: 5e4b da3d c8d8 373e 7243 2dbf f702 36be
000003c0: e7b1 523e b1f4 a3be 9c9f 113d 1e81 333e
000003d0: d7e3 21be 701c a4be 6867 063e ed71 76bd
000003e0: 04b5 94be dda5 0dbf c34d bcbe caa3 d4be
000003f0: 37b3 533c a454 9c3d 2db5 ae3e 40b7 853d
-0.030654285 0.09252756 -0.006714834 -0.30883232 0.15502621 -0.23104909 0.20147999 -0.0065920046
-0.2880614 -0.6049236 0.2092199 0.031395994 -0.1824954 -0.16447492 -0.016887803 -0.0019547527
0.036401227 -0.11894783 0.30439755 0.14278392 0.0885887 -0.6451549 0.047405306 -0.18783505
-0.63623935 -0.25572905 0.034748945 0.15089983 0.14219981 0.085724756 -0.95835555 -0.08579378
-0.10834553 0.0252188 -0.37953603 0.09353026 0.11276246 0.54105675 0.103354566 -0.9092107
-0.18685378 0.09779173 -0.27600116 0.023144051 -0.30958346 0.10097622 -0.123010196 -0.19703455
0.07786372 -0.054872237 -0.37074533 -0.00045790733 0.052187573 -0.13357341 0.09668319 -0.012847147
0.06995532 -0.41223425 -0.34292647 -0.22772704 -0.19796325 0.067636535 -0.74364984 -0.43770093
-0.14710082 0.0352576 -0.39481953 -0.011999265 -0.15017089 -0.48272702 0.033127084 0.10748498
-0.6431652 0.033718728 -0.53735995 0.24900892 -0.728204 0.16810274 0.24891916 0.012597883
0.025445208 -0.2283144 0.025310706 -0.48906294 0.27092373 0.20390001 -0.021032523 0.019135088
0.3419497 0.058233332 -0.0014052899 -0.16300684 -0.039535895 -0.19176142 -0.081708744 0.108419575
0.06277779 0.545932 0.044594623 0.11412892 -0.0720513 0.049943246 -0.11382771 -0.1278391
-0.03439684 -0.5197107 0.058177687 -0.04611332 0.018950105 0.02012949 0.06283385 0.14776158
-0.07823585 0.08781309 -0.40192175 0.09139194 0.058286108 0.12427297 0.09008858 -0.22018576
-0.0117343925 0.012132582 0.13809267 0.12871996 0.01362475 -0.21932836 -0.24997495 0.04079451
0.0017397031 -0.23949374 0.32677844 0.027505472 0.1863262 0.1351485 -0.50916255 -0.10876166
-0.07741929 0.03540931 -0.31591934 -0.34931517 0.19036902 0.26840827 -0.5456643 -0.09018581
-0.22297446 0.05065633 0.2012708 0.12765455 0.09046739 0.32017514 0.06480064 -0.38244498
0.15183789 -0.18867289 0.037657082 0.07147973 0.08620478 0.12017717 -1.3825153 -0.18873642
0.024344968 0.14934324 -0.15090609 0.0127279265 0.039913476 0.15779687 0.12584637 -0.06264863
0.23772065 -0.580426 0.044429272 -0.04997861 0.12812653 0.5868032 0.3213595 0.035618853
-0.10270682 -0.36076587 0.139902 0.16012192 -0.2553506 0.14547364 -0.25940147 -1.7951846
-0.20466322 -0.103685595 -0.06372021 -1.8030684 -1.1562657 -0.23758884 -0.12576604 -0.058227126
0.45116806 -0.13726358 -0.010707019 -0.3007784 0.078442916 -0.23433338 0.033714104 0.2785542
0.082567394 -0.24224785 0.1633912 -0.46437013 0.01524351 0.04695948 -0.33280012 -1.4889818
-0.21845174 0.06222939 -0.28705418 -0.07826374 -0.05912485 0.06645836 -0.089073285 0.0065120766
-0.10802622 -0.28000236 0.06371029 0.35488218 -0.04444369 -0.15901755 0.120883495 -0.27079925
0.15513116 -0.019815674 0.08750135 0.10496837 0.24990523 -0.099304885 0.10174847 0.11081585
-0.4041188 -0.23455328 0.072146505 0.10229413 0.106589064 0.17953789 -0.6768104 -0.17774568
0.20575677 -0.32022622 0.035552606 0.17529723 -0.1580957 -0.32052946 0.13125384 -0.06016724
-0.29044354 -0.5533121 -0.36778077 -0.4153121 0.012921146 0.076333314 0.341226 0.06529093

_fc2.bias f4 [256]
00000000: cfeb c9bd 5446 50bd 63bb 1f3d 43fb f83c
00000010: e473 4dbe 81cc 223d 5266 c8bd 37e2 b9bc
00000020: 8293 15bb 8a1a 1cbe c215 4bbe 81cf 8bbc
00000030: a13c 89bd d19d 16be 6c1f 98bc 82f2 f83c
00000040: e3c0 60bc 273e 55bd 89e0 10be ab84 53be
00000050: fa6a c33d 1217 98bd 29cc 35bd f329 07bd
00000060: 3eb1 e33b 4802 333c 92dd a93c e925 30bd
00000070: 0bd0 bbbc 8580 8bbd 7842 fbbd c4a2 d7bd
00000080: 433f 66bc 43ad 943a 8eae 43bd 7f95 3cbe
00000090: f8c1 4abd 18ca 37bd fbdf 26be 1881 10be
000000a0: 2025 30be d2c3 57bd dfd4 d3bc c75e 1fbe
000000b0: 4352 65bd ac57 1bbd 150f edbb 4c64 2ebd
000000c0: 7cd4 8ebd edc0 87bd 2dc1 80bd 4ed7 9fbd
000000d0: ffe3 003d fd25 a3bd 01d7 00be fad2 053d
000000e0: 4685 1c3e 5277 b0bd abab adbd 4a66 03bd
000000f0: c6dc 1ebc 4404 f5bd a867 8bbd 987b 9bbd
00000100: bde3 c33d 60ad ddbc 7b99 0cbd 6035 08bd
00000110: 9b5d 02be c17c 99bd 3479 d33c e9ed b83b
00000120: d8fb bfbd f680 c5bd bba7 a0bc 0a3b 8a3d
00000130: 9006 96bd 1e0c a6bd 94ac afbd 25ca 5cbd
00000140: b436 1abd 843b 7bbb da92 52bd df6b 89bd
00000150: 3c4d b8bd dee1 abbc 1774 9dbd bc38 87bd
00000160: f2ab b0bd 602a 83bd 3d94 8bbd 6cbc 083e
00000170: b885 07bd c7cc 5a3d 9389 d73b 6fe4 cebc
00000180: 902e 1fbd 5f6d 63bd cc6b fcbc cfe2 85be
00000190: 333e 9fbd 846f 20bd a5b2 74bc 0fbc 0cbe
000001a0: 4d1a 35bc 48eb 9fbd d149 6abc 27b3 adbd
000001b0: 0ba6 83bd b760 38bc c049 8cbd 9b1d b1bd
000001c0: 57ba 0b3e c066 25bc 106b 70bc 74b3 393e
000001d0: b436 cebc 0c26 093d 6ef5 b2bd ae25 debc
000001e0: f9f0 8a3b c50c a8bc e1f3 8bbd e7d9 ff3b
000001f0: f9bb b8bc 4d6d 97bd 75d4 19bd a975 7b3b
00000200: e01b 8dbd ecd3 64bd a8c1 993c 2e05 74bd
00000210: a41e c2bd a76c 0e3e 3168 e2bd cbc2 85bd
00000220: 911d a5bb 5b48 48be ca06 783c 9159 cfbd
00000230: 329b 2ebd af4c fa3b 700b b2be ddee 21be
00000240: f4ff 95bd f00d dbbd aad6 f9bd d699 9bbd
00000250: fa27 e5bd 0b7e 9b3d c8b4 60be d1bc c43d
00000260: 4aba 9a3d d188 14be 3bda d0bd 57fb f1bd
00000270: 569e eabc bb91 13bd 69cb 5bbc 6e00 37bd
00000280: de21 d23c bd4a 26be fcc8 9cbd 8632 e4bd
00000290: b35a 60be 3b34 0b3d c5dc 9abd 8238 8abd
000002a0: 2cdf c7bd 488f 18be efa6 9ebc 9c56 09be
000002b0: c821 b7bd f0a9 91bd e545 2abd e4c3 a5bd
000002c0: 0d2e 73bd d0b8 acbd 9698 20bd a596 563b
000002d0: 05a6 19bd 319b 28bd 7ac9 78bd 8649 39bd
000002e0: ece9 73bd fb92 9dbd b0d4 8bbd 123e b1be
000002f0: 430c 49be 04e9 9abd 0cb6 cdbd 9f6d 3bbd
00000300: 64d2 dfbc b18f 5cbd 46c7 c73c 635e edbd
00000310: c54a 42be 8cce 0fbd fd49 e5bc 9b00 5b3c
00000320: 3c46 bbba 6427 41be edca 1c3e d29b 05be
00000330: a221 b6bd 008a 9abd 1219 b63c eafa 08be
00000340: 12a3 bebd b477 6d3d eb85 c53c d8f4 a7bd
00000350: baa7 20bd a1a6 a43d 3a98 3bbd d331 4ebc
00000360: 944f 453e 2219 403c eb15 443d fa8a dabc
00000370: 0344 26bd 4dd3 02bd da85 f2bc 41b5 f93b
00000380: dafb 293a 917c f5bd 0066 9bbe 50e5 7abd
00000390: 8883 94be 2dcc 61bb ee27 89bd 598a 173a
000003a0: e9dd 673c 5d0f c73c 0295 97bd 229a d1bc
000003b0: a6ce ddbc 3759 523c 6da0 a7bd 1ac2 70bd
000003c0: 348e 18bd 237f b5bb 2837 68be 7d70 3fbd
000003d0: 066a d0bc ba58 c03d 1658 04be cb3c 81bd
000003e0: 8534 a5bd f395 31bd 0984 99bd 4ee9 843d
000003f0: 8d5d 07bd 1e58 0fbd 4028 c6bd 9f88 7ebe
-0.0985943 -0.05084832 0.038997065 0.030393248 -0.2006374 0.03974581 -0.09785141 -0.022690875
-0.0022823517 -0.15244499 -0.19832519 -0.017066719 -0.06701017 -0.1470864 -0.01856967 0.030389074
-0.013717863 -0.052061226 -0.14148153 -0.20656078 0.095418885 -0.07426275 -0.044384155 -0.03299899
0.006948619 0.010925837 0.020735536 -0.043004904 -0.022926351 -0.068116225 -0.12268537 -0.10529092
-0.014053169 0.001134314 -0.04777389 -0.18416403 -0.04950139 -0.044870466 -0.1629638 -0.14111745
-0.17201662 -0.052676983 -0.02585834 -0.15563498 -0.055986654 -0.037925407 -0.007234464 -0.04257612
-0.06974122 -0.066285945 -0.06286845 -0.07804738 0.031467434 -0.0796623 -0.12582017 0.032671906
0.15285215 -0.086165085 -0.08480009 -0.032079972 -0.009696191 -0.11963704 -0.0680688 -0.07591933
0.09564922 -0.02706021 -0.034326058 -0.033254027 -0.1273102 -0.07494498 0.02581463 0.0056435955
-0.09374207 -0.09643738 -0.01961123 0.06749542 -0.073254704 -0.0810778 -0.085778385 -0.053903718
-0.037649825 -0.0038335035 -0.05140958 -0.06710028 -0.08999106 -0.020981725 -0.07688158 -0.06602618
-0.08626546 -0.06404567 -0.068153836 0.13353127 -0.03308651 0.053417947 0.0065776794 -0.02525541
-0.038862765 -0.055524226 -0.03081312 -0.26149604 -0.077755354 -0.03916885 -0.01493517 -0.13743614
-0.011053634 -0.07808548 -0.014299826 -0.08481436 -0.064281546 -0.011253527 -0.06850004 -0.08648225
0.13645302 -0.010095298 -0.014673963 0.18134862 -0.025172569 0.03348355 -0.08738218 -0.027117576
0.004240152 -0.020513901 -0.068336256 0.0078079584 -0.02255057 -0.07393894 -0.03755613 0.0038369691
-0.06890082 -0.055866167 0.0187691 -0.059575252 -0.094785005 0.13908635 -0.11055029 -0.065312944
-0.005038925 -0.19558851 0.015138337 -0.10124505 -0.042628475 0.007638536 -0.3477435 -0.15813775
-0.0732421 -0.10696018 -0.12199147 -0.07597701 -0.111892655 0.075924 -0.21943963 0.09606326
0.07555063 -0.14505316 -0.10197874 -0.118155174 -0.028639954 -0.03602765 -0.013415196 -0.044678144
0.025650915 -0.16239448 -0.07655522 -0.11142449 -0.21909599 0.033985358 -0.0756164 -0.06749059
-0.097593635 -0.14898407 -0.01936671 -0.13411945 -0.0894199 -0.07112491 -0.041570563 -0.08094004
-0.05937009 -0.08433688 -0.039208017 0.00327436 -0.037511844 -0.041163627 -0.060739018 -0.045236133
-0.059549257 -0.0769405 -0.06827676 -0.34617668 -0.19633584 -0.075639755 -0.10044488 -0.04575884
-0.027322002 -0.053847972 0.024387013 -0.115902685 -0.18973835 -0.035109088 -0.027989382 0.013366844
-0.0014287899 -0.18862683 0.15311785 -0.13047722 -0.08893134 -0.07545853 0.022228751 -0.13376966
-0.09308447 0.057975486 0.024111709 -0.08200997 -0.039222457 0.080395944 -0.04579947 -0.012585121
0.19268638 0.011724742 0.047872465 -0.026677597 -0.040592205 -0.031939793 -0.029604841 0.007620484
0.0006484367 -0.1198665 -0.30351257 -0.061253846 -0.290066 -0.0034453974 -0.06697069 0.0005780808
0.014152029 0.024299318 -0.07401468 -0.025586192 -0.027076077 0.012838653 -0.08184896 -0.05877886
-0.03724499 -0.0055388375 -0.2267729 -0.046738137 -0.02544118 0.09391923 -0.12924227 -0.063104235
-0.08066658 -0.043355893 -0.07495887 0.06489812 -0.0330482 -0.034996144 -0.09675646 -0.24856804

_value.weight f4 [1, 256]
00000000: c475 8cbe 6cfb 20bd 86c8 15bc 111b 143d
00000010: 3ec8 c53d 6801 493d b227 c7bd c0bf 3d3c
00000020: 8dbf 48bc f7ce 483d ada3 133d 1d6b ef3e
00000030: c275 c83b 1fb5 2d3f a893 c03e 61f0 783d
00000040: 1293 baba f7b3 983c 1e71 973e 14b4 bc3d
00000050: 284e 433e cbf5 c83c cd3d b3bb eed2 54bc
00000060: c2e6 c9bd 98f8 1bbd 170b 96bc c8e2 e53c
00000070: 1d10 de3c b791 293f 2caa c0bd e80f 7cbd
00000080: 8932 4bbc 0ee4 c1bc 507f ef3e 9d38 483f
00000090: 2a47 b1bc b210 a9be be72 c03e cb5c a1be
000000a0: ccb4 16bf b704 debd df3b 06bf e760 90be
000000b0: 8ce7 18bf 8613 1a3f cf80 22bd 1f91 5abd
000000c0: 03ae 75bd ffe9 013f e23c 9bbc a513 08bf
000000d0: b0ca 9ebe a681 ed3c aee3 103f 08e6 dbbc
000000e0: a066 d93d 91db 713d ca90 a9be 2c37 a53e
000000f0: b084 7e3c d13d 143d 1011 58bd 7d0d e7bd
00000100: 52e0 763d 1dcb b0bc 4e3f a83c 5261 97bd
00000110: de9d 1fbf 04e7 d5bc 849a 25ba be44 08be
00000120: 5bc6 88be 753e c53e 6d66 38bf 2529 44bd
00000130: 3de0 433e 08c9 c3be caaf 1cbf 46d4 84be
00000140: 8cd0 8fbe 16a4 f4bd f5ee 233d de03 e5bd
00000150: d09c 1dbf 254a d8be be93 c63e 847e 5d3e
00000160: 1995 7a3e e7f9 05bd e3f6 b3bb 5c7d c43d
00000170: 8f3b 51bd 9254 983d f6bf 27be 7c9e 07bf
00000180: 8f3a 163c 694b 9cbc da1d cdbd 5d85 2a3e
00000190: dc21 4dbf 6fc9 7ebe 0929 11be af43 69bd
000001a0: ed4b 9b3b 3c6f 463e 8d0c 2ebd a56b 95bb
000001b0: 8e5f 4abe 8e4a e33b 5ef6 9b3c 51e2 af3e
000001c0: 659c ac3c f03d 35bb 3daf 59bd 16f4 ea3d
000001d0: 22c9 ac3c 5e5d 10bd 71e0 afbe 661b dc3e
000001e0: caf3 a63c f31b ebbe 5813 fdbb aebd 3d3c
000001f0: b82f 053d 64cf edbc fd98 a9be 25b6 883d
00000200: bfdf 493d 23dc 5d3c 80ba 71bf 7c78 923e
00000210: 12be 7dbf 61fb c43e 62d5 983e 9409 8e3a
00000220: 32fb b13d f355 67bf 0e2d 333c 6865 683e
00000230: 9512 1cbe acd0 dc3b 4617 44bd 5a10 28be
00000240: 789d 1a3e 9f2b 453f 9845 b43e 8e42 123d
00000250: ba03 fc3e 43ab bf3e 08d0 853e 4756 e23d
00000260: 0146 adbe 682b e83e 8512 86bd 5225 b4be
00000270: b1df 96bd e83e d13d 5d19 1cbc ccdd 74be
00000280: fa04 b13d 55c3 80bd ca15 1bbd 0720 9cbe
00000290: 04a5 873f d6ad ec3d da9c 22be 7343 653d
000002a0: 5374 86be 0d69 753e c713 e5be 9b06 2a3e
000002b0: 938d 043d 98fc 8d3d 6dc2 1a3c 3907 aabc
000002c0: 2dfe 49bc e65e aebe 330b b1bc 6024 253c
000002d0: 993e e33e 72e4 c3bb ed51 023c 7bf4 5e3c
000002e0: 4449 38bd 7554 acbd cc86 f73c cb80 4bbe
000002f0: 350e 80bf bf05 d8bc a191 23bf f387 8f3d
00000300: d82e 243e 6b55 aabd f820 0b3f ba30 3b3e
00000310: 25f8 c1be b5bd e5bc 897c 02be ddeb 2fbb
00000320: 7e43 1abf 3cbc ac3d 9f54 a33c 1a9f 86bf
00000330: 5334 1dbd 13c3 853d 8319 ffba ce35 5d3d
00000340: ae70 0e3f 56f0 3d3e 9e8d 033d 1492 123f
00000350: 1236 71be 66af 423d 691d d5be 41bb 0b3d
00000360: 6093 b53d f3d8 f5bd c443 22bc 3db2 1a3e
00000370: 0c80 d1bb 73c3 4abd 4680 29bd b309 053e
00000380: 466d b6be 7146 883a 234c 433f ac8c d0be
00000390: 0299 aabc 28e2 d9bc c2dd 70be 8ce0 e8bd
000003a0: 6dd7 2a3d 0164 c6bd b282 a1be f0e8 4bbd
000003b0: 2b04 76be b4ac eebe 62ab d73d 477b f3bd
000003c0: 8536 053c e702 f6bb 8d73 803e 2425 9e3c
000003d0: a1a8 743c 381e 0e3f f27f 18bf a0b7 febc
000003e0: 8952 3cbe 5d27 d3bd 12b5 0d3e 054a 8fbe
000003f0: 2d29 583c ace5 b73d 2844 093f 2ec7 d9be
-0.27433598 -0.039302275 -0.009142047 0.036158625 0.09657334 0.049073607 -0.09724368 0.011581361
-0.0122527005 0.049025502 0.036044765 0.46761408 0.0061175535 0.67854494 0.37612653 0.06077612
-0.0014234504 0.018640501 0.2957849 0.09214035 0.19072783 0.024531266 -0.0054700137 -0.012989743
-0.09858467 -0.038078874 -0.018315835 0.02806224 0.027107293 0.6623797 -0.09407458 -0.061538607
-0.012402185 -0.023668315 0.4677682 0.78211385 -0.021640379 -0.3302055 0.3758754 -0.31516108
-0.58869624 -0.10840743 -0.52435106 -0.2819893 -0.5972831 0.6018604 -0.039673623 -0.053361055
-0.059980404 0.50747675 -0.01894993 -0.53154975 -0.31014013 0.028992485 0.5659741 -0.026843086
0.10615277 0.059047285 -0.33118278 0.32268655 0.015534565 0.036191765 -0.052750647 -0.112818696
0.060272522 -0.021581227 0.020537999 -0.07391609 -0.6235026 -0.026111133 -0.0006317275 -0.13307473
-0.26713833 0.38524213 -0.7203129 -0.0478908 0.19128509 -0.38239312 -0.6120573 -0.25943202
-0.28088796 -0.119453594 0.04002281 -0.11182378 -0.615674 -0.42244068 0.38784593 0.21630293
0.24470939 -0.03270903 -0.0054920777 0.09594223 -0.05108219 0.074380055 -0.16381821 -0.529762
0.009169235 -0.019078927 -0.10015459 0.16652437 -0.8012979 -0.24881528 -0.1417581 -0.056949314
0.0047392757 0.1937837 -0.042492438 -0.0045599514 -0.19763014 0.006936378 0.019038375 0.34352353
0.021070668 -0.0027655326 -0.053145636 0.11472337 0.021092001 -0.035245292 -0.34350923 0.42989653
0.02037992 -0.4591976 -0.007723253 0.011580868 0.03251621 -0.029029556 -0.33124533 0.06675366
0.049285647 0.013541254 -0.944252 0.28607547 -0.9911815 0.38473037 0.29850298 0.0010836595
0.0869049 -0.90365523 0.010936035 0.22694933 -0.15241463 0.006738743 -0.047873758 -0.16412488
0.15099132 0.77019686 0.35209346 0.035708003 0.49221593 0.3743535 0.26135278 0.11051612
-0.3384247 0.45345616 -0.06546501 -0.35184723 -0.073668845 0.102170765 -0.009527531 -0.23912734
0.08643527 -0.06287257 -0.037862577 -0.30493185 1.0597234 0.11556594 -0.15880147 0.055972528
-0.26260623 0.23965855 -0.4474165 0.16604082 0.03236158 0.06932944 0.009445769 -0.020755397
-0.012328667 -0.34056777 -0.021611786 0.010079473 0.44383696 -0.0059781605 0.007954103 0.013608093
-0.044991747 -0.084145464 0.030215643 -0.1987335 -1.0004336 -0.026369927 -0.6389409 0.07008352
0.16033494 -0.083170734 0.5434718 0.18280306 -0.37884632 -0.02804456 -0.12742819 -0.0026843466
-0.60259235 0.0843434 0.019937811 -1.0517304 -0.03837998 0.06531348 -0.0019462559 0.05400639
0.55640686 0.18548712 0.03211748 0.5725415 -0.23555782 0.047530554 -0.41624 0.034114126
0.08866 -0.120042704 -0.009903852 0.15107055 -0.006393438 -0.0495028 -0.041382097 0.12991981
-0.35630244 0.001039697 0.7628805 -0.40732324 -0.020824913 -0.026597098 -0.23522094 -0.11370954
0.041709352 -0.09687043 -0.31545025 -0.049782693 -0.24025027 -0.46616137 0.105307356 -0.11888748
0.008130674 -0.00750767 0.25088158 0.01930482 0.014932782 0.5551486 -0.5957023 -0.031093419
-0.1839086 -0.10310242 0.13838604 -0.2798616 0.013193411 0.08979353 0.53619623 -0.42534775

_advantage.weight f4 [3, 256]
00000000: f70a e1bd 124f 433d 20a4 f73c ed7f ad3d
00000010: 26fb 813c 74f8 203c f479 8e3e c7f9 57bc
00000020: 3d2e c2bc 9daa c73b 2389 7b3c a4b5 8e3d
00000030: 9b03 213c 68e1 d33e a161 8b3e 19a3 b43d
00000040: bec9 2b3d 047e a9bb 3b3b 063e 7b61 9f3c
00000050: a067 033c 2af7 1b3b 08fa 3cbc 0ea9 98bc
00000060: 56ed 993c f685 2a3d 7e34 8b3d 28fb c83d
00000070: e572 4e3c e611 ab3e dc32 eebc 3ac4 25bd
00000080: 647f 99bc 73a4 2a3d 8473 263d 62aa a33e
00000090: e662 663d 5f44 6c3d d9f8 5e3e 8216 1ebe
000000a0: cf9c 88be 6507 69bc 447e 16bd d574 a5bd
000000b0: e223 9cbe 7688 053f dc18 c6bd 398b 51bd
000000c0: 094f c3bc 06b3 113e d5b4 98bd fd71 73be
000000d0: 26ae f1bd 5da2 843d c943 b23e 1e4e d23d
000000e0: 39fc 233c da1a f8bc 58f6 c1bd ca35 6a3e
000000f0: 5c89 3ebd a74f f83d 92e7 343c 3379 e0bc
00000100: cc14 88bb c8c2 2e3d f798 19bd 52b5 04bb
00000110: dbf7 82be 36e0 25bd b975 00bd 636b 0dbe
00000120: f84f fabd 5a8d f53e 573c 4c3d d3fc 30bc
00000130: 057c 243e 7ed9 89be e506 6dbe 8d95 de3d
00000140: 8bff 133e de9b 1ebd 6bb5 15bc 19a2 3cbe
00000150: 3326 8bbe 8c51 7abe 8fd4 723e 98f1 a8bd
00000160: 50b8 d13d cc16 b0bc 7ea3 eabd 45df 173e
00000170: 23a8 803c da71 7fbc 07a2 2cbd cf4f bbbe
00000180: b004 3bbc f616 4c3d b143 8d3e 6a18 2d3d
00000190: a64e 74be 8e06 9abd be96 9c3d fb8c 16bd
000001a0: 52f7 be3b 4b4f 883d 58c4 263d ffbc 8bbd
000001b0: 5f80 7abd 3118 443d 48e6 d43c 8ab2 49be
000001c0: 53fe 2c3d b950 3d3c 3bbf ebbc 32c5 713b
000001d0: 4314 3abd b238 e93c 5f61 02be 66fd 293d
000001e0: a12e 1a3d 5bbc d5be d2c0 823d 740e 83bd
000001f0: fb2d 24bb 9972 3fbd b989 f63d f9cb 2d3d
00000200: 3f01 f63c 4886 393d 40f5 fcbd 7aa5 db3d
00000210: c281 67bf 8147 c03c bf04 183e c1ef 2dbd
00000220: 559e 753d 449f 84be fecf f23c 4a4d 1a3e
00000230: 8eba d83c bb93 1fbc 3ec1 2ebd c732 8abd
00000240: 0589 e83d 16c3 943e 552f 3a3e 547a 333d
00000250: 3c54 9d3e c6ae 3f3e ef9d 073e 65d9 1f3d
00000260: 0a91 293f 3ff0 243e c8d9 98bd 3742 5b3e
00000270: 3bd4 0ebd cc1c 0c3e 97d5 7d3b 9d2b f5bd
00000280: 900d 033b 0212 98bc 3d70 043d 2797 83be
00000290: 9792 ad3e 6596 8c3d 66e3 91bd adab 5c3d
000002a0: dc83 bcbd e059 143e b2f2 8dbe ea4d cd3d
000002b0: 0369 2cbb f906 173c 3a4c eb3d d11d e43c
000002c0: 5cba 403d a2a6 fe3d 4d4a 013c f9d5 1abd
000002d0: b902 ad3e 27ae 93bc 03ec 12bd a937 18bc
000002e0: f0ae 063d 5095 c2bd 537a 473c ff2a 16bc
000002f0: 8b87 6abd dc40 33bd 6042 88be 04c7 eb3c
00000300: 8c90 b03c 6584 983c 3f42 9e3e e003 4b3d
00000310: 49b5 3cbe 1bdf 1e3d 3afc cdbc a147 e43b
00000320: 2b2c aebe 616f 563a c75d 873b b7b3 8cbe
00000330: a091 18bd 3c60 323c cd21 dc3b bcd4 773c
00000340: 915a b93e 85ba 6a3d 6f26 07bb e5f7 a93e
00000350: 394e babc ca88 9c3c 195e ab3d 0fef 24bd
00000360: 69c9 913c 3543 b5bc dd32 013d 3165 2b3e
00000370: 1d94 453d bc04 9e3d 61a2 413d 8c1b c73c
00000380: 69d6 d4be c990 243c fa82 5a3d 0dd8 5ebe
00000390: 8539 1bbd 6925 0b3d 46c3 1fbe 4216 e9bc
000003a0: c146 a93c 3b9f 1d3c 9dc0 e3be c1a9 fcbc
000003b0: fa33 c73d 5649 bebe 00d1 6e3d 3910 aabd
000003c0: 9429 ad3c 6d98 eabb 9656 d93d 9aa1 ccbc
000003d0: 8a4c 1b3d 4643 013f fb6e 88be 9b7c 38bc
000003e0: 1c9b 153e f84e 273c b6ef 583e 0f49 0cbe
000003f0: e77c a3bc 209c 013d ebd6 9f3e 9110 fbbd
-0.109884195 0.04768283 0.030229628 0.084716655 0.015866827 0.009824861 0.27827418 -0.01318211
-0.023703689 0.0060933367 0.01535252 0.06968239 0.00982752 0.4138291 0.27222922 0.08820171
0.041940443 -0.005172493 0.13108532 0.019455662 0.008020312 0.0023798444 -0.0115342215 -0.018635299
0.018789928 0.04163166 0.067971215 0.09813529 0.012600635 0.33412093 -0.029076986 -0.04047034
-0.018737502 0.041660737 0.040637508 0.3196593 0.05624666 0.05768239 0.21774615 -0.15438274
-0.26682135 -0.014222954 -0.03674151 -0.080789246 -0.30496126 0.5216135 -0.0967271 -0.051158164
-0.023841398 0.14228448 -0.07456366 -0.23773952 -0.11800794 0.06476281 0.3481734 0.10268806
0.010008865 -0.030286241 -0.094708145 0.22872081 -0.046517715 0.121245675 0.011041539 -0.027401542
-0.00415287 0.042666227 -0.037499394 -0.0020249677 -0.25579724 -0.040497027 -0.03136227 -0.13810496
-0.12222284 0.47959405 0.049862232 -0.0108024655 0.16062935 -0.26923746 -0.23147161 0.10868368
0.1445295 -0.038722865 -0.009137492 -0.1842121 -0.2717758 -0.2444517 0.23713897 -0.08249205
0.10240233 -0.021495245 -0.11456965 0.14831264 0.015705174 -0.015591109 -0.04214671 -0.36584327
-0.011414692 0.049826585 0.27590707 0.04225961 -0.23858127 -0.075207815 0.07645939 -0.036755543
0.0058278227 0.06655749 0.04071459 -0.068231575 -0.06115758 0.047874633 0.025988713 -0.19697013
0.04223473 0.01155489 -0.02877771 0.003689122 -0.04542948 0.028469417 -0.12732457 0.041501425
0.037642125 -0.41745266 0.06384434 -0.06399241 -0.002505182 -0.04674015 0.12037987 0.04243085
0.030029891 0.045294076 -0.12351465 0.107249215 -0.9043237 0.023471596 0.1484556 -0.042464975
0.05996545 -0.2590276 0.029640194 0.15068546 0.026456144 -0.0097398115 -0.04266476 -0.06747966
0.113542594 0.2905509 0.18182118 0.043817833 0.30728328 0.18719015 0.1324384 0.039025683
0.6623694 0.16107272 -0.074634135 0.21411978 -0.034870367 0.1368286 0.0038732046 -0.11971209
0.0019997098 -0.018563274 0.0323336 -0.25701258 0.33900902 0.06864623 -0.07123451 0.05387466
-0.09204838 0.1448741 -0.27724224 0.100246266 -0.002630771 0.009217971 0.114891484 0.027846249
0.047052726 0.124341264 0.00789125 -0.037801716 0.3379114 -0.018027378 -0.03586961 -0.009290614
0.032881677 -0.09501135 0.01217516 -0.0091655245 -0.05725817 -0.043763027 -0.2661314 0.028781421
0.0215533 0.018617818 0.30909917 0.049564242 -0.1842853 0.03878699 -0.025144685 0.0069665466
-0.34018072 0.0008180049 0.004131052 -0.27480862 -0.037248254 0.010887202 0.0067178966 0.015126403
0.3620191 0.057306785 -0.0020622273 0.3319694 -0.022742378 0.019108195 0.08367557 -0.040267047
0.017796235 -0.022126773 0.031542648 0.1673782 0.048236955 0.07715747 0.047273997 0.024305128
-0.41569832 0.010044285 0.053347565 -0.21762104 -0.03789665 0.033971224 -0.15601835 -0.028452996
0.02066362 0.009620483 -0.4448289 -0.030842664 0.097267106 -0.37165326 0.058304787 -0.083038755
0.02113799 -0.007159284 0.10612218 -0.024979401 0.03791479 0.50493276 -0.2664717 -0.011260177
0.14609951 0.010211699 0.21185192 -0.13699745 -0.019957019 0.031643033 0.31218657 -0.12259019

_advantage.bias f4 [3]
00000000: 9724 86bc ab57 81bc dff0 7abc
-0.01637487 -0.015788874 -0.015316217

_out.weight f4 [3, 256]
00000000: 8887 c1bc 6012 0cbd a4d3 883c acf4 923c
00000010: 903d e43b f874 00bc b65f 0bbd 74c2 273d
00000020: 000a 52bc c484 dbbc 8078 0a3b c2b3 37bd
00000030: 504b 0c3d 82a9 0ebd eed0 5abd bae6 7bbd
00000040: 9a69 28bd 3899 7b3c 0006 053d e05e 4c3b
00000050: ce76 383d d68a 65bd 1852 ae3c aaa5 583d
00000060: 68ce c0bc 1096 0d3d 1c44 73bd 9c50 5d3d
00000070: e094 5f3b 522a 71bd 4c60 c33c f88d 723c
00000080: 408f 503c 0821 d4bc cc98 ef3c d0ec 823b
00000090: 4090 6a3d 249c 68bd e0ee acbb 00b9 4bbc
000000a0: 1821 d0bc e855 cabc f4e7 6ebd 2ecc 3abd
000000b0: 5870 6dbd 287d 31bd 70ea 6fbd 7c4c 02bd
000000c0: cc14 443d 5c54 31bd 601b 06bc 34aa 003d
000000d0: 9c1a 3dbd 2602 10bd c0c1 b4ba f6fc 0dbd
000000e0: c670 143d c8c3 433d 80d8 edbb 4031 703b
000000f0: e001 53bd d02c 403d 58df 0c3c 386d 84bc
00000100: a4bf ac3c e0b6 843b 649e ea3c f472 fd3c
00000110: ae8d 14bd debf 16bd 9039 17bc d0f6 b73c
00000120: 5821 543d 1e6a 0abd 8078 babc 70c2 c83c
00000130: acac 123d 0cb9 cd3c 943a 3c3d a203 0abd
00000140: d027 d83b 6468 8cbc ca80 21bd 20b6 303b
00000150: b868 e73c 0048 43b8 da6f 023d ce55 743d
00000160: 5086 f3bb cac6 793d 3449 a33c 6052 3a3b
00000170: 80db f2bc 684d 7dbc 0250 783d 9c0d 8b3c
00000180: 3c90 7e3d c8fb 593c 80e3 c03a e817 503c
00000190: 6289 613d 0c3d fe3c 80fd 62bd ea05 363d
000001a0: 80b5 3e3d 9277 683d 781f 53bd 2050 dbbc
000001b0: d220 3c3d ea44 293d e097 20bb 946d 0fbd
000001c0: 6819 4ebd 8088 6ebd 8059 b9bc 7036 39bd
000001d0: 1896 cd3c f071 063d 8823 a2bc ba66 63bd
000001e0: 241e c7bc 00a8 25b8 80f8 67ba ba49 5ebd
000001f0: 3a80 203d 8c8f 353d e8a1 7c3c ce00 3cbd
00000200: ca2c 35bd fe8a 0fbd 405d 38bb b6ab 3cbd
00000210: 5035 773c 086d 913c 8856 61bc eacb 4f3d
00000220: 80f6 77ba 20d6 b93b e01c 5fbb c04a 4d3d
00000230: bc4e 00bd c6ab 0d3d e0b3 783c 7600 7c3d
00000240: 68c2 e63c a45d 45bd fcfd 913c 2424 583d
00000250: fa07 3abd 9497 2bbd 0c47 e7bc 2252 0a3d
00000260: faac 683d 409c d03b 38c5 1dbd 3a24 45bd
00000270: c20e 073d 389f 0a3d c093 4d3b 982a 5cbd
00000280: d283 2d3d f842 593d 24b8 723d c0fa 823a
00000290: 9e2a 6a3d 18ea 6b3c e47e c13c daf1 633d
000002a0: 78b4 f03c 8c9b 70bd 10dc 793c 40f9 60bb
000002b0: 0093 b83b e0ec 063b c8e5 5dbc 8075 c7bc
000002c0: aa5c 7fbd eac0 66bd c000 2f3b 5cb5 a0bc
000002d0: 16b6 433d 64ea eebc a8e0 5dbd 78f8 013c
000002e0: bc76 273d 3024 b5bc 98cf 0fbd d013 55bc
000002f0: 4a7c 12bd 4826 493d 0090 b33c dc42 5dbd
00000300: 7839 56bc 3644 0c3d dccd 0e3d 50b0 5c3d
00000310: 40f9 16bb bc8c fe3c c8d3 383d 5c1c 573d
00000320: 20fd 173d 70fc f7bb c6ca 5b3d 48f2 7bbc
00000330: e63d 6dbd 5a26 413d a8de 93bc 6046 63bb
00000340: 283d 06bd 4a72 16bd 80d7 ee3a 0ca4 6c3d
00000350: 3473 f13c 2e20 6c3d 1eff 3a3d 4e0a 31bd
00000360: ac36 0fbd a63d 12bd 945d aabc d06a dcbc
00000370: a0a7 393b 2ccf 79bd 9cef 12bd 16ed 60bd
00000380: 3ec6 5cbd 84e5 9a3c c07d 413c c0f2 003d
00000390: b650 2fbd da89 663d 50e0 debb 4413 eebc
000003a0: 6035 c2bb 1cae e03c 1078 98bc fc79 d6bc
000003b0: f8b5 613d 00e4 c0bb e2f0 53bd 369f 663d
000003c0: 06ff 533d 143b 26bd 289b 1ebd c6cc 3d3d
000003d0: 3421 3d3d 8c8d eb3c 0c14 ed3c 9232 573d
000003e0: 1002 4b3c ae76 7f3d 38a8 fabc b86b 99bc
000003f0: febb 2f3d 6e1a 763d bc4c a2bc 725b 413d
-0.023624197 -0.03419721 0.01670248 0.017938934 0.0069653466 -0.0078403875 -0.034026824 0.04095693
-0.012819767 -0.026796706 0.0021128953 -0.044849165 0.03425151 -0.034829624 -0.053421907 -0.061499335
-0.041116334 0.015356354 0.032476425 0.003118448 0.045035176 -0.056040607 0.02127938 0.052892365
-0.023535922 0.03456694 -0.059391126 0.054031953 0.0034115836 -0.05887825 0.023849629 0.014804356
0.012729466 -0.025894657 0.029247664 0.0039955154 0.057266474 -0.056789532 -0.0052774996 -0.012434244
-0.025406405 -0.024699166 -0.058326676 -0.045604877 -0.057968467 -0.04333225 -0.058573186 -0.031811222
0.047871396 -0.043293342 -0.008185238 0.03141232 -0.046167955 -0.0351583 -0.0013790652 -0.03466507
0.03624036 0.047794133 -0.007258475 0.003665045 -0.05151546 0.046917737 0.008598171 -0.01616536
0.021087475 0.0040501207 0.02863998 0.030938603 -0.03626793 -0.036804073 -0.009230033 0.022456557
0.05178961 -0.033792607 -0.022762537 0.024506778 0.035809204 0.025112651 0.045954302 -0.03369487
0.006596543 -0.017139621 -0.039429463 0.0026964024 0.028248176 -4.6558678e-05 0.03184495 0.059652142
-0.007431783 0.060980596 0.019932367 0.0028430447 -0.029645681 -0.01546035 0.060623176 0.016974263
0.06214927 0.013304658 0.0014716238 0.012701012 0.05506266 0.031034969 -0.055417538 0.044439234
0.04655981 0.056754656 -0.051543683 -0.026771605 0.045929737 0.041325487 -0.0024504587 -0.03501661
-0.050317198 -0.058235645 -0.022625685 -0.04521793 0.025095984 0.032823503 -0.019792333 -0.05551789
-0.024306364 -3.9495528e-05 -0.000884898 -0.05426953 0.039184786 0.04432635 0.015419461 -0.045899205
-0.044232167 -0.035044663 -0.0028131753 -0.046062194 0.015088394 0.017752185 -0.013753541 0.050731577
-0.00094590336 0.0056712776 -0.003404431 0.050120115 -0.031325087 0.034587644 0.015179604 0.061523877
0.028168872 -0.048185006 0.017821305 0.05276884 -0.045417763 -0.041892603 -0.02823212 0.033769734
0.05680559 0.0063662827 -0.03851816 -0.04813025 0.03297306 0.03384325 0.0031368583 -0.053751558
0.04236204 0.053042382 0.05925764 0.0009992942 0.05716955 0.014399074 0.023620076 0.05565057
0.02938293 -0.05874209 0.015250221 -0.0034328252 0.005632758 0.0020587966 -0.013543554 -0.02434802
-0.06234423 -0.05633632 0.0026703328 -0.019617729 0.047781073 -0.0291645 -0.054169327 0.007932775
0.04088472 -0.022111982 -0.035110086 -0.013005212 -0.035763063 0.049108773 0.02191925 -0.05401884
-0.013075225 0.03424474 0.03486429 0.053879082 -0.0023036748 0.031072967 0.045123845 0.05251728
0.037106633 -0.0075679347 0.053660177 -0.015377589 -0.05792036 0.047155716 -0.018050507 -0.0034679398
-0.032773167 -0.03673009 0.0018222183 0.057773635 0.029473878 0.057647876 0.045653455 -0.043222718
-0.03496425 -0.035703324 -0.020796575 -0.0269064 0.0028328672 -0.06098859 -0.03587304 -0.054913603
-0.053899996 0.01890827 0.011809766 0.031481504 -0.04280158 0.05628381 -0.0068016425 -0.029061921
-0.005926773 0.027426772 -0.018611938 -0.026181214 0.05510518 -0.0058865547 -0.051743396 0.05630418
0.05175688 -0.040583685 -0.038722187 0.046337865 0.046174243 0.028754018 0.028940223 0.052538462
0.012390628 0.06236904 -0.030597791 -0.018728122 0.042903893 0.0600838 -0.01981198 0.04720635

_out.bias f4 [3]
00000000: 00bd 57bb 7245 723d 7037 a6bb
-0.003291905 0.05914826 -0.0050725266
