rl/models/single_agent/pong_dueling_ddqn_per_vs_BASIC_BOT.pth (torch, 286940 bytes, 9 tensors)

_fc1.weight f4 [256, 12]
00000000: b285 51be b47b 20bb d22d dfbd fadd df3a
00000010: 6a7e 08be fe37 943e 9022 923e a946 d53e
00000020: d91e a73e dcfb 86be 632a 9f3e 0b20 8d3e
00000030: 1d5f a23e 3593 f9bd 0bf0 ddbd e6c7 eebd
00000040: 7661 493b 3058 db3d 6d76 21be 1470 18be
00000050: 0866 003e 9b04 2cbe 1732 0c3e 28ee d73e
00000060: 1f40 4c3e 74e6 5bbd 9471 ee3d b703 be3b
00000070: 9a37 25be 384a 683e 64f1 033e 7d7d 513e
00000080: 87b9 1f3e 9608 e23e da1e d43d c4a1 103f
00000090: e336 c9bc 0598 733d ca70 f4bd 5d9f 193b
000000a0: ef05 5dbe daa9 0a3f d1ed 0fbd dcc9 9e3e
000000b0: ec4f 5fbe e39e 7ebe 4bbf 2abd 53fc 22be
000000c0: b92f 213e 4621 7fbe 8768 a43d ee91 12bb
000000d0: ddb4 81be 43a7 273e 35b7 65bc 0e55 debe
000000e0: 0990 b53e e537 f1be 652b 7bbd 0382 3ebf
000000f0: 8175 b7bd b607 db3e d915 53bc 340f 233c
00000100: 13bc 2dbe 46d1 983c a55d d7be 6efe debd
00000110: 92bc 86be d91d d1be f501 afbd ddef 203e
00000120: 3177 f13d 896c a53c b299 943d d081 8ab8
00000130: 6534 ddbd 00d7 923e e0fa 0e3d 627c 9e3d
00000140: 57d6 ad3e d87e 293d ae51 b03e e219 943e
00000150: 8007 223e 4506 4d3e 0ba4 8ebd cf3a 88bb
00000160: d67d 3bbe 05dd 1dbe b952 2abe 5351 59bc
00000170: 5f2e 9fbd 6f16 69bd 1b97 8cbe f09e a4bd
00000180: 4258 d23d c8e7 3ebe 14e4 323e 30e5 11bd
00000190: 8252 0ebe 91ed d53e 613a 98be 4f07 be3d
000001a0: 6810 5fbc fe83 2bbe 4b19 153c 0ae7 b63e
000001b0: cb79 41be a4dd 4dbe 30a4 e93c fc8f 1b3c
000001c0: 831b 70be c1b2 213d e733 8d3c 1c7f f6bd
000001d0: be6f 1cbe 4642 a13d dc64 5dbe 261b 2d3e
000001e0: 3f5e edbd a291 ad3c ed68 bcbe 2ec7 743b
000001f0: 1f4e b43d 4506 87be 91e7 07bc 07a7 8ebe
00000200: 30de 8e3d 1ff3 8a3e a13e 293e 7348 153f
00000210: d9e6 b23d 31f9 403e 99be 8cbe fbce 82bb
00000220: 1bdc 30be 7973 283d 600a a23d 2cb8 923c
00000230: 1bfb 883e 441e 823e 8091 81bd 1471 843d
00000240: 864f 643e 1b68 72be 641e 79bd f90e 1cbb
00000250: f74b 45be 1204 fbbc 83c0 6dbe 044d 9bbd
00000260: 6a34 8a3d 0ed1 9cbe eafc 1e3e 222f 0fbf
00000270: 5997 2ebe 3602 30be 34a9 b73c 915f ebbb
00000280: 0f31 f7bd c1d1 243e b951 24bd 0be4 31be
00000290: 1418 7b3d f289 c6be 2b4a 0e3c 9813 563e
000002a0: f486 0cbd f5a8 d73e 4ef5 15be 920e bf3a
000002b0: c88f ab3d a629 0ebd 7315 d1be d55a abbe
000002c0: 3c91 39be b955 dcbe 806c dd3c 4eb1 283d
000002d0: 5e40 e33d 7894 a9bd 860f 923b b8c8 10bd
000002e0: 8ce2 02bc 12bd 80be 6b9e 42be 8f33 bbbc
000002f0: e13f 473d af1e d33d 8dee bb3d 5177 34be
00000300: 3eb1 233d 1037 06bf 7979 573e 9dfb 02bd
00000310: d8a5 b03c 2b09 efbc a8ce 2bbb 8ec1 123e
00000320: 906d ab3c 1150 cfbd 2ec1 23bd aea3 123d
00000330: f2a1 d83c 7434 0ebe fddf ebbd 646a c43d
00000340: 90e4 243e 4931 46be cf6b 3d3c b668 b6bc
00000350: be0a 143c 6d87 143e 4412 1d3e d12a 08be
00000360: ba16 dcbc 922c 22bf c04d 95be 8a93 813b
00000370: d4f0 e7bd d617 7f3e 0479 c73c ac11 8e3e
00000380: 7405 5dbd 269d 203f 8b6f 61be 393a 093d
00000390: 3599 8b3e 1692 163e 8114 713e 4402 6a3c
000003a0: dfaa 9a3d b0ee dfbe 387b 963d ebea 29be
000003b0: 31ad ba3d 5e21 ba3d a506 123e 2b97 113e
000003c0: aa36 5c3d 3fd0 16bf 6999 3fbb 6d85 e1bc
000003d0: 3ce6 0dbe 2256 903d 9cd8 ae3d 438b 953b
000003e0: c219 503e a898 00bd 65a6 543e 0ab6 0fbf
000003f0: 52d1 f6bb 4905 533e 7faf b13e 7c5d 4abc
-0.20461157 -0.0024487795 -0.108974114 0.0017079704 -0.13329473 0.2894897 0.28541994 0.41655472
0.32640722 -0.26364028 0.31087026 0.2756351 0.3171319 -0.12186281 -0.108368 -0.11659221
0.0030728257 0.1071018 -0.15767832 -0.14886504 0.12538922 -0.16798632 0.13690983 0.42173886
0.19946335 -0.053686574 0.11642757 0.0057987827 -0.16134492 0.22684562 0.12885052 0.20458026
0.15598117 0.44147176 0.10357447 0.56496835 -0.024562305 0.05947115 -0.11935575 0.0023440935
-0.21584295 0.5416542 -0.03513891 0.3101338 -0.21807832 -0.24865298 -0.041686337 -0.15916567
0.15740861 -0.24915037 0.080277495 -0.0022364813 -0.253333 0.16372399 -0.014020731 -0.43424267
0.35461453 -0.47112957 -0.06132068 -0.7441713 -0.08957959 0.4277932 -0.012883627 0.009952355
-0.16966276 0.018654477 -0.42063633 -0.10888372 -0.26315743 -0.40843084 -0.08545295 0.157165
0.11790312 0.020193355 0.072558776 -6.604532e-05 -0.10801009 0.28679657 0.03490722 0.07738568
0.3395259 0.041380733 0.34437317 0.28925997 0.15823174 0.20021923 -0.069648825 -0.004157401
-0.18309721 -0.15416344 -0.16633119 -0.013264018 -0.077725165 -0.05690616 -0.27459034 -0.080381274
0.1027074 -0.18643105 0.17469817 -0.03561896 -0.13898662 0.4178281 -0.2973204 0.09278738
-0.013614751 -0.1674957 0.009100269 0.35723144 -0.18894117 -0.2010408 0.028520674 0.009494778
-0.23447995 0.039477114 0.017236663 -0.12035963 -0.15277001 0.07873969 -0.21620506 0.16904888
-0.11590242 0.021187607 -0.36798802 0.0037350166 0.08803963 -0.2637197 -0.008294956 -0.27861807
0.06975973 0.27138612 0.16527797 0.58313674 0.08735437 0.18845059 -0.27489164 -0.003991959
-0.17271464 0.04112575 0.07912135 0.017910086 0.26754078 0.25413716 -0.0632658 0.064668804
0.22295961 -0.23672526 -0.06082 -0.0023812635 -0.1926726 -0.03064159 -0.23217969 -0.07583049
0.067482784 -0.30628246 0.15526167 -0.55931294 -0.17049922 -0.17188343 0.02241955 -0.0071830233
-0.12069904 0.1609564 -0.040117 -0.17372148 0.06130226 -0.3877712 0.008684675 0.20905912
-0.03430839 0.4212109 -0.14644358 0.0014576486 0.083770335 -0.034707688 -0.40836677 -0.33467737
-0.18121809 -0.4303415 0.027029276 0.041184716 0.110962614 -0.08280271 0.004457417 -0.03534767
-0.007988583 -0.2514425 -0.19005744 -0.022851733 0.048644904 0.10308587 0.09176359 -0.1762364
0.039963953 -0.5242777 0.21042432 -0.03197824 0.021563455 -0.029179176 -0.0026215706 0.14331648
0.020926267 -0.10122693 -0.039979152 0.03580063 0.026444409 -0.13887197 -0.11517332 0.09590605
0.16102815 -0.19354738 0.011561348 -0.022266727 0.009035764 0.14504786 0.15338999 -0.13297583
-0.026866306 -0.6334926 -0.2916088 0.0039543556 -0.11325231 0.24911436 0.024349697 0.27747858
-0.05396028 0.6273979 -0.22015207 0.03350279 0.27265325 0.14704165 0.23542978 0.014282767
0.07552122 -0.43736792 0.07347721 -0.1659352 0.09115065 0.090883955 0.14260347 0.14217822
0.05376307 -0.5891151 -0.0029235727 -0.027529443 -0.13857359 0.070476785 0.08537409 0.0045637204
0.20322326 -0.031395584 0.207666 -0.56137145 -0.007532277 0.20607485 0.34704205 -0.01235139

_fc1.bias f4 [256]
00000000: ea4f 39be c26d 113d 9a87 8abe bbf4 963d
00000010: fa98 20be 1d66 03bd b262 d23b 3277 303d
00000020: 8e99 0e3c 78eb 3fbe 851b 81be f363 813d
00000030: f6ad 043d c86d 72be 714e 50be 0235 803b
00000040: 983a b1be 6ae0 9bbe 14b2 0cbe d05f b53c
00000050: 463d 35be 141c c33d ab32 8fbe b31a 063d
00000060: 84fb 5a3e f91f 18bd 6069 1e3b 0956 3abe
00000070: be4f b4bd c7d2 1e3e baaa 103e 74c5 a4bd
00000080: 911e 3fbe 5016 acbd 4224 e0bc f047 4abe
00000090: f704 05be af4a 70bd 965d 763d d8ca cfbd
000000a0: 6f3e bcbd db13 e0bd 725e 0e3d 5642 0a3d
000000b0: 597d 4c3d b3af 11be 2b19 e73d e4b6 8fbe
000000c0: ce28 3b3e f70d 6dbe 2a53 4fbe 20af 8f3d
000000d0: 2b87 bbbd 60fc 15bc cf0c 10be ed33 ea3c
000000e0: 2458 933e 7d7a d6bd 33b6 053c 8034 ba3c
000000f0: bf37 473e d103 9b3d 3b93 2a3e 84d8 f23d
00000100: 1262 11be 3f4e d43d e64d afbd cf78 82be
00000110: 6cbf d73c a8e7 053e c647 8fbe ddbc 7dbc
00000120: 1301 f8bd bb09 c7bd 9c51 c3bc 3d65 29be
00000130: f75d 23be d83d 733d b055 443e 7333 db3d
00000140: fe14 763d ed91 64be 9e9d 83bc e2a2 3c3c
00000150: 4018 0c3e 63cc b2be 758b bcbd 0ecb 98bc
00000160: 949e 7b3c 49f1 89bd 5305 8bbe 83a2 d3bc
00000170: 7101 c1be 7d7a 94be 1151 34be e508 95be
00000180: bbf9 913d 14ed 4fbe 0ad7 4dbe dfb3 4f3d
00000190: 5c54 43be c3ec 60be d3c9 4e3d 09e6 8dbe
000001a0: 67cb 653c d3d5 3f3e bfac 7b3d 0941 72be
000001b0: 68c9 bfbd 60ad 71be 1197 a43d 78c6 0a3e
000001c0: ce6c 453e c8c7 cf3d 04de eebd 46d5 6d3e
000001d0: 3f44 3b3e e11b 9cbc 6251 19be 321f 113e
000001e0: 7139 083d 36b2 023e 72f2 04bd 6d10 86be
000001f0: 36c3 58bd eb11 fc3d 30f1 83be 978a febd
00000200: ad0b 25bd 1026 78be db69 53bd 81e7 023e
00000210: 5086 7b3e ee9b e03d d55b 22be 5d8b 99bd
00000220: bad1 503d 8be9 acbd 4032 d43d 5a24 52bd
00000230: 5e72 47bd dda7 0b3e ba41 10be 5f1a 203e
00000240: 2440 4fbe cac4 e4bc a37d b9bd e624 633d
00000250: bfd3 95be 8ed6 50be 6fef d93c 4bf0 a1be
00000260: f6ec 5cbe bd92 90be ffe1 3ebe f657 803d
00000270: aead 94be b15c ba3c 312b 28be 111c 70bd
00000280: 8d88 03be cae7 263e cee5 1dbc 0ca1 a3bd
00000290: 4eb3 9abd 945d d9bd f556 8ebe 1951 dbbc
000002a0: e2e8 d93b 810c 82bc 05e1 c43d 48b3 7bbd
000002b0: 94aa 583d 7b2e a9be 4905 3bbc 6a90 8f3e
000002c0: 4006 9cbe fd60 cc3c 8e5b cb3d f235 a53d
000002d0: 865b 18bd 2238 6b3d a029 abbd ca7c 2e3e
000002e0: 31f1 e9bd ab24 073e 6daf 26bc 606e c1bd
000002f0: 8b46 50bc 1d12 55bd 92eb 90be 9313 55be
00000300: 440d 9bbe 7bf6 df3c de3b 5c3d beb4 59be
00000310: 353a 3f3e ec59 c7bd 52e1 26be e5b6 0fbe
00000320: 9dbd 9bbd c91d c5bd a9de 4dbd 2a75 62be
00000330: 80a1 7fbc 7f6b e33d ae15 a2bd 7975 783c
00000340: 7be7 1a3e 6895 5fbe dfb0 323d d394 44be
00000350: eef0 363c b1d2 823c 6541 1dbe 302f 203b
00000360: ae0d 3c3d 0646 f13d d8eb 503d 198e 5ebe
00000370: 7407 fa3d eb11 96be 7f59 303d abf3 2f3e
00000380: 5571 96bc 3ea1 91be db14 71be 64f0 55bd
00000390: cdf4 403e a990 df3c 6dec 873c 69e4 87bd
000003a0: 459d 493d b814 003c 0b85 753d 3226 f43d
000003b0: 44a7 9dbd d8cd 953c c2a7 2c3e 6906 283d
000003c0: fb19 ecbd a113 0e3e ab79 71be 680f 233e
000003d0: ba90 7bbe 699c 623c 7fb7 323d e00f 65be
000003e0: b6e5 2cbe f590 54be febe cfbc 0dab 013e
000003f0: f719 7abe 2f5b 533e daf5 8abe 6178 2cbe
-0.18096891 0.035505064 -0.2705658 0.073708974 -0.15683356 -0.032079805 0.006420457 0.043082424
0.0087036025 -0.18742168 -0.25216308 0.06317892 0.032392465 -0.2367469 -0.20342423 0.003912569
-0.34615016 -0.30444652 -0.13739806 0.022140414 -0.17699155 0.0952684 -0.27968344 0.032740306
0.21385008 -0.037139867 0.0024171695 -0.18196882 -0.08804272 0.15510093 0.14127627 -0.08045474
-0.18664004 -0.08402693 -0.02736104 -0.19754004 -0.12990175 -0.058664974 0.060147844 -0.10146111
-0.09191596 -0.10941287 0.03475804 0.03375467 0.04992423 -0.1422718 0.11284097 -0.28069222
0.18277285 -0.23149858 -0.20246568 0.07015824 -0.091566406 -0.009154409 -0.14067386 0.028589213
0.28778183 -0.104725815 0.008161115 0.022730112 0.19454859 0.07569087 0.16657726 0.11857703
-0.14197567 0.10366487 -0.0855978 -0.25482795 0.026336394 0.13076651 -0.27984446 -0.015486923
-0.1210958 -0.09718653 -0.023842625 -0.16542526 -0.15953813 0.05938515 0.19173312 0.107031725
0.060078613 -0.22321291 -0.016066369 0.011513444 0.13681126 -0.3492156 -0.09206287 -0.018651512
0.015357632 -0.067354746 -0.271525 -0.025834328 -0.37696412 -0.289997 -0.1760905 -0.29108348
0.071277104 -0.20305282 -0.20101562 0.050708648 -0.1907515 -0.21965317 0.050485443 -0.27714565
0.014025546 0.18733911 0.06144404 -0.23657621 -0.09364587 -0.23601294 0.08036626 0.13552272
0.19279787 0.10145527 -0.1166344 0.23225889 0.18287753 -0.019056262 -0.14972451 0.14172056
0.033257905 0.12763295 -0.032457776 -0.26184407 -0.052920543 0.12308105 -0.2576995 -0.12428778
-0.040294338 -0.2423327 -0.051614624 0.12783624 0.24562955 0.10967241 -0.15855344 -0.074972846
0.05098126 -0.08442982 0.10361147 -0.0513042 -0.048693053 0.13638254 -0.14087573 0.1563506
-0.20239311 -0.027925868 -0.090571664 0.05545511 -0.29263112 -0.20394346 0.026603429 -0.3162864
-0.21574768 -0.28236952 -0.18640898 0.06266777 -0.29038757 0.022749277 -0.16422726 -0.058620516
-0.12845059 0.16299358 -0.009637309 -0.07989702 -0.07553731 -0.10613552 -0.27800718 -0.026772069
0.0066500762 -0.015875103 0.096132316 -0.061450273 0.05289705 -0.33043274 -0.011414834 0.28039867
-0.30473518 0.024948591 0.09929572 0.0806693 -0.03719666 0.05742658 -0.08357549 0.17039791
-0.11422957 0.13197581 -0.010173661 -0.094448805 -0.012712131 -0.052019227 -0.28304726 -0.20808248
-0.30283558 0.02733921 0.05376803 -0.21260354 0.18674548 -0.09733948 -0.1629689 -0.14034612
-0.07604525 -0.09624822 -0.050261173 -0.22115007 -0.015602469 0.11104488 -0.07914291 0.015164726
0.15127365 -0.21834338 0.04362571 -0.19197397 0.011165841 0.015969606 -0.15356977 0.0024442188
0.045911483 0.11780934 0.051006168 -0.21733893 0.12208453 -0.29310545 0.0430541 0.17182796
-0.018364588 -0.2844333 -0.23543112 -0.052231207 0.18843384 0.027290659 0.016592229 -0.06635363
0.04922225 0.00781744 0.059941333 0.11921348 -0.07697919 0.01828663 0.1686087 0.04102174
-0.11528393 0.13874675 -0.23581569 0.15923846 -0.24566928 0.013831236 0.043632027 -0.22369337
-0.16884503 -0.20758422 -0.025359627 0.12662907 -0.24423967 0.20640253 -0.27140695 -0.16842796

_fc2.weight f4 [256, 256]
00000000: 15e8 37be e5dc 2cbe 312a d5bb 83cb 713d
00000010: a386 8ebd d5aa 4f3e 23ef 3d3d d5b5 393c
00000020: 8feb 853d 808d 253d ed6b 89be bb9d cabd
00000030: 813c bdbd 590a de3b 7dc5 e13d 28d4 abbd
00000040: 2c9c 9abd a712 1abe 54fe 65bf d476 51bb
00000050: d4c0 423e 5bca 16be 7a42 813d 856c aa3d
00000060: e95d 473d 28b3 343e e17b 6b3c 6e3c 183e
00000070: eb3d 18be a8b4 fb3c d804 8ebe 97c7 783d
00000080: b20b cc3e f5af 083d 16ef 42bd 9866 663e
00000090: d017 9dbe e09b a13d 9dc6 93be b5c5 50bc
000000a0: a820 14be 8f2c 823d 6878 d73e 7695 23bd
000000b0: cf38 f6be d5a9 b83d e8bd dabb 5533 ac3d
000000c0: fb51 2ebc 644a b03d f14d 253d 17d5 32bd
000000d0: ccec 97be ad96 e73d 6ea7 f9bd dc9f 99bd
000000e0: 2802 b1be 014c a0be 5559 fdbb 44b5 973d
000000f0: 913b 143e 00c3 393e ee79 673e 9355 d93d
00000100: 87a1 40be 8026 8b3d 4260 083e 923f 0a3e
00000110: b8d8 c3bd cdac 363e 0692 113d 7782 c03d
00000120: 888b c33d 1f6d 93bb 5410 023d 0ef8 643e
00000130: fefe 89bd 1e26 87bd 2bf1 ad3d e17c d8bd
00000140: f050 0fbd 055c ea3d 4a23 56bb dd65 c3bf
00000150: d4ae 113e 1a19 e1bd 20ab a73c 6175 63bc
00000160: 59c9 06bd 7a69 d13c 4c4c 06bd 048a ab3d
00000170: 817d 323d a696 13bf 4bbf 70bd 95d3 ad3d
00000180: f168 403d b776 fabd 8114 b3bc 1497 3a3c
00000190: 75c6 d33c efa3 1bbe 8431 ddbe fe38 2fbe
000001a0: 0b1b 30ba 12ee c33e 6186 a43d 3f6d b0be
000001b0: ec0a 873d 62ab 4a3e 3cd2 64bd 873d 5e3d
000001c0: 1fe1 d53d dbcd 13bd 7614 043d d2d3 a7be
000001d0: bf33 ed3d cbf6 6dbe 1eeb 13bd 5ea9 a73d
000001e0: 0dba f7be a257 e8be dbfe 44bc c42f be3c
000001f0: f131 04c0 afde 91bc 6baf 043e 1993 9d3e
00000200: 0a7a 1b3d 7955 3bbe 639e 433c 5ac7 203e
00000210: a86b 843e 1186 223e 0144 e83d c9f0 80bd
00000220: 254b 8ebd 6684 4b3d dab0 8dbe 67c9 bcbe
00000230: f666 9ebe 55f7 95bd e991 4dbd 35f8 bebe
00000240: 20cb b6bc 78bf 5bbc 239d 92bd 9f31 35be
00000250: a389 8bbd 799f e9bc e75c 65bd 36c0 0bbb
00000260: c036 4f3e 6d1d e53d 90c5 74be 4325 d7bd
00000270: 2ba3 483d c235 10be cf10 983d aaa2 5e3c
00000280: b9df 7f3d 6dd8 fdbc 346c cdbd 9746 603d
00000290: 37e9 55bd 4782 903d 87bd 2c3e 1e26 d0bd
000002a0: 03ad 343e 906d 593d d746 143e 14e7 01be
000002b0: d5d2 b4bd 7ecd bb3d 8979 94bd e69d c2bb
000002c0: 82ca 383d 1d70 2f3d 44d5 12be b26f f43b
000002d0: 7150 683d 0dc9 d93d 221a 023e 912d 883d
000002e0: e7b6 82bc 8364 7b3c eba8 9fbd 148e 12be
000002f0: f1d6 3bbf 3c4b f4bc 0969 56bd 9906 09be
00000300: 38c3 813e a329 cebf 0e76 a8bd 7aa8 32be
00000310: 2f80 873d 4bb5 193e a713 ad3d b62c 85bc
00000320: 9965 5b3d 0316 8d3e f245 e93d d8b1 52bf
00000330: 411e 303e 3665 423d 3545 b5be d431 60bc
00000340: 96d2 25be 1158 753d f21c 0a3d 8435 2cbd
00000350: 95e7 c03c 213d 323e 06e0 e6bd 374c adbe
00000360: 8c23 48be 14f1 bd3d 5edb ec3d 8651 953d
00000370: 05d7 8dbe 2588 1c3e e3ef 973c decf 34be
00000380: cc8e 8ebc e58d 8b3d 40ea 42be 9009 94bd
00000390: 3d35 02be de06 183e 02fa 57be 4967 9fbc
000003a0: 4d77 7a3a f647 68be a1e2 eabd 51fd 6cbe
000003b0: 3bb1 653e 125b 03bc 922a 4c3d b02a a6bd
000003c0: bc25 3bbe 9469 02bc 3f62 1e3e 20e4 a6bd
000003d0: bb25 82bd 879d 2f3e 29fd e53c 60ee aebc
000003e0: f510 313e 37dd 8f3d 2a3d 593e 75d1 d23d
000003f0: 1471 153b 645b 1e3d 4ca0 1bbe 0634 bb3b
-0.17959626 -0.1688114 -0.0065052737 0.059031975 -0.06959274 0.20280011 0.046370637 0.011334856
0.0653907 0.040418148 -0.26840153 -0.09893366 -0.09240056 0.006776136 0.11023996 -0.08390075
-0.07549319 -0.15046178 -0.898412 -0.0031961696 0.1901887 -0.1472563 0.063115075 0.0832148
0.048673544 0.17646468 0.014372797 0.14866802 -0.1486737 0.030725792 -0.2773807 0.06073722
0.39852673 0.03337093 -0.04759129 0.22500074 -0.3068223 0.07891059 -0.28862467 -0.0127424495
-0.14465582 0.06356155 0.4208405 -0.03993746 -0.48090217 0.09016768 -0.0066754706 0.08408228
-0.010639663 0.08607939 0.040357534 -0.04366025 -0.2967285 0.11308036 -0.12190138 -0.07501194
-0.34571958 -0.31307986 -0.0077315965 0.074076205 0.14475848 0.18140793 0.22605106 0.10612025
-0.18811618 0.06794453 0.1331797 0.13500813 -0.0956282 0.17839356 0.03553965 0.09399884
0.09548098 -0.004499092 0.031753853 0.2236025 -0.06738089 -0.06599067 0.08493265 -0.10570694
-0.034989297 0.114433326 -0.0032674843 -1.5265461 0.14226848 -0.10991116 0.020467341 -0.013882966
-0.032906864 0.02556299 -0.032787606 0.08375934 0.04357672 -0.57651746 -0.05877618 0.08487622
0.04697508 -0.12229674 -0.021860363 0.011388559 0.025851468 -0.15199254 -0.4320184 -0.17111585
-0.0006717897 0.3826757 0.08033443 -0.34458348 0.0659388 0.1979194 -0.055864558 0.054257896
0.10443329 -0.03608499 0.032246076 -0.32778794 0.115821354 -0.23238675 -0.036112897 0.08186601
-0.48384133 -0.4537936 -0.012023653 0.023216136 -2.0655482 -0.01780638 0.12957542 0.3077629
0.037958182 -0.18294324 0.011939618 0.15701047 0.25863385 0.15871455 0.11341096 -0.06295926
-0.069479264 0.049686812 -0.2767399 -0.36872408 -0.30937928 -0.073225655 -0.05018798 -0.37298742
-0.022313654 -0.013412349 -0.07158878 -0.1769471 -0.068133615 -0.028518425 -0.0559968 -0.0021324283
0.20235729 0.11187253 -0.23903489 -0.10505154 0.048983734 -0.14083007 0.07425081 0.013588587
0.062469218 -0.030986989 -0.10030404 0.05475482 -0.052224364 0.070560984 0.16869174 -0.1016352
0.17644124 0.053083003 0.14480148 -0.12685806 -0.088292755 0.09170054 -0.072497435 -0.005939233
0.045115 0.04283153 -0.14339167 0.007459604 0.05671734 0.106340505 0.12705281 0.06649316
-0.015956355 0.015343788 -0.077958904 -0.14312011 -0.7337485 -0.02982103 -0.052346263 -0.13381423
0.25344253 -1.6106457 -0.08225642 -0.17447081 0.06616246 0.15010564 0.08451014 -0.016256671
0.053563688 0.27555856 0.11390294 -0.8230262 0.17199041 0.047459804 -0.35404363 -0.013683755
-0.16193613 0.05989844 0.03371901 -0.042043224 0.023547927 0.17406131 -0.11273198 -0.3384721
-0.1954481 0.09274498 0.115652785 0.0729094 -0.2770311 0.1528631 0.018547004 -0.1765742
-0.017402075 0.068141736 -0.19034672 -0.072283864 -0.12715621 0.1484637 -0.21091464 -0.01945843
0.00095545204 -0.22683701 -0.11469007 -0.23143508 0.2243089 -0.008017318 0.049845286 -0.08113611
-0.18276113 -0.007959742 0.15467165 -0.0814898 -0.06354853 0.17149936 0.028074818 -0.0213539
0.17291625 0.07024615 0.21214738 0.10293857 0.0022802996 0.038661376 -0.15197867 0.005712989

_fc2.bias f4 [256]
00000000: 4e6b 00be e985 babd 52e6 bcbc 17c9 1abd
00000010: ae33 67bd 9aa0 cbbb f079 0abb 4676 583d
00000020: 82a3 b13d 6f0b 88bd c7f6 2e3d 1dc6 343d
00000030: 913c 6fbd b144 68bd b547 0fbd f439 11be
00000040: 3781 07bd 4ed6 e4ba 01e5 98bd b4d3 0f3d
00000050: 1f49 97bd 4b50 9dbd b199 a1bd b68f 113d
00000060: 58a3 17bd 52ee 6bbd 3e18 13be a846 fcbc
00000070: d45e a1bd f436 a23c 7e30 1abd 6e6e 503c
00000080: de4e 8cbd 63f7 b1bc d34c 12bd 5326 9b3c
00000090: c5ac 2d3d c791 48bd fea7 6dbd 5830 a1bd
000000a0: 018b 79bc b7ba 73bc b63e a3bc eeb5 04be
000000b0: 7dc8 eebd 1a74 db3b 95b7 f93c bf6e 973b
000000c0: 19c1 79bd bbb8 433c 8250 a4bd cf75 c93c
000000d0: b9c4 aa3c 19c4 48bd ead1 37bc 8854 733d
000000e0: d316 84bd b124 a2bc 455d a4bd 0e11 8c3c
000000f0: ee42 debc f146 a03c 9b50 82bd b9d0 783c
00000100: 0861 74bd 42ee 883c 9e27 56bd 1394 16bd
00000110: bd10 7bbd 570e 943c 7bdb 1fbb 82b7 e0bd
00000120: bfeb 45bd e835 1bbc c46b 083d 6332 993c
00000130: c9c4 c9bd f0c6 333c 94b3 60bd c17b 803c
00000140: fd9e ac3c 6880 d3bd aa6f 1c3d 7f4f 4ebd
00000150: c582 af3d 91f7 3ebd 0e91 433c 311d 95bd
00000160: beae 1d3c dc97 37bd d226 27bd 9a0e c1bd
00000170: 38bc 97bd 066e f9bc 1525 5fba 77ac 50bd
00000180: 5edd 2abd 47f8 92bd ffd5 4a3c ad5e f5ba
00000190: d617 6ebb 90dc 6cbd bb10 13be 19ee 3cbd
000001a0: 3599 ccbc 5ec2 c4bc 2323 6bbd a2dc aabd
000001b0: 9c8e 83bd 3d07 f93c 29f3 12be 5393 e3bc
000001c0: 4444 20bd d8a4 6fbd 967f 3dbd 5c9b b8bc
000001d0: 72a4 003c 919d c0bc cf0c acbd 16f4 593d
000001e0: 606f 04bc c387 90bd 243c 92ba 82a2 3dbc
000001f0: 5af9 90bd ead7 1fbc c69c c5bd d6d4 a4bd
00000200: 0c96 4ebd 2c9d 55bd e245 85bc 103f 0c3d
00000210: 723f 3d3c 8aab 67bd b9c3 83bd ef41 23bd
00000220: 196d 2a3b 77a0 a73a 68ec 6bbd 8154 7dbd
00000230: 9f6b fcbc 7243 91bd bdac 513c 3e3b 95bc
00000240: 4a7d 4f3d 0502 11be 1bd7 31bd 4b87 a8bc
00000250: 6c5b c9b8 b6cd b43c 2cbb b63c f04f 323d
00000260: dd1b c5bc 9d91 a5bc d88f b1bd a171 473d
00000270: 1bc6 193d ee26 40bd ae66 aebc 87c7 3bbd
00000280: fe37 edbd b087 d1ba 30b4 28bd f9ea 263b
00000290: ff97 9abd 75df 95bd 9919 f7bc 65bc c6bd
000002a0: f2f5 4abb 1411 3cbd b5ef af3d ef44 7f3d
000002b0: e309 abbc 4020 89bc f9e0 f7bc 9478 5fbb
000002c0: 7506 003d 2d06 c0bd 7b92 37bc e6e9 e43c
000002d0: 01b7 cdbd 7cc0 3dbd 6d63 e9bd af55 a63c
000002e0: f4f9 b53d 4efe 0abc e0d3 f8ba 740b 05be
000002f0: e865 d9bd 0a4e 00bd 615d 6f3d 5f7b 1cbd
00000300: 79ff 61bc 0fe5 97bd abe8 cbbd b0d1 d93b
00000310: 356f d3bc 850a 21bd 03ff dfbb 95d0 17be
00000320: ccc1 a1bd 904e 15bc f064 a7bc 1988 aebd
00000330: 2c1c 51bd eccd c1bc 6a33 1bbd 090c 01bd
00000340: 8d28 8dbd 6f11 373c 3b90 053d d9af f5bc
00000350: 2283 bcbb 5868 0ebe fb8a 7cbd c42f 1a3c
00000360: ab2c 0f3d 66a6 12bd 96d6 f8bb 5892 a9bc
00000370: 3675 4cbc ba8c 02bd ca5a 7fbd a0e4 d73c
00000380: 3834 c9bc 1824 2fbd 7488 483d 389e 5b39
00000390: 2102 87bd a793 2abe 6eea 143b 276f 2ebc
000003a0: e853 12bd dce7 92bd 5505 843b d51d dbbc
000003b0: 0ee2 45bd 0d6e 2cbd 8cb2 7bbd 0fba 093d
000003c0: 5fc8 23bd 99c4 2bbd bb69 423d 5af8 96bb
000003d0: 0a95 8abd 28db d43c 88a7 bcbd 72e3 a8bd
000003e0: d6bf e5bc b537 743d 390e 85bd cdc0 5cbd
000003f0: bf33 133c 43d7 38bd ff33 bb3d 4cdb ea3c
-0.12540933 -0.091075726 -0.023059044 -0.03778943 -0.05644577 -0.0062142136 -0.002112981 0.05284717
0.08673765 -0.06642806 0.042715814 0.044134248 -0.05840737 -0.056706134 -0.034980495 -0.14182264
-0.033082213 -0.0017458887 -0.07465554 0.035114005 -0.073869936 -0.0768133 -0.078906424 0.035537444
-0.03702101 -0.057600327 -0.14364716 -0.03079541 -0.07879415 0.019801594 -0.037643902 0.012721641
-0.0685098 -0.021724408 -0.035717797 0.018939173 0.042401094 -0.04896715 -0.058021538 -0.07870549
-0.015230895 -0.014876059 -0.019927364 -0.12960026 -0.11659334 0.00669719 0.030483047 0.0046213563
-0.060975168 0.011945899 -0.08023168 0.024592308 0.020845758 -0.04901514 -0.011219481 0.059406787
-0.06449666 -0.019792886 -0.08025602 0.017097976 -0.027131524 0.019565077 -0.063630305 0.015186482
-0.05966285 0.016715173 -0.052283876 -0.03676231 -0.06129526 0.018073244 -0.0024392295 -0.10972501
-0.048320528 -0.0094733015 0.0333059 0.018700784 -0.09851987 0.010972723 -0.05485876 0.01568401
0.021071905 -0.10327226 0.03819243 -0.050368782 0.08569864 -0.046622816 0.011936439 -0.072809584
0.009624181 -0.04482256 -0.040808506 -0.09426613 -0.07408947 -0.030447971 -0.00085123006 -0.050945725
-0.04171502 -0.071762614 0.012380122 -0.0018720232 -0.0036330125 -0.057827532 -0.14361851 -0.046125505
-0.024975399 -0.024018463 -0.057406556 -0.083428636 -0.06423685 0.03039896 -0.1435057 -0.02778021
-0.039127603 -0.058506817 -0.046264254 -0.022535019 0.007851707 -0.023512634 -0.084008805 0.053211294
-0.0080831945 -0.070571445 -0.0011156839 -0.011574389 -0.0707881 -0.009756068 -0.09649043 -0.08048408
-0.050436065 -0.052151844 -0.016268674 0.03423983 0.011550771 -0.056560077 -0.064338155 -0.0398578
0.0026004969 0.0012788911 -0.0575985 -0.061848167 -0.030813036 -0.07092942 0.012797532 -0.018216725
0.050656594 -0.14160927 -0.04341803 -0.020572325 -9.6014555e-05 0.022070747 0.022306047 0.043533266
-0.024061138 -0.020211035 -0.08670014 0.04869235 0.037542444 -0.046912126 -0.021289196 -0.04584458
-0.11582945 -0.0015985873 -0.041187465 0.0025469644 -0.07548522 -0.07318012 -0.030163573 -0.09703902
-0.0030969349 -0.045914724 0.08590642 0.0623216 -0.020878738 -0.01673901 -0.030258643 -0.003409897
0.031256158 -0.09376178 -0.011204357 0.027943563 -0.10044671 -0.046326146 -0.11395917 0.020304529
0.088855654 -0.0084834825 -0.0018984042 -0.1299265 -0.1061514 -0.031324424 0.058438662 -0.038203593
-0.01379382 -0.07416736 -0.09956487 0.006647311 -0.025809864 -0.039316673 -0.0068358197 -0.14825661
-0.07898292 -0.009112969 -0.020433873 -0.08522052 -0.051052257 -0.023657762 -0.03789083 -0.03150562
-0.068925 0.01117359 0.032608252 -0.029991077 -0.005752937 -0.13906991 -0.06165598 0.009410802
0.034954708 -0.03580322 -0.00759394 -0.020699665 -0.012479117 -0.03187249 -0.062342443 0.026354134
-0.024561033 -0.04275903 0.048958257 0.00020944409 -0.06592203 -0.16657887 0.0022722739 -0.010646618
-0.03572455 -0.0717313 0.004028956 -0.026747623 -0.048311286 -0.04209714 -0.061449572 0.033624705
-0.03998601 -0.041935537 0.047464114 -0.0046072425 -0.06766708 0.025983408 -0.092116416 -0.08246507
-0.028045576 0.05962344 -0.064968534 -0.053894807 0.008984505 -0.045127165 0.09140777 0.028669022

_value.weight f4 [1, 256]
00000000: fd7d 2ebf 13ea 97be 1e7b d23e d61e 01bf
00000010: d40f e73e dab8 ce3d 297e b8be 539c babd
00000020: 8a34 663c 8ff2 17bf 3f87 a23d e83d 383c
00000030: 1e2a c73c 7f19 133d e4c8 6e3c adc7 f4be
00000040: 5775 813d 7b39 3e3e cb31 c73e 6d50 6bbd
00000050: ea96 93bd f331 173e a8f1 8e3e 15a3 96bc
00000060: 4865 0abe 1889 9b3d 0923 4b3e f071 b1bc
00000070: 8ee3 b63e 82ff d5bb e593 403f e4a3 77bd
00000080: 91d4 47bd 94ca 9bbb 782a 053f d794 fcbb
00000090: 06a5 15be ba1e 063b 3d66 b13e 29b3 c5be
000000a0: d35f 2abd 5db7 373c 56dc 91be 9c75 813e
000000b0: 9cbd 303f 9b60 5dbc e8f5 c03e 268d 79bc
000000c0: e602 58be 5107 36bd fa1d aabe 71b1 043e
000000d0: bae1 ed3c ecab 43bd 8f2b 9cbc 1462 a4bd
000000e0: c819 debd 2e08 d13e 54c1 5a3d a04d 9d3c
000000f0: 543b 07bd 3bdd d5bd 0cc0 ffbc c9ca 00bd
00000100: c13a 0ebc 4cee 88be 5b12 debd 95f7 753d
00000110: 3fec bcbc b643 e3be 27c5 f0bc 6647 eebe
00000120: 50f0 de3c 49a1 4abd 69f9 073e 1b2f 603c
00000130: 1287 f8bd b776 f5bb b203 a5ba 116d 403c
00000140: 6881 7c3c 521e b9be b9e7 be3d e035 5bbd
00000150: 1b7f e43d a0cb 683d eb7b 89bd 4d67 08be
00000160: 7dc2 1abd 4989 293e d871 cb3d ac29 67be
00000170: 6138 433f 777c f83b 62b6 023f 1817 373e
00000180: 4946 c4bc 3e30 07bd 7ccc 9b3b ff59 5d3e
00000190: 5d82 d93d 608a 0ebd f4e4 503e 02d0 8cba
000001a0: b9c5 9f3d de25 28be 22d6 b9be 2204 85bd
000001b0: b858 efbb 3e69 acbb 8db9 403f 726e 3e3d
000001c0: 5ba5 e7bc c75a a83d ce37 813b 4ee4 21be
000001d0: 7f08 03bf 7d42 1b3f bbfa 8f3d 7e10 c63c
000001e0: 91dc 92bd 785f 1f3e 255f f6bc 49c4 42be
000001f0: 3bd3 c13d 0ff9 b5bc 851a 2f3f c6c9 0b3f
00000200: fd86 d6bc e8a6 ee3e 9db3 fcbe 7e6b b83d
00000210: d893 17bd e8fe bbbb 77fe 0c3f 1853 ecbc
00000220: 7bff 0abf 5262 663d fae8 03bd 04ab 83be
00000230: e724 9ebe 8bdc f3bd 52b1 e43d 39c7 a63c
00000240: 3769 2d3d 3c98 bb3e 5840 2abd 815d 333c
00000250: 227a 163e ccbf c1bc 97ba 47bd 8b0f 4c3d
00000260: aa50 0a3d e8b8 c9bc fe90 8b3e 452d d13d
00000270: d295 cebd 7940 d2be feb7 de3d 6957 c23d
00000280: a684 833e e4ba 9bbd cecc 36bd 3b2c b7ba
00000290: 5a60 d03e e2a5 65bc 06c7 c4bd 26e1 a53d
000002a0: f975 803d d1fe d53d 70b8 6f3d 95c2 0c3d
000002b0: 957a 16bd c838 e5be 791b 263d c88b 883c
000002c0: e8ac 063d 0a99 27bd d067 79bd a766 aebc
000002d0: adde 913e d10a f5bd 6f45 003e 990c 1abc
000002e0: b6a2 103e 13a4 f1bc 4e36 08bd 9efd 043e
000002f0: 77ae a93a 84f7 6bbd dc6a ae3d b1ac 3d3d
00000300: 4e09 bdbc 48b0 a0be 8ca2 53be a4c8 19bb
00000310: ed41 f3bc a3f1 003d 5704 b2bc cf2e 533f
00000320: 5a23 a3bd 290e 693f f5f2 403d 8499 9a3c
00000330: 2f33 233c 54f6 39bc 7119 dcbd 9fe4 5a3c
00000340: 1253 073d fd3d 5bbd 6a91 bfbc bd98 b8bd
00000350: a30a 03be 9cf7 473e ca57 0fbf 4d7d 653d
00000360: 2dbd a93c d3a3 06bd 615c 3abe 1b9f 1b3d
00000370: 3908 893d 732e c4bd 17e6 1fbd 6170 083d
00000380: 0106 803c d309 19be 3aa5 d13d 5db3 aa3d
00000390: 882b 08be d3a0 dc3e 9742 3d3e ee69 0dbd
000003a0: 6aa6 ff3c 1c70 543d c15e b73b c0d2 5dbe
000003b0: e577 a5be 3a7b 7ebb f33f 2e3e c02a fbbd
000003c0: 727e 35be 2e22 73ba e2d3 0a3d 10df 103e
000003d0: 89ca 6ebe 79c6 323f 094a e8bd 8f76 63be
000003e0: dab5 06be 4ea5 183d f6de 6ebc 9431 673c
000003f0: 80ee df3d 9a84 11bf dd85 cfbc d570 873a
-0.6816099 -0.29670772 0.41109556 -0.50437677 0.45129263 0.100938514 -0.36033753 -0.09111848
0.014050612 -0.5935449 0.079359524 0.011245228 0.024312075 0.035912987 0.014574263 -0.4780859
0.06321209 0.18576615 0.38905177 -0.057449747 -0.07206519 0.14765148 0.27918744 -0.01838831
-0.13515198 0.07594508 0.19837584 -0.021660775 0.35720485 -0.006530703 0.7522567 -0.060459033
-0.048786703 -0.004754374 0.5201793 -0.007708173 -0.14613733 0.0020465092 0.34648314 -0.3861325
-0.04159529 0.011213151 -0.28488415 0.2528504 0.6903932 -0.013511802 0.37687612 -0.015231406
-0.21094856 -0.04444057 -0.33225995 0.12958314 0.029038299 -0.04777138 -0.01906374 -0.080265194
-0.10844761 0.40826553 0.05340703 0.019202054 -0.033015564 -0.10442587 -0.031219505 -0.03144339
-0.008681 -0.26744306 -0.10843345 0.060050566 -0.02306187 -0.44387597 -0.029390885 -0.46538848
0.0272142 -0.04947022 0.13278736 0.013683106 -0.121351376 -0.0074909586 -0.0012589602 0.011744753
0.015411712 -0.36155945 0.09321541 -0.053518176 0.11157056 0.056834817 -0.067130886 -0.13320656
-0.037783135 0.16556276 0.09933823 -0.2257449 0.762579 0.0075831967 0.51059544 0.17879903
-0.023959296 -0.03300499 0.004754601 0.21616362 0.10620568 -0.034799933 0.20399839 -0.0010743144
0.078013845 -0.16420695 -0.36296183 -0.06494929 -0.0073042773 -0.0052615693 0.7528313 0.046492048
-0.02827709 0.082204394 0.00394342 -0.15809748 -0.5118484 0.6064833 0.07030245 0.024177786
-0.07170976 0.15563762 -0.030074665 -0.1902019 0.09464117 -0.022213487 0.6839984 0.54604757
-0.026187414 0.46611714 -0.49355784 0.090048775 -0.03700623 -0.0057371743 0.5507578 -0.028848216
-0.5429608 0.05624611 -0.032204606 -0.25716412 -0.3088753 -0.119072996 0.11166634 0.020358669
0.04233667 0.36639583 -0.04156527 0.010947586 0.14695027 -0.023651026 -0.04876193 0.04981951
0.033768333 -0.024624303 0.27259058 0.102137126 -0.1008717 -0.41064814 0.108749375 0.094893284
0.2568714 -0.07604006 -0.04462891 -0.0013974974 0.4069851 -0.0140166 -0.09608273 0.08099584
0.062725015 0.10448993 0.058525503 0.034365255 -0.036737997 -0.44769883 0.040553544 0.016668215
0.03287974 -0.040917434 -0.06089002 -0.021289183 0.284902 -0.11964954 0.12526487 -0.009402418
0.1412457 -0.029497182 -0.033254914 0.12987372 0.0012945671 -0.057609096 0.085164756 0.04630727
-0.023075726 -0.31384492 -0.20667475 -0.0023465538 -0.029694522 0.031480443 -0.021730585 0.824933
-0.07965727 0.9103723 0.047106702 0.01887203 0.009960934 -0.011350233 -0.1074704 0.013360172
0.033038206 -0.053525914 -0.023384769 -0.090135075 -0.12797026 0.19528049 -0.5599333 0.0560277
0.020720089 -0.03287108 -0.18199302 0.03799353 0.066910215 -0.09579172 -0.03903779 0.033310298
0.015627863 -0.14945154 0.102365926 0.08334992 -0.13297856 0.4309145 0.18482433 -0.03452485
0.031207282 0.05186473 0.0055960123 -0.21662426 -0.32318035 -0.0038830773 0.17016582 -0.12264013
-0.17724016 -0.00092748075 0.033893473 0.14147592 -0.23319449 0.69834095 -0.11342246 -0.22213195
-0.13155308 0.03726702 -0.014579525 0.014110941 0.10934162 -0.5684296 -0.025332386 0.0010333309

_advantage.weight f4 [3, 256]
00000000: fb13 c9be 99dd 18be 2206 8a3e ac83 68be
00000010: 96e4 b43e 8c57 903d dd37 77bd 240a bebc
00000020: 0981 2a3d 75b0 52be b7f4 853c cb9e eebc
00000030: 3d61 493d de2f 763d 7a33 b23b 0cd1 6abe
00000040: 4ad6 9fbc 4111 933d 55f2 9d3e be54 cfbd
00000050: a545 e13d 9fc4 9b3d 02bf 853e eccf 44bd
00000060: bd66 12be d64f 2e3c 128f f43d 8dfd b3bd
00000070: 344b 433e 520b 193d 2ae3 d33e 5d0e b1bd
00000080: 54aa 783d ae9c 6fbd 9657 623e 201d 35bd
00000090: a28f 4bbc 13f1 52bc 0a0c 5f3e 2682 2abe
000000a0: c14b bdbd b5d7 31be a76a 17be 0868 283e
000000b0: 5346 ce3e fb9d c9bc 9a89 1b3e e269 22bd
000000c0: 4a95 85bd b5ac ae3b 4343 fcbd 5e6a 223d
000000d0: 6873 5b3d 1fcd 40bd 75aa 93bd c3f2 34bd
000000e0: c9bf 3cbe 4e4b b73e 18c1 2c3d e77b 54bd
000000f0: 066a eebc f5fd 1ebd 91d8 78bd 2416 c7bb
00000100: eae2 aabc 47e9 593d add6 36be 9351 433d
00000110: 41d1 a5bb 6b21 8abd d9cd 223b 8c97 90be
00000120: ca9a 20bc b37e 7bbd 379a c83c 29ac 1a3d
00000130: 8747 a5bd 3537 433d 3798 683c 3367 8f3c
00000140: e15c a23d 8c9e 84be 5a9a b83d efed 9dbc
00000150: 399a 833d 297b dd3d 3670 253b 190f 10be
00000160: d09e 66bd 4cad 133e e785 2a3e 2786 d03d
00000170: f118 cd3e 67ec 96bd 8d68 673e cbee 833d
00000180: 5aa1 d93d c71b 1c3c b4dd 01bd 9d7f b23d
00000190: 49fd 3f3d fb43 7d3d 1f13 193e 27ac 39bc
000001a0: cd4c 9a3d 05f6 bbbd 7ad1 1e3c 8dae 09bd
000001b0: 4c0a e13c 0805 d2bd c97d e43e b11d 883c
000001c0: 3da8 d0bc 4801 653d 8685 bc3b 5106 373c
000001d0: 8bf9 90be 4467 c73e 9a54 983d de94 903c
000001e0: ee0d c1bc d004 383d 684f f2bc 7c46 45be
000001f0: e72b 103d c684 24bd 5d88 f43e 7e4a 953e
00000200: 9ad0 50bc 4904 513e 4da4 78be f0f6 6d3c
00000210: 843d 26bd af05 84bd 6af7 893e c320 393d
00000220: e53e 55be e372 673d 6d3d a8bc 2b18 1f3e
00000230: 4c53 94bd 27fb 903c f1d1 e53d 5c38 13bd
00000240: 85de 5b3b aed1 343e 64a8 69bd 5802 6f3d
00000250: e8be 803c 220a 7d3c f3fd 61bd b2b8 a33c
00000260: 9bc8 773c f6d0 e0bc 7210 a73d 47ac 1d3d
00000270: 8e7b 323c b624 4abe 45c5 a33d c913 803d
00000280: 7ee5 4e3e 2a84 6bbd 9f67 ba3c 688a 63bd
00000290: 0adc 503e b00d 64bd 48ab 00bd 4456 f13d
000002a0: d9fb 223e 7b5a bbbd d0ec e23c c60b d83c
000002b0: af8e 0cbd b1de efbd f8bb 33bd bead f63c
000002c0: dd30 c53c 76cd 13be f3f7 2abd 111b 1d3c
000002d0: f945 2b3e f89c dbbb 9a13 033d e896 2bbd
000002e0: 7a75 e13c 720a 803c cb4f c7bb f667 ae3d
000002f0: 7a40 82bd 8795 8fbd b6d0 a33b f44f 8a3c
00000300: f40a 99bd 5a9a 43be e30e 8dbe 48d2 e13c
00000310: 7ce5 1bbd a997 6cbd 0f38 51bd d5ac 033f
00000320: 7e03 1dbd 4152 dd3e fe3b 0dbb 9dd5 fc3d
00000330: 3c4e 913b 1fcc 8c3c b94b d1bd cb7b 49bd
00000340: e61c a63c 345e 09bd e44a 313d 3fd3 9fbd
00000350: c9b7 9fbd 77dc ce3d 2b54 bebe ae57 c93c
00000360: 6527 18bc a869 0a3c 8e4c d4bd 62ed 13bd
00000370: 0a4b 773d eeef 02bd c352 22bd a5c6 aabc
00000380: 3783 883c 75dc 11be 8c6f 913d e87d d03d
00000390: 7934 f9bd a9b4 753e 4927 8b3d 0be7 003d
000003a0: 522f 723d 160d b43c 53c8 a0bd cc0d eabd
000003b0: df0b bf3d 4cd3 8abc 45fc 753d b808 2ebe
000003c0: 0161 4dbe ac37 bcbc e0b7 223c c600 603d
000003d0: b8f6 f0bd ee49 923e b997 d9bd 4f61 4ebe
000003e0: 1964 36be 875b 9e3a 623c e9bc 616f 09bd
000003f0: 3bc8 c73c e7a9 9ebe 31a6 a2bd c91d 65bd
-0.39273056 -0.14928283 0.26957804 -0.22706479 0.35330647 0.07047948 -0.06035601 -0.023198195
0.041626964 -0.20575126 0.01635204 -0.029128453 0.049165 0.060104243 0.0054382654 -0.22931308
-0.01951136 0.07181025 0.30848947 -0.10123585 0.10999612 0.07605862 0.2612229 -0.048049852
-0.14297004 0.010639152 0.11941351 -0.08788595 0.19071656 0.03736431 0.4138425 -0.08645318
0.060709313 -0.05849903 0.22103724 -0.04421723 -0.012424381 -0.012874859 0.21781936 -0.1665121
-0.092429645 -0.17367442 -0.14786778 0.16445935 0.40288028 -0.024611464 0.1518921 -0.03965176
-0.06522615 0.005330647 -0.12317517 0.03965222 0.053576857 -0.04707062 -0.072102465 -0.044176828
-0.18432535 0.3579964 0.042176336 -0.051875975 -0.02910329 -0.03881641 -0.06075341 -0.0060756374
-0.020860154 0.053200986 -0.1785533 0.047685217 -0.0050603454 -0.06744655 0.0024841933 -0.2824062
-0.00980253 -0.061400127 0.024487598 0.03776184 -0.080702834 0.04766007 0.014196447 0.017505264
0.079278715 -0.25902212 0.09013815 -0.019278495 0.064259 0.108145066 0.0025243885 -0.1406826
-0.0563038 0.14421576 0.16652642 0.101818375 0.4005809 -0.07369309 0.22598477 0.064420305
0.106264785 0.009528107 -0.031705573 0.087157466 0.04687241 0.06183241 0.149487 -0.011332548
0.0753418 -0.09177784 0.009693498 -0.03361373 0.02747073 -0.10254866 0.44627216 0.01661572
-0.025470847 0.055909425 0.005753222 0.01117094 -0.28315386 0.38945973 0.074380115 0.01764911
-0.023566213 0.044926465 -0.02957888 -0.19265169 0.03519812 -0.040165685 0.47760287 0.29158396
-0.012745047 0.20411791 -0.24281426 0.0145242065 -0.04058601 -0.064463966 0.26946574 0.04519726
-0.20824774 0.05650605 -0.020537103 0.15536563 -0.0724245 0.017697884 0.11221684 -0.03594242
0.003354938 0.17658111 -0.057045355 0.058351845 0.015716031 0.01544431 -0.055173825 0.01998553
0.015123512 -0.02744339 0.081574336 0.038494375 0.010893716 -0.19740567 0.079966106 0.06253774
0.20204732 -0.05749909 0.022754489 -0.055551916 0.20396438 -0.055677116 -0.031413347 0.11784032
0.15916385 -0.09148117 0.027700812 0.026372802 -0.03431576 -0.11712397 -0.043880433 0.030112144
0.024071151 -0.14433846 -0.04174037 0.009588973 0.16725911 -0.0067020617 0.032001115 -0.041891962
0.027521838 0.01562998 -0.00608251 0.08515923 -0.06359954 -0.07010942 0.0049992455 0.016883828
-0.07472792 -0.19101849 -0.2755042 0.02756609 -0.03806065 -0.057761822 -0.051078852 0.51435596
-0.03833341 0.43226817 -0.002155065 0.12345431 0.004434375 0.017187176 -0.10219521 -0.049190324
0.020277452 -0.033537105 0.043284312 -0.07803964 -0.07798726 0.10100644 -0.3717359 0.024577942
-0.009286736 0.008448042 -0.10366164 -0.036115058 0.060374297 -0.031967096 -0.03962971 -0.020846674
0.01666413 -0.14244254 0.07101354 0.10180265 -0.121682115 0.23994698 0.067946024 0.03147034
0.05912716 0.021978896 -0.07850709 -0.11428413 0.09328436 -0.016946457 0.060055036 -0.16995513
-0.20056535 -0.022975765 0.0099315345 0.054688238 -0.11765808 0.2857203 -0.10624642 -0.20154308
-0.17811622 0.0012081721 -0.028471176 -0.033553485 0.02438747 -0.30989 -0.07941855 -0.05593661

_advantage.bias f4 [3]
00000000: 17a3 b0bb 8623 c7bb 58e6 bbb9
-0.0053905356 -0.006077233 -0.0003583904

_out.weight f4 [3, 256]
00000000: 380d f6bc e06b 8bbb 8680 40bd 3a1f 693d
00000010: 5ed5 013d a03a 6abc 0087 cc3a d83c 2bbd
00000020: 1813 96bc b0ea 9f3c 5887 debc ec65 34bd
00000030: d499 933c 10ef 8d3b e807 103c 303f ea3c
00000040: b0ce 543c 421e 2abd 06d3 12bd bce4 d13c
00000050: d8af 413c 70fc 503c 7690 2abd 00a0 96b8
00000060: 0848 6cbc 986b 003c 0067 9dbc c433 b63c
00000070: 607d a93b 8054 593c 4c95 0abd 241a 47bd
00000080: 6454 ffbc 7033 593d c835 a23c 28b8 48bd
00000090: 30e1 28bd 8ce2 68bd e0e8 1ebd 7ee3 68bd
000000a0: de38 64bd 5c74 e83c eacc 313d 60a3 753b
000000b0: 36fc 2fbd 6e80 4e3d 362a 333d e09d ea3c
000000c0: d2ac 6d3d 3292 04bd 001a 653c c062 9dba
000000d0: a0fc 2cbb 9c4a d83c 5001 bbbc 4859 163c
000000e0: eee3 35bd 40d8 c23a 2e2d 583d 0a13 68bd
000000f0: ecae 963c f8e8 81bc 5ac9 0f3d 58f5 253c
00000100: 1c7a a9bc 206d 793b e4b9 f5bc 588b 66bd
00000110: 30e1 763d 78dc 4fbd d4e6 883c 2c2d a63c
00000120: e43c cabc 3633 71bd b0e7 1e3c f04d 65bc
00000130: 46d5 293d 3a8a 343d b224 08bd 68d4 ca3c
00000140: 10bc adbb 28db 0e3c 7cd6 693d 20d9 fc3c
00000150: 58cc 1ebd 0ada 2cbd 3029 cbbc 64e4 c4bc
00000160: d6ff 273d 5017 50bc 8c8e 24bd 28c8 543c
00000170: 8240 693d d40f b13c 6091 debb e0d0 a2bc
00000180: f8c0 103c a0a0 4c3d 2005 36bb 9439 1dbd
00000190: 94f2 b23c 14cc a13c 7894 4abd 4082 0a3c
000001a0: 2082 603b 80f6 743d 6830 483d e054 9c3c
000001b0: e4b2 93bc 8cf9 103d c84d f53c 40bb 5f3b
000001c0: a802 c53c 68f4 9b3c eed9 77bd 8009 8c3b
000001d0: 280d 74bd da17 703d 1896 cd3c 40f4 e6bb
000001e0: 506a 5f3c c4e6 d33c d486 eb3c 0264 60bd
000001f0: d41a af3c 0a1a 313d 421e 3c3d d82e 96bc
00000200: 180b 2e3d 5024 00bc e0a1 503b 682d 8a3c
00000210: d66d 2fbd 6ec4 5ebd 201f 203d 4849 38bd
00000220: 1c51 a0bc 2827 b9bc c642 203d c034 4b3d
00000230: 0a8f 1d3d 94a7 243d bc76 59bd bcb1 c9bc
00000240: 1c37 73bd 4a0c 463d 401a 3bbd 6817 7bbc
00000250: 027b 3ebd ac56 033d 0ad1 603d 7098 203d
00000260: 200d ed3b 00a5 953b a045 8ebb b06b 913c
00000270: 9021 583c 6257 3d3d 00eb 6fbc a00a 1b3c
00000280: a4b0 1dbd 40e0 35bd f4f4 ce3c c818 a2bc
00000290: cc7b 563d e28e 443d 003e edbc 8063 c7bc
000002a0: 343e a1bc 7ca7 013d 7872 7fbd a099 e83b
000002b0: c039 133c 0cc4 33bd d606 0c3d d063 0a3d
000002c0: da6b 1abd b4af a03c 4040 16bc 4044 0bbd
000002d0: dc8e 373d 60fc 983b a6de 14bd 307c d53b
000002e0: dc19 f53c 4293 503d a0dd 58bc 4842 0c3c
000002f0: 8cbd 583d ba65 423d d468 2f3d 90d2 7abc
00000300: ec16 cbbc 7060 a63c b818 dd3c c89f 69bc
00000310: 00ac 833b 5c1d b2bc 28b1 9bbc 2a11 43bd
00000320: 1478 60bd 4025 a5bc 026b 07bd b81f 05bc
00000330: c8fb 14bd da81 25bd b632 5dbd 4074 dcbc
00000340: 9a13 763d 707a 2b3d 24bb 42bd c094 d8bc
00000350: cea4 56bd 501f 1ebd d035 4abc 78e9 34bd
00000360: 10b0 1c3d 14bc 0abd 048c a53c 1882 84bc
00000370: c68e 10bd e03d 4b3b 3e9d 1dbd 2050 503d
00000380: 703b b53b 6c70 4e3d 28b3 27bd 1a94 0ebd
00000390: 367d 7dbd c00b f73b b8d7 02bd 60a6 72bc
000003a0: 140a 5c3d 885a c83c 3410 b2bc fc1d 7a3d
000003b0: 382e 0e3d e479 f3bc 4023 9abb 985a 5c3d
000003c0: 60e1 ac3c 5820 593c c05b 983a 00dd cf3c
000003d0: 40b2 ae3b a69f 38bd f8f5 4bbd 0c73 58bd
000003e0: f895 28bc 4ad7 383d 00c5 c3ba 8afd 3c3d
000003f0: 28d2 1b3c c4db 2b3d 3e0d 6dbd 20bf 96bb
-0.0300356 -0.004254803 -0.04699757 0.056914546 0.031697623 -0.014296204 0.0015604198 -0.041806072
-0.018319651 0.019521087 -0.027164146 -0.044042513 0.018017687 0.004331477 0.0087909475 0.028594583
0.012988731 -0.041532762 -0.03584578 0.025621764 0.01182171 0.012755498 -0.041641675 -7.18236e-05
-0.01442147 0.007838152 -0.019214153 0.02224148 0.0051724166 0.013264775 -0.033833787 -0.048608914
-0.03116817 0.05302757 0.019801036 -0.04900375 -0.04123038 -0.056856677 -0.038796306 -0.05685758
-0.055718295 0.028375797 0.043408312 0.0037481412 -0.042965136 0.05041545 0.043741427 0.028639734
0.058026142 -0.032365985 0.01398325 -0.0012007579 -0.0026395693 0.026402764 -0.022827774 0.00917656
-0.044406824 0.0014865473 0.05277746 -0.056658782 0.018393956 -0.015858158 0.035104133 0.010129295
-0.02068811 0.0038059428 -0.029995866 -0.056285232 0.06027335 -0.050747365 0.01671163 0.020285212
-0.024687238 -0.05888673 0.009698793 -0.0139956325 0.04146316 0.044077136 -0.03323812 0.024759486
-0.00530196 0.008719243 0.057089314 0.030865252 -0.038769096 -0.042200126 -0.024799913 -0.024034686
0.04101547 -0.012700871 -0.040175006 0.012987174 0.056946285 0.021613993 -0.0067922324 -0.01987499
0.00883507 0.04995787 -0.002777405 -0.03838499 0.021844186 0.019750632 -0.049457997 0.008453906
0.0034257248 0.059805393 0.04887429 0.01908344 -0.018029638 0.035394236 0.029944316 0.003413871
0.024049118 0.01903744 -0.06051057 0.0042735934 -0.05958286 0.058616497 0.025095984 -0.00704816
0.013636187 0.025866874 0.028750814 -0.054782875 0.021375097 0.043237723 0.045927294 -0.018332884
0.04249105 -0.007821158 0.0031834766 0.016867355 -0.042829357 -0.05438655 0.039092183 -0.04499176
-0.019569926 -0.022601679 0.03912618 0.049610853 0.03846649 0.040198877 -0.05309175 -0.024620883
-0.05937873 0.048351564 -0.04567933 -0.015325405 -0.04650403 0.03206508 0.054886855 0.039207876
0.0072342306 0.0045667887 -0.004341796 0.017751545 0.013191596 0.046225913 -0.014643431 0.009462982
-0.038498536 -0.044403315 0.025263287 -0.019787207 0.052364156 0.047987826 -0.028960228 -0.024339437
-0.019682981 0.031653866 -0.062365025 0.0070983917 0.008985937 -0.043888137 0.034186207 0.033786595
-0.03770051 0.019615032 -0.009170592 -0.034000635 0.044813976 0.0046687573 -0.036345147 0.0065150484
0.029919557 0.050921686 -0.013236433 0.008560725 0.05291514 0.047460295 0.04282458 -0.015308991
-0.024791203 0.020309657 0.026989326 -0.014259286 0.0040183067 -0.021742515 -0.019005373 -0.04762379
-0.054802015 -0.020159364 -0.033061035 -0.008125238 -0.03637293 -0.04040704 -0.05400344 -0.026910901
0.060077287 0.041864812 -0.047541752 -0.026438117 -0.052403264 -0.03860408 -0.012341931 -0.044167966
0.038253844 -0.03387077 0.020208366 -0.016175315 -0.03529241 0.0031012222 -0.038480036 0.050857663
0.005530767 0.050400183 -0.04094234 -0.03480921 -0.06188699 0.0075392425 -0.031944007 -0.014810175
0.05372055 0.024457231 -0.021736242 0.06106375 0.034712046 -0.029721208 -0.004703909 0.053797334
0.02110356 0.01325234 0.0011624023 0.025373936 0.0053313076 -0.045074128 -0.04979512 -0.052844092
-0.010289662 0.04512719 -0.001493603 0.04614023 0.009510554 0.04195763 -0.057873957 -0.0046004206

_out.bias f4 [3]
00000000: dccb dfbc a08b 253d de77 093d
-0.027318887 0.04041636 0.03356158
