rl/models/single_agent/pong_dueling_ddqn_vs_BASIC_BOT2.pth (torch, 286940 bytes, 9 tensors)

_fc1.weight f4 [256, 12]
00000000: fdb2 203e 0d5e b1be 41ee 5f3d 0985 7d3b
00000010: 8838 5cbe f551 d33d 3a6d 763e 4bad 89be
00000020: bbc1 98be 30cb ad3e 22b8 9bbd 3602 58be
00000030: d55c 523e 172d b3bc 374b be3e db30 5d3c
00000040: 58f6 443d a5a9 cdbe 7192 f1be 4805 06be
00000050: bf50 b73d 7565 f73d 41d6 07be e106 aebe
00000060: b2f8 6a3d 1185 273e 8c41 0abe a975 bf3c
00000070: a768 803d 5ec6 d0be c934 39be 6410 67be
00000080: ef8c b8be d674 79bd 5c93 bbbd 9bb2 34be
00000090: e15b c33d 305d 3a3e f952 c73e 50ea 533b
000000a0: 96bd 16be 1ed3 59be 4601 c43d af0c 9e3d
000000b0: b5af 1c3d dd34 a73e 520c 8e3c 76a7 373f
000000c0: 3f8e f13c 3a3f 19bc 165c 8abe 31f2 4fbb
000000d0: 3e2f 133d 2551 92be 6019 0e3e 1e87 ed3c
000000e0: 87fa d63c 83f9 813e 1068 d13d 1f44 3dbe
000000f0: 9c90 7abd b7ba de3e 3566 31bd 4386 30bb
00000100: 214c 8dbe 683c c03c b0ea 833b 35cd b93c
00000110: 2845 4fbe 4a4e 943c d13a 1dbe 303d fabd
00000120: 172d b8bd abfe a0be 65e1 e13d db45 b3bc
00000130: ab2b 31be 8c54 10be 3833 5cbe 8587 cbbd
00000140: c616 5abe 35b5 92bb 46f1 96be 0b7a 2abd
00000150: 8bc7 013e 86c5 023f 032e f73d a33f a83c
00000160: e52c 15be 56d9 8c3c d12a 07be 281c 5abd
00000170: 9be2 9f3d 77a9 08bf cc3e aebd 18be 74be
00000180: d748 a3bd 8cfe 9b3e a4cb 29be 4b1d 08bc
00000190: d412 67be cd04 8cbd 899c 30bf 6fdd 42bc
000001a0: 3d02 58be b746 edbe 6da8 47be d36a ae3e
000001b0: ea04 583d 1492 eabd 593c b13c 39ef 833b
000001c0: 1457 cf3d dcb0 03bf 8575 5ebd c081 90be
000001d0: c1ea b63b 276d e93d 431c 2ebd b8cb 6fbd
000001e0: fb0a ba3d ea05 9fbd 8c3e b83e 6903 49ba
000001f0: b258 793e 05a2 893d 4ff8 a23d b280 933e
00000200: 6c25 72bd 2710 31be 615d 5c3d 1123 74bf
00000210: 844c 773e f1c0 0cbe b1c4 823e 569b ac3b
00000220: c1c2 fe3d a719 4b3d 64ce 503d a3d1 0abd
00000230: 8fb9 d43e 0b4d f1be 7f42 4a3e d82e 41bf
00000240: 9157 403e d338 fc3d 6d06 263e c8f6 03bd
00000250: 0682 fc3b 3fdc 0abc 7dc3 6c3d ab4f 6a3d
00000260: 286d e6be 0996 5ebe 55d6 cabd 4896 a1bd
00000270: 8f23 b4bd 5bc5 e23c fae9 8bbe fe3b 133b
00000280: a150 60be 7187 f33c 49e0 9c3e fde6 933e
00000290: 8e98 3dbe b69a 98be 9753 0abe c871 71bf
000002a0: 8f37 2c3e 9ab5 b63d 8149 efbc d696 553d
000002b0: 502e d23d 9de4 79be 3910 3ebe 40ad 1ebc
000002c0: 86a3 16be b842 43be d4b4 dc3d 5a56 eb3e
000002d0: f4f3 bb3e e319 bd3d e91a 99be 4558 813c
000002e0: 7746 11be 3384 44be 4ad1 8f3e d3a4 1f3b
000002f0: 0237 8c3e 7142 40be 3e61 d83d 7b2f dc3e
00000300: 6c62 b13e 85ac df3d 45dd efbc 779d 193c
00000310: 7fd8 0b3d 3654 96bd 087c 3b3e 5f76 1e3d
00000320: 1744 8abd b4b5 f03d fd6a 21be 502d a4be
00000330: a252 8c3e e94c 0e3e 48a2 683d 3886 4d3e
00000340: 3abe 55be cef1 203e 004b 30bd 00ab dbbd
00000350: 6cd2 073c fda9 1fbe ce48 abbd 437d 20be
00000360: bb31 f13d 2314 373e 6d6b 973e 7a14 803c
00000370: ea8f f3bd 5fb3 32bd e04d f1be abd7 b63e
00000380: 92ea 263e 2a38 433e 4c16 01be 8267 7c3f
00000390: e8e3 233d 28e2 d83d 5ef0 a83e b6d0 243b
000003a0: c201 33be e4bf 9bbe 119a 27be c928 e5bd
000003b0: 03bb 97be 21cd 83be 4f71 66be d52d 7fbe
000003c0: 9304 89bd 0058 7dbe 9464 bf3e 9591 b1bc
000003d0: 6495 19be 89ea c4be 69f3 71be 3043 acbe
000003e0: 7464 9bbd 6aa2 cb3d 70f1 c13c c672 83bd
000003f0: 5a6f 0fbe 8661 1abd e734 03bd 0a3c c039
0.15693279 -0.34642068 0.054670576 0.0038684031 -0.2150594 0.103183664 0.24065104 -0.26890025
-0.29835305 0.33944082 -0.0760348 -0.21094593 0.20543225 -0.021872086 0.3716676 0.013500418
0.048086494 -0.4016849 -0.47182038 -0.13087952 0.08950948 0.12079898 -0.13265325 -0.33989623
0.05736608 0.16359355 -0.13501567 0.023371534 0.06269961 -0.40776342 -0.18086542 -0.22564846
-0.36045024 -0.06090244 -0.09158966 -0.17646258 0.09539009 0.1819961 0.3893049 0.0032335706
-0.14720759 -0.21271941 0.095705554 0.07717263 0.038253505 0.3265752 0.01733986 0.717399
0.029486774 -0.009353453 -0.2702338 -0.003173005 0.035933726 -0.28577533 0.13876867 0.028995093
0.026242508 0.25385675 0.102249265 -0.18483017 -0.061173066 0.43501827 -0.043310363 -0.0026935495
-0.27597144 0.023466304 0.0040257797 0.022680858 -0.20241225 0.018103737 -0.15354468 -0.12218702
-0.08992975 -0.31444296 0.11029319 -0.021883896 -0.17301814 -0.14094752 -0.21503913 -0.09937958
-0.2129775 -0.004477168 -0.29480952 -0.041620295 0.12673776 0.51082647 0.12069323 0.020538157
-0.14567907 0.017193478 -0.13199927 -0.05324951 0.078068934 -0.5338358 -0.08508071 -0.2390064
-0.079728775 0.3046764 -0.16581589 -0.008307765 -0.22565776 -0.06836853 -0.68988854 -0.011893614
-0.21094604 -0.46343014 -0.19497843 0.34065875 0.05273906 -0.114536434 0.021635221 0.0040263203
0.10124031 -0.5144174 -0.054311294 -0.2822399 0.005582184 0.11397772 -0.04250742 -0.05854389
0.090841256 -0.077648 0.3598522 -0.00076680497 0.24350241 0.06720356 0.07957517 0.28809124
-0.05911772 -0.17291318 0.05379999 -0.9536601 0.24150282 -0.13745476 0.2554069 0.005267541
0.1243949 0.04958501 0.05097808 -0.03389133 0.4154782 -0.47129092 0.19751929 -0.754621
0.18783404 0.12315526 0.16213389 -0.03221777 0.0077059297 -0.008475362 0.05780362 0.057204884
-0.45005155 -0.21736921 -0.09904162 -0.07889992 -0.08795845 0.027681997 -0.27326947 0.0022466178
-0.21905757 0.02972767 0.30639866 0.28887168 -0.18515226 -0.29805535 -0.1350845 -0.9431424
0.16818069 0.089213565 -0.029209854 0.0521458 0.1026274 -0.24403615 -0.18560876 -0.009684861
-0.14710817 -0.1906842 0.10776678 0.4596432 0.3670956 0.09233453 -0.29903343 0.01578916
-0.14187036 -0.19191055 0.28089362 0.0024359717 0.27385718 -0.18775345 0.105654225 0.43004975
0.34645402 0.10921577 -0.029280314 0.009375921 0.034142014 -0.07340281 0.18309033 0.038687106
-0.06751268 0.11753407 -0.15763469 -0.3206582 0.27406794 0.13896526 0.05679539 0.20070732
-0.20873347 0.15717241 -0.043040276 -0.10725975 0.008289915 -0.15592189 -0.08363496 -0.15672784
0.117770635 0.17878775 0.29574147 0.015634764 -0.11892684 -0.043628093 -0.47129726 0.35711417
0.16300419 0.19064394 -0.12606162 0.9859544 0.04001227 0.10590011 0.32995886 0.0025148815
-0.1748114 -0.30419838 -0.16367365 -0.1118942 -0.29634866 -0.25742438 -0.22504161 -0.24919827
-0.066903256 -0.247406 0.37381423 -0.021675864 -0.14998394 -0.38460186 -0.2362801 -0.3364501
-0.07587519 0.099430874 0.023674697 -0.06418376 -0.14007321 -0.03769066 -0.032032873 0.00036665826

_fc1.bias f4 [256]
00000000: d628 013e 6727 883d 312b 9abe 227b 20bc
00000010: 6094 0bbc 76c0 c3bd fc3e 88be 76c2 003d
00000020: 2236 983c 1ccc bbbd 31b8 7dbe 3dab cbbd
00000030: e511 23be 3662 2b3d 0e3c 74be f46c 273e
00000040: 8dcd 503d 5ed4 66be b6ca e8bd 98c0 873d
00000050: e693 02be 803d 88be 8659 123e 51e2 683e
00000060: 0b25 8bbc c61e c6bd 5af3 1aba 9aa6 85bc
00000070: 3ad5 a3bd e7ed 81be 27fd 403d f30c 99bd
00000080: 7927 7bbe ece5 2fbd 440d 36be 8b76 98bd
00000090: cfda f0bc 2ff2 d0bd 201e a5be ff3f 2abe
000000a0: a14d 3fbe 3716 ca3d 0750 423e 817e 37bd
000000b0: d2e6 8dbe 7b6f 673e 59c9 9bbe ce23 a13d
000000c0: d1ee 4cbe 1fd4 a1bd ce43 6ebd 8709 1abe
000000d0: 7524 613e db00 9c3d f30c 3d3d 8a5b 0cbd
000000e0: bb20 993d 6a5f 3fbe 4a64 a43d fe0b 8e3e
000000f0: 98d4 dbbd 660d 93be ec28 a6bd f2be 083e
00000100: 28fe d13d 6788 80bd 26e6 57bd 0bd0 d6bb
00000110: d014 6ebe 8f9a 1d3e f1b2 73be b469 8fbe
00000120: 754e b5bc a1f3 f83c b3e8 4dba e1ca 783c
00000130: 323a 043e f580 04be 684c 9d3e 17b4 053e
00000140: ae74 883e 5be9 20bc 041c c7bd 4bcc 83be
00000150: 30ce 03bd 53d2 7dbe c5a9 8b3d b50b d03d
00000160: bda5 673e 7507 f7bd 402e acbd b10a 00bd
00000170: 8cad 78be b60f c6bc c47d 13be e626 afbd
00000180: 738a b43d 4322 59be 7bcb 27bd 562d 39be
00000190: a615 a9bc 6f6d 153e 0245 88be 1842 89be
000001a0: 9225 df3d b3ba 97be b0f8 1fbe 0ebd 34bd
000001b0: e338 013e 23c2 cb3d 290d 393e 8290 2fbe
000001c0: 0d50 363e eb70 96bd 0f28 883d cfe0 7fbd
000001d0: 3876 81be c2c8 30be ad6d 18bd 247c 7abe
000001e0: 9497 5c3e 6c03 cdbe 5113 b53d 77a2 e53d
000001f0: c6cf 27be f785 b0bd c396 b1be fba4 58be
00000200: 5511 2d3d 1f8c 3cbe 8220 bebc 0b48 1e3e
00000210: b08f f13d ed05 26bd 26dd d03b abc5 8d3d
00000220: 34e6 d4bd e545 603e af02 263e c2ac 00be
00000230: 3b90 183e 4717 b13d 6fa9 81be c2ee 323e
00000240: 86c9 6dbe 81ce 1b3e 3b8e 073e 8320 39be
00000250: f16d 43be 47fd 7cbe eb04 42bd 28bf 64be
00000260: 682f 853d 5786 423e a649 87be c083 3dbe
00000270: 1f62 4ebe 5875 893d 2bd6 99be 63b2 a9be
00000280: eda3 2b3d 3a08 84bd 132b 70bd 504d 5dbd
00000290: 667a a7bd 1ce3 94bd 26e1 57be 7213 f9bc
000002a0: 2537 943d 3540 5f3e f879 b83d be3c 6a3e
000002b0: 1da4 6bbe f21f 0a3d 62d5 17be f1e5 24be
000002c0: 1604 a0be 261a ff3d 86a1 1fbd aff6 c3bd
000002d0: 0fcb 89bc f939 84bd 5c52 743c aa0f 45be
000002e0: f42c 553d 7186 aa3d ecf8 c8bd b98a eebd
000002f0: 6fdf 07bc 61f2 dcbd 07c1 38bd 0d7a 9f3e
00000300: e19b 18be 76eb 8e3d 8ee7 31be b44b 52be
00000310: ec0e d0bd 8664 6fbe 5b57 4b3c d224 6ebd
00000320: 168c 0c3e 61ca 94be 3b22 2e3d 59e0 d13d
00000330: 375a 53be 8d3d fcbd 1f84 bf3c d0ca 3a3e
00000340: e05d 4e3e 6108 63be a302 323d 6a50 5bbe
00000350: 9d26 b73d 5a54 c5bd b398 4bbe de89 d9bd
00000360: 2d1c 39be f39b 49bd 7832 20be 7457 023e
00000370: 7861 21bc 6cf3 19be 6474 53bd 079b 213e
00000380: 1745 06bb 6594 0e3e e075 75be f2b1 f5bd
00000390: f06d 93be 73a2 81bd 2cf9 7e3e 5279 5a3d
000003a0: a934 81be a533 12bd 4767 93bc c53e 50be
000003b0: 3c55 b23b b8ce b23d 1c8e 76be 81e7 c53d
000003c0: 8ef5 b23d 596b 03be 23e4 073e e29c 88be
000003d0: 24fa cabd 91fc 723c b578 e03d 4cb5 4abe
000003e0: 0da2 8ebe 453e cb3d 9dd1 ffbd 7d77 adbe
000003f0: 41e2 363e d507 3b3e e83d 313d 7182 7abe
0.12613234 0.066481404 -0.30111077 -0.009794982 -0.008519262 -0.095581934 -0.26610553 0.031435452
0.0185805 -0.0916979 -0.24777295 -0.099447705 -0.15924795 0.041841708 -0.23851034 0.16350156
0.05097728 -0.22541949 -0.11366789 0.06628531 -0.12751731 -0.2660942 0.14291963 0.22742583
-0.016985437 -0.09673838 -0.0005910896 -0.016314793 -0.07999654 -0.25376818 0.047116425 -0.07473173
-0.24526776 -0.04294388 -0.17778498 -0.07444485 -0.029401211 -0.10202443 -0.32249546 -0.16625975
-0.18681957 0.098675184 0.1897584 -0.044798378 -0.27715164 0.2260112 -0.30427054 0.07868157
-0.20012976 -0.07901787 -0.058170132 -0.15042697 0.21986564 0.07617351 0.046154927 -0.034266986
0.07476946 -0.18688741 0.08026941 0.27743524 -0.107339084 -0.2872116 -0.08113274 0.1335409
0.102535546 -0.06276017 -0.05270972 -0.0065555624 -0.23250127 0.1539099 -0.2379873 -0.28010333
-0.022132138 0.030389609 -0.0007854804 0.015185089 0.12912825 -0.12939818 0.30722356 0.1305698
0.2665152 -0.009821261 -0.097221404 -0.257418 -0.032179058 -0.24787264 0.0681949 0.10158483
0.22621818 -0.12061969 -0.08407259 -0.031260196 -0.24284953 -0.024177413 -0.14403445 -0.08552341
0.088154696 -0.21204476 -0.04096554 -0.180837 -0.020640206 0.14592527 -0.2661515 -0.26808238
0.10895838 -0.29634628 -0.1562221 -0.04412561 0.12619357 0.09949138 0.18071426 -0.17144969
0.17803974 -0.07345756 0.066482656 -0.062470254 -0.25285506 -0.17264083 -0.03721397 -0.24461418
0.21542197 -0.40041673 0.08841575 0.11212628 -0.16387853 -0.08619302 -0.34685335 -0.21156685
0.042252857 -0.18412827 -0.02320886 0.1545717 0.11794984 -0.040532995 0.006374019 0.06922468
-0.1039547 0.21901663 0.16211961 -0.12565902 0.1489877 0.08647018 -0.2532458 0.17473891
-0.23221406 0.15215494 0.1323785 -0.18078808 -0.19084908 -0.24705993 -0.04736797 -0.22338545
0.06503183 0.18996559 -0.26423377 -0.1850729 -0.20154618 0.06711835 -0.3004621 -0.3314391
0.04190438 -0.064468816 -0.05863483 -0.05402881 -0.081776425 -0.0726988 -0.21081981 -0.03040478
0.072370805 0.21801837 0.09007639 0.22874734 -0.23011823 0.03372187 -0.14827493 -0.1610334
-0.31253117 0.12456159 -0.0389724 -0.095685355 -0.016820459 -0.0645637 0.014912214 -0.19244257
0.052044824 0.08326424 -0.09813103 -0.11647553 -0.008293017 -0.107884176 -0.04510596 0.31147805
-0.14903213 0.06978504 -0.17373487 -0.20536691 -0.10159096 -0.2337819 0.012410964 -0.058140583
0.13725314 -0.29060653 0.042513113 0.10247869 -0.20639883 -0.123164274 0.02337843 0.1824143
0.20152998 -0.22171165 0.043459546 -0.21417394 0.08942912 -0.096352294 -0.19882469 -0.10621999
-0.18077154 -0.04922099 -0.15644252 0.12728673 -0.0098498985 -0.15034264 -0.05162467 0.15781794
-0.0020487958 0.13923796 -0.23970747 -0.11996831 -0.28794813 -0.06329813 0.24899739 0.053338356
-0.2523549 -0.035693783 -0.017993582 -0.20336445 0.0054422896 0.08730835 -0.24077648 0.096632965
0.08738242 -0.12833919 0.13270621 -0.26682192 -0.09910992 0.014830724 0.10960523 -0.19795722
-0.2785801 0.09923986 -0.124911524 -0.33880225 0.17859747 0.18264706 0.04327193 -0.24463822

_fc2.weight f4 [256, 256]
00000000: 84a2 d6bd 4fb6 c6bc 4487 1cbe 1682 01bf
00000010: d753 a4be a1da 44be f4a4 e5bd bc3b 26be
00000020: b8c0 14be 609d cebe 4cef 9fbd d7f6 15be
00000030: 65cf 263e 5391 2b3e a837 683d 1297 0abe
00000040: 1863 8ebe 40ed 4c3b 9b3f a93d 7b94 aebe
00000050: b6ae 95be 9cbe 183d 5b1d 63bd 1033 48be
00000060: 4799 dd3d 09a8 1a3d 6c13 f83c d41b babd
00000070: 7ccb 9f3e 1297 38be 1e11 0fbe 868b a0be
00000080: 5733 fd3d 0b73 393e d410 10bd d61c 9f3d
00000090: a59e af3c 85ad a1bc 4004 ff3d a8b3 3b3e
000000a0: c2c4 22bd 815c 2ebe ba29 f0bc 08be 033d
000000b0: e101 dabe 1a6a 5cbd 5aca 9bbd 5a7b e5bd
000000c0: 68fe 873c e2c8 e13b ae9c ae3e 262d cd3d
000000d0: b727 ea3d 637c a7bd 5ee2 2c3e 8227 39be
000000e0: 0d8f 07bd 9d8c debe c055 7b3d 07b3 52bc
000000f0: 1796 0ebf fefb d3bd 6db3 223c ee66 123e
00000100: db45 983d a63a 23be 9da0 f3bd 3395 61be
00000110: 0c2e ee3d db2a aebe 05c4 70be 8817 01bf
00000120: 71ef bcbd 97f9 48bd 5f16 efbd 35a0 d83d
00000130: ffb6 b2bd d366 f53c ef0b 793c 9152 703d
00000140: b18a c1bc 2950 98be ad99 833e db44 3abb
00000150: 70d3 c23d 8a34 913d b6b9 4bbe eaba c53d
00000160: df77 47bf ab34 0b3e 301c e93d 9c82 b73c
00000170: d0d9 ec3d f528 5cbd e1d7 5ebf 5366 e5bd
00000180: 7f8f 71be a201 22be 2c7a 853e 1fc4 923e
00000190: 9f8e a73d a263 483d 4344 0dbe 02b6 17bc
000001a0: 392e 113d 236d 113e db35 24be 5c66 a4bd
000001b0: 36c6 96be ae06 80bc 2f80 ca3e 8eaf 733e
000001c0: 2dc2 333e 1dd7 3d3d 4cbe ad3e 49c7 a4bb
000001d0: fd05 333e f455 583e a715 2bbd 8b38 cbbd
000001e0: 3b37 323e 92a4 febc b9a9 03be 90db 6abe
000001f0: b0d5 b5be 0c5c 003e 5aaf b03d 22d4 c83e
00000200: 2d3a c4bd 161f 11be 3175 72be 6054 ddbb
00000210: cd64 01bd a973 1bbe 2635 57bd 7b36 acbc
00000220: 9bf0 99be bfb8 033e 1edd bbbc c1f8 b3be
00000230: 81b8 0a3d 4550 5b3e 28b9 30be 7cd7 c0be
00000240: e0f4 17bc 7289 06bf d0da f33d 18ea 83bf
00000250: 8e50 473e fd12 9fbd c1a2 1a3e c29f 0b3e
00000260: 310b 003d 3017 ca3d f922 9dbd 67ab 23bf
00000270: 63fc 913e 966f a33d 1e91 313d afd1 b2bd
00000280: 9ce9 bcbe 7fc9 f53b fc48 5dbe 1053 ae3c
00000290: 715f 8cbd a6b1 2a3d e939 03be 3d48 b8bd
000002a0: 8aa2 bd3d 109e cd3d ea67 b33b 6c58 0c3e
000002b0: 559b 293e c9ad eabe 2d41 253e 7295 1b3d
000002c0: 2ade 763d d28f febe ff66 15be 034e fabe
000002d0: 864e 03be 6756 403d 09c3 be3d 24f0 f2bd
000002e0: c58c efbd 870a 923c dda5 d8be 6d9d 0a3e
000002f0: 3ec4 233d a312 66bd e720 3bbe 6d52 febd
00000300: 646e 533d c5d7 7ebc 57b0 efbc efe2 3bbe
00000310: 4224 fabd f8b1 39bd 59d4 123e b16a 01be
00000320: a54b 103e 7f23 10bf 9759 c8bd b398 d7bd
00000330: a105 963e 74b2 cc3e d03f 6abf 30fb 23bd
00000340: 2e4b 2e3e 491a f4be 1d5c e6bd 8c52 883e
00000350: 1c3f 18be a9a3 473d 153d 433e ac74 2ebe
00000360: 82c8 dabe b0d4 0c3d 9e25 5a3e 0ee5 9cbe
00000370: 0cf1 cabd a0c5 053e 63aa 5bbe 85e6 a6bc
00000380: 94fa 51be efa7 c43d d1d0 39be 9d94 6cbd
00000390: 885c a3be b670 923e e6e7 e8bc c79c 873e
000003a0: 4bd0 3b3c b418 333e b182 e73c e301 ed3e
000003b0: 4875 7c3d b1f2 11be 5f9a c7be 989f 323e
000003c0: 9333 1fbe a9b6 0cbd 637d 79bd 5443 c4bf
000003d0: 81b9 2bbe ce90 29bf 0cda 553e 1ba6 ef3d
000003e0: 904f c63c e388 123e 7560 d4bd d00c 2fbe
000003f0: af12 e5bc fd09 37bd f794 cd3d cba7 72be
-0.10480216 -0.024256853 -0.15285975 -0.5058912 -0.32095215 -0.19224025 -0.11213103 -0.16233724
-0.14526641 -0.40354443 -0.07809314 -0.14644943 0.16290052 0.16754656 0.056693703 -0.13534191
-0.27809978 0.0031269342 0.08264085 -0.34097657 -0.29234856 0.037291154 -0.055447917 -0.19550729
0.10820251 0.037757907 0.030282699 -0.09087339 0.31209934 -0.18026379 -0.13971373 -0.31356448
0.12363308 0.18110292 -0.0351723 0.07769172 0.021437952 -0.01973606 0.124519825 0.18330252
-0.039738424 -0.17027475 -0.029316772 0.03216365 -0.42579558 -0.053812124 -0.07606955 -0.11205168
0.016600803 0.006890402 0.34103912 0.10018377 0.11433356 -0.08178022 0.16883227 -0.18081477
-0.03309541 -0.43466654 0.061361074 -0.012860066 -0.5569777 -0.10350798 0.009930474 0.14297077
0.07435199 -0.15940341 -0.11895869 -0.22029571 0.116298765 -0.3401707 -0.23512276 -0.5042653
-0.09225357 -0.049066152 -0.11674189 0.10577432 -0.0872631 0.029956257 0.015200599 0.05867249
-0.023625704 -0.29748657 0.25703183 -0.0028422389 0.09512985 0.07090099 -0.19895062 0.09654792
-0.77917284 0.1359431 0.113823295 0.022401147 0.11564982 -0.053749997 -0.87048155 -0.112011574
-0.23589896 -0.15820935 0.26069772 0.28665254 0.081815 0.048923142 -0.13795571 -0.009259703
0.035444472 0.14201789 -0.16036169 -0.08027336 -0.29448098 -0.015628185 0.3955092 0.23797438
0.17554541 0.046347726 0.33934247 -0.0050286395 0.17482753 0.21126539 -0.041768696 -0.09922894
0.17403881 -0.031084333 -0.12857713 -0.22935319 -0.35514593 0.12535113 0.08627196 0.39224344
-0.09581409 -0.14172015 -0.23677517 -0.006754443 -0.03159027 -0.1518084 -0.05254092 -0.021022072
-0.3006638 0.12863444 -0.022932585 -0.35150722 0.033867363 0.21417339 -0.17258132 -0.37664402
-0.009274691 -0.52553475 0.119069695 -1.0305815 0.19464323 -0.077672936 0.15101148 0.13635162
0.031260673 0.09867704 -0.07672686 -0.63933414 0.28512868 0.07980268 0.043351285 -0.087314
-0.3689698 0.007500827 -0.21609873 0.021279842 -0.068541415 0.041673325 -0.1281506 -0.08998153
0.092595175 0.10039914 0.005475034 0.13705605 0.1656316 -0.45835713 0.16138144 0.03798432
0.060270466 -0.497191 -0.14590071 -0.48887643 -0.12822923 0.0469574 0.09314544 -0.118622094
-0.116967715 0.017827285 -0.42314044 0.13536616 0.039982073 -0.056170117 -0.1827427 -0.12418065
0.05161895 -0.015554373 -0.02925889 -0.18348287 -0.12213947 -0.04533574 0.14338817 -0.12638356
0.14091356 -0.5630416 -0.09782713 -0.10527172 0.2930117 0.399799 -0.9150362 -0.040034473
0.17020866 -0.47676304 -0.11248038 0.26625478 -0.14867824 0.048740063 0.1906627 -0.17036694
-0.427311 0.034382522 0.21303412 -0.30643505 -0.09909257 0.13063669 -0.21451716 -0.020373592
-0.20505744 0.09602343 -0.18146063 -0.057758916 -0.31906533 0.28601617 -0.02843089 0.264868
0.011463235 0.17489892 0.02826056 0.46290502 0.061635286 -0.14252736 -0.38984963 0.17443693
-0.15547018 -0.034353886 -0.060910594 -1.5333047 -0.16769983 -0.6623658 0.2088396 0.11701604
0.02420786 0.1431003 -0.1036996 -0.17094731 -0.02796301 -0.04468726 0.100381784 -0.2369682

_fc2.bias f4 [256]
00000000: 550e e3bd 4176 9bbd 3870 15bc ab11 6b3c
00000010: 8c11 a0bd df62 b8bd d5ab 0fbd 6c67 f6bc
00000020: 844b a9bd 7a22 d03c b684 24bd 526b 313d
00000030: e41a 1bbd ad27 a73b 212b 9fbc 7b75 513c
00000040: 8fbe 9c3b fe6d 11be 9a2d 9abd 8f2e 03bd
00000050: 2357 a2bb f0cf f0bc a148 b3bc 4933 be3d
00000060: 2ab8 e7bd 968e 82bd 0167 bbbd 01fe 2d3d
00000070: 153d 4fbd 4f85 0dbd dc4b b3bd fff5 d9bd
00000080: ddd3 61bd 8dc8 ca3b cf3d 21bd 4f79 afbd
00000090: e922 563d c0a8 d0bd 7bb1 963c 0ba0 17bd
000000a0: 074e eebc b88a 05bc 5183 bcbc 065b 8cbd
000000b0: c7ca babd 3dfb 4ebd 7811 39bb 65ca 52bd
000000c0: ad18 d1bd ba51 f7bc 6c52 5dbd 7036 84bd
000000d0: 2a9c 62bc 3900 5cbd fb9e b1bb 501b 0ebe
000000e0: d4e6 1bbe 4453 cebd a09b debd 8ffd 31bd
000000f0: 6bb3 60bc a8ba 3cbd 09df 4b3d a78e e9bc
00000100: 5118 1ebb 8829 013d aac5 70bd c244 873c
00000110: c146 4abb f2b4 e1bd d35e edbc e328 97bd
00000120: 0d0e 6ebd 9262 1b3d 2b81 da3d 5a5e ebb9
00000130: 2aa1 a4bd 80b4 16bd 57d0 c1bc ba69 8fbd
00000140: 4fc8 063c 3fb3 30ba bd18 37bb b4e2 123d
00000150: c114 87bd 35ed 76bc 81a9 d7b9 fd05 56bd
00000160: 65eb 79bd 943b 5dbd 0c43 2cbd c1a6 93bd
00000170: ba46 d13b 296a ae3b 1813 a33b 613e 7f3c
00000180: 74f0 30bc 8245 72bc 88ec 7f3d 3a39 b83d
00000190: bcbb 0b3c aa30 b5bd 96ba e0bc a0b7 0abb
000001a0: bd74 07be 2bd1 18be 2d21 e4bd cb9a b8bd
000001b0: aaff 22bd f595 1bbd 13fa a7bd 5a8b 6bbd
000001c0: 8418 6bbd 0dc3 983d 0d94 64bc d988 a63b
000001d0: d779 833a 4498 923c 927f 85bd c3c7 a3bd
000001e0: b907 4ebd ce2f 0d3c 4446 10bd d8a1 0abd
000001f0: efb0 a33d 9f4d cebd 52e5 b6bd 0c4b 893d
00000200: 2cf5 83bd 62b8 2dbd c20d 143d 75aa fb3c
00000210: 43b6 7ebd c979 09be 862b 70bb 34a8 53bd
00000220: 7569 b63c 7ed9 95bd 18d6 243d b698 e9bc
00000230: f5d4 153d 05df 6c3d 4f8f 41bd 20db dcbc
00000240: f21e 423d 1543 edbc 4a21 683d 7650 afba
00000250: d75c aebd 1473 ccbd e829 5ebb ad07 063e
00000260: ca47 70bd 3bbe a03b cd63 94bd ad33 39bd
00000270: 4562 85bd 6b11 493d de18 6cbd 961a 8cbd
00000280: ec6d f1bd 870f a03d abb2 acba 839e 3dbd
00000290: cbf1 e13c ba21 a23d 6ee9 aa3c 9bae 1a3c
000002a0: 7cc4 d8bc 6d52 aebd 33e0 26bc ee0b 88bd
000002b0: 9819 a7bd 918f 27bd ab16 ddbc 604b d9bd
000002c0: 0515 36bd dd4e 94bd e4c5 0cbe abac 44bd
000002d0: f87e 89bc 9c0e 9e3c 0f16 acbd 7c8d fbbb
000002e0: d032 82bd 025a a2bd fcdb 7ebc 4358 2dbd
000002f0: 3501 87bd 766c fdbc f847 9abd 484e 8dbd
00000300: 09af b4bd 3035 0cbe ccb7 433d 32e9 02be
00000310: c6ce ddbd fb98 21be 69ff 8bbd 989e cabd
00000320: d8de 04bc 6dd1 013b 0a13 cabc 0caf 2b3d
00000330: 8c47 bbbb 5dbb c03c d14c 6ebb 99ab 56bc
00000340: 7012 f03d d68f 733d 859b c3bd 52a8 1f3d
00000350: d005 183d d8e9 31bd 6fb7 6ebd acaf 0f3d
00000360: f69b 3ebd b383 853b 2cbc f7bd d630 f13c
00000370: c53c df3c 45fe 293d 9804 63bc ec67 b5bd
00000380: b6d4 a7bc a38f 28bd b848 5dbd 90c2 243d
00000390: 7819 d3bc 8a50 1dbd f84c 09bb 536e 2b3d
000003a0: cb30 98bd 1ea2 55bd a700 773c 65a7 67bd
000003b0: 4bb8 7abd 9767 a9bd 582d 40bd 9ade 71bd
000003c0: 22b4 ac3c ba56 21bd 13d1 84bd 6846 0fbe
000003d0: 1ad3 503d 01ef 4fbd 6278 c3bd c9af 8bbd
000003e0: 54ad 14be c0b0 fdbd a30d 69bd f603 6b3c
000003f0: 803a 68bd d4a7 0fbc db53 19be 1bc4 8fbc
-0.11086718 -0.075909145 -0.009120993 0.014347474 -0.07815847 -0.09003233 -0.03507598 -0.030078612
-0.082663566 0.025407065 -0.040165626 0.04331524 -0.03786744 0.0051011653 -0.019429745 0.012784357
0.0047834585 -0.14202115 -0.07528229 -0.032026824 -0.004954235 -0.029396027 -0.021885218 0.092871256
-0.113144234 -0.06374852 -0.09150506 0.042478565 -0.05059536 -0.03455096 -0.087547034 -0.10642623
-0.05513369 0.0061884583 -0.039365586 -0.0856806 0.052279387 -0.101884365 0.018395176 -0.037017863
-0.02908994 -0.008150749 -0.023011835 -0.06853299 -0.09120708 -0.05053257 -0.0028239172 -0.05146255
-0.10209785 -0.030190337 -0.05403368 -0.06455696 -0.013831178 -0.05371115 -0.0054205633 -0.13877606
-0.15224773 -0.100744754 -0.10869527 -0.043454703 -0.013714652 -0.046076447 0.04977325 -0.028510405
-0.002412338 0.031533748 -0.058782257 0.016512278 -0.0030864927 -0.11020841 -0.02897588 -0.073808454
-0.05811887 0.0379358 0.10669168 -0.0004489299 -0.08038552 -0.036793232 -0.023658914 -0.070025876
0.008226468 -0.0006740577 -0.002793833 0.035860732 -0.06595755 -0.015071203 -0.00041134286 -0.052251805
-0.061015505 -0.054011896 -0.04205613 -0.0720954 0.006386605 0.005322714 0.0049766414 0.015578837
-0.010799516 -0.01478708 0.062481433 0.0899529 0.008528646 -0.088471726 -0.027432721 -0.0021166578
-0.13228126 -0.14923541 -0.1113914 -0.090138994 -0.0397946 -0.037984807 -0.08201995 -0.057505943
-0.057396427 0.07459078 -0.013951314 0.0050822315 0.0010030818 0.017894872 -0.06518473 -0.07997086
-0.050300334 0.008617355 -0.03522326 -0.033845752 0.07992732 -0.10073399 -0.08930458 0.06703767
-0.06443247 -0.04241217 0.036145933 0.030720929 -0.062185537 -0.13425364 -0.0036647036 -0.051674083
0.022267083 -0.07316874 0.04024324 -0.028515201 0.036580045 0.057829875 -0.04725581 -0.026959956
0.047392793 -0.028962651 0.056672372 -0.001337542 -0.085138015 -0.09982887 -0.003389949 0.13088866
-0.058662213 0.0049054897 -0.07245598 -0.045215297 -0.06512884 0.049088877 -0.057640903 -0.06841008
-0.11788544 0.078154616 -0.0013175806 -0.046293747 0.027581116 0.07916589 0.020863261 0.009441043
-0.026460879 -0.08511815 -0.010185289 -0.066429004 -0.081591785 -0.0409084 -0.026988348 -0.1061008
-0.04445364 -0.072416045 -0.13747364 -0.04801623 -0.016784176 0.019294076 -0.08402645 -0.0076767784
-0.06357348 -0.07927324 -0.015555378 -0.0423205 -0.06592027 -0.030935507 -0.07533258 -0.068996966
-0.08822448 -0.13692164 0.047782704 -0.1278427 -0.108304545 -0.15781014 -0.06835825 -0.098935306
-0.008109771 0.0019808665 -0.024667282 0.041914985 -0.005715316 0.023526842 -0.0036361704 -0.0131024355
0.11722267 0.059463345 -0.09551147 0.038978882 0.03711492 -0.0434359 -0.058280405 0.035079643
-0.046535455 0.0040745377 -0.12096438 0.029442232 0.027250657 0.041502256 -0.013856076 -0.08857712
-0.02048717 -0.041152608 -0.054024428 0.04022461 -0.02576898 -0.038406886 -0.0020950418 0.04185326
-0.074311815 -0.05215656 0.015075839 -0.056556124 -0.06121091 -0.08271711 -0.046918243 -0.05905018
0.021081988 -0.03938935 -0.0648519 -0.13991702 0.050982572 -0.05076504 -0.095444456 -0.06820638
-0.14519244 -0.12387228 -0.05689777 0.014344206 -0.056696415 -0.008768041 -0.14973395 -0.017549565

_value.weight f4 [1, 256]
00000000: c97c 05bf 338e 7dbd 439b 8a3f a48a 1ebe
00000010: aa73 00bf 15bd 24bf 9ce3 c7bd b325 0c3e
00000020: 7598 d73e d942 f93d 0f9e 0bba e109 073d
00000030: 6bd5 cb3e c11b 113d 5b07 eeb9 fc29 43be
00000040: 6abc 04be e718 bf3e f3bd fb3c 0e19 06be
00000050: 5568 593e 1589 a93e 406f 16be 9d7d 773d
00000060: f115 303f 3cc8 183f 5695 df3d 291c 5a3d
00000070: 64f4 f5be 41bd 32be f24f 333e d7db 203f
00000080: b4bd e53d 3a7d 9fbd 264c bcbe c2a6 c13a
00000090: 80f7 d6bd 7a3c 1b3e 5bc6 2bbd 7e80 3e3c
000000a0: 2bb8 76be 0fed 26be 1b37 2ebc 917b 2a3f
000000b0: 0f45 c7be 38e4 24bd c580 e83d 78d9 28bf
000000c0: c747 1abf b107 aa3c 5f9f 393c 24a3 8ebb
000000d0: 5f8a 1fbe c881 4b3d 808f d83c 1de1 853e
000000e0: fef3 1c3f 7b15 87bd ff43 033d bf4b a8be
000000f0: d21d 493d 3eaa 13bd edb4 e73c febc 3f3d
00000100: 46c9 fe3d 80f5 ab3e 488a b03e eb6d c5bb
00000110: 0836 bcbc 616e 58bf 9c65 d13e ee76 c23c
00000120: 35ef d3b9 c5f4 f3bc 2c10 403e 7be1 03bf
00000130: d73c 833e d9d7 b8bd c272 623e 51e0 103e
00000140: 9d7b e0be e0ae f0bd 6352 5e3e 86af d23d
00000150: 6232 7e3c 2869 c03d 6094 253c 22f8 533c
00000160: 27d5 bdbc e2ab bc3d aaf7 8e3d cc8a b9bb
00000170: f25c efbd 2802 d4be fc54 84bc 64b5 d83d
00000180: 9179 733a 1078 4d3d 1fda 37bc d567 c5bc
00000190: 6e94 373d 8388 0ebf 8f85 a1bd c74f 733c
000001a0: 0063 d5bd 3867 013f 20bc 02bf efed 993e
000001b0: 749b adbc 1033 343e 65f3 0ebe 323c 4dbc
000001c0: 91d0 593c bd6e 5bbe 5592 213d 0444 fb3a
000001d0: de3b 2fbd c7c3 033d 3171 303f 9e10 0f3e
000001e0: 1468 fc3d 920d 303d eab3 303d 2fc4 7d3d
000001f0: ce60 eb3c 310e b43e db7a 49bd 077f 143d
00000200: b6ea 04be 76b4 c7bc c22b f93c 6916 44bd
00000210: c11e 063f d284 ca3e 89f8 fabc 75cb a0be
00000220: 218e 60bf f15d 97bc 9a87 b93c a9bc 0b3c
00000230: 092f 8fbb d8b9 b23d ac0f 613e dc65 7c3c
00000240: ade5 303d 9ae8 57bd f1bf 993d 6be4 033e
00000250: 41ef 99be 7fe5 303e a875 86be 77d7 f13d
00000260: 9437 b7bb e652 65be d0f8 cc3e c03a 5c3e
00000270: 27ac a8bd ca4d 2e3d 718e 373f 04fd ebbc
00000280: 4542 703e 8678 e73d 4937 fbbe 523c 35be
00000290: fd35 8b3d 93a8 a4bd 2342 0ebe 523f 223e
000002a0: 242b 18bc f32b 09bf 3df6 97bc c56f 22be
000002b0: 9041 c4bd ac76 f5bd 453f 4ebd 2aca ac3e
000002c0: 84e6 bcbd 77d4 e83c c5d5 b6bd d9da 27be
000002d0: d072 d43d a89d 96bc 6b0c 2fbe 0bc4 0abd
000002e0: 660f 63bd 08b7 283d 322e 1e3e 0de0 953e
000002f0: 85f5 c83c 5d26 d03c ddc7 773d 6696 0a3e
00000300: 9845 3cbe f650 30be e705 b5bd a62c dfbe
00000310: 91da c5bc ff08 67be 2721 223e fab0 333e
00000320: 191c 783e 4a39 133f 4559 a0be 5fc4 0dbe
00000330: f50f ac3d 2e76 a43c 95ef b93d 5e50 8a3f
00000340: 81da 9a3d bbec 8a3d d451 23bf 2ce2 653d
00000350: d7cf 593d 6851 0f3d adbf 7f3c 26d1 cf3d
00000360: eaaf 4a3d 1611 433e 6633 f83d 049b d2bd
00000370: d499 68be bb25 243d 35a1 013d 71ab adbe
00000380: a029 8dbe 1e1b 803f 43db 453f 0a55 e1bd
00000390: cd58 a5bc ad74 363c c7a2 52bc ca56 a73c
000003a0: cc0c 333e c3c3 053e d9df 86be 97ea 29bd
000003b0: 7185 7abe 3a82 38bf 1bfc 733d f8ef b6be
000003c0: 2d10 0e3d 869d 513f 46a2 6abb 9898 7a3d
000003d0: 8337 d0bd 5959 193d 432b eb3d dc65 c2bb
000003e0: 712f 7d3e 7f05 00bd 3c15 4c3e 43a4 a6be
000003f0: 798a 11be 5de2 8b3d 54fd d53d 3f1f 183f
-0.5214353 -0.06190319 1.0828632 -0.15482575 -0.5017649 -0.64351016 -0.0976021 0.13686256
0.42108503 0.12170953 -0.0005325982 0.032968406 0.39811262 0.03542686 -0.00045400378 -0.19058985
-0.129625 0.37323686 0.030730223 -0.13095495 0.21231206 0.33112398 -0.14690876 0.06042253
0.6878348 0.59680533 0.109171554 0.053249512 -0.48038018 -0.17455007 0.17510965 0.6283545
0.112178236 -0.07787557 -0.36776847 0.0014774429 -0.10496426 0.15159789 -0.041937213 0.011627315
-0.24093692 -0.16301368 -0.010633255 0.665948 -0.38919875 -0.04025671 0.11352686 -0.6595683
-0.60265774 0.02075562 0.011329501 -0.004352944 -0.15580128 0.049684316 0.026435614 0.2614831
0.613098 -0.06595894 0.032047268 -0.3287029 0.049100704 -0.036051027 0.028284514 0.046811096
0.124407336 0.3358574 0.344805 -0.006025066 -0.022974983 -0.84543425 0.40897834 0.02373835
-0.0004042328 -0.029779801 0.18756169 -0.5151593 0.25632355 -0.09025545 0.22114089 0.1414807
-0.4384431 -0.11752105 0.21711116 0.10287385 0.015514942 0.09395057 0.010106176 0.012937577
-0.023172928 0.092124715 0.06980832 -0.005662298 -0.1168765 -0.41407895 -0.016153805 0.105814725
0.0009287829 0.05016333 -0.011221438 -0.024097363 0.044819288 -0.5567705 -0.078868024 0.014850563
-0.104192734 0.50548124 -0.51068306 0.3006434 -0.02119229 0.17597604 -0.13960035 -0.012526559
0.013294355 -0.21428962 0.039446194 0.001917005 -0.042781703 0.03216913 0.68922716 0.13971183
0.12324539 0.04298169 0.04314033 0.061954673 0.028732684 0.35167077 -0.04918943 0.036253955
-0.1298016 -0.024378043 0.030416373 -0.047872934 0.52390677 0.3955446 -0.030636089 -0.31405225
-0.8771687 -0.018477412 0.022647668 0.008528867 -0.0043696207 0.08726853 0.21978635 0.015405145
0.043187786 -0.05271206 0.07507313 0.12880103 -0.3006535 0.17275046 -0.2626164 0.11808675
-0.005591342 -0.22394904 0.4003358 0.21506786 -0.082359605 0.042554654 0.71701723 -0.02880717
0.2346278 0.11302285 -0.49065617 -0.17698792 0.06797407 -0.080399655 -0.13892417 0.15844467
-0.009287629 -0.53582686 -0.018550033 -0.15862949 -0.095828176 -0.119855255 -0.050353307 0.3374799
-0.09223655 0.028421624 -0.08927492 -0.16392078 0.10373461 -0.018385723 -0.17094581 -0.033878367
-0.055434607 0.041190177 0.1544731 0.292725 0.024531135 0.025408918 0.06049334 0.13533935
-0.18385923 -0.17218384 -0.088390164 -0.43588752 -0.024152072 -0.22562025 0.15832959 0.1754798
0.24229468 0.5750929 -0.31318107 -0.13844441 0.08401481 0.020075884 0.090789 1.0805776
0.075612076 0.06783434 -0.63796735 0.056123897 0.053176727 0.034989744 0.015609664 0.10147314
0.04948417 0.19049487 0.121191785 -0.10283473 -0.22714931 0.040075045 0.03164788 -0.33919862
-0.2757082 1.0008276 0.7728769 -0.11002548 -0.020183945 0.011136216 -0.012856192 0.020427126
0.1748535 0.13062958 -0.26342657 -0.041483488 -0.24464966 -0.7207371 0.0595666 -0.35729957
0.034683395 0.81880987 -0.003580229 0.06118068 -0.10166838 0.037438724 0.11482861 -0.0059325527
0.24725129 -0.03125524 0.19929975 -0.32547197 -0.1421298 0.06830285 0.10448709 0.5942268

_advantage.weight f4 [3, 256]
00000000: a19a e9bd 34c7 b8bc 9720 493f 3808 dabd
00000010: b431 82be 6250 b2bd 84a4 30be f020 8c3d
00000020: faa1 893e 47a0 d53d 2e66 c5bc 44d1 0c3d
00000030: 191b 1f3e 5e8d 573d e205 d8bc 0402 27be
00000040: 2433 cabd 7f0f 86bd 6101 66bd abca a0bd
00000050: 37e8 df3d 3229 273e 26c3 1ebe 1296 8c3c
00000060: a861 a43e c0a0 bc3e b6dd 8e3d 18fc 4f3d
00000070: 5716 90be 7ea9 81bd b57e 083e b341 933e
00000080: 2b89 433d aabd 9ebd f5e7 5abe 741f f4bc
00000090: 0cb1 d03c b69c fe3c 79ed 12bd 2825 84bd
000000a0: 53fe 57be ac1c e7bc d7d6 6dbd f802 123f
000000b0: b06a 9dbe 7993 2fbd c44f f23c ff31 77be
000000c0: f71d e2bd 0771 e3bc 7f54 64bc e04a 2a3d
000000d0: a37e 72bd 0c57 17bb f052 d9bb 82cc 3e3e
000000e0: 7667 ba3e 3085 bdbd 70fe 7ebd 3dc6 ddbd
000000f0: dad0 833d cee6 013d a360 343d f276 403d
00000100: c06a 8cbc c59a f53d c506 1f3e 603e 8dbd
00000110: e303 bcbc f83d dfbe 4036 a93e 6860 5d3d
00000120: 5f62 2f3c af51 5c3d f9e3 223d 5bb9 b2bc
00000130: ddaa 4f3e bc8a cabd 256b 043e cf5a 193d
00000140: f29c 49be 6857 dabd e981 843d 49ab 6a3d
00000150: 5a9a 48bd d226 d53d 9c9f e83c 02dd 053b
00000160: 9e9e 7d3a 5bf5 033d baa9 fb3c 632f f03b
00000170: 1808 a5bd c612 52be e06c ea3c 5e49 cf3c
00000180: 1b16 713c bf0c 31bd ba7e 88bd c0df 92bd
00000190: d894 7cbd 3e7b 97be 4b1c 603c 0307 6fbd
000001a0: 6e8d 13be ed55 b53d 6b19 92be 17f6 0b3e
000001b0: 801e ee3c 6aea 243e d258 ddbd 1293 f53b
000001c0: ecfe eb3c 14e7 02bc fd67 e63d 0fad b1bc
000001d0: ea9f 56bd e8d2 64bd a65e cd3e 94ab d13d
000001e0: b2ca d83d 796e 053d b31e fa3c 471b 303d
000001f0: dd05 f83c 9290 7f3e 9a15 393e a909 233d
00000200: e5a1 b0bd cb62 b3bc c2ac 8b3d 70d2 30bd
00000210: 331f 953e e737 403e db85 7dbd e0ea 3ebe
00000220: 9c04 26bf 295b 903c 47b5 85bb a7f7 12bd
00000230: e9bb b5ba 56f1 1b3d edab cc3d 9fb0 0fbd
00000240: 86c2 893c 3048 81bc fcd0 fc3c 15e1 633d
00000250: 2844 26be 82ad 1e3d 1d8b 1fbe 3303 8e3d
00000260: 61b9 11bd c351 c4bb bf41 823e cefd 953d
00000270: 015d b03d d169 c2bc 8d1e d13e b2e9 8cbc
00000280: 436f e53d cf2d 233d c247 febd fb2c c8bd
00000290: 918d 7f3c 3cef c2bc 1efa cabd e632 d93d
000002a0: e78e 50bd cc06 65be d71a 26bd 1170 8fbd
000002b0: 8290 d9bd 5eed 7dbd acb5 093d 0d65 6b3e
000002c0: d2f1 393c 1c99 213a 9a82 16be 600e 42be
000002d0: dcae cbba 3845 823d 9450 aabd 8c85 6d3d
000002e0: 5f91 95bd fa60 323d b418 f43d 4938 b63d
000002f0: e49f ac3d fb14 04bc 6312 96be c7c6 e33d
00000300: f202 44bd 28aa b2bd 27d7 8cbd bc2c 74be
00000310: ddcf 8ebc f5d7 1bbe 307d 6a3e 7a61 fc3d
00000320: 12cb a23d f32d 5f3d 4589 03be 2221 1ebc
00000330: 374f 633d a750 043d 71f1 1a3d ab7e f23e
00000340: 0e2a 653c 96e4 953d 2009 82be b176 b83c
00000350: 1e68 243d 7254 883b ada0 36bd 87ae d73d
00000360: 260c f5bc e1a2 0a3e abea 073c b395 4bbd
00000370: 7a03 0cbd 1bfb c73c 72f6 6bbd aede a6bd
00000380: 7a3d 0bbe bca7 053f faad bb3e 59a8 25be
00000390: 447c 5d3c b1a4 b0bd 1d40 a6bc 8258 96bc
000003a0: 830e 8f3d c336 823d 6408 e1bd 5c6b 9abd
000003b0: 48e1 35be 62e8 0abf 6b85 a93c cf74 4dbe
000003c0: dff4 053c ee1e a63e fe1e efbb e949 543e
000003d0: 244d 02bd cd93 d83c 2c22 c03d ded9 32bd
000003e0: c0f6 683e 9c69 8abd f8c4 b93d 0745 5abe
000003f0: da41 dc3b d45c 0a3e d9eb 7c3d 90df a63e
-0.11406446 -0.022555925 0.78565353 -0.10646099 -0.25428545 -0.08706738 -0.17250258 0.0684222
0.2688139 0.10430961 -0.024096575 0.03437926 0.1553768 0.052625053 -0.026369993 -0.16309363
-0.098730356 -0.065459244 -0.05615366 -0.07851156 0.10932963 0.16324309 -0.1550413 0.017161403
0.32105756 0.36841393 0.06975882 0.050777525 -0.28142044 -0.06331156 0.13329585 0.28761062
0.047738235 -0.07751019 -0.21377547 -0.029800154 0.025475048 0.031080585 -0.035871003 -0.064523995
-0.2109311 -0.028211914 -0.058066215 0.5703578 -0.3074546 -0.04286525 0.02957905 -0.24140166
-0.110408716 -0.027763857 -0.013936161 0.041575313 -0.0592028 -0.0023092655 -0.0066322014 0.18632701
0.3640706 -0.09253919 -0.06225437 -0.108288266 0.0643632 0.031714253 0.044037472 0.046988435
-0.017140746 0.119924106 0.15529926 -0.06896663 -0.022951072 -0.43601966 0.33049202 0.05404702
0.010704606 0.053788837 0.039768193 -0.0218169 0.20280023 -0.09889743 0.12931497 0.037440117
-0.19688776 -0.10661203 0.06470091 0.057292257 -0.048975326 0.10407795 0.02839642 0.002042592
0.000967482 0.03221641 0.03072058 0.0073298677 -0.080581844 -0.20514974 0.028616369 0.025303539
0.014714743 -0.043225046 -0.06664796 -0.07171583 -0.061665386 -0.29586214 0.013678621 -0.058356296
-0.1440942 0.0885428 -0.28535017 0.13668095 0.029067278 0.16105047 -0.10807957 0.007494339
0.02880808 -0.007989664 0.11250303 -0.021688966 -0.0523986 -0.0558652 0.40111274 0.10237804
0.10585536 0.032576058 0.030532217 0.042994764 0.030276233 0.24957493 0.18074647 0.039804135
-0.08624629 -0.021897694 0.0682006 -0.04316944 0.29125366 0.18771325 -0.061895233 -0.18644285
-0.64850783 0.017621594 -0.004080448 -0.03588071 -0.0013865206 0.038071953 0.0999373 -0.03508055
0.016816389 -0.015781492 0.03086137 0.055634577 -0.16236937 0.03873969 -0.15580411 0.06934204
-0.03557718 -0.005991192 0.25440785 0.073238 0.08611489 -0.023732098 0.4084362 -0.017201278
0.11202862 0.03983861 -0.124160305 -0.09774204 0.015597717 -0.023795716 -0.09910987 0.10605411
-0.050917532 -0.22365874 -0.04055294 -0.07003797 -0.10623266 -0.06199395 0.03362052 0.22987767
0.011349158 0.00061644777 -0.14698258 -0.18950796 -0.0015539783 0.06360859 -0.0831615 0.05798869
-0.07303118 0.043549515 0.11918774 0.08897454 0.08428934 -0.008061643 -0.29310903 0.11121898
-0.04785437 -0.08723861 -0.068769746 -0.2384519 -0.017433101 -0.152191 0.22899318 0.1232328
0.07948889 0.05448718 -0.12845333 -0.009651454 0.055495467 0.03230348 0.037827913 0.47362265
0.013987077 0.0731899 -0.25397587 0.022517534 0.040138356 0.0041604573 -0.044586826 0.10531335
-0.02991302 0.13538696 0.008295695 -0.04970331 -0.034183003 0.024411729 -0.057608075 -0.081479415
-0.1359767 0.5220907 0.3665617 -0.16177501 0.013518397 -0.086251624 -0.020294243 -0.01835275
0.0698519 0.06358101 -0.109879285 -0.075400084 -0.17761719 -0.5426084 0.020693501 -0.2006409
0.008176058 0.32445472 -0.0072973957 0.2073132 -0.03181185 0.026437664 0.09381518 -0.043664806
0.22750378 -0.06758425 0.09070772 -0.21315394 0.0067217173 0.13511974 0.06174836 0.3259244

_advantage.bias f4 [3]
00000000: 362f 6d3c c751 883c c28d 733c
0.014476588 0.016640557 0.014865341

_out.weight f4 [3, 256]
00000000: a8cd 26bc 4cc8 cbbc c801 f1bc 8a76 203d
00000010: 5aae 15bd 2ec5 4cbd 26fe 71bd 3c3f 7ebd
00000020: 0ce6 e9bc aef3 39bd f899 17bc 10bf 6fbd
00000030: 142b 433d c0a9 4b3c dcb9 dabc 6c56 c13c
00000040: 9cf0 50bd a271 1bbd 629d 75bd 60ae 7b3d
00000050: d2d8 61bd 00c3 af39 a69c 5dbd ca16 3b3d
00000060: 0aed 4ebd 184c 62bd a400 ff3c 2a19 41bd
00000070: 52d5 573d 4433 b03c 580f 253d de37 353d
00000080: 5c22 fe3c 923a 4c3d 0040 ccbc ea1a 7cbd
00000090: a457 3b3d b8bf 543d 5e6c 2abd f02e 8c3b
000000a0: 987e 3dbc c630 5f3d 2aca 5e3d 1086 e03c
000000b0: 2c37 1fbd 84dd 4fbd c413 773d 6039 4f3c
000000c0: a894 523d 2e0e 6bbd 02d2 7f3d b833 88bc
000000d0: 78a6 9f3c d09c 083c 807d ebbb 90f5 613d
000000e0: 1061 293c b426 55bd 9ec9 153d 8eeb 63bd
000000f0: c8f5 7cbd e89a 1fbd 3e46 53bd e8be 6f3c
00000100: 00e5 543d 3407 8a3c 54b7 863c 84a7 b33c
00000110: a003 81bc 0066 bd3c f2eb 73bd b096 f0bb
00000120: e8a3 5ebd 145d cabc ec55 78bd b4c5 153d
00000130: c8a7 7f3d 2a72 5f3d e617 053d 3854 97bc
00000140: 1640 79bd 3456 0ebd e00f 093b 20e7 503c
00000150: 0c6d 943c 5a9d 7e3d c049 e9bc 4064 043d
00000160: 248c 9e3c 7e3a 773d 30b3 913b 101d 11bd
00000170: 2295 143d 44a1 b5bc 1a88 033d f45b 2c3d
00000180: e6a9 2ebd bc53 86bc 00e0 7f3b d839 7e3c
00000190: 70ce f8bb f08c dabb 2e88 5cbd dc52 ffbc
000001a0: dcbd b4bc b837 4abd 88c1 b23c b49a 56bd
000001b0: 1a62 47bd bed2 5cbd 78d7 603d c0b0 2d3b
000001c0: 9815 cf3c b04b a1bb 5c16 57bd fc7b d9bc
000001d0: f886 6f3d e47c 06bd a6ff 00bd 204c 3a3c
000001e0: 30dd 3dbc a032 ddbb 42fd 33bd 66ce 69bd
000001f0: 30f3 893c 0021 c2bc c40b f63c 5a78 14bd
00000200: b859 09bd a0ef 7abd a03f 1c3d dc3b b93c
00000210: 82ce 69bd f4cb ec3c 9c3b 063d 4876 4fbd
00000220: cc90 5b3d 10fa 68bd b036 043d 10fc f83c
00000230: c095 ab3b 18a9 473d 2668 353d b0b3 7b3d
00000240: ae60 69bd 40f4 00bc 0071 6e3a 6002 43bd
00000250: 1cac 33bd 846f 72bd 906b 35bc 545a bfbc
00000260: 84c0 30bd 32ae 613d ac88 a7bc 60c7 9b3b
00000270: e0f6 63bd 5045 edbc 9a89 683d fab3 453d
00000280: f056 f43b 48db b23c bcb3 ea3c 00d8 fbba
00000290: 20ee 4b3d 147e 3abd a05b 3b3b cebd 6cbd
000002a0: e858 d4bc 501f e33c a2ab 66bd acd8 3ebd
000002b0: 72a0 76bd 847d 21bd 8474 6d3d cc31 acbc
000002c0: b622 553d 2295 083d f848 d0bc 1095 3a3d
000002d0: a0ba 62bb e8dd 463c a0e9 623d 80c9 e03b
000002e0: 2080 ed3c a002 4f3c 3c90 b8bc ac36 fc3c
000002f0: fc12 51bd 1a08 74bd f660 35bd 646a a83c
00000300: 34ab 743d 4cb6 f6bc 485a 9d3c c8db a43c
00000310: 38fd 62bd b016 3f3c 3632 4abd 00c1 353d
00000320: 10be 79bc 1834 f13c 40a3 07bc 2ab1 35bd
00000330: 3cc3 133d 6c05 7dbd 9682 3d3d 9c60 82bc
00000340: e0f0 15bb 80fc d3ba 1e27 63bd 82a1 413d
00000350: 9ae0 703d 2466 efbc 240c 283d ca91 4e3d
00000360: e8bf 603c f0c9 433c 5611 353d f2d8 28bd
00000370: 0cd0 ed3c 7087 30bd 941a ec3c f0f8 b63b
00000380: 40ef acbc f056 ffbc ce20 2a3d d49c 6b3d
00000390: f004 0a3c 387a 6a3c d85f 32bc 26ba 793d
000003a0: 3405 40bd c8d1 b2bc 1228 483d 6c4b a5bc
000003b0: e0d0 13bb b450 113d 8076 953c 22aa 20bd
000003c0: d259 73bd 80ed 93ba 2032 743c fcfb e73c
000003d0: 4aec 60bd 4c9d c6bc 5af5 673d 1ccc 7cbd
000003e0: 78ec bd3c 0e81 2c3d 3ef5 74bd 400c a03b
000003f0: 84da e6bc e846 02bc 80ee 18bc 00d8 0eba
-0.010180868 -0.024875782 -0.029419795 0.039175548 -0.036543228 -0.049992733 -0.059080265 -0.062072024
-0.028552078 -0.045398407 -0.009253018 -0.05853182 0.047648504 0.012430608 -0.026699953 0.02360078
-0.051010713 -0.037950166 -0.059964545 0.061445594 -0.055138417 0.00033523887 -0.05410447 0.04567603
-0.050519027 -0.05524835 0.031128235 -0.04714314 0.052693672 0.02150882 0.040297836 0.044242732
0.031022243 0.049860545 -0.024932861 -0.061549105 0.045737877 0.05194065 -0.041607253 0.0042780563
-0.011565827 0.054489873 0.054392017 0.027407676 -0.038870975 -0.050748363 0.060321584 0.012647957
0.0514113 -0.05738657 0.06245614 -0.016626224 0.019488558 0.008338168 -0.0071865916 0.055165827
0.010338083 -0.052038863 0.03656923 -0.055644564 -0.061757833 -0.03896609 -0.05158066 0.014632918
0.051976204 0.016849138 0.01644484 0.021930464 -0.015748799 0.023119926 -0.059551187 -0.007342182
-0.054355532 -0.024702586 -0.060628816 0.036565498 0.062415868 0.054552235 0.032493494 -0.018472776
-0.060852133 -0.03475018 0.0020914003 0.012750417 0.018118404 0.06216178 -0.02847755 0.03232217
0.019353934 0.060358517 0.0044464096 -0.035428107 0.036275037 -0.022171624 0.03211222 0.04207988
-0.042642497 -0.01639735 0.0039043427 0.015516721 -0.0075929686 -0.006669633 -0.05384081 -0.03116744
-0.022063188 -0.049369544 0.021820799 -0.05239363 -0.04867754 -0.053911917 0.054892987 0.0026503056
0.025278851 -0.0049223527 -0.052511558 -0.026548378 0.058478326 -0.03283395 -0.031493805 0.011370689
-0.01158838 -0.0067504197 -0.043942697 -0.057081603 0.016839594 -0.023697376 0.030034907 -0.03624759
-0.033532828 -0.06126368 0.038146615 0.022611551 -0.057081707 0.028905846 0.03277169 -0.05064991
0.053604886 -0.056879103 0.032278717 0.03039363 0.0052363575 0.048745245 0.044288777 0.06145066
-0.056976967 -0.007870734 0.0009095818 -0.047609687 -0.04386531 -0.05918838 -0.011073008 -0.023358501
-0.043152347 0.055097766 -0.020450912 0.004753992 -0.05565536 -0.028963715 0.056771852 0.048267342
0.007456653 0.021833077 0.028650157 -0.0019214153 0.04978764 -0.045530394 0.0028588548 -0.0577982
-0.0259213 0.027724892 -0.056316026 -0.046593353 -0.060211606 -0.03942634 0.057972446 -0.021019839
0.052035056 0.03334535 -0.02542542 0.045552313 -0.00345961 0.0121378675 0.055398583 0.006859958
0.028991759 0.012634903 -0.022529714 0.030787788 -0.051043496 -0.05957804 -0.044281922 0.020558544
0.059733585 -0.030116223 0.019208089 0.020124331 -0.05541727 0.011663124 -0.04936429 0.044373512
-0.015243068 0.029443786 -0.008278668 -0.04435841 0.036074862 -0.06177275 0.046267115 -0.015915208
-0.0022879168 -0.0016173273 -0.055457227 0.047273166 0.058807947 -0.02922351 0.041027203 0.050432004
0.013717629 0.011950001 0.044205986 -0.04122252 0.029029869 -0.043097913 0.028821267 0.005583875
-0.021110177 -0.031169385 0.04153519 0.05752261 0.008424029 0.014311366 -0.010887109 0.06096854
-0.046879962 -0.021828547 0.04886634 -0.020177566 -0.002255492 0.035477355 0.018244982 -0.03922475
-0.05941183 -0.001128599 0.014904529 0.028318398 -0.054912843 -0.024244927 0.05663047 -0.06171809
0.023184046 0.042115264 -0.059804194 0.004884273 -0.028180368 -0.007951476 -0.009334207 -0.00054490566

_out.bias f4 [3]
00000000: d813 34bc 8e8b 3b3d c4d6 473d
-0.010991059 0.045787387 0.0487888
