rl/models/self_play/pong_ddqn_sp.pth (torch, 282298 bytes, 6 tensors)

_fc1.weight f4 [256, 12]
-0.10033096 0.036533926 1.3347815 -0.011433278 0.0609098 -0.011774182 0.56439465 0.024792543
0.2712532 -0.09013754 0.47330934 -0.55261797 0.19872169 -0.04634744 -0.29966506 0.0050122156
-0.33194226 -0.69974506 -0.07636171 -0.082689606 0.12776032 0.11229484 -0.14888445 -0.59468496
0.07652447 0.09239155 0.8021608 0.0025595094 0.074040115 -0.23384385 0.19204013 -0.014055069
0.10496326 0.26153004 0.2173448 0.6018574 0.2097595 0.10814867 3.0144913 0.008391561
0.14981054 0.3045614 0.3424781 0.013639424 0.31276655 0.2462028 0.634568 -0.22842114
0.24146625 -0.580755 0.3342494 -0.029347649 -0.26716015 -0.23772459 0.024834888 0.05150384
-0.46567613 0.34187752 -0.0271249 -0.44755933 0.09665023 -0.1872463 -0.166183 -0.010696752
-0.0070745526 -0.28884098 -0.2318859 -0.029908128 -0.39583054 0.3216535 -0.4790518 0.8021913
-0.14557704 0.22639126 -0.04122878 -0.0071370145 0.04134532 0.10174359 0.15727785 0.023645477
0.4860378 -0.37305924 0.07048668 -1.6449668 0.0989519 0.026882678 2.1602504 -7.353299e-05
0.18771608 0.079324074 0.2874901 -0.0066983528 0.45000243 -0.14042455 0.47856373 -0.023546413
-0.19670956 0.19024391 0.27052987 0.017761884 0.117363274 -0.3478989 -0.58989197 -0.027295658
-0.11589089 -0.0733949 -0.14572597 -0.55503935 0.27869233 -0.12532246 0.4392795 -0.004890404
-0.30780807 0.37632853 -0.1262978 0.06579686 -0.77905995 -0.052913506 -0.37056768 -0.577924
0.075181656 -0.20180741 0.30160683 -0.045143794 -0.113790065 -0.07400627 -0.13678186 -0.038719337
-0.37919793 0.09629306 -0.36241382 -0.04260227 0.12650578 0.026066482 0.13806863 0.015980216
-0.12858607 0.4071545 -0.42375338 0.036529664 -0.023724101 0.025004296 0.24280612 1.9038705
-0.124484524 -0.008835737 -0.5530078 0.000484673 -0.34576476 0.2835317 -0.1061274 -0.009735662
-0.13809069 -0.7880123 -0.006334242 0.22832276 0.038321655 0.090228446 0.22202435 -0.0034686856
0.04357266 0.2988452 0.10552121 -0.008983171 -0.12793933 -0.13742673 -0.44929343 0.47623634
-0.028880063 0.041951373 0.6006275 -0.015498798 -0.16061185 0.22862828 0.22616604 0.2181048
0.03378785 -0.13737185 0.36892456 -0.7799481 0.10255028 0.1076247 0.53919125 0.017699879
-0.1315911 -0.17135304 0.12077544 -0.053263284 -0.36395493 -0.1239345 -0.10010057 -1.4240491
0.29319292 -0.0075710937 -0.18829508 -0.2790259 -0.23618063 0.052743983 -0.19065706 -0.11772394
0.10074803 -0.055686053 0.018191947 -0.20765586 -0.030930521 0.16523814 -0.08585853 0.011321681
-0.16780366 -0.35387397 -0.4145907 -0.060161237 -0.29705963 -0.13427326 -0.31460753 0.41555238
-0.0028601522 -0.22845215 0.256843 -0.005249229 -0.004301487 0.040759623 -0.528717 0.0062603587
0.18721394 0.343039 0.0064626997 0.91083217 -0.19683224 0.20157225 0.5630121 -0.0054090195
-0.20981395 0.03700683 -0.5238513 -0.015943214 0.5384147 -0.12333202 0.17147994 1.766623
-0.09440315 -0.30980542 -0.16360222 0.02099849 -0.26276532 0.08192653 -0.014925718 -0.028475875
-0.031254467 -0.16920066 -0.055787224 -0.9083613 0.14489862 -0.08402284 -0.19777812 -0.0073480746
00000000: 517a cdbd 99a4 153d 1fda aa3f a552 3bbc
00000010: 8e7c 793d 80e8 40bc 2b7c 103f bb19 cb3c
00000020: b3e1 8a3e 089a b8bd 9a55 f23e 5f78 0dbf
00000030: b37d 4b3e d0d6 3dbd b36d 99be 833d a43b
00000040: 56f4 a9be 7e22 33bf 8763 9cbd 2b59 a9bd
00000050: 9ad3 023e d6fa e53d 2a75 18be 463d 18bf
00000060: dcb8 9c3d c837 bd3d 695a 4d3f 71bd 273b
00000070: 58a2 973d c374 6fbe 2ba6 443e 3b47 66bc
00000080: faf6 d63d 44e7 853e a38f 5e3e 5413 1a3f
00000090: 32cb 563e 0d7d dd3d 6ded 4040 c27c 093c
000000a0: ef67 193e 79ef 9b3e 4a59 af3e e477 5f3c
000000b0: f022 a03e 961c 7c3e 0c73 223f 3be7 69be
000000c0: ee42 773e 5cac 14bf bd22 ab3e 7b6a f0bc
000000d0: 37c9 88be 136e 73be 8972 cb3c b1f5 523d
000000e0: 1a6d eebe 920a af3e 0a35 debc 7f26 e5be
000000f0: 8ef0 c53d 7ebd 3fbe e02b 2abe 6e41 2fbc
00000100: a6d1 e7bb f7e2 93be 7f73 6dbe e401 f5bc
00000110: 4daa cabe c4af a43e 4746 f5be 695c 4d3f
00000120: 2612 15be 1cd3 673e 82df 28bd 9edd e9bb
00000130: b659 293d f15e d03d 720d 213e 29b4 c13c
00000140: f2d9 f83e 9f01 bfbe 525b 903d 468e d2bf
00000150: 4ba7 ca3d 1039 dc3c 8b41 0a40 b935 9ab8
00000160: a538 403e a974 a23d e731 933e db7d dbbb
00000170: b866 e63e 74cb 0fbe 4e06 f53e 68e4 c0bc
00000180: 3b6e 49be 4dcf 423e e482 8a3e 5f81 913c
00000190: 285c f03d ce1f b2be 2903 17bf 259b dfbc
000001a0: 3458 edbd 1150 96bd 3039 15be 0f17 0ebf
000001b0: c3b0 8e3e 8854 00be 3ee9 e03e af3f a0bb
000001c0: 0599 9dbe 22ae c03e 3654 01be 81c0 863d
000001d0: 7970 47bf d5bb 58bd 0cbb bdbe d4f2 13bf
000001e0: d7f8 993d 9aa6 4ebe 366c 9a3e b3e8 38bd
000001f0: c40a e9bd 9990 97bd 8b10 0cbe 2b98 1ebd
00000200: 3b26 c2be 4c35 c53d 4e8e b9be b87f 2ebd
00000210: bb8a 013e 6089 d53c dd61 0d3e f1e8 823c
00000220: 11ac 03be 8e76 d03e 34f6 d8be 21a0 153d
00000230: 0c59 c2bc cfd5 cc3c 2ba2 783e 07b2 f33f
00000240: bef1 febd c4c3 10bc eb91 0dbf b51b fe39
00000250: 1408 b1be 112b 913e 5359 d9bd 5382 1fbc
00000260: a567 0dbe 2dbb 49bf 798f cfbb 71cd 693e
00000270: 2bf7 1c3d b1c9 b83d 5a5a 633e e352 63bb
00000280: 3f79 323d 3d02 993e 811b d83d 262e 13bc
00000290: 8702 03be 98b9 0cbe ca09 e6be 40d5 f33e
000002a0: e295 ecbc 34d5 2b3d b9c2 193f acee 7dbc
000002b0: 6f77 24be 881d 6a3e 1298 673e dd56 5f3e
000002c0: 2165 0a3d 35ab 0cbe aee3 bc3e aeaa 47bf
000002d0: e205 d23d 576a dc3d 7008 0a3f 56ff 903c
000002e0: d1bf 06be 2c77 2fbe 1d59 f73d 9a2a 5abd
000002f0: 4d58 babe 5fd1 fdbd 8701 cdbd 3e47 b6bf
00000300: 621d 963e f016 f8bb 6dd0 40be 7cdc 8ebe
00000310: 56d9 71be 130a 583d 9b3b 43be 4019 f1bd
00000320: fc54 ce3d 0f17 64bd 4707 953c bda3 54be
00000330: 0162 fdbc 3034 293e 99d6 afbd 927e 393c
00000340: b9d4 2bbe f82e b5be 3b45 d4be a16b 76bd
00000350: 3318 98be ee7e 09be 3d14 a1be 48c3 d43e
00000360: 6471 3bbb 5cef 69be ed80 833e b901 acbb
00000370: 7df3 8cbb 90f3 263d ff59 07bf b223 cd3b
00000380: 03b5 3f3e cfa2 af3e 0ec5 d33b 4c2c 693f
00000390: 648e 49be f568 4e3e 9021 103f 253e b1bb
000003a0: 78d9 56be 7994 173d 1e1b 06bf 589b 82bc
000003b0: 8cd5 093f 8095 fcbd 7098 2f3e b420 e23f
000003c0: 7056 c1bd d19e 9ebe 5787 27be 0605 ac3c
000003d0: 2d89 86be 19c9 a73d 008b 74bc 3d46 e9bc
000003e0: af04 00bd f042 2dbe 2581 64bd 5e8a 68bf
000003f0: 4e60 143e 2b14 acbd 5986 4abe 1ec8 f0bb

_fc1.bias f4 [256]
-0.27074048 0.18791404 -0.09706562 -0.28896114 0.004287793 -0.13076639 -0.11720532 -0.048723508
-0.30591452 0.080690645 -0.08037093 -0.21775241 -0.097147964 -0.28316525 -0.01925398 -0.27143237
-0.20056085 -0.08718989 -0.14070624 -0.21895297 -0.26453102 -0.16834052 0.066184975 0.041946024
0.0370529 -0.12525894 -0.052450843 -0.39962077 0.06827402 -0.1660856 -0.21088357 -0.28425696
0.09809075 0.05147842 0.07625446 -0.20488086 0.16780418 -0.11205072 -0.11531808 -0.11397751
-0.20996629 -0.14760113 -0.0062397136 -0.2561451 -0.01759715 -0.038625527 -0.21992494 -0.007924399
-0.03717107 0.13014892 -0.21583568 -0.1173412 0.018652195 -0.14247884 -0.34159058 -0.20759188
0.0038950627 -0.23997228 0.19242883 0.020651078 -0.2959872 -0.03556228 0.13677694 -0.18602717
-0.40120256 -0.33401465 -0.06524491 -0.101653464 0.11262255 0.12038096 0.08709335 -0.15980797
-0.12173361 -0.11623426 -0.016268859 -0.04130482 -0.03961527 -0.10691737 0.01844429 -0.27456152
0.10203581 -0.20773166 -0.011307964 -0.32677004 -0.2575656 -0.031924054 -0.10971415 -0.033759896
-0.10062775 -0.08463547 -0.08713361 -0.1124993 -0.24537395 -0.3412822 -0.15232517 -0.16199146
-0.3237034 -0.19335845 0.19725572 0.061720293 -0.4676056 -0.31575415 0.16832443 -0.011963507
-0.01728892 -0.07503216 -0.25447127 0.22327486 -0.037405264 -0.1621703 -0.19956908 -0.3647219
-0.105156526 -0.14554803 -0.21471277 0.14515378 -0.055621665 -0.21225387 -0.3503543 -0.017326165
0.064866915 -0.01890085 -0.15906495 -0.24178028 -0.2441743 0.022629183 -0.04777157 -0.1271944
-0.1751396 -0.006257222 -0.026719023 0.048607513 0.15917857 -0.27859077 0.037602894 -0.32880872
-0.054871958 -0.079261556 -0.30490676 -0.14747098 -0.23596354 0.01675821 -0.22480606 -0.31936526
-0.23330416 -0.030107994 -0.031753164 0.04099225 -0.06350881 -0.26996773 -0.110062644 -0.4542698
0.00011695616 0.045558196 -0.1538245 -0.3057042 -0.13885078 0.14682919 0.05456086 -0.17815618
-0.19523604 0.15083449 -0.18025203 0.054540135 0.047693156 0.16090438 -0.045773108 0.01597969
-0.24638611 0.075943746 0.05136671 0.24721414 -0.08693653 -0.22055219 0.12114271 -0.4761497
-0.008506643 -0.07244207 0.0019353065 0.008017848 0.0057587936 -0.039995488 -0.22009242 0.13637328
-0.27146268 -0.073154435 -0.04446444 0.088517874 -0.13807297 0.2965773 0.059252385 -0.06495724
-0.10155948 -0.07661352 -0.35520595 -0.15890889 -0.13923019 0.11368166 -0.23434612 -0.22846587
-0.02190775 0.11470521 -0.10230757 0.07689836 -0.05923073 0.18504392 -0.105395265 0.062879495
-0.36763522 -0.1338406 -0.3589857 -0.076929316 0.15995663 -0.07404724 -0.1461354 -0.12231374
-0.015043216 0.09333092 -0.027040504 -0.25689307 0.011270318 0.080895066 0.14556564 0.27536488
0.08771123 -0.40770498 -0.12938869 -0.039349813 -0.24825335 -0.1625317 -0.3669626 0.18909293
-0.048160844 0.16941264 0.11133841 -0.09128968 0.038254775 -0.35794103 -0.29939735 -0.17318402
0.11447994 -0.27396503 -0.2734325 0.0632 -0.28358814 0.09843702 -0.25908276 -0.028266411
-0.0988812 -0.25874418 0.19798452 -0.17110145 0.07730161 -0.095426396 -0.1434679 -0.10121152
00000000: 7f9e 8abe 8a6c 403e 57ca c6bd b7f2 93be
00000010: 9d80 8c3b a0e7 05be 5809 f0bd 4d92 47bd
00000020: d4a0 9cbe 2341 a53d 8499 a4bd 7dfa 5ebe
00000030: 83f5 c6bd 09fb 90be 86ba 9dbc 2ff9 8abe
00000040: d35f 4dbe 9d90 b2bd 4c15 10be 3535 60be
00000050: 9c70 87be 7561 2cbe fd8b 873d 98cf 2b3d
00000060: c8c4 173d e143 00be b2d6 56bd 189b ccbe
00000070: 40d3 8b3d 5812 2abe ddf1 57be 218a 91be
00000080: cee3 c83d 09db 523d 4c2b 9c3d 4acc 51be
00000090: dcd4 2b3e d97a e5bd e32b ecbd 0a6d e9bd
000000a0: 6701 57be c024 17be 8376 ccbb 7325 83be
000000b0: e627 90bc cd35 1ebd 0134 61be 57d5 01bc
000000c0: b140 18bd c245 053e 0704 5dbe 9550 f0bd
000000d0: 7dcc 983c f9e5 11be f6e4 aebe f792 54be
000000e0: 4f44 7f3b 4bbb 75be 100c 453e 732c a93c
000000f0: a28b 97be c1a9 11bd 410f 0c3e e87d 3ebe
00000100: 6c6a cdbe f803 abbe 209f 85bd b12f d0bd
00000110: a7a6 e63d 4b8a f63d 005e b23d b3a4 23be
00000120: 794f f9bd 3a0c eebd 4546 85bc 3e2f 29bd
00000130: 9f43 22bd 7ef7 dabd 7b18 973c 5493 8cbe
00000140: 27f8 d03d 9cb7 54be 0a45 39bc 674e a7be
00000150: a3df 83be ccc2 02bd d0b1 e0bd d147 0abd
00000160: ec15 cebd 5c55 adbd 1b73 b2bd 0866 e6bd
00000170: 4f43 7bbe 8abc aebe 21fb 1bbe 17e1 25be
00000180: 74bc a5be c2ff 45be 67fd 493e 6bce 7c3d
00000190: 006a efbe 87aa a1be 3d5d 2c3e 9602 44bc
000001a0: 7ea1 8dbc 76aa 99bd 0f4a 82be 2aa2 643e
000001b0: 4336 19bd f90f 26be d65b 4cbe d4bc babe
000001c0: 4e5c d7bd 8b0a 15be aadd 5bbe 31a3 143e
000001d0: 8bd3 63bd 1459 59be a461 b3be 9aef 8dbc
000001e0: f2d8 843d f5d5 9abc ece1 22be 4095 77be
000001f0: d408 7abe d660 b93c 1fac 43bd 403f 02be
00000200: cc57 33be 6209 cdbb dae1 dabc ac18 473d
00000210: b5ff 223e 73a3 8ebe 7e05 1a3d 9e59 a8be
00000220: 6bc1 60bd e253 a2bd bd1c 9cbe a202 17be
00000230: 6da0 71be 8348 893c 8f33 66be d883 a3be
00000240: 49e7 6ebe 0aa5 f6bc 9b0f 02bd 7de7 273d
00000250: e810 82bd 3639 8abe 8668 e1bd 0d96 e8be
00000260: 5c46 f538 3b9b 3a3d 2b84 1dbe 4385 9cbe
00000270: e62e 0ebe 645a 163e 357b 5f3d 936e 36be
00000280: f5eb 47be 5b74 1a3e fd93 38be 7a65 5f3d
00000290: e659 433d 1ec4 243e 957c 3bbd d7e7 823c
000002a0: a44c 7cbe 6588 9b3d e665 523d b425 7d3e
000002b0: c80b b2bd 6fd8 61be ab19 f83d e5c9 f3be
000002c0: 725f 0bbc 825c 94bd 1caa fd3a 4b5d 033c
000002d0: 43b4 bc3b 4fd2 23bd e85f 61be 70a5 0b3e
000002e0: 28fd 8abe fed1 95bd 5820 36bd dc48 b53d
000002f0: 0063 0dbe fbd8 973e a1b2 723d 4d08 85bd
00000300: 6bfe cfbd 8de7 9cbd 8edd b5be 03b9 22be
00000310: 5c92 0ebe eed1 e83d 6ef8 6fbe f5f2 69be
00000320: e277 b3bc 91ea ea3d a286 d1bd e37c 9d3d
00000330: ec9b 72bd 277c 3d3e 79d9 d7bd f7c6 803d
00000340: af3a bcbe 830d 09be f9cc b7be 1e8d 9dbd
00000350: accb 233e 14a6 97bd 85a4 15be a07f fabd
00000360: d277 76bc 4824 bf3d 0c84 ddbc 7d87 83be
00000370: 24a7 383c 50ac a53d 290f 153e a0fc 8c3e
00000380: f2a1 b33d b5be d0be 787e 04be 452d 21bd
00000390: 2036 7ebe b66e 26be 86e2 bbbe 94a1 413e
000003a0: 4e44 45bd 827a 2d3e 6405 e43d 15f6 babd
000003b0: 0ab1 1c3d 0c44 b7be 9c4a 99be 2757 31be
000003c0: 7574 ea3d 2545 8cbe 58ff 8bbe 006f 813d
000003d0: 7732 91be 5999 c93d 7fa6 84be f68e e7bc
000003e0: 3a82 cabd 1e7a 84be 74bc 4a3e 3835 2fbe
000003f0: 4e50 9e3d ea6e c3bd 40e9 12be fc47 cfbd

_fc2.weight f4 [256, 256]
-0.29058754 -0.13729511 0.08449519 -0.37573048 0.023372235 0.029051848 -0.2701916 -0.49144396
-0.5328372 -0.059142116 -0.48509705 0.05353069 0.02414814 -0.23719668 -0.13992852 0.329359
0.04256331 0.09553468 0.07657884 -0.058170877 -0.17971618 0.031619325 -0.08945731 -0.009811061
-0.19096565 -0.88073343 0.06089955 0.07269774 0.10834433 0.11739089 0.29489145 -0.05626332
-0.21805291 0.0063714343 0.06813769 -0.20753883 0.042001497 0.0035314683 -0.15310042 -1.7199411
-0.039766803 -0.4122927 -0.07229462 0.029819595 -0.85372937 0.13053274 0.07293298 0.21637653
0.36527643 -0.5620875 0.4009893 0.02868889 -0.015583191 -0.046060227 0.011727447 -0.5216408
0.15477666 0.11567971 -0.060101293 -0.44576594 0.022483496 -0.30414703 -1.2346525 0.014358129
0.10709547 -0.11299556 -0.045038488 0.22154891 0.19159946 -0.04192149 0.40677968 -0.058355026
0.03128621 -0.0028278804 -0.4698657 -0.07470294 -0.29732367 0.08453516 0.030270413 -0.30718642
-0.39731735 -0.108480364 -0.12941441 0.037577346 -0.10531838 -0.34399468 -0.401905 -0.12397434
0.0057510883 -0.028757941 -0.595581 -0.055920087 -0.06600594 -0.79455143 -0.33274394 -0.2911023
-0.18501318 0.014308495 -0.624901 0.176239 -0.050130393 0.07939958 0.08570507 0.0066753244
-0.09629187 -0.10877871 -0.046212554 0.025157042 -0.29601848 -0.30492318 0.03670612 -0.82343596
-0.11251783 -0.054455433 -0.46382567 0.052935466 0.39547879 0.03697016 -0.04297103 -0.078945465
-0.35540417 -0.44977432 0.11333755 0.05922285 -0.025902104 0.06296623 -0.06270872 -1.6327205
-0.08125463 0.45755368 -0.43823454 -1.2184776 -0.06192685 -0.13408466 -0.19932435 -0.45577943
-0.17967486 -0.10154632 0.030660383 -0.19068137 0.10776534 -0.3485567 0.2869286 -0.097264364
-0.06504399 -0.7387572 -0.46844003 0.03619067 -0.23054723 -0.07664805 -0.07859465 0.03435272
-0.26742807 0.051658344 -0.7844538 0.23456407 0.25664952 0.0870203 -0.19394661 0.15527357
-0.15719104 -0.09586941 0.13021925 -0.52147734 0.006854733 -0.1736928 0.06768227 -0.1229512
0.16604133 -0.037500896 -0.2933626 0.004151157 0.071454056 -0.34094933 -0.013461369 -0.14437175
0.1026204 0.12318307 -0.35187894 -0.11727735 -0.40418658 0.08159054 -0.1982083 -0.0036134312
-1.2156965 -0.13417286 0.00062416453 0.027675066 0.06613947 -0.71131366 -0.85875845 -0.37975067
-0.18555844 -0.052449908 -0.47679114 -0.075454004 -0.5401473 -0.075111054 -0.6816769 -0.00991703
-0.27551067 -0.3556763 -0.13300353 0.11383811 -0.09087724 0.1698496 0.17267458 -0.12773725
-0.08841118 -0.019045891 -0.034917194 -0.23110487 -0.69308656 -0.14613684 -1.3100736 -0.22029653
-0.33108625 0.3460974 -0.15681642 0.099508986 -0.24401958 -0.41439593 0.03297633 -0.046772383
-0.28381515 -0.3386959 -0.5392598 -0.058319397 -0.018372698 0.0032455397 -0.56751764 -0.12313575
0.18088855 -0.06602492 0.31660843 0.11901358 0.05468812 0.026664313 -0.002610439 -0.24614894
-0.15428804 0.0050507504 -0.14304712 -0.2593252 -0.24758612 -0.13431273 -0.10210642 0.2354995
-0.19031009 -0.4736607 -0.56531274 -0.27810395 -0.48889986 -0.036737487 -0.3011235 -0.057722174
00000000: e4c7 94be 1797 0cbe d00b ad3d bf5f c0be
00000010: 2177 bf3c 24fe ed3c 8e56 8abe 8b9e fbbe
00000020: 0568 08bf 013f 72bd a45e f8be ff42 5b3d
00000030: 52d2 c53c b0e3 72be 6c49 0fbe bea1 a83e
00000040: de56 2e3d b0a7 c33d 5ed5 9c3d 9644 6ebd
00000050: 8507 38be 4483 013d 6535 b7bd 93be 20bc
00000060: 808c 43be bf77 61bf ce71 793d 8de2 943d
00000070: a2e3 dd3d a36a f03d 03fc 963e 5e74 66bd
00000080: 4349 5fbe 77c7 d03b c68b 8b3d 0f85 54be
00000090: c309 2c3d 3570 673b 5bc6 1cbe 0827 dcbf
000000a0: 84e2 22bd 0718 d3be 340f 94bd 3948 f43c
000000b0: 028e 5abf 60aa 053e e35d 953d cf91 5d3e
000000c0: 8305 bb3e f7e4 0fbf 784e cd3e f704 eb3c
000000d0: a450 7fbc a6a9 3cbd 7a24 403c 408a 05bf
000000e0: c67d 1e3e 7ce9 ec3d c62c 76bd 6f3b e4be
000000f0: 4f2f b83c 29b9 9bbe 1809 9ebf 5c3e 6b3c
00000100: df54 db3d 376a e7bd 477a 38bd b8dd 623e
00000110: a632 443e deb5 2bbd 6d45 d03e ae05 6fbd
00000120: f825 003d f653 39bb 3d92 f0be dbfd 98bd
00000130: cf3a 98be c520 ad3d a8f9 f73c 8a47 9dbe
00000140: 2e6d cbbe f42a debd 3685 04be b4ea 193d
00000150: 2ab1 d7bd 1220 b0be 7ec6 cdbe 42e6 fdbd
00000160: a073 bc3b c695 ebbc ff77 18bf 760c 65bd
00000170: 1f2e 87bd b967 4bbf 6a5d aabe 5c0b 95be
00000180: 1874 3dbe 2e6e 6a3c 83f9 1fbf ff77 343e
00000190: 8755 4dbd 3f9c a23d 2486 af3d aebc da3b
000001a0: ac34 c5bd 5fc7 debd 6049 3dbd 2416 ce3c
000001b0: bc8f 97be e41e 9cbe 2859 163d b3cc 52bf
000001c0: c06f e6bd a90c 5fbd 8f7a edbe dcd2 583d
000001d0: 327c ca3e 066e 173d 6402 30bd 29ae a1bd
000001e0: 89f7 b5be d248 e6be 841d e83d a993 723d
000001f0: a630 d4bc 70f4 803d 6e6d 80bd fcfc d0bf
00000200: d468 a6bd 7a44 ea3e 4760 e0be 13f7 9bbf
00000210: 02a7 7dbd 7d4d 09be af1b 4cbe ec5b e9be
00000220: b0fc 37be 84f7 cfbd 7c2b fb3c fa41 43be
00000230: 13b4 dc3d 0676 b2be 4ee8 923e 8a32 c7bd
00000240: c935 85bd 311f 3dbf 5fd7 efbe ab3c 143d
00000250: 9314 6cbe a7f9 9cbd 3bf6 a0bd 70b5 0c3d
00000260: 55ec 88be b397 533d f7d1 48bf 9031 703e
00000270: 9167 833e b337 b23d f199 46be 0900 1f3e
00000280: b0f6 20be 2e57 c4bd 3258 053e 8a7f 05bf
00000290: ab9d e03b 86dc 31be 019d 8a3d d7cd fbbd
000002a0: bd06 2a3e 8a9a 19bd 9f33 96be 6e06 883b
000002b0: 8156 923d e990 aebe 138d 5cbc 30d6 13be
000002c0: a52a d23d 6847 fc3d 7a29 b4be 1b2f f0bd
000002d0: 8bf1 cebe f118 a73d 1ef7 4abe 51cf 6cbb
000002e0: f19b 9bbf 9c64 09be f99e 233a d2b6 e23c
000002f0: 2174 873d a718 36bf 98d7 5bbf ae6e c2be
00000300: 0803 3ebe b7d5 56bd f81d f4be a187 9abd
00000310: 1847 0abf d3d3 99bd 6182 2ebf 0a7b 22bc
00000320: bc0f 8dbe 341b b6be 1432 08be f423 e93d
00000330: d91d babd 0eed 2d3e 9bd1 303e 8ecd 02be
00000340: ec10 b5bd 2106 9cbc 5505 0fbd c1a6 6cbe
00000350: 1f6e 31bf e5a4 15be 7eb0 a7bf 6a95 61be
00000360: 2384 a9be ae33 b13e 7c94 20be 5ecb cb3d
00000370: 45e0 79be b42b d4be 3012 073d 6694 3fbd
00000380: 3850 91be 8d69 adbe ee0c 0abf 52e0 6ebd
00000390: 5782 96bc 1fb3 543b d648 11bf 992e fcbd
000003a0: d93a 393e 1338 87bd 801a a23e 64bd f33d
000003b0: a600 603d 1e6f da3c e613 2bbb 780e 7cbe
000003c0: affd 1dbe c480 a53b f27a 12be 46c6 84be
000003d0: 3787 7dbe 4789 09be 2c1d d1bd c826 713e
000003e0: a6e0 42be a883 f2be 56b8 10bf a463 8ebe
000003f0: 1551 fabe 0c7a 16bd dc2c 9abe 166e 6cbd

_fc2.bias f4 [256]
0.048415788 -0.12958804 0.27963674 -0.08038761 -0.029933682 -0.21424863 0.018515404 -0.051323093
0.022187257 0.011222763 -0.05514206 -0.04886997 0.030680286 -0.059927776 -0.082485355 -0.04583331
-0.1764471 -0.11046383 -0.1757862 -0.101075135 -0.1252328 -0.034942746 -0.0565252 -0.1468432
-0.061106693 -0.08833348 -0.04769511 -0.056355834 -0.102994904 -0.10354182 -0.055142295 -0.07556434
-0.010926821 -0.10943687 -0.048443537 -0.07455556 0.18112308 -0.2177247 -0.06200199 -0.16342199
0.018778674 -0.18874426 -0.049730014 -0.09504388 0.2438348 -0.11776335 0.07891209 -0.063567534
-0.02275522 -0.06608068 0.104495585 -0.023153953 -0.051596608 -0.08756693 0.029996702 0.1560648
0.11554378 -0.36818823 -0.069500014 -0.07990382 -0.0027434803 -0.20411843 0.13170196 -0.06649482
0.09751253 0.16305304 -0.033626005 -0.30978808 -0.10669877 -0.12659879 -0.046822034 -0.030189361
-0.11189816 -0.15479408 -0.078760825 -0.06968504 -0.10030418 -0.051960204 -0.074841164 -0.024659676
-0.24990417 0.058503732 -0.10521159 -0.056837257 -0.16280422 -0.24633315 -0.07910529 -0.061434254
-0.2633655 -0.06356712 -0.0693164 0.08557005 -0.13988808 0.0049590436 -0.010317335 -0.0059367674
-0.11056802 -0.05314569 -0.1148001 -0.1690699 -0.09487644 -0.020607533 0.02188117 0.12906681
-0.11845558 0.14123891 0.009261352 -0.050357368 -0.07365072 -0.050005853 0.019167274 -0.035517424
-0.030135056 -0.06246768 0.15102309 0.0085649695 -0.035728447 -0.08756042 -0.14360026 0.05453352
-0.034949757 -0.16375184 -0.051589355 0.020770902 -0.025534628 0.039724153 0.0055448357 -0.11085587
-0.07982045 -0.056739964 -0.26479155 0.010409735 -0.15106076 -0.055244137 0.035247907 -0.0843273
-0.20245975 -0.06369863 -0.13567372 -0.23689112 -0.14586306 0.043932803 0.10588113 0.0070627774
-0.0315523 0.26545998 0.03297758 0.0030129398 -0.05423556 -0.04612776 -0.04185793 0.035792124
-0.08433489 0.04295436 -0.06835506 -0.037683573 -0.13792317 -0.09793212 -0.014423111 0.15114325
-0.039909024 -0.08688257 -0.015073347 -0.04996078 -0.12843215 -0.15787518 0.100250535 -0.14429875
0.026245365 -0.26623103 0.032494713 -0.13461542 -0.042819764 0.026103979 -0.06724122 -0.120761074
0.05192458 -0.079093054 0.007431433 0.09992249 -0.08087903 0.16137345 -0.04984855 -0.024645519
-0.081729874 0.014006654 -0.054730244 0.08862907 -0.40784955 -0.023985092 0.028733784 0.04186778
-0.19770595 0.014330114 -0.029565755 -0.039283648 -0.01478217 0.04958302 -0.1538116 -0.07077172
-0.15570965 0.09252422 0.13998033 -0.13988401 0.10140805 -0.112984 -0.31201464 0.038796082
-0.078538544 -0.16843519 -0.04446742 -0.07561031 -0.08244854 -0.18200682 -0.06549464 -0.019796066
0.06501182 -0.11594012 -0.032676026 0.04441552 -0.18660131 0.061358877 -0.010693146 -0.13302149
-0.032028936 -0.07658382 -0.124124296 -0.16322964 -0.24311525 -0.30747175 0.016590733 -0.056060527
-0.05455589 -0.014463715 -0.030016428 0.12824824 -0.11194407 -0.08322663 -0.20997918 -0.044246953
0.013682285 -0.09445558 -0.23393302 -0.06037554 0.007641321 0.030941006 0.031992685 -0.20465697
-0.06292302 0.06997652 -0.19230366 -0.05159847 -0.12852673 -0.19814888 -0.24470755 -0.22514321
00000000: a24f 463d bab2 04be 8c2c 8f3e 42a2 a4bd
00000010: 7b37 f5bc fe63 5bbe 9ead 973c 2a38 52bd
00000020: 0dc2 b53c aedf 373c a4dc 61bd e12b 48bd
00000030: 3955 fb3c d476 75bd 15ee a8bd b5bb 3bbd
00000040: 8cae 34be dc3a e2bd 4c01 34be 7b00 cfbd
00000050: 073d 00be 2020 0fbd f886 67bd 105e 16be
00000060: 034b 7abd 2fe8 b4bd f35b 43bd 60d5 66bd
00000070: feee d2bd bc0d d4bd e3dc 61bd 7ac1 9abd
00000080: 6906 33bc 7020 e0bd bb6c 46bd 96b0 98bd
00000090: 5478 393e 39f3 5ebe ccf5 7dbd 1858 27be
000000a0: bcd5 993c 2d46 41be b3b1 4bbd 5ea6 c2bd
000000b0: d4af 793e e92d f1bd a99c a13d b22f 82bd
000000c0: 2869 babc 4f55 87bd c801 d63d 5cad bdbc
000000d0: f756 53bd 4a56 b3bd a5bb f53c 73cf 1f3e
000000e0: 38a2 ec3d 2b83 bcbe 0656 8ebd 9da4 a3bd
000000f0: f6cb 33bb 6c04 51be e1dc 063e 702e 88bd
00000100: a6b4 c73d 60f7 263e 6cbb 09bd 8b9c 9ebe
00000110: e284 dabd 1da3 01be 76c8 3fbd ae4f f7bc
00000120: dd2a e5bd 5782 1ebe 5b4d a1bd 08b7 8ebd
00000130: 476c cdbd 39d4 54bd 5346 99bd 1703 cabc
00000140: e1e6 7fbe 9ca1 6f3d 2d79 d7bd 2fce 68bd
00000150: 26b6 26be c23e 7cbe f401 a2bd 7ca2 7bbd
00000160: d8d7 86be 7a2f 82bd c2f5 8dbd 5a3f af3d
00000170: d23e 0fbe 797f a23b 0a0a 29bc 3789 c2bb
00000180: 7c71 e2bd 4caf 59bd 511c ebbd a920 2dbe
00000190: 944e c2bd 21d1 a8bc 2440 b33c 172a 043e
000001a0: d798 f2bd efa0 103e edbc 173c 8743 4ebd
000001b0: 30d6 96bd f0d2 4cbd b004 9d3c b87a 11bd
000001c0: cbdd f6bc 1cde 7fbd cca5 1a3e 1654 0c3c
000001d0: fe57 12bd e152 b3bd f20b 13be 8a5e 5f3d
000001e0: 7a27 0fbd 90ae 27be 5c4f 53bd bd27 aa3c
000001f0: ff2d d1bc cbb5 223d 74b1 b53b 6708 e3bd
00000200: e778 a3bd 2a68 68bd c292 87be 988d 2a3c
00000210: acaf 1abe ad47 62bd 1c60 103d cbb3 acbd
00000220: 9c51 4fbe 6d74 82bd 0dee 0abe 9693 72be
00000230: 205d 15be e2f2 333d 35d8 d83d df6e e73b
00000240: fc3c 01bd 5fea 873e 8013 073d be74 453b
00000250: 1b26 5ebd 76f0 3cbd 3973 2bbd c39a 123d
00000260: c5b7 acbd e9f0 2f3d bdfd 8bbd 175a 1abd
00000270: bb3b 0dbe a390 c8bd ea4e 6cbc 4cc5 1a3e
00000280: a577 23bd 7def b1bd 33f6 76bc ada3 4cbd
00000290: b883 03be 08aa 21be 2750 cd3d 0dc3 13be
000002a0: 8500 d73c 6f4f 88be 2d19 053d a0d8 09be
000002b0: c763 2fbd 03d8 d53c c4b5 89bd 9551 f7bd
000002c0: deae 543d 8afb a1bd 6183 f33b 2aa4 cc3d
000002d0: e8a3 a5bd 153f 253e fe2d 4cbd 66e5 c9bc
000002e0: fe61 a7bd 2a7c 653c d22c 60bd 2883 b53d
000002f0: a8d1 d0be 627c c4bc 1d63 eb3c 8d7d 2b3d
00000300: 6e73 4abe dbc8 6a3c e233 f2bc e4e7 20bd
00000310: ea30 72bc 9117 4b3d ca80 1dbe c3f0 90bd
00000320: 5a72 1fbe 577d bd3d 0157 0f3e c13d 0fbe
00000330: 06af cf3d 2864 e7bd 62c0 9fbe a4e8 1e3d
00000340: d1d8 a0bd 467a 2cbe 7823 36bd 94d9 9abd
00000350: c8da a8bd ff5f 3abe 0e22 86bd 5c2b a2bc
00000360: eb24 853d 0372 edbd 4cd7 05bd 0ced 353d
00000370: 6a14 3fbe 7253 7b3d 4e32 2fbc c936 08be
00000380: c630 03bd fad7 9cbd e134 febd ac25 27be
00000390: 34f3 78be f06c 9dbe 4ae9 873c b99f 65bd
000003a0: ff75 5fbd 38f9 6cbc 03e5 f5bc 8253 033e
000003b0: ef42 e5bd b972 aabd c804 57be 4b3c 35bd
000003c0: aa2b 603c ed71 c1bd 238c 6fbe 584c 77bd
000003d0: 0c64 fa3b fe77 fd3c c30a 033d 9991 51be
000003e0: c9dd 80bd da4f 8f3d 40eb 44be eb58 53bd
000003f0: 839c 03be 8ae7 4abe 9e94 7abe f18b 66be

_out.weight f4 [3, 256]
0.9886268 0.123435564 -0.07022407 -0.05317543 -0.035512492 0.10521345 0.38376758 0.07214553
0.065541 0.03124166 -0.0171009 -0.009391665 -0.021359053 -0.2894001 -0.03697626 -0.013803253
0.070750184 0.1380836 0.14653066 0.04566675 0.05185356 0.073874466 -0.026294239 -0.091002084
0.25818238 0.13715994 0.028677324 0.045099862 0.1118527 -0.04922215 -0.23011468 -0.026639927
-0.6149024 0.31067827 -0.018367507 0.026862986 -0.095498875 -0.6731033 0.03349178 0.31547078
-0.0646446 0.06636955 -0.011738976 0.33923328 -0.61122763 0.60806227 -0.6322085 0.7805013
0.04308336 0.031593792 -0.11128693 -0.0010533712 -0.39314398 0.123312004 0.25828552 0.46269193
-0.06440681 -0.3211549 -0.021276336 0.11891488 0.049756084 -0.10085967 0.53259724 -0.08228175
0.034515694 -0.03491195 0.09828688 0.9519703 0.7749389 0.62639594 0.14834341 -0.1398694
-0.03484921 0.2393664 -0.17902428 -0.012506843 0.10297934 0.04948996 -0.025883988 -0.13648218
0.26763397 -0.035253666 -0.15464978 -0.00368838 -0.038284153 0.20659441 0.13925293 0.020000586
-0.016679585 0.078557596 0.17101693 0.07565809 0.030431796 0.54563916 -0.28910246 -0.11055621
0.12255052 -0.0892192 -0.36332545 -0.27914947 -0.609315 0.09927619 -0.0035118978 0.09022425
-0.1338209 -0.060500424 -0.0757485 0.038472865 0.22715822 0.67554605 -0.5303088 -0.11140655
0.06313603 0.13887933 0.051522315 0.31167993 0.042432584 0.04581812 0.7983746 0.04184679
-0.045746136 0.11014067 -0.053301018 -0.29655823 -0.028220981 0.18261729 0.020236803 0.34597158
0.5773328 -0.027486326 0.116791286 0.062493533 -0.086655386 0.640876 0.2878288 -0.016486712
0.21406198 0.0014751636 0.33004856 -0.8320493 0.27474013 0.20988047 0.033489138 -0.08668032
0.14207603 -0.052253235 0.019429926 0.0741968 -0.059406947 0.25523794 -0.03100218 -0.22833365
-0.0225738 -0.5858267 -0.05453422 -0.018154727 0.09447623 -0.07847201 0.1320884 0.063274086
-0.2281482 0.06487585 0.035846815 0.863792 0.11048202 -0.058738746 -0.27629977 0.025685724
0.68723077 -0.17788762 0.08132577 -0.027331628 1.0020342 -0.017333427 0.025948958 -0.3041543
-0.041330278 0.027349005 0.059452873 0.034787774 0.09229472 0.33535162 0.017320776 -0.26447445
0.013736541 0.72536844 -0.1501993 0.08329542 -0.10699732 0.47115153 -0.027648473 0.11882251
-0.6423043 0.016433395 0.043408003 0.027586138 0.046435885 0.3393593 0.14166772 0.75830305
0.32424703 -0.017456753 -0.10556402 0.16429532 -0.014623451 0.08707806 0.14645948 -0.028418466
-0.03401377 -0.09013452 0.09075867 0.2089446 0.34894645 -0.094460115 0.011008457 0.668998
0.10274264 -0.26946574 0.2215028 -0.14710234 0.22573647 0.03805472 -0.06819773 0.034826517
0.031551458 -0.05572546 0.46964484 0.40231556 -0.06402945 -0.05668607 0.47392824 -0.0050269626
-0.1057991 -0.044929586 -0.4132159 0.035753578 -0.109746 0.054482438 0.2891087 0.24351478
-0.020344598 0.025926417 -0.13999522 0.2973401 -0.21444191 -0.051490113 -0.0014311876 0.04204287
0.24711423 -0.034594513 -0.7937625 0.6481268 -0.09226862 -0.16610105 -0.16071814 -0.70741117
00000000: a516 7d3f c9cb fc3d a3d1 8fbd 7bce 59bd
00000010: 8c75 11bd 267a d73d 2f7d c43e 09c1 933d
00000020: 5c3a 863d 82ee ff3c 3017 8cbc 80df 19bc
00000030: 2ef9 aebc 402c 94be 6b74 17bd 0a27 62bc
00000040: 79e5 903d ca65 0d3e 220c 163e 0f0d 3b3d
00000050: 6664 543d 7f4b 973d 0467 d7bc 4d5f babd
00000060: 7b30 843e a873 0c3e b5ec ea3c a2ba 383d
00000070: 0713 e53d 2a9d 49bd 2fa3 6bbe fa3b dabc
00000080: 3e6a 1dbf 3911 9f3e 7477 96bc c40f dc3c
00000090: ea94 c3bd 7f50 2cbf ad2e 093d 6385 a13e
000000a0: 6364 84bd c2ec 873d d654 40bc fcaf ad3e
000000b0: 6a79 1cbf f8a9 1b3f 6bd8 21bf efce 473f
000000c0: 2d78 303d 7e68 013d 67ea e3bd 4611 8aba
000000d0: 2b4a c9be 018b fc3d 003e 843e f5e5 ec3e
000000e0: b8e7 83bd 6a6e a4be b64b aebc a589 f33d
000000f0: 09cd 4b3d 848f cebd 4b58 083f 5683 a8bd
00000100: 5460 0d3d d5ff 0ebd a24a c93d 53b4 733f
00000110: 6562 463f 7c5b 203f 56e7 173e ed39 0fbe
00000120: 0cbe 0ebd 771c 753e 2452 37be 80e9 4cbc
00000130: d5e6 d23d fcb5 4a3d a80a d4bc fcc1 0bbe
00000140: 5207 893e 2666 10bd 835c 1ebe bfb8 71bb
00000150: d8cf 1cbd 7c8d 533e 5298 0e3e 45d8 a33c
00000160: a0a3 88bc cee2 a03d 101f 2f3e a1f2 9a3d
00000170: 1a4c f93c 02af 0b3f 3d05 94be 4b6b e2bd
00000180: c4fb fa3d 8eb8 b6bd cb05 babe aeec 8ebe
00000190: 11fc 1bbf 5151 cb3d de27 66bb 7ec7 b83d
000001a0: 5908 09be 4bcf 77bd 0822 9bbd b995 1d3d
000001b0: 2a9c 683e 96f0 2c3f 51c2 07bf 1e29 e4bd
000001c0: 774d 813d 6236 0e3e 1009 533d 8394 9f3e
000001d0: cacd 2d3d c8ab 3b3d 4762 4c3f 8a67 2b3d
000001e0: 4d60 3bbd 6e91 e13d 2b52 5abd 7bd6 97be
000001f0: b02f e7bc 0700 3b3e a7c7 a53c 3023 b13e
00000200: 15cc 133f 012b e1bc 4530 ef3d 38f9 7f3d
00000210: 6178 b1bd 7310 243f 4c5e 933e 240f 87bc
00000220: 1033 5b3e 475a c13a 20fc a83e 2f01 55bf
00000230: bdaa 8c3e e8ea 563e e82b 093d 7485 b1bd
00000240: 617c 113e 7d07 56bd 822b 9f3c 7ef4 973d
00000250: b354 73bd 8cae 823e 49f8 fdbc 4cd0 69be
00000260: b1ec b8bc bdf8 15bf 465f 5fbd 39b9 94bc
00000270: c17c c13d efb5 a0bd 2e42 073e d895 813d
00000280: af9f 69be a1dd 843d 1cd4 123d 7921 5d3f
00000290: 6644 e23d 0a98 70bd 2a77 8dbe de6a d23c
000002a0: 5bee 2f3f 2c28 36be 208e a63d 94e6 dfbc
000002b0: a842 803f d5fe 8dbc e992 d43c 1dba 9bbe
000002c0: f049 29bd 050b e03c db84 733d a07d 0e3d
000002d0: 0405 bd3d 35b3 ab3e 4de4 8d3c 3269 87be
000002e0: 3b0f 613c bfb1 393f d8cd 19be ca96 aa3d
000002f0: 6921 dbbd c63a f13e 0d7f e2bc 3759 f33d
00000300: 0e6e 24bf 549f 863c 97cc 313d 53fc e13c
00000310: 8e33 3e3d 81c0 ad3e 5811 113e 2620 423f
00000320: b503 a63e 7701 8fbc f331 d8bd 083d 283e
00000330: 3397 6fbc fb55 b23d 79f9 153e d8cd e8bc
00000340: 0652 0bbd 7298 b8bd aedf b93d 93f5 553e
00000350: 1ca9 b23e 4e74 c1bd d15c 343c 7443 2b3f
00000360: bc6a d23d 6af7 89be a1d1 623e ffa1 16be
00000370: 7627 673e 44df 1b3d 40ab 8bbd 40a6 0e3d
00000380: 1a3c 013d 6140 64bd 4a75 f03e 4efc cd3e
00000390: df21 83bd a72f 68bd b9a6 f23e 38b9 a4bb
000003a0: 33ad d8bd 1608 38bd 0991 d3be 5872 123d
000003b0: 83c2 e0bd fa28 5f3d 0e06 943e f05b 793e
000003c0: b7a9 a6bc a363 d43c e85a 0fbe f63c 983e
000003d0: a996 5bbe 4ce7 52bd b096 bbba 2535 2c3d
000003e0: 830b 7d3e fab2 0dbd 0534 4bbf a3eb 253f
000003f0: 55f7 bcbd 6516 2abe 4c93 24be e618 35bf

_out.bias f4 [3]
0.1504311 0.14873801 0.15066533
00000000: 9c0a 1a3e c74e 183e 0348 1a3e
