rl/models/self_play/pong_dueling_ddqn_sp_per_ep400_best.pth (torch, 286940 bytes, 9 tensors)

_fc1.weight f4 [256, 12]
0.08889809 -0.17435831 0.13035572 -0.0065086717 -0.30136377 0.50319487 -0.010894822 -0.21340176
0.23923421 0.008028478 0.19062875 0.14139107 0.16405647 0.16168442 -0.6432183 -0.06469661
0.0926012 -0.10629721 -1.2525685 -0.023139352 0.050194 -0.1267895 -0.12078272 -0.66024923
-0.13015482 -0.13235532 -0.23208554 -0.008573831 0.17320481 -0.46933213 -0.8350539 -0.03222195
0.0338937 0.46456262 0.17044099 0.4192092 0.29435298 -0.09342872 0.027393088 -0.015596448
-0.10681948 0.39248553 -0.23604922 -0.1403704 0.20139079 -0.3570795 0.27590036 -0.6184741
-0.06598177 -0.21552147 0.28237146 -0.009959666 -0.25300622 -0.08501353 -0.042439204 -0.04012983
0.45045286 -0.10659641 0.09553503 -0.12755097 0.13341226 0.2675292 0.12704055 0.0055388003
-0.118634425 -0.3193537 -0.32326403 -0.08676565 -0.16642053 -0.23012978 0.121626444 0.07756579
0.13264968 0.004724362 -0.05644849 -0.0013364633 -0.043777693 -0.38440505 0.2911164 -0.082497165
0.13378942 0.32458505 0.20581147 -0.3288448 0.06091483 0.05750378 0.19625287 0.020394174
-0.04153648 -0.17276934 -0.26476625 -0.0004967704 -0.15536241 -0.3621036 -0.17616487 -0.56795526
0.015925623 0.11574772 -0.13693072 0.0037679982 -0.37659585 0.23739854 -0.24626695 -0.029450145
-0.15709653 0.018016707 -0.4349509 0.17354798 -0.084246784 -0.46634603 0.13686125 0.00869435
0.23187944 -0.046219133 0.131754 -0.0067706862 0.050865497 0.5310449 -0.1883194 0.67239714
-0.036748625 0.043795705 0.28943887 -0.0064965445 -0.15114406 -0.110458046 -0.42578933 -0.014152767
-0.22169916 -0.46015126 -0.050579417 -0.04868869 -0.14264555 -0.065693885 0.039521888 -0.009654062
-0.210661 0.020674238 0.12286685 -0.04920036 0.5592177 -0.23584615 0.16598572 -0.022110429
-0.05835663 0.0974794 -0.088585444 0.012027738 -0.017811432 -0.08462096 -0.20652416 0.0019711452
-0.023396634 0.57431877 -0.006583783 0.6424668 0.1542632 0.45059872 0.02391704 -0.0122732185
0.015886907 -0.020490762 0.37985396 -0.011213009 -0.09741234 -0.5457085 -0.07861731 0.20550661
0.03495541 0.3071581 -0.15972808 0.016038492 -0.09985175 -0.007831495 -0.431432 0.00036676976
-0.013971974 -0.17973763 0.057312205 0.40955687 0.11068646 -0.01054895 -0.27058482 -0.00589351
-0.22499044 -0.112546325 -0.043740954 -0.17999832 0.2708268 -0.09928481 0.27539733 -0.20674396
-0.010505004 -0.5953837 -0.3505364 0.0064253937 0.033358775 -0.00937471 -0.116256736 0.0014921499
-0.027922891 0.55667776 -0.16408838 -0.0871649 0.09033168 -0.047679912 0.26988646 0.014226732
0.15688877 0.17729028 -0.5055144 -0.0012635026 0.055613287 -0.13647696 -0.11139516 0.5584394
0.042607084 -0.26998392 -0.19231977 0.007830707 0.021059742 -0.149111 0.36283562 -0.010543107
0.07725459 0.1410266 0.24592696 0.23858212 0.16356784 0.27617353 -0.17891552 0.019587325
-0.16206743 -0.3061263 -0.34264547 -0.12805192 -0.012943245 -0.18772097 -0.052937835 -0.12505431
-0.09047613 -0.17962046 0.18305273 -0.013965238 0.0555989 -0.2802267 0.2464644 -0.0011494262
0.36565098 0.069354266 0.33493745 -0.17387824 -0.0064434977 -0.017574344 -0.17238237 0.01854866
00000000: 3410 b63d fc8a 32be f87b 053e b246 d5bb
00000010: 5a4c 9abe 61d1 003f 3280 32bc fe85 5abe
00000020: d0f9 743e e189 033c 2f34 433e d2c8 103e
00000030: 6bfe 273e 9a90 253e f4a9 24bf a87f 84bd
00000040: b3a5 bd3d 5ab2 d9bd 2a54 a0bf bd8e bdbc
00000050: 3998 4d3d 1bd5 01be ee5c f7bd 1806 29bf
00000060: 4e47 05be 2788 07be d5a7 6dbe 4179 0cbc
00000070: 9a5c 313e 4d4c f0be 18c6 55bf 2afb 03bd
00000080: 1fd4 0a3d 27db ed3e 1588 2e3e 97a2 d63e
00000090: 6fb5 963e 8f57 bfbd 7867 e03c 3f88 7fbc
000000a0: 2cc4 dabd ddf3 c83e e3b6 71be 42bd 0fbe
000000b0: 6339 4e3e 20d3 b6be d042 8d3e 5254 1ebf
000000c0: 7321 87bd a9b1 5cbe fe92 903e de2d 23bc
000000d0: 088a 81be 931b aebd bbd4 2dbd 2d5f 24bd
000000e0: c2a1 e63e 384f dabd dfa7 c33d b99c 02be
000000f0: 399d 083e 96f9 883e eb16 023e d37e b53b
00000100: 9bf6 f2bd 5482 a3be dd82 a5be 30b2 b1bd
00000110: 256a 2abe 24a7 6bbe 4917 f93d d0da 9e3d
00000120: 51d5 073e d2ce 9a3b 8836 67bd 442c afba
00000130: 3d50 33bd bdd0 c4be 350d 953e 46f4 a8bd
00000140: 1800 093e 0330 a63e 3ec0 523e 585e a8be
00000150: d481 793d 1589 6b3d 83f6 483e af11 a73c
00000160: 2822 2abd 72ea 30be 718f 87be b239 02ba
00000170: 5317 1fbe a565 b9be 9064 34be 8465 11bf
00000180: 7476 823c 240d ed3d 9137 0cbe 85f0 763b
00000190: 2cd1 c0be 9a18 733e 672d 7cbe 6e41 f1bc
000001a0: eadd 20be c697 933c e2b1 debe 90b6 313e
000001b0: 9489 acbd e8c4 eebe 5b25 0c3e bf72 0e3c
000001c0: ce71 6d3e 4650 3dbd 85ea 063e a2dc ddbb
000001d0: 5758 503d 8ff2 073f cdd6 40be 3822 2c3f
000001e0: ba85 16bd 2063 333d 5531 943e f7e0 d4bb
000001f0: 82c5 1abe d437 e2bd 0f01 dabe 02e1 67bc
00000200: 1b05 63be f298 ebbe 5d2c 4fbd cb6d 47bd
00000210: ad11 12be 848a 86bd b4e1 213d 122c 1ebc
00000220: 84b7 57be 055d a93c 9da1 fb3d 5186 49bd
00000230: e428 0f3f a781 71be 29f8 293e ee20 b5bc
00000240: 5d07 6fbd 48a3 c73d 496c b5bd fd0f 453c
00000250: 48e9 91bc c14d adbd 127b 53be 542e 013b
00000260: 4caa bfbc 8e06 133f c6bc d7bb b478 243f
00000270: 2cf7 1d3e e0b4 e63e abed c33c 9c15 49bc
00000280: 4225 823c 3edc a7bc 387c c23e c5b6 37bc
00000290: 1f80 c7bd 8db3 0bbf 1d02 a1bd 5370 523e
000002a0: 672d 0f3d d443 9d3e c28f 23be 2863 833c
000002b0: 137f ccbd ac4f 00bc a8e4 dcbe 014b c039
000002c0: b5ea 64bc 240d 38be 34c0 6a3d 70b1 d13e
000002d0: 95af e23d 81d5 2cbc 188a 8abe 581e c1bb
000002e0: e563 66be b07e e6bd b729 33bd 7b51 38be
000002f0: cfa9 8a3e d655 cbbd e100 8d3e b0b4 53be
00000300: 2e1d 2cbc 116b 18bf 8279 b3be 1c8c d23b
00000310: 36a3 083d 6298 19bc 0318 eebd 3e94 c33a
00000320: 8cbe e4bc 6f82 0e3f c906 28be 8383 b2bd
00000330: d1ff b83d 034c 43bd 8f2e 8a3e 3d17 693c
00000340: 73a7 203e 958b 353e 6469 01bf 1d9c a5ba
00000350: c2ca 633d 9ec0 0bbe 2523 e4bd e2f5 0e3f
00000360: c484 2e3d 553b 8abe 79ef 44be 5e4c 003c
00000370: 7b85 ac3c 8eb0 18be 97c5 b93e ffbc 2cbc
00000380: a837 9e3d 4769 103e 47d4 7b3e df4e 743e
00000390: 547e 273e 9e66 8d3e a135 37be 9975 a03c
000003a0: 01f5 25be 96bc 9cbe 3a6f afbe 0b20 03be
000003b0: e70f 54bc ed39 40be 58d5 58bd 3d0e 00be
000003c0: 8d4b b9bd 6dee 37be 2d72 3b3e 74ce 64bc
000003d0: acbb 633d e079 8fbe 2a61 7c3e 58a8 96ba
000003e0: 9b36 bb3e 9c09 8e3d ec7c ab3e 230d 32be
000003f0: fa23 d3bb 12f8 8fbc 0185 30be 5cf3 973c

_fc1.bias f4 [256]
-0.015842052 -0.21629412 -0.1287069 -0.12833348 -0.20219631 -0.015210443 -0.020583782 -0.07795229
0.08458877 -0.08701715 -0.13161102 -0.2537931 -0.20174901 0.12694 0.079970844 0.0077452995
-0.09312677 -0.20175155 -0.21682766 0.020920064 -0.21627939 -0.04099071 0.21348758 -0.31939518
0.16978067 -0.2645577 -0.11325709 -0.25546536 -0.12048241 0.06522014 -0.01638617 0.02697054
0.1904624 -0.22142579 0.09475609 -0.053404834 0.19774549 -0.04275125 -0.039617784 0.018933944
0.087678075 0.039775144 -0.14056814 -0.22956643 -0.09547549 -0.00065993227 0.0330498 0.054477293
0.08205389 -0.05339935 0.1712101 0.08888743 -0.27772728 0.09809214 -0.1236563 -0.19955479
0.1808896 0.12884696 -0.02322298 -0.07315772 -0.13821869 -0.31245175 0.09208509 0.10696063
-0.25239655 -0.063244864 -0.04297038 -0.09964321 -0.06906387 -0.2156477 -0.22341977 -0.11795796
-0.112380594 0.13955636 -0.21707211 -0.16220672 0.12711298 0.021688374 -0.18169664 0.116629206
-0.036490694 0.07004951 -0.12586069 0.038369693 -0.033752594 0.08575987 0.007351713 0.057734005
-0.2365668 -0.008123094 -0.012791466 -0.16785114 0.12831834 -0.2043884 -0.18409784 -0.30592325
-0.27708626 -0.22964494 -0.038688038 -0.018670633 0.17915978 0.015168182 0.05643098 0.05971456
-0.17978993 -0.2219479 -0.03140416 -0.12237607 -0.21150827 -0.019439057 -0.108602 0.006549066
-0.12092795 -0.37313125 -0.08659308 -0.13953319 0.08723073 0.27652326 0.071845576 0.08694057
0.08095307 0.04215422 -0.081191674 -0.14209753 0.011795537 -0.24420376 -0.25495914 0.08596322
-0.029569443 0.15245616 -0.29463774 -0.24428105 -0.23567225 0.009654021 0.0022493005 -0.17771628
-0.06710043 -0.041219465 -0.14477699 -0.120107666 -0.4403967 -0.3507382 0.042123456 -0.20628613
0.09516228 -0.104078345 0.12018415 -0.29404843 0.048047822 0.02541039 -0.18175302 0.22003078
-0.20164065 0.13801919 -0.06639502 0.06742019 -0.2538511 -0.12415901 0.012012854 -0.17580025
0.12060778 0.04176404 -0.15923743 -0.20099744 -0.13834754 -0.3100825 -0.24534558 -0.26706034
-0.1583016 -0.26010707 -0.0083866315 -0.025479438 0.0028730219 0.046979472 0.04303019 -0.079776675
-0.056665618 -0.0008233898 -0.19694541 -0.10545738 -0.06936974 -0.34682888 -0.24642566 -0.14342104
0.1151035 -0.11572662 -0.023544872 0.03909352 0.07345863 -0.0020142053 0.10165256 0.23404059
0.0005268296 -0.23092383 -0.006334312 -0.2397208 -0.32118282 -0.18386388 -0.21998121 0.013353968
0.10542182 -0.28496417 0.20721197 -0.1802272 0.08211902 0.03750775 0.13867031 0.24054101
-0.260635 0.062724836 -0.28649172 0.06052555 -0.30620897 -0.0495196 -9.793915e-05 -0.01742308
-0.12339506 -0.10429421 -0.12739748 -0.20632903 -0.24827826 -0.053372312 -0.2540868 -0.12722754
-0.09614308 -0.16142897 0.08550565 -0.25610873 -0.4165739 -0.049650807 -0.20590483 0.121639304
0.13139704 0.06264266 0.00067738374 0.12508377 -0.1884648 -0.07150216 -0.245903 -0.019448733
0.0287371 -0.04533724 -0.059964366 -0.29581127 -0.115159646 -0.31936488 -0.33425674 -0.19826709
0.13703945 -0.1716166 -0.099621035 -0.029494112 0.10580433 0.11064009 -0.29949054 0.13202941
00000000: 31c7 81bc 357c 5dbe becb 03be da69 03be
00000010: 8d0c 4fbe 3935 79bc 529f a8bc 73a5 9fbd
00000020: e13c ad3d 0c36 b2bd 0ac5 06be 2bf1 81be
00000030: 4b97 4ebe 8ffc 013e c1c7 a33d 48cc fd3b
00000040: 3fb9 bebd f597 4ebe 1208 5ebe 8e60 ab3c
00000050: 5878 5dbe e0e5 27bd 7d9c 5a3e c487 a3be
00000060: fcda 2d3e 1b74 87be 55f3 e7bd 5bcc 82be
00000070: 7bbf f6bd 2392 853d 4a3c 86bc 52f1 dc3c
00000080: 9308 433e 71bd 62be 7b0f c23d 07bf 5abd
00000090: cb7d 4a3e ef1b 2fbd 4246 22bd 5c1b 9b3c
000000a0: 9090 b33d 43eb 223d 18f1 0fbe 7613 6bbe
000000b0: a788 c3bd 4eff 2cba 3a5f 073d 9523 5f3d
000000c0: df0b a83d 47b9 5abd b351 2f3e 9d0a b63d
000000d0: 4532 8ebe 88e4 c83d 843f fdbd 1758 4cbe
000000e0: 203b 393e 75f0 033e 1e3e bebc b7d3 95bd
000000f0: 3389 0dbe adf9 9fbe 1c97 bc3d 2d0e db3d
00000100: 1f3a 81be 8686 81bd b601 30bd bd11 ccbd
00000110: 5c71 8dbd c0d2 5cbe 27c8 64be f193 f1bd
00000120: cc27 e6bd dde7 0e3e 2748 5ebe 8519 26be
00000130: e829 023e d1ab b13c af0e 3abe 4bdb ee3d
00000140: 4477 15bd 1e76 8f3d a0e1 00be 8a29 1d3d
00000150: 2940 0abd dfa2 af3d a3e6 f03b 7e7a 6c3d
00000160: 913e 72be ba16 05bc 4c93 51bc 2be1 2bbe
00000170: e265 033e 314b 51be 2584 3cbe f9a1 9cbe
00000180: 40de 8dbe 0b28 6bbe 5977 1ebd 28f3 98bc
00000190: a975 373e f783 783c 2c24 673d 4197 743d
000001a0: da1a 38be 4f46 63be a6a1 00bd 4ea0 fabd
000001b0: a095 58be a83e 9fbc ba6a debd 8c99 d63b
000001c0: 13a9 f7bd 0f0b bfbe b657 b1bd cae1 0ebe
000001d0: 06a6 b23d 7594 8d3e c623 933d e60d b23d
000001e0: b9ca a53d e7a9 2c3d d247 a6bd 0482 11be
000001f0: 1142 413c 8d10 7abe 018a 82be 7c0d b03d
00000200: 9e3b f2bc 781d 1c3e c2da 96be d024 7abe
00000210: 1154 71be e62b 1e3c 0069 133b 42fb 35be
00000220: f36b 89bd bed5 28bd 6b40 14be 02fb f5bd
00000230: ad7b e1be f593 b3be a589 2c3d ac3c 53be
00000240: 71e4 c23d 0727 d5bd 1c23 f63d 848d 96be
00000250: cbcd 443d 7329 d03c 771d 3abe c04f 613e
00000260: e37a 4ebe e754 0d3e 1dfa 87bd 9913 8a3d
00000270: c5f8 81be 1447 febd 90d1 443c fb04 34be
00000280: 3601 f73d c510 2b3d 230f 23be 46d2 4dbe
00000290: faaa 0dbe 22c3 9ebe df3b 7bbe 22bc 88be
000002a0: d119 22be c12c 85be 1568 09bc 41ba d0bc
000002b0: 4f49 3c3b 8c6d 403d 6d40 303d f461 a3bd
000002c0: 351a 68bd c1d8 57ba 0fac 49be 0afa d7bd
000002d0: b911 8ebd 8e93 b1be 0257 7cbe f7dc 12be
000002e0: 62bb eb3d 1402 edbd 2de1 c0bc 8720 203d
000002f0: 7a71 963d c200 04bb 382f d03d 56a8 6f3e
00000300: f01a 0a3a 4c77 6cbe 0f90 cfbb 5f79 75be
00000310: 1372 a4be d046 3cbe c142 61be 9aca 5a3c
00000320: 65e7 d73d d3e6 91be 602f 543e 7b8d 38be
00000330: 042e a83d baa1 193d 97ff 0d3e 6250 763e
00000340: f371 85be e175 803d 0baf 92be a4e9 773d
00000350: 6cc7 9cbe 10d5 4abd ae64 cdb8 d9ba 8ebc
00000360: 8db6 fcbd 3498 d5bd 7c74 02be eb47 53be
00000370: a83c 7ebe ed9c 5abd aa17 82be f047 02be
00000380: aae6 c4bd a34d 25be 961d af3d af20 83be
00000390: 2d49 d5be a55e 4bbd b7d8 52be 071e f93d
000003a0: f28c 063e cc4a 803d 7492 313a f615 003e
000003b0: ebfc 40be b96f 92bd ffcd 7bbe f352 9fbc
000003c0: 116a eb3c 8bb3 39bd 329d 75bd 9374 97be
000003d0: d2d8 ebbd cb83 a3be b323 abbe 8706 4bbe
000003e0: 1254 0c3e 43bc 2fbe 1d06 ccbd a39d f1bc
000003f0: f1af d83d 4697 e23d d356 99be b832 073e

_fc2.weight f4 [256, 256]
-0.034137323 -0.1878907 0.028012514 -0.101785645 -0.02007564 -0.19680956 0.08965682 0.1517653
0.2213463 -0.03062288 -0.31007132 0.050579738 -0.034595717 -0.010323883 -0.30789864 0.19481592
-0.07657738 0.07674161 0.087587886 -0.44769228 0.17081733 -0.05720324 -0.07168456 -0.11673287
-0.14252166 0.12513553 -0.08529499 -0.15981588 0.006529098 -0.36142135 0.09581426 0.24916816
-0.14892511 0.40086174 0.2728697 0.0049505746 -0.034918185 0.015377343 -0.1169388 0.023503847
0.15748502 0.45964935 -0.32461342 -0.023048056 -0.02704512 -0.13582069 -0.039374672 0.14674947
0.06830846 0.21406506 -0.2864705 -0.10636243 0.22475931 -0.03125221 0.14306495 -0.072379194
0.15758736 0.25209773 0.16770656 -0.106029674 -0.098819524 0.018634789 -0.13451889 0.0014557329
0.21178313 -0.009475216 0.12387975 0.023565097 -0.6903814 -0.04841061 0.10752335 -0.23677215
-0.10297087 -0.3313819 -0.8303404 -0.052411634 0.24213198 -0.21501532 0.14228998 -0.17102493
0.023426952 -0.09249652 0.1568793 0.15490855 -0.091979854 0.076003335 0.01695975 0.043864086
-1.0628324 -0.11645836 -0.15784843 0.16260198 0.04289388 -0.20804791 -0.5322652 -0.09115014
0.055876948 -0.05275325 -0.43911475 -0.06130362 0.16090737 0.023811046 -0.23737128 -0.2029248
0.09001592 0.056482743 -0.18677934 0.006987314 -0.13203268 0.6854246 -0.180819 -0.045581356
-0.23815294 -0.05748643 0.16101485 -0.056948937 -0.002144191 0.08598815 -0.028577715 0.040701393
0.033798847 0.05332225 0.008764975 -0.15397914 0.041310012 0.02242831 -0.03873157 -0.16077499
-0.06483694 0.009696678 -0.27110294 0.1316417 0.10765932 -0.34274054 -0.06018318 -0.036233146
-0.16786428 0.36023918 -0.2780209 -0.10999754 -0.20549016 -0.008999597 -0.36686426 0.18776508
0.15427694 0.13308036 0.11872533 -0.077586494 -0.09501533 0.10025057 -0.15531082 -0.049758416
0.07399832 0.1030086 -0.046060834 -0.07534157 0.11456539 0.19075727 0.030400295 0.0013323093
-0.0108810505 0.7134018 -0.15689084 0.182191 -0.17539498 0.04171116 -0.17843346 -0.43421188
0.061595928 -0.12748642 -0.014404564 -0.21213467 -0.05752765 0.0707862 0.09537391 -0.35171267
0.00710309 0.32432553 -0.67348003 0.117997564 -0.022320198 0.1504628 0.18527327 -0.073726304
0.17361602 -0.06826257 0.016253056 -0.13086328 0.009129651 -0.062646665 -0.13612111 -0.25110534
-0.055673152 -0.13805352 -0.25264457 -0.21977241 -0.22724514 -0.047706477 -0.016534334 -0.14983904
0.109568246 -0.5230148 0.2859889 -0.046719834 0.06848792 0.02143981 0.0156312 0.08024907
-0.14640142 -0.00811249 0.119238935 0.04183425 -0.10511469 0.36673173 0.053447958 -0.003914246
-0.15304397 0.25097504 0.075876266 -0.029302746 -0.02603791 0.063361384 -0.0276803 -0.11735977
-0.0694134 -2.416265 0.10959479 0.017209917 0.14964269 0.13213079 -0.09339815 -0.12250839
0.2735996 0.2632803 0.042750213 0.0070440746 0.023857042 0.36664873 -0.09176681 0.1830296
-0.2251719 0.09628482 -0.005179345 0.06895494 -0.12401563 0.09318423 0.15763131 -0.39011097
0.039897572 -0.2145006 0.13270454 0.055863895 0.124459505 0.122824326 0.27607644 0.07541156
00000000: 94d3 0bbd 6b66 40be 807a e53c fe74 d0bd
00000010: ab75 a4bc 7288 49be ff9d b73d 5d68 1b3e
00000020: 9ba8 623e d6dc fabc abc1 9ebe b32c 4f3d
00000030: 3db4 0dbd 8125 29bc e4a4 9dbe d37d 473e
00000040: 9ad4 9cbd b52a 9d3d 4761 b33d ec37 e5be
00000050: bdea 2e3e f24d 6abd 5bcf 92bd a511 efbd
00000060: 33f1 11be 8723 003e 24af aebd c6a6 23be
00000070: 0bf2 d53b 380c b9be 443a c43d f025 7f3e
00000080: d37f 18be c03d cd3e 94b5 8b3e 6e38 a23b
00000090: 5f06 0fbd 40f1 7b3c 9c7d efbd 248b c03c
000000a0: c143 213e 2957 eb3e bb33 a6be 47cf bcbc
000000b0: ba8d ddbc 9414 0bbe 5647 21bd 7e45 163e
000000c0: 4ee5 8b3d df33 5b3e 43ac 92be 8cd4 d9bd
000000d0: 4e27 663e 5102 00bd 9e7f 123e 8b3b 94bd
000000e0: 955e 213e f412 813e 45bb 2b3e 1626 d9bd
000000f0: e461 cabd fca7 983c 52bf 09be 4ace be3a
00000100: addd 583e f03d 1bbc abb4 fd3d 970b c13c
00000110: d6bc 30bf 344a 46bd 3435 dc3d 6674 72be
00000120: 64e2 d2bd e3aa a9be 3091 54bf 95ad 56bd
00000130: 72f1 773e fa2c 5cbe 77b4 113e 2921 2fbe
00000140: e1e9 bf3c d16e bdbd f8a4 203e 59a0 1e3e
00000150: ef5f bcbd a3a7 9b3d 2cef 8a3c d4aa 333d
00000160: e40a 88bf b881 eebd 05a3 21be 2281 263e
00000170: 7eb1 2f3d 830a 55be 8842 08bf edac babd
00000180: 3adf 643d cb13 58bd a6d3 e0be 8119 7bbd
00000190: e7c4 243e 620f c33c 7511 73be 85cb 4fbe
000001a0: 445a b83d 735a 673d 1543 3fbe d7f5 e43b
000001b0: 9333 07be fd77 2f3f 9e28 39be 84b3 3abd
000001c0: 5dde 73be e476 6bbd 14e1 243e 4a43 69bd
000001d0: 8e85 0cbb 8e1a b03d d01b eabc 81b6 263d
000001e0: a970 0a3d 6e68 5a3d f89a 0f3c b5ac 1dbe
000001f0: b034 293d 93bb b73c ffa4 1ebd 33a2 24be
00000200: 3bc9 84bd d1de 1e3c 01ce 8abe 15cd 063e
00000210: 7d7c dc3d b07b afbe a382 76bd 3569 14bd
00000220: 9de4 2bbe 4571 b83e c158 8ebe 6446 e1bd
00000230: 036c 52be 0c73 13bc a2d5 bbbe 7d45 403e
00000240: c6fa 1d3e 3846 083e 4426 f33d abe5 9ebd
00000250: 6697 c2bd 2c50 cd3d cd09 1fbe 7bcf 4bbd
00000260: 6e8c 973d 2cf6 d23d 49aa 3cbd ae4c 9abd
00000270: 42a1 ea3d e055 433e 0a0a f93c e2a0 ae3a
00000280: 6f46 32bc 80a1 363f fea7 20be 4790 3a3e
00000290: be9a 33be 52d9 2a3d 43b7 36be 0551 debe
000002a0: 034c 7c3d cd8b 02be 1f01 6cbc d539 59be
000002b0: 1da2 6bbd 5bf8 903d 6653 c33d af13 b4be
000002c0: 0ac1 e83b ff0d a63e 3069 2cbf b5a8 f13d
000002d0: d9d8 b6bc ec12 1a3e 47b8 3d3e d1fd 96bd
000002e0: 66c8 313e 3fcd 8bbd 2125 853c 0601 06be
000002f0: 8894 153c e54c 80bd 5563 0bbe e190 80be
00000300: 8809 64bd e75d 0dbe a15a 81be 050c 61be
00000310: f3b2 68be de67 43bd 0373 87bc 686f 19be
00000320: 5165 e03d 4ce4 05bf 236d 923e 4c5d 3fbd
00000330: 6543 8c3d 8aa2 af3c 010d 803c a059 a43d
00000340: 41ea 15be 40ea 04bc 8b33 f43d 645a 2b3d
00000350: 5f46 d7bd 43c4 bb3e 3fec 5a3d 1343 80bb
00000360: 8fb7 1cbe cd7f 803e 0465 9b3d 500c f0bc
00000370: 744d d5bc 9dc3 813d ccc1 e2bc 525a f0bd
00000380: 9d28 8ebd 16a4 1ac0 3c73 e03d d0fb 8c3c
00000390: ef3b 193e 4b4d 073e 8747 bfbd aee5 fabd
000003a0: 3f15 8c3e adcc 863e d91a 2f3d fbd1 e63b
000003b0: d86f c33c 62b9 bb3e 3df0 bbbd 1d6c 3b3e
000003c0: 7693 66be fa30 c53d 7fb7 a9bb 3f38 8d3d
000003d0: e8fb fdbd 60d7 be3d 1a6a 213e a0bc c7be
000003e0: a36b 233d 0ca6 5bbe b3e3 073e 8ad1 643d
000003f0: a0e4 fe3d 528b fb3d e459 8d3e 6071 9a3d

_fc2.bias f4 [256]
-0.011000965 -0.045392342 -0.013279348 -0.19735466 0.044784665 -0.07346136 -0.08498068 0.014339959
-0.10225611 -0.16757767 -0.057268374 0.088470094 0.018451443 -0.07096011 0.048764054 -0.055666696
-0.0982366 -0.057396013 -0.043749943 0.062333327 -0.05879743 -0.01810049 -0.015976992 -0.032753672
-0.007129665 0.029651014 -0.00029076004 -0.056891438 -0.036947306 0.095865615 0.026949331 -0.13711621
-0.11511633 -0.10246441 -0.03784922 0.037114475 -0.0057398225 -0.040727682 -0.12995122 -0.025169857
-0.092806205 -0.12824006 -0.07652517 -0.047500685 -0.050515246 -0.047658563 -0.047306076 -0.10983376
-0.047778826 -0.010230392 -0.1337908 -0.017031185 -0.008266148 0.077720545 0.10107891 -0.14018884
-0.044775467 -0.072410375 -0.0990583 -0.058167454 -0.021581326 0.002418683 0.019589122 -0.029136501
-0.090646975 -0.08407339 -0.05511535 -0.04321207 -0.010772504 -0.19295123 0.11110015 0.022440445
-0.023777893 -0.058495767 -0.072511695 -0.030356336 0.0009172477 -0.02154026 -0.061118703 -0.06776203
0.011576515 -0.018788962 -0.22048801 -0.041010752 -0.0026137102 -0.07311746 0.004324306 -0.019477261
0.016338898 0.036333986 -0.02870833 -0.12742648 -0.050014697 -0.065121025 -0.047246195 -0.061302703
0.045290064 0.007799739 0.09168353 -0.1929856 -0.055334724 -0.067031085 -0.12280088 -0.034789756
-0.03112377 0.00067643257 -0.02148074 -0.18452592 -0.004883478 0.045862246 0.0069882646 -0.067662604
-0.032356177 -0.049194895 -0.02188419 -0.022901142 -0.16541943 -0.10552283 -0.006539024 -0.0762733
-0.044144392 -0.0013781815 -0.009940734 -0.070345365 0.03974146 0.118481636 -0.04455475 0.03263169
-0.021840986 -0.02020472 -0.12732537 0.025698656 -0.015519503 -0.05173363 -0.024013063 0.02063107
-0.064519405 -0.08842135 -0.13020042 -0.0256163 -0.010815558 -0.13051113 -0.11196083 -0.051740646
0.061173916 -0.03152259 -0.015927747 -0.003133197 0.014502269 -0.049805105 0.022788135 -0.1630493
-0.07942921 -0.060720023 0.006800915 -0.20854244 -0.026872326 -0.14974579 -0.0022680815 -0.03587446
0.07091478 -0.0152287865 -0.055162326 0.011475424 -0.032887265 -0.18208191 -0.036243666 -0.12631224
0.10379406 -0.048241448 0.018632434 -0.10311608 -0.045484073 0.030105293 0.011209645 -0.005735429
-0.08422691 -0.09555485 -0.17080958 -0.088752374 0.026047774 0.015735505 -0.076122634 -0.11084986
-0.06247828 -0.05775228 -0.084421284 0.059516072 -0.080628686 -0.0018401645 0.0403406 0.0017704022
-0.04407622 -0.03619485 0.0970898 0.0034876755 -0.04445269 -0.12961571 -0.0006275949 0.035064686
-0.11627808 -0.05473321 -0.20277694 -0.067937754 -0.17314586 -0.067936786 0.06426067 -0.061747786
-0.034329165 -0.14467828 -0.018047132 -0.061587356 -0.038191225 -0.085057795 -0.03659637 -0.056175992
0.038579855 -0.2137571 0.02643678 -0.2176683 -0.06675672 -0.096157916 -0.051500887 -0.008302901
-0.04322583 0.013547703 -0.05652028 -0.08403054 -0.07875203 -0.047678612 0.025472565 -0.06211583
-0.11961109 0.015621013 -0.04368704 -0.0042753397 -0.03270889 -0.19247769 0.037758846 -0.12143534
-0.050180353 -0.04080962 -0.08028629 0.009676309 -0.06691121 -0.04417233 -0.012693058 -0.17305242
0.05663843 -0.06461603 -0.025683144 0.04919732 -0.045855295 -0.016387722 -0.068951435 0.04434693
00000000: 643d 34bc 52ed 39bd 9f91 59bc 5717 4abe
00000010: 2070 373d e972 96bd 5a0a aebd 26f2 6a3c
00000020: a76b d1bd 7b99 2bbe 3e92 6abd cf2f b53d
00000030: 7b27 973c 8953 91bd d1bc 473d c302 64bd
00000040: 4530 c9bd 1518 6bbd 2433 33bd 3b51 7f3d
00000050: 93d5 70bd 7b47 94bc 2ee2 82bc b728 06bd
00000060: f79f e9bb afe6 f23c 2771 98b9 ff06 69bd
00000070: 0f56 17bd 3155 c43d d8c4 dc3c 3168 0cbe
00000080: 1cc2 ebbd dcd8 d1bd c907 1bbd 5905 183d
00000090: 1f15 bcbb 12d2 26bd ef11 05be 0431 cebc
000000a0: 2e11 bebd 5d51 03be 3ab9 9cbd 1490 42bd
000000b0: 13e9 4ebd a035 43bd 04c4 41bd 86f0 e0bd
000000c0: bbb3 43bd 609d 27bc 7500 09be fc84 8bbc
000000d0: bd6e 07bc f32b 9f3d 7602 cf3d aa8d 0fbe
000000e0: 7b66 37bd e44b 94bd 14df cabd ff40 6ebd
000000f0: 52cb b0bc c482 1e3b 5e79 a03c acaf eebc
00000100: 1fa5 b9bd ab2e acbd a2c0 61bd 24ff 30bd
00000110: 287f 30bc 0295 45be 7a88 e33d 06d5 b73c
00000120: dbc9 c2bc 4299 6fbd 0381 94bd daad f8bc
00000130: 7373 703a 3375 b0bc 9b57 7abd d2c6 8abd
00000140: 6cab 3d3c 4feb 99bc 9cc7 61be e4fa 27bd
00000150: c84a 2bbb 9bbe 95bd e8b2 8d3b c78e 9fbc
00000160: 27d9 853c f2d2 143d bb2d ebbc 167c 02be
00000170: 36dc 4cbd 2c5e 85bd 3a85 41bd 8b18 7bbd
00000180: 1382 393d f494 ff3b 93c4 bb3d 049e 45be
00000190: aaa6 62bd 9847 89bd 077f fbbd b47f 0ebd
000001a0: 47f7 febc 9f52 313a 60f8 afbc 5df4 3cbe
000001b0: 9505 a0bb 0dda 3b3d d0fd e43b b192 8abd
000001c0: e987 04bd 9680 49bd 7946 b3bc 2d9b bbbc
000001d0: b663 29be 5a1c d8bd 4f45 d6bb 2d35 9cbd
000001e0: c0d0 34bd 19a4 b4ba 76de 22bc 3b11 90bd
000001f0: f1c7 223d 80a6 f23d 0b7f 36bd cfa8 053d
00000200: deeb b2bc 5e84 a5bc 9561 02be fd85 d23c
00000210: 8345 7ebc a5e6 53bd 0bb7 c4bc 7d02 a93c
00000220: c022 84bd 4116 b5bd 4253 05be 46d9 d1bc
00000230: bd33 31bc b6a4 05be b84b e5bd 00ee 53bd
00000240: 8091 7a3d d51d 01bd e87a 82bc 5356 4dbb
00000250: ed9a 6d3c 7000 4cbd 2fae ba3c 65f6 26be
00000260: c8ab a2bd 8fb5 78bd 36da de3b 268c 55be
00000270: 5a23 dcbc f656 19be 18a4 14bb 19f1 12bd
00000280: c53b 913d 2982 79bc e4f1 61bd 6b03 3c3c
00000290: ccb4 06bd ae73 3abe 3d74 14bd ff57 01be
000002a0: fb91 d43d d398 45bd 0ca3 983c 862e d3bd
000002b0: 824d 3abd 609f f63c a9a8 373c 44f0 bbbb
000002c0: 287f acbd 43b2 c3bd b5e8 2ebe cec3 b5bd
000002d0: 2462 d53c bfe7 803c 2fe6 9bbd 4005 e3bd
000002e0: 3ae9 7fbd a88d 6cbd 11e5 acbd 20c7 733d
000002f0: a720 a5bd ad31 f1ba 2f3c 253d d70c e83a
00000300: 4489 34bd 0d41 14bd 04d7 c63d 7c91 643b
00000310: 0614 36bd fbb9 04be 2e85 24ba fd9f 0f3d
00000320: 3423 eebd ee2f 60bd c2a4 4fbe f322 8bbd
00000330: 264d 31be 7122 8bbd 199b 833d 3feb 7cbd
00000340: bd9c 0cbd 8b26 14be 94d7 93bc 0643 7cbd
00000350: 676e 1cbd c832 aebd 13e6 15bd cc18 66bd
00000360: e905 1e3d 24e3 5abe f291 d83c 70e4 5ebe
00000370: bfb7 88bd 71ee c4bd 98f2 52bd e408 08bc
00000380: 910d 31bd 2ff7 5d3c cf81 67bd 3418 acbd
00000390: bf48 a1bd a64a 43bd d7ab d03c 2b6d 7ebd
000003a0: a9f6 f4bd 47ef 7f3c 2ff1 32bd 2618 8cbb
000003b0: c2f9 05bd df18 45be 05a9 1a3d 17b3 f8bd
000003c0: ea89 4dbd fd27 27bd 236d a4bd 6289 1e3c
000003d0: bf08 89bd 0cee 34bd 8bf6 4fbc a734 31be
000003e0: b3fd 673d 6955 84bd 7565 d2bc 2183 493d
000003f0: c3d2 3bbd 8b3f 86bc 6936 8dbd 20a5 353d

_value.weight f4 [1, 256]
0.011458249 -0.03115186 -0.034299918 0.2524789 -0.41040593 0.052786816 -0.085847884 -0.0062301704
-0.2553664 -0.14964733 -0.040999252 0.22603095 -0.08172007 -0.07205246 0.1297712 0.023614805
-0.604404 -0.34658834 0.29984754 -0.005578413 0.3797076 -0.0028984612 -0.0003736109 -0.046139553
0.23228578 0.91823256 -0.14142163 -0.06433162 -0.027709778 0.08309659 0.089601725 -0.24422371
0.62651765 0.15256113 -0.0903304 -0.1459484 -0.12387303 0.0039040477 -0.10686868 -0.04611477
-0.48334306 -0.12539689 -0.14939927 0.0054014493 0.018992495 0.17447072 0.15079911 -0.26921594
-0.003817647 0.032429073 0.12379477 -0.06461294 0.11701371 0.11455691 7.6024065e-05 0.09919171
-0.024805883 0.04071703 -0.018116146 0.27872172 0.3248582 -0.023810599 -0.023108803 0.08428619
-0.04288043 0.5319304 -0.015523498 -0.01043065 -0.036689155 -0.2752837 -0.015188878 -0.072896264
0.010798109 -0.112215064 -0.08780778 0.0023841185 0.06567982 0.05401191 -0.05179508 -0.36247313
-0.019215738 0.01797762 0.1409181 0.00349875 -0.037882797 -0.0701569 0.040010884 -0.045924105
-0.23219915 -0.03944896 0.10241271 0.018982358 0.21798973 0.21274255 -0.04220249 0.122817025
0.15469483 0.15243527 0.010283636 -0.047592342 0.1344517 -0.13798611 0.5746588 0.012076001
-0.060691144 0.021316888 -0.037244342 0.39229497 0.016066866 0.62974626 -0.0198003 -0.042174645
0.029497154 -0.038681574 -0.021477215 0.46890664 -0.43755454 0.23610282 0.025911601 -0.13591921
0.01028544 0.037894472 0.031541724 -0.31020615 0.048217773 0.08504335 -0.06546371 0.045359693
-0.016541505 0.14028344 -0.004004723 0.044622056 0.03851111 0.23609719 0.031628534 -0.0009880105
-0.24882336 -0.022938833 -0.32458797 0.57118505 -0.15095451 0.8501535 -0.4748901 -0.39710552
0.01658076 0.03515858 -0.046114627 -0.18772286 0.017741457 -0.035107996 0.014509564 0.30390447
-0.0051404275 -0.032108933 -0.0350215 -0.53418785 -0.72870314 0.01881719 0.112516396 0.16578695
0.01728093 -0.053939976 -0.01466526 -0.0031097576 -0.040851947 -0.14815444 0.060668625 0.24300608
-0.2645112 -0.44718552 -0.09804317 -0.24122985 0.012644684 0.078933574 0.4726241 0.11318884
0.6523499 -0.26178896 -0.08517583 0.13021262 -0.013655536 0.19798678 0.10516187 -0.077882364
-0.013390789 0.039871633 -0.06336971 0.49181896 0.01788262 0.2311172 0.07501004 -0.31866774
-0.8016597 0.028908664 -0.018983116 0.009464044 0.054675903 -0.6529514 -0.008660629 0.0017378868
0.14520311 0.022823147 0.7809752 0.9464279 0.25323907 -0.038709108 -0.19052981 0.017697958
-0.03193812 0.5490076 0.37489673 -0.09583844 0.0026436755 0.3697408 0.0075675077 -0.4018556
-0.3899611 -0.6989325 -0.03556567 0.5092834 0.03839351 0.18733104 0.65220094 0.53803015
0.020232359 0.10401468 0.0014558423 -0.106430635 0.0017268873 0.12127719 0.16517118 0.05134188
0.3301986 -0.49753225 0.025668953 0.0073171454 0.37406233 0.5266321 0.10091047 0.33996457
0.16474076 0.023166932 0.050608028 0.019500062 -0.0046805716 0.22101675 0.13636145 -0.72199637
-0.038798276 -0.008398468 0.04138906 -0.069170244 -0.018814828 -0.042677313 0.32926962 0.1728705
00000000: 61bb 3b3c 2f32 ffbc 127e 0cbd ea44 813e
00000010: ba20 d2be fd36 583d 04d1 afbd 7526 ccbb
00000020: 63bf 82be 263d 19be d5ee 27bd a874 673e
00000030: da5c a7bd 3d90 93bd bee2 043e d673 c13c
00000040: 38ba 1abf 0774 b1be 9e85 993e 1fcb b6bb
00000050: 0969 c23e 1cf4 3dbb 35e1 c3b9 d4fc 3cbd
00000060: 53dc 6d3e 4a11 6b3f d5d0 10be 4cc0 83bd
00000070: 9eff e2bc 8c2e aa3d 1c81 b73d c815 7abe
00000080: 7663 203f fc38 1c3e 25ff b8bd 7f73 15be
00000090: 25b1 fdbd 0ddb 7f3b f7dd dabd d7e2 3cbd
000000a0: be78 f7be 0b68 00be 1ffc 18be a4fe b03b
000000b0: 2696 9b3c 74a8 323e 156b 1a3e acd6 89be
000000c0: 7d31 7abb 59d4 043d 1d88 fd3d ca53 84bd
000000d0: e2a4 ef3d d09c ea3d 1c6f 9f38 0625 cb3d
000000e0: b535 cbbc e7c6 263d 5068 94bc 9db4 8e3e
000000f0: d053 a63e 720e c3bc ac4e bdbc 3d9e ac3d
00000100: 64a3 2fbd 972c 083f 4556 7ebc 51e5 2abc
00000110: 5e47 16bd fcf1 8cbe c6da 78bc a34a 95bd
00000120: 8dea 303c 03d1 e5bd 91d4 b3bd df3e 1c3b
00000130: 2483 863d 983b 5d3d 1427 54bd 1496 b9be
00000140: 536a 9dbc cd45 933c d64c 103e 494b 653b
00000150: fe2a 1bbd 6cae 8fbd 74e2 233d ea1a 3cbd
00000160: 9dc5 6dbe 3c95 21bd c1bd d13d e480 9b3c
00000170: b338 5f3e 2fd9 593e 85dc 2cbd 7e87 fb3d
00000180: 5268 1e3e fe17 1c3e b27c 283c 30f0 42bd
00000190: b5ad 093e 3b4c 0dbe d71c 133f 6bda 453c
000001a0: 4797 78bd c1a0 ae3c 868d 18bd e3da c83e
000001b0: a99e 833c 0d37 213f 3d34 a2bc 52bf 2cbd
000001c0: 04a4 f13c 9270 1ebd fcf0 afbc 8814 f03e
000001d0: 2607 e0be f0c4 713e 9144 d43c 682e 0bbe
000001e0: 4384 283c 3c37 1b3d e531 013d 57d3 9ebe
000001f0: 0080 453d 352b ae3d d611 86bd 16cb 393d
00000200: 0d82 87bc 76a6 0f3e 0d3a 83bb 9ec5 363d
00000210: d3bd 1d3d 76c3 713e ec8c 013d 2280 81ba
00000220: 8dcb 7ebe 38ea bbbc 6530 a6be 2f39 123f
00000230: d293 1abe a9a3 593f cc24 f3be 6a51 cbbe
00000240: 60d4 873c 7102 103d b1e2 3cbd 6c3a 40be
00000250: 8856 913c 67cd 0fbd 86b9 6d3c 5e99 9b3e
00000260: 0871 a8bb a884 03bd b472 0fbd 89c0 08bf
00000270: 4a8c 3abf 8226 9a3c ff6e e63d 0ec4 293e
00000280: bd90 8d3c 2af0 5cbd 8f46 70bc 13cd 4bbb
00000290: 5f54 27bd ccb5 17be aa7f 783d 96d6 783e
000002a0: 036e 87be 80f5 e4be dcca c8bd f504 77be
000002b0: a62b 4f3c eda7 a13d c9fb f13e 8dcf e73d
000002c0: 6700 273f 3409 86be aa70 aebd 7556 053e
000002d0: 78bb 5fbc 0cbd 4a3e 1b5f d73d ca80 9fbd
000002e0: 0a65 5bbc 7050 233d fbc7 81bd b2cf fb3e
000002f0: 937e 923c fda9 6c3e dd9e 993d 6b28 a3be
00000300: 9239 4dbf ddd1 ec3c 7b82 9bbc 140f 1b3c
00000310: d7f3 5f3d d327 27bf 50e5 0dbc cec9 e33a
00000320: 20b0 143e 9cf7 ba3c feed 473f 1949 723f
00000330: 8da8 813e 718d 1ebd 3f1a 43be 4ffb 903c
00000340: 8cd1 02bd c38b 0c3f 77f2 bf3e f246 c4bd
00000350: 8441 2d3b ab4e bd3e dbf8 f73b 04c0 cdbe
00000360: fba8 c7be 3eed 32bf 4fad 11bd 6660 023f
00000370: 8342 1d3d b5d3 3f3e a4f6 263f 58bc 093f
00000380: 55be a53c a605 d53d f6d1 be3a 4ef8 d9bd
00000390: b958 e23a 2d60 f83d a222 293e dd4b 523d
000003a0: ca0f a93e 8cbc febe b247 d23c aac4 ef3b
000003b0: 1985 bf3e 5cd1 063f 26aa ce3d d60f ae3e
000003c0: cdb1 283e 94c8 bd3c 5d4a 4f3d 98be 9f3c
000003d0: 7b5f 99bb 3752 623e 56a2 0b3e c1d4 38bf
000003e0: f1ea 1ebd ba99 09bc 9387 293d 21a9 8dbd
000003f0: 8e21 9abc 68ce 2ebd 0796 a83e f704 313e

_advantage.weight f4 [3, 256]
0.054269753 0.0021817621 -0.040259007 0.07019259 -0.044226013 0.05121454 -0.03583203 -0.07115344
-0.06624465 -0.11054023 -0.033884864 0.13647223 -0.012448574 0.012237917 0.06883689 0.0154546555
-0.34193447 -0.15055172 0.055497155 -0.05004099 0.09029805 0.038987957 -0.09369641 -0.059679307
0.047690846 0.67989063 -0.17396432 -0.06991235 -0.00072163827 0.07508296 0.018275814 -0.07162143
0.2954893 -0.0148456935 -0.19202994 -0.020346822 0.09896638 -0.005388733 -0.10392707 -0.0046151783
-0.21857534 -0.047115564 0.08195458 -0.025543105 0.035679564 0.01850898 0.027219484 -0.14277181
0.051440813 0.0010775934 0.0405007 0.02818185 0.12724444 0.06637279 0.044612445 0.083773814
0.035447232 0.016601821 -0.14078331 0.28587916 0.21871309 -0.045145586 0.0062777232 0.0072048143
-0.029651519 0.2950148 0.03939197 -0.011271294 -0.008723213 -0.13962978 -0.033630647 -0.045076847
0.054266855 0.07320365 -0.070757955 -0.059131842 0.2901485 -0.024125524 -0.037752472 -0.20733853
-0.036732253 0.027287625 0.13600649 0.027054148 0.04837105 -0.078064054 -0.039492782 -0.025842482
-0.21736813 0.041229572 0.0922439 0.012652856 0.092693895 0.06783899 -0.015953248 0.09384715
0.09557226 -0.45389828 0.022806767 -0.034830414 0.101931505 -0.10359476 0.29768386 0.018411394
0.062421255 0.0537405 0.011539856 0.17115223 0.020069709 -0.10643465 0.039706487 -0.027186684
-0.025155514 -0.019559907 -0.041646313 0.12476239 -0.28217092 0.18354951 0.015740788 -0.049505115
-0.05556281 0.028868238 -0.04612593 -0.1581732 0.055498816 0.088263415 -0.04574847 0.03428826
-0.123760276 0.034535702 -0.056059055 0.056559965 -0.054718446 0.28065518 0.018518051 -0.04356632
-0.10921147 -0.024855947 -0.15756848 0.36989665 -0.012539865 0.45058456 -0.16578126 -0.1202404
0.029524274 0.02825396 -0.028767204 0.12679946 -0.01043015 0.035629597 -0.01693033 0.1270484
-0.036989346 0.022290275 -0.013085989 -0.2252464 -0.32668304 0.036524214 0.100038186 0.10137334
0.019629963 -0.044596378 -0.034129184 -0.047365595 -0.024990229 -0.13851959 0.00066367065 0.08465422
-0.12782076 -0.24418402 -0.0483057 -0.07876455 0.027155057 0.087544024 0.25962415 0.035502385
0.6972254 -0.04249707 -0.10269149 0.037568815 -0.038255267 0.072728425 0.10590853 -0.03809516
-0.061331682 -0.024813611 -0.0032910362 0.31470504 0.017058635 0.0811098 0.018970434 -0.27496776
-0.61371857 0.022618294 -0.035321217 0.0060384097 0.010863538 -0.39047873 -0.012488329 0.008782766
0.030751366 -0.058910236 0.43835446 0.63456774 0.110512264 -0.014079854 -0.09661241 -0.048657745
0.04491421 0.38045558 0.14532363 -0.040945195 0.00020602539 0.2985314 0.016097372 -0.08055574
-0.18911636 -0.30006292 -0.04445619 0.34851733 0.05608648 0.13152087 0.60525566 0.043078225
0.0044364478 0.107655115 -0.0059716194 0.20288818 0.04925866 0.096597515 0.15072922 0.0613012
0.300119 -0.018576093 0.026791507 -0.049551 0.23412676 0.22548151 0.05657718 0.27807793
0.10919199 0.04780628 0.0073883254 0.04899668 -0.0031692921 -0.09144989 0.059804432 -0.39368072
-0.10698302 0.0051195184 0.0022719507 -0.0037375472 0.06337368 0.17134015 0.17798658 0.05960246
00000000: f649 5e3d e5fb 0e3b a1e6 24bd 22c1 8f3d
00000010: 5626 35bd 56c6 513d 9bc4 12bd e5b8 91bd
00000020: 46ab 87bd eb62 e2bd dbca 0abd 60bf 0b3e
00000030: 1bf5 4bbc 8b81 483c 5bfa 8c3d 8635 7d3c
00000040: 0912 afbe 3b2a 1abe fc50 633d c8f7 4cbd
00000050: 2fee b83d d6b1 1f3d e7e3 bfbd 4a72 74bd
00000060: 7a57 433d 500d 2e3f b423 32be 352e 8fbd
00000070: 532c 3dba 18c5 993d 29b7 953c 42ae 92bd
00000080: 604a 973e 5a3b 73bc 7fa3 44be 61ae a6bc
00000090: e3ae ca3d f893 b0bb b7d7 d4bd ec3a 97bb
000000a0: 37d2 5fbe 40fc 40bd ced7 a73d c63f d1bc
000000b0: bc24 123d 25a0 973c 65fb de3c c632 12be
000000c0: 9ab3 523d 093e 8d3a 10e4 253d a0dd e63c
000000d0: 5e4c 023e 75ee 873d 8abb 363d 9b91 ab3d
000000e0: 1e31 113d 8b00 883c 8029 10be c15e 923e
000000f0: 53f6 5f3e 94ea 38bd 5cb5 cd3b 5d16 ec3b
00000100: bee7 f2bc 2e0c 973e 7959 213d 3cab 38bc
00000110: cfeb 0ebc 1cfb 0ebe 4ac0 09bd 80a2 38bd
00000120: ec46 5e3d cceb 953d 8ce9 90bd 3b34 72bd
00000130: 588e 943e e4a2 c5bc 56a2 1abd 8d50 54be
00000140: 8f74 16bd 4c8a df3c 4945 0b3e a9a0 dd3c
00000150: b920 463d 0ce0 9fbd 2fc3 21bd 9db3 d3bc
00000160: c095 5ebe 57e0 283d 5fea bc3d ed4d 4f3c
00000170: 4cd6 bd3d 2bef 8a3d 63b0 82bc ef32 c03d
00000180: 64bb c33d 5b65 e8be 42d5 ba3c 56aa 0ebd
00000190: 77c1 d03d 7d29 d4bd 056a 983e 7ed3 963c
000001a0: 6ead 7f3d 001f 5c3d aa11 3d3c 8842 2f3e
000001b0: 3b69 a43c 69fa d9bd 45a3 223d 9cb6 debc
000001c0: f012 cebc 193c a0bc 5395 2abd 6d83 ff3d
000001d0: b578 90be 67f4 3b3e d3f2 803c e0c5 4abd
000001e0: d495 63bd 157d ec3c 8bee 3cbd 28f8 21be
000001f0: ba52 633d 73c3 b43d bf62 3bbd d971 0c3d
00000200: 0776 fdbd 4f75 0d3d 2e9e 65bd 6cab 673d
00000210: 7320 60bd 09b2 8f3e 2bb3 973c 9972 32bd
00000220: 43aa dfbd b39e cbbc a259 21be 1863 bd3e
00000230: 0274 4dbc 05b3 e63e 90c2 29be 9940 f6bd
00000240: e4dc f13c d974 e73c 33a9 ebbc b8d7 013e
00000250: 38e3 2abc 57f0 113d 7ab1 8abc fa18 023e
00000260: 2482 17bd 189a b63c 9e66 56bc fea6 66be
00000270: 0043 a7be 6a9a 153d d2e0 cc3d d39c cf3d
00000280: 04cf a03c b1aa 36bd 0bcb 0bbd 6d02 42bd
00000290: 4fb8 ccbc 14d8 0dbe 2ffa 2d3a 315f ad3d
000002a0: 72e3 02be 600b 7abe 33dc 45bd 4f4f a1bd
000002b0: 4874 de3c 484a b33d 75ed 843e f36a 113d
000002c0: 5d7d 323f 6811 2ebd ea4f d2bd c2e1 193d
000002d0: 8eb1 1cbd a4f2 943d 92e6 d83d ac09 1cbd
000002e0: ee36 7bbd ea45 cbbc 6dae 57bb 0521 a13e
000002f0: 8dbe 8b3c e51c a63d e267 9b3c 93c8 8cbe
00000300: a91c 1dbf 004a b93c fbac 10bd dadd c53b
00000310: fbfc 313c d4ec c7be d99b 4cbc 97e5 0f3c
00000320: 4aea fb3c dc4b 71bd ff6f e03e 0873 223f
00000330: 4154 e23d 30af 66bc badc c5bd 584d 47bd
00000340: f6f7 373d 13cb c23e b8cf 143e 26b6 27bd
00000350: 8508 5839 1cd9 983e a3de 833c 68fa a4bd
00000360: b8a7 41be d9a1 99be b217 36bd dd70 b23e
00000370: f0ba 653d 68ad 063e 09f2 1a3f cb72 303d
00000380: 9f5f 913b 497a dc3d 93ad c3bb ebc1 4f3e
00000390: 73c3 493d ebd4 c53d c358 1a3e f816 7b3d
000003a0: 33a9 993e e42c 98bc dd79 db3c fdf5 4abd
000003b0: edbe 6f3e a0e4 663e 79bd 673d 3b60 8e3e
000003c0: 0da0 df3d 85d0 433d c419 f23b beb0 483d
000003d0: e6b3 4fbb 144a bbbd 7ef5 743d 8590 c9be
000003e0: ea19 dbbd a2c1 a73b 02e5 143b a3f1 74bb
000003f0: 0fca 813d cb73 2f3e 1d42 363e b621 743d

_advantage.bias f4 [3]
-0.017698884 -0.016792914 -0.019739004
00000000: 40fd 90bc 4b91 89bc b1b3 a1bc

_out.weight f4 [3, 256]
0.056132384 -0.0054494143 0.04547625 -0.02217348 -0.035047404 0.023584284 -0.028476767 -0.0073352605
0.04024487 -0.036111005 0.052741133 -0.016430087 -0.036309503 -0.0033658743 -0.053170003 -0.020459555
-0.029516988 -0.057646126 0.03620419 -0.05558405 -0.038918644 -0.01864224 -0.025724187 0.009428173
-0.033608414 0.007617004 0.03110452 -0.046119854 0.00047823787 0.056624167 -0.040708356 -0.0598168
-0.043510705 -0.053706408 0.0442508 -0.03517452 0.026448354 -0.039106578 -0.017244838 0.008984536
-0.02693393 -0.05892788 -0.0046630725 -0.00023982674 -0.022858448 0.0510884 -0.057663023 0.027917333
0.062235586 0.026402913 0.054697707 -0.051319316 -0.03050594 -0.018859878 -0.049069323 -0.03322275
0.008416854 -0.03073264 -0.017518766 0.03818617 -0.017632134 -0.047215365 -0.03755445 0.030820541
0.02183032 -0.01193434 -0.04418941 0.0011851639 0.010526851 0.036955602 -0.014708862 0.02118367
-0.044079624 0.035936736 0.04491643 0.029044673 -0.056581907 -0.028351225 0.030095197 -0.00040011108
0.045524985 -0.006936133 -0.047865465 0.052782618 0.05739776 0.03534302 -0.05017496 -0.010208674
-0.044765875 -0.03164971 0.024974518 -0.018122531 -0.05511909 0.052459836 -0.05395264 -0.008502029
0.027112007 0.040070996 -0.05659338 0.041640088 0.007285349 0.02496244 -0.024406895 0.00483571
-0.04803797 0.0055152774 -0.041450515 0.024523728 -0.02478069 -0.00499478 0.021718241 0.042317986
0.012348019 -0.024843745 -0.016883954 -0.038958207 0.056171842 -0.0121276155 0.03935662 -0.025862724
-0.014266372 -0.040570967 0.02750723 0.053280406 0.023139663 -0.0014837086 0.036539145 0.015934184
-0.019477874 0.035397172 -0.052295424 -0.052154146 -0.028053798 -0.032659397 0.0010378063 0.0012354031
-0.022559173 0.0011201799 -0.056816198 0.015538551 0.0020355731 0.04560083 0.0032386258 -0.0050281286
0.02598305 -0.020504452 -0.05652014 0.052658163 0.0020061284 0.030565336 -0.05829101 -0.014312297
-0.037786633 -0.052758306 0.0124069005 0.05924517 0.008389823 0.012021832 -0.050318874 0.0065828934
0.060044132 -0.050773248 0.052244976 0.04732278 0.012881093 -0.040818177 0.05678641 0.0587752
0.021564268 -0.015271485 -0.0236217 0.037189394 0.00607349 0.059869267 -0.009030685 -0.05795919
-0.008840166 0.027729578 0.016319111 0.0015959218 0.026200116 0.005813092 0.050730594 0.023015387
-0.036996722 -0.018043734 0.009260304 -0.0066420734 -0.03128533 0.02599407 -0.04223352 0.06166313
0.01931598 -0.013725661 0.0026501045 -0.056101173 -0.061551653 -0.024598897 -0.027714036 -0.039688274
0.0475038 -0.05297938 -0.060704447 -0.029808007 -0.055802003 0.043293327 0.004705973 -0.0017819852
0.056853868 0.009861253 -0.026872866 -0.0019560158 0.040551655 0.046293065 -0.021939583 -0.032100447
0.042313866 -0.0034326166 -0.037687436 0.0255057 0.030516326 0.056210175 -0.0014985725 0.0059944466
0.0075013638 0.038984634 0.030908205 0.048197612 -0.024879351 -0.011979498 -0.01133807 0.048970133
-0.035024576 0.0056702197 0.02357854 -0.0145844 -0.015720762 -0.014504597 0.058877334 -0.01681856
0.05724959 0.04464244 0.0072862804 0.04997567 0.05952713 0.040424928 -0.024092965 0.035978943
0.043022744 0.026065625 0.053344294 0.019457646 -0.056910813 0.0079668835 -0.0064913183 -0.008661367
00000000: 12eb 653d 0091 b2bb 4e45 3a3d 28a5 b5bc
00000010: de8d 0fbd d433 c13c 1c48 e9bc a05c f0bb
00000020: ced7 243d 22e9 13bd 1607 583d 6498 86bc
00000030: 46b9 14bd 0096 5cbb cac8 59bd cc9a a7bc
00000040: 9ccd f1bc 581e 6cbd d84a 143d 1aac 63bd
00000050: 2869 1fbd 9cb7 98bc 88bb d2bc a078 1a3c
00000060: faa8 09bd 1098 f93b e8ce fe3c 2ce8 3cbd
00000070: 00bc fa39 beee 673d cebd 26bd 7602 75bd
00000080: 4838 32bd 40fb 5bbd 5440 353d 2813 10bd
00000090: 38aa d83c 382e 20bd 0c45 8dbc e033 133c
000000a0: 8ca4 dcbc 5c5e 71bd b0cc 98bb 007a 7bb9
000000b0: a441 bbbc 1242 513d 1030 6cbd e4b2 e43c
000000c0: beea 7e3d ec4a d83c b40a 603d 3434 52bd
000000d0: 98e7 f9bc 0880 9abc eafc 48bd 9414 08bd
000000e0: d8e6 093c 04c3 fbbc 8483 8fbc 1a69 1c3d
000000f0: 4471 90bc e664 41bd b2d2 19bd 5c7b fc3c
00000100: 80d5 b23c 4088 43bc f4ff 34bd 8057 9b3a
00000110: d078 2c3c c25e 173d 70fd 70bc 6089 ad3c
00000120: d68c 34bd 6632 133d 4afa 373d 18ef ed3c
00000130: 6ec2 67bd d440 e8bc 348a f63c 00c6 d1b9
00000140: 6878 3a3d 8048 e3bb 940e 44bd 9632 583d
00000150: ea19 6b3d d8c3 103d 4284 4dbd 4842 27bc
00000160: 6c5c 37bd 20a3 01bd 5c97 cc3c b475 94bc
00000170: 8ec4 61bd 20e0 563d 72fd 5cbd 184c 0bbc
00000180: 001a de3c 7c21 243d 76ce 67bd cc8e 2a3d
00000190: f0b9 ee3b 087e cc3c f8f0 c7bc e074 9e3b
000001a0: 76c3 44bd 80b9 b43b 04c8 29bd fce5 c83c
000001b0: e000 cbbc 40ab a3bb 74ea b13c a055 2d3d
000001c0: 584f 4a3c 1c85 cbbc 3850 8abc a492 1fbd
000001d0: 7214 663d e8b2 46bc 6834 213d 10de d3bc
000001e0: 80bd 69bc be2d 26bd d856 e13c 8e3c 5a3d
000001f0: 648f bd3c 0079 c2ba 12aa 153d 6888 823c
00000200: 1090 9fbc a0fc 103d ba33 56bd 969f 55bd
00000210: 14d1 e5bc dcc5 05bd 0007 883a 40ed a13a
00000220: 04ce b8bc 00d3 923a 1ab8 68bd 6895 7e3c
00000230: 4067 053b f0c7 3a3d 203f 543b 00c3 a4bb
00000240: 68da d43c f4f8 a7bc aa81 67bd 16b0 573d
00000250: 4079 033b 2864 fa3c 8ec2 6ebd 207e 6abc
00000260: 28c6 1abd 1819 58bd 5046 4b3c 10ab 723d
00000270: 7875 093c 38f7 443c 2a1b 4ebd 50b5 d73b
00000280: d6f0 753d 9cf7 4fbd d4fe 553d 88d5 413d
00000290: 380b 533c f630 27bd de98 683d 44be 703d
000002a0: 8ca7 b03c 4035 7abc 4c82 c1bc e853 183d
000002b0: 2004 c73b 7a39 753d 70f5 13bc 9e66 6dbd
000002c0: 58d6 10bc 2429 e33c a8af 853c 402e d13a
000002d0: a0a1 d63c c07b be3b e2ca 4f3d c48a bc3c
000002e0: e089 17bd 74d0 93bc 88b8 173c c0a5 d9bb
000002f0: 0c25 00bd 84f1 d43c 0efd 2cbd 7a92 7c3d
00000300: 8c3c 9e3c 98e1 60bc 60ad 2d3b 58ca 65bd
00000310: 961d 7cbd a083 c9bc 8c08 e3bc 2c90 22bd
00000320: 5893 423d e800 59bd 3aa5 78bd ec2f f4bc
00000330: a490 64bd 5854 313d 9034 9a3b 8091 e9ba
00000340: 9adf 683d 1891 213c 7c24 dcbc 8030 00bb
00000350: 7e19 263d cc9d 3d3d a4ba b3bc c27b 03bd
00000360: 4e51 2d3d c0f5 60bb 245e 1abd 54f1 d03c
00000370: 60fd f93c a43c 663d c06b c4ba 106d c43b
00000380: 00ce f53b 5aae 1f3d 3433 fd3c dc6a 453d
00000390: c8cf cbbc a845 44bc 50c3 39bc e894 483d
000003a0: ee75 0fbd 40cd b93b c827 c13c 68f3 6ebc
000003b0: d4c8 80bc b0a4 6dbc 5c29 713d 14c7 89bc
000003c0: 8c7e 6a3d feda 363d c0c1 ee3b 4ab3 4c3d
000003d0: b8d2 733d 9c94 253d 9c5e c5bc a85e 133d
000003e0: 9e38 303d 9487 d53c 8c7f 5a3d a465 9f3c
000003f0: 501b 69bd 8887 023c 20b5 d4bb 68e8 0dbc

_out.bias f4 [3]
-0.033498168 -0.05813217 0.001470238
00000000: 6035 09bd 001c 6ebd 00b5 c03a
