rl/models/self_play/pong_dueling_ddqn_sp.pth (torch, 287662 bytes, 9 tensors)

_fc1.weight f4 [256, 12]
000000 c0 cb e0 3c 21 2d 1c 3e fb 9d e3 3e f4 81 21 3b
       0.027440906 0.1525159 0.44456467 0.0024644108
000010 37 13 ab be 19 c3 8c 3e 6f 14 4e bd 8d 2d 22 3e
       -0.33413097 0.27492598 -0.050312456 0.15837689
000020 db 40 f0 3d 57 60 e7 be d4 cc e0 3d 7b 0f 63 be
       0.1173112 -0.4519069 0.10976568 -0.22173874
000030 cf 30 6b be 47 d5 11 be 98 e6 83 3d be 54 99 ba
       -0.22967838 -0.14241515 0.06440467 -0.0011698229
000040 39 29 85 be 61 23 38 bf d3 da 91 bd 79 a9 0d bb
       -0.26008013 -0.71928984 -0.071218155 -0.0021615906
000050 21 88 1b 3f 02 d4 dd 3e 25 9d bd 3e ea fb 8a 3d
       0.6075459 0.43325812 0.37033954 0.0678633
000060 58 c2 86 bc 6a fd 9d 3e 99 8e 9c 3e 36 a5 b2 3c
       -0.016450092 0.30857402 0.30577543 0.021807294
000070 b4 c2 83 be 0d 5e c9 bd a7 89 30 3d 63 34 73 3e
       -0.25734484 -0.09832392 0.043100026 0.23750453
000080 93 bd a4 ba c0 ad 7e be dc 10 52 3e 78 29 19 bd
       -0.0012568705 -0.24870968 0.20514244 -0.037393063
000090 0f f5 9b 3d 7a 8e 29 3e ee af 16 be 38 43 75 ba
       0.076151006 0.16558257 -0.1471555 -0.00093560247
0000a0 df 7e 83 be b0 1f de bd 0e a1 25 3e b3 f5 b0 bb
       -0.25682732 -0.10845888 0.16174719 -0.0054003834
0000b0 ff 1c 77 3e b8 11 9d 3e 30 be c4 3d 16 3d 67 3e
       0.24132155 0.3067758 0.09606588 0.22581896
0000c0 55 bb 26 3e 19 8d 32 3e 7e 48 3a 3e 77 c3 36 3c
       0.16282399 0.17436637 0.18191716 0.011155001
0000d0 f7 70 34 3e 47 32 43 3c 92 33 00 3f f2 86 57 3c
       0.17621218 0.0119138425 0.5007869 0.013154732
0000e0 e7 95 9a bc e6 b7 7e be 8c d2 44 3d 6c 1f 80 bf
       -0.018870307 -0.24874839 0.048052356 -1.0009589
0000f0 23 77 11 bd a1 c0 55 be b1 c7 1e 3f 15 3e 41 bc
       -0.03551401 -0.20874263 0.62023455 -0.011794587
000100 d6 0f 9a bc f3 bc 1e bf 41 83 61 3f 60 52 24 bc
       -0.01880638 -0.62007064 0.880909 -0.010029405
000110 42 09 38 3e 8d f9 cd 3e d8 c4 b9 3e da 53 eb bc
       0.17972282 0.40229455 0.36282992 -0.028726507
000120 0c a7 30 3e 5b 37 4c 3e 22 ac 7e 3e b5 e9 89 3b
       0.17251223 0.19942991 0.24870351 0.0042087683
000130 c6 e5 0e be 4a 7e a1 bd d7 5a bc 3e 40 25 64 bb
       -0.13954839 -0.07885416 0.36788055 -0.0034812242
000140 b7 4b 7a 3e 7f ba 52 3e 96 9e 1d 3d 86 5b c4 3e
       0.24442945 0.20578955 0.038481317 0.38351077
000150 de f6 6e 3e f5 48 37 3e 30 6e e2 3d b5 9b 7b 3b
       0.2333636 0.17898925 0.11056173 0.003839237
000160 5f d2 ff 3c ed 1b 0f be 0f 0f 12 bf 70 1a c9 bc
       0.031228242 -0.13975497 -0.5705423 -0.02454874
000170 dc 67 2f bd 85 5a a2 be fc 30 43 3e cc 6e aa 3e
       -0.042823657 -0.31709686 0.19061655 0.33287656
000180 03 15 89 bd fa 3c 78 be 7b 12 19 bd 1b 78 ad 3b
       -0.06693461 -0.2424201 -0.03737114 0.0052938587
000190 89 24 45 3d 60 f2 b7 bc 5b db c9 be 05 18 c2 3b
       0.048130546 -0.02245444 -0.39425167 0.0059232735
0001a0 b4 9b bd be c7 17 8d 3e 43 e1 dc be 96 58 43 bd
       -0.37032855 0.27557203 -0.4314061 -0.047691904
0001b0 16 c9 86 bc 63 31 82 3e 3c c1 3a 3f 66 73 21 3a
       -0.016453307 0.25428304 0.729511 0.00061588583
0001c0 4c 79 d5 3c 2d 1f 13 be e9 ea 02 3e fb bd db bb
       0.026058815 -0.14367361 0.12784924 -0.006705997
0001d0 17 cf 90 be f6 6f ed bd 2b 31 9c be 89 1e 9b bf
       -0.28282997 -0.115936205 -0.30506262 -1.2118694
0001e0 d4 fe 6a 3e 6d 9a cd bd f2 ab 4b bd 26 d9 8f 3b
       0.22948772 -0.1003922 -0.049724527 0.0043899
0001f0 75 ab 5e 3d cc b6 c3 bc ca 78 0e bf 33 e4 cb b9
       0.054362733 -0.023890875 -0.5565306 -0.000388892
000200 90 50 c7 bd bf ab 06 be 00 e5 04 bf f1 cd 98 bf
       -0.09732163 -0.13151453 -0.51911926 -1.1937848
000210 44 38 11 be b8 b4 b2 bd 79 51 a1 bc 70 72 75 3c
       -0.1418162 -0.087258756 -0.01969217 0.014980897
000220 8e 9e 77 bd 93 aa ad bd 07 99 d2 3d f1 d9 f2 3c
       -0.060453944 -0.084798 0.10283094 0.029644938
000230 4f d4 4f be 0f 71 de 3d d6 8a be be 77 90 5a 3e
       -0.20295833 0.10861408 -0.37215298 0.21344171
000240 77 64 bd bc 77 32 e5 3d 3e 8a 5e be e5 5c 90 3b
       -0.023119194 0.11191266 -0.21732423 0.004405605
000250 24 b3 ca bd ee 11 99 3e ff 8e 47 3d fa 18 1b 3d
       -0.098974496 0.29896492 0.048720356 0.037865616
000260 48 96 85 be 8e 7f 59 be e2 e6 98 be 87 05 2a be
       -0.26091218 -0.21240065 -0.2986365 -0.16603671
000270 7a 56 2e 3e d4 47 94 3e 27 af 3d 3e 27 bb 81 3c
       0.17025176 0.2896105 0.18523847 0.015836312
000280 88 c3 8b be b5 62 2e be 71 86 04 3e 1a 02 66 3b
       -0.27297616 -0.17029841 0.1294191 0.0035096467
000290 fc 37 c2 3e 6b 6a e0 3e 5b 72 7f bd ea c0 3f 3f
       0.37933338 0.4383119 -0.062364917 0.7490374
0002a0 b6 1c 77 3e fb 59 da be 24 d9 a4 bd ea 9a f2 bb
       0.24132046 -0.42646775 -0.08049229 -0.007403721
0002b0 e2 50 d3 bd 79 db 6a 3e 21 55 b2 bd 4d fe 04 be
       -0.103181615 0.22935285 -0.08707643 -0.12987633
0002c0 ae 00 ad 3d b6 48 31 3c 76 36 b1 3e 3d 34 08 3f
       0.08447395 0.010820558 0.34611863 0.5320471
0002d0 3c 01 dc 3d 7b 2f be be 1d 58 5b 3e a3 7d 22 bc
       0.10742423 -0.371456 0.21420331 -0.009917649
0002e0 58 07 db bd 19 21 de 3d 86 ff 81 be 62 48 be 3b
       -0.1069476 0.108461566 -0.2539026 0.0058069685
0002f0 7d d9 ea be b3 74 7a 3e 86 12 8c be 72 56 63 3f
       -0.45869055 0.2445858 -0.27357882 0.8880378
000300 34 0a fd bd c2 1b 68 3d aa 6b 1e be 57 d9 7e bb
       -0.12355462 0.056667097 -0.15470758 -0.003888687
000310 d2 dc 29 be 56 cf 91 be 19 fa 4f be a3 49 d9 3b
       -0.16588143 -0.28478497 -0.20310248 0.0066310926
000320 c2 d9 58 3b 80 ee 98 3e 3a 45 88 3e 2f b6 64 3f
       0.0033088778 0.2986946 0.26615316 0.8934049
000330 c6 e5 72 3e 1f 01 45 3e 6d a5 8a be 64 7d 50 bc
       0.23720464 0.19238709 -0.27079335 -0.012725208
000340 a3 ca 86 be 2e 51 64 3e 23 2d a1 3d ab f0 a8 bc
       -0.26326475 0.22296593 0.07869937 -0.020622572
000350 4f 87 29 bc 0a 82 2e bf 7a 47 45 be e0 3c 6c be
       -0.0103472015 -0.68167174 -0.19265547 -0.23070097
000360 14 83 14 3e b7 68 6e 3d ad 1a b1 3e 22 9b 5e bc
       0.14503127 0.058205333 0.34590665 -0.013586791
000370 08 12 1b 3e c5 5d 16 3f 3c 21 8f be ca 81 58 3d
       0.15143597 0.5873683 -0.27955043 0.05285815
000380 f9 92 a7 3e b5 1d 16 bf b7 68 ab 3e cb 6c 30 bc
       0.3272932 -0.5863908 0.3347833 -0.010768126
000390 02 40 11 3e bd 3a 95 3d 53 fc 09 40 f4 fa 18 3d
       0.14184573 0.07286594 2.1560256 0.037348703
0003a0 a4 53 9e 3d 04 9c 99 bd cd 53 52 be dd 28 27 bd
       0.07730797 -0.07500461 -0.2053978 -0.040810455
0003b0 8f 3f 23 3d f9 c1 21 be a0 d3 69 3e a7 3d d1 be
       0.039855536 -0.15796651 0.22834635 -0.4086735
0003c0 e0 f0 0d 38 9a 3e c1 bd 86 0f 45 3e e4 c3 dc 3c
       3.3841352e-05 -0.094357684 0.19244203 0.026948877
0003d0 b2 90 1d 3e 41 74 f3 3c 04 3e 7a 3c c6 4c 78 ba
       0.15387228 0.02971852 0.015273575 -0.00094718894
0003e0 14 51 6d 3e b4 aa 58 be 2e e5 d5 3d b6 37 9d be
       0.2317546 -0.21158868 0.10444103 -0.30706567
0003f0 2c 56 a8 3d 15 dc d6 be a2 cf 64 be fb 3b 0d 3c
       0.08219561 -0.41964784 -0.2234483 0.0086202575

_fc1.bias f4 [256]
000000 49 cc 0c 3e e0 7c a6 be eb 0b 9b bd 6c 30 4f 3e
       0.13749804 -0.32517147 -0.075706325 0.20233315
000010 a7 17 25 be ef b7 e5 bd 32 e6 13 3e 08 dc 80 bd
       -0.16122304 -0.11216723 0.14443281 -0.06291968
000020 d3 13 d1 bc bd 63 ab be 03 46 26 3e 54 bb 15 be
       -0.025522148 -0.33474532 0.16237645 -0.14622241
000030 77 a2 11 be fe 28 1c bd 4f 5e 8f bd 27 a8 61 be
       -0.14222132 -0.03812503 -0.0700041 -0.22036801
000040 68 4b 09 3e 7d 43 80 3e 87 bc d2 bd 16 d1 a9 bd
       0.13407671 0.2505149 -0.10289865 -0.08291833
000050 45 f1 75 be 26 5d 9a 3d 7c 2a 54 3e 1d 4d eb bc
       -0.24017818 0.07537298 0.20719332 -0.028723294
000060 c7 4c 1b 3c 8f d3 91 3c ec a1 80 be 8e 10 51 3a
       0.009478754 0.017801074 -0.25123537 0.0007975184
000070 07 b9 12 be d3 5f 88 be 81 68 d3 3d 43 6c a0 3d
       -0.14328395 -0.26635608 0.10322667 0.07833149
000080 9a f8 57 be 48 75 82 bd 37 35 02 bd 5c 57 a2 be
       -0.21090928 -0.06370026 -0.03178903 -0.31707275
000090 df 7c 89 be 05 c1 89 be fd 1e a0 be 63 2d 6a 3c
       -0.26853082 -0.26905075 -0.31273642 0.014293048
0000a0 1c e8 98 bc 27 44 09 3e 3f 6e 51 be 05 3d e1 bd
       -0.018665366 0.13404904 -0.20452212 -0.10997967
0000b0 85 99 b5 3d ca fc cd be 65 1a 6d be 22 63 69 be
       0.08867172 -0.40231925 -0.231546 -0.22791722
0000c0 b8 86 86 be ee cb ea 3c 36 87 7e be 4b 79 4c bd
       -0.26274657 0.028661694 -0.24856266 -0.04992036
0000d0 d8 08 6b 3d e0 5f 44 be e1 8e b9 bd ed 45 07 bd
       0.05738148 -0.19177198 -0.09060455 -0.03302567
0000e0 c3 20 a9 3d b0 f7 64 be 96 24 c3 3d 25 4a 0f be
       0.08258202 -0.2236011 0.095284626 -0.13993128
0000f0 3a 51 03 bd 72 6a b3 3c 26 82 80 be 42 ce 45 bd
       -0.032059886 0.021901343 -0.25099295 -0.048292406
000100 ab 6d 39 be 4f 21 11 3c a2 d2 96 bd 5d b8 7b be
       -0.18108241 0.008858039 -0.07364394 -0.24582048
000110 20 62 49 be a9 fc 72 3e 40 7c 4e bd 41 54 d6 3d
       -0.19666338 0.23729195 -0.050411463 0.10465289
000120 f9 4d 66 be a4 42 2e be 11 b8 a7 3d 31 d2 9a bd
       -0.22490682 -0.17017609 0.08189405 -0.07559622
000130 7c 7e 67 be c5 48 59 3d 3f 9f c1 be 90 a3 53 bd
       -0.22606844 0.053047914 -0.37816808 -0.051669657
000140 f2 57 65 3d 0e 17 66 bd 9b 2a 67 be 30 46 4e 3d
       0.055992074 -0.05617433 -0.22574846 0.050359905
000150 03 78 43 3e 07 ee 51 be 92 3e 9d be 8c 0e 7d bc
       0.1908875 -0.20500956 -0.307118 -0.015445363
000160 26 8e 18 3d c3 e0 8a be 55 9a 86 3e 6d fd b0 bb
       0.03724494 -0.27124605 0.2628962 -0.0054013045
000170 38 72 8f be ab 15 19 be ed f8 76 bd a0 33 57 3d
       -0.2801683 -0.14949672 -0.060295988 0.052539468
000180 be 18 2c 3e 77 83 3b 3e eb 5e 5f be 58 fc 22 be
       0.16806313 0.18311869 -0.21813552 -0.15916574
000190 a4 20 3f be 05 33 4b be ac 4a 69 3d 0c 92 56 3e
       -0.18664795 -0.19843681 0.05695598 0.2095415
0001a0 2c bc 94 be 9a 1b 3d be cc 14 e3 bd 62 44 df 3d
       -0.29049814 -0.1846756 -0.11087951 0.10901715
0001b0 0c f0 97 bd 97 5f 87 3e ef 82 30 be a8 6d d7 bb
       -0.07418832 0.26440117 -0.17237447 -0.0065743513
0001c0 7a 94 5a 3d 60 25 de bd 33 59 52 be a6 41 16 bc
       0.053364255 -0.108469725 -0.2054184 -0.009170925
0001d0 3a 2e a7 be 30 ef 8d 3d 2f 0b 05 be f6 c6 ed bd
       -0.32652456 0.06930387 -0.12992547 -0.116102144
0001e0 bf 7e 30 be 19 39 08 bd 76 47 29 3e 92 d8 8e be
       -0.1723585 -0.033257578 0.16531166 -0.27899605
0001f0 69 08 6d 3e 2f 59 53 3e fb bb 87 be fe 94 12 be
       0.2314774 0.2063949 -0.26510605 -0.14314649
000200 75 e1 9f bd 87 c1 fe 3c e6 6f 46 be bb c5 d4 bd
       -0.078066744 0.03109814 -0.19378623 -0.103892766
000210 7e e1 0e bd 73 69 cb 3d 14 93 3c be 2b 0c eb 3c
       -0.034883015 0.09932222 -0.18415481 0.028692326
000220 af 56 1d 3e fd a1 7b 3d 08 d2 4f 3e c8 44 83 3d
       0.15365098 0.06143378 0.20294964 0.06409603
000230 c0 9a aa 3d d5 b4 b7 bd ce 43 45 be e9 43 3f 3c
       0.083302975 -0.08970038 -0.19264147 0.011673906
000240 0c 46 ce 3d 62 de 30 bc 22 3c a1 bd b1 23 f3 bd
       0.10071954 -0.010795208 -0.078727975 -0.11872042
000250 b4 26 d1 bd f0 97 a1 3b 56 45 3e 3e ca c3 de bc
       -0.1021246 0.0049314424 0.18581137 -0.027192969
000260 25 af f4 bd 86 b7 4b be 86 80 36 be a7 ee 46 be
       -0.11947469 -0.19894227 -0.17822465 -0.19426976
000270 1d a6 ca bc a3 eb 65 3d a2 2a b3 bd a8 49 3b be
       -0.024737412 0.056132924 -0.08748366 -0.18289816
000280 c6 2c aa 3d a0 8a 43 bc c7 14 38 3d b6 d1 e3 bd
       0.08309321 -0.011934906 0.04494169 -0.111239836
000290 a6 47 42 3e 7b 49 17 be c0 75 97 3d 33 46 99 be
       0.18972644 -0.14774124 0.07395506 -0.2993637
0002a0 a5 bb d5 bc 1e 29 a4 3d 83 c3 a9 be 03 1d 6a be
       -0.026090452 0.08015655 -0.33156976 -0.2286263
0002b0 12 62 a6 bd d2 5d a3 be 48 c4 87 be c8 bd ab bc
       -0.08124174 -0.31907517 -0.26516938 -0.020964518
0002c0 f1 34 cb bc 22 14 37 be db f5 05 be ba 58 c2 bd
       -0.024805518 -0.17878774 -0.13082068 -0.094895795
0002d0 d9 18 7f be 08 e9 9b bd 74 0e a5 be 93 2f cd bd
       -0.24911822 -0.076128066 -0.3223759 -0.1001884
0002e0 90 7a 6b 3d 14 47 22 bd 56 05 53 be ca 1a 63 be
       0.05748993 -0.039618567 -0.20607504 -0.22178188
0002f0 3c 1b 23 3e 41 1d b0 bd 78 1e 4e bc 0a f4 0a 3e
       0.15928358 -0.0859933 -0.0125805065 0.13569656
000300 11 4a 5e 3e 46 11 99 be 3a 6f 69 3d 5d be 8d 3d
       0.21707942 -0.2989599 0.05699084 0.069210745
000310 25 1a 6c bd 17 52 6a be 0c 50 d4 be f9 4b 03 bc
       -0.05764212 -0.22882877 -0.4146732 -0.008013719
000320 b4 54 5c 3e 62 15 4d 3e cc b1 1b be 1a 26 33 be
       0.21516687 0.20027688 -0.15204543 -0.17495003
000330 9f ef c3 bd 8a 73 16 be ae fb 01 3e d3 09 f8 bd
       -0.095671885 -0.14692512 0.12693664 -0.12111249
000340 f8 0a 5f be ba f5 03 bc a4 ed 64 bd 3c 34 d4 bd
       -0.21781528 -0.008054191 -0.055890694 -0.103615254
000350 43 a4 e6 3d f0 62 5c be 1e d0 b9 3d 49 ea 22 bd
       0.11261799 -0.21522117 0.09072898 -0.039774213
000360 f6 35 b1 3d da d2 09 be 5d 77 7b bd 2f cc 0a be
       0.0865287 -0.1345934 -0.06139313 -0.13554452
000370 4c fe 50 bd 01 51 b5 bc 59 2d 07 3e e0 41 20 be
       -0.051023766 -0.022133352 0.13200893 -0.1565013
000380 d7 71 52 3d 5c af 5e be bc 66 75 bd ee 15 4b 3d
       0.051378097 -0.21746582 -0.05991243 0.04958146
000390 79 86 c6 bc 40 a6 0a 3e ed 50 02 be c7 75 a6 be
       -0.024234043 0.13539982 -0.12726183 -0.32511732
0003a0 54 9c 56 bd 49 5a 50 be 24 ae 52 bc d6 c3 44 be
       -0.05239518 -0.20346941 -0.012858901 -0.1921533
0003b0 4b a6 23 3e cc 49 a9 bd 72 cc aa be 18 ab 9a be
       0.15981404 -0.08266029 -0.33359104 -0.3020866
0003c0 03 a0 62 be 63 cb 0c be 77 1f 34 3e 5a a1 97 be
       -0.22131352 -0.13749461 0.17590128 -0.2961529
0003d0 d1 b6 85 bc 05 6b 84 bc 99 48 b0 3d d4 fb 55 bd
       -0.016322525 -0.016164312 0.08607597 -0.052242115
0003e0 6f 25 91 be f8 3f 83 be 10 75 27 be b2 d6 e5 bd
       -0.28348872 -0.25634742 -0.1635325 -0.112225905
0003f0 c2 fd 8c be b3 77 2e 3d 63 0f 9c 3b 0b e0 d0 bd
       -0.27537352 0.042594623 0.0047625764 -0.10198983

_fc2.weight f4 [256, 256]
000000 55 94 1a 3d 09 9b 88 bd e3 2c a3 bc eb 61 37 3d
       0.037739117 -0.066701956 -0.019918865 0.044771116
000010 c7 93 93 bc 70 f7 63 3d 8b 7b 06 3d 38 dc ec bd
       -0.018014802 0.055655897 0.032832664 -0.11565441
000020 86 d1 18 bd f7 0a e1 bd fe e1 e0 bd df 6b e7 3b
       -0.037309192 -0.109884195 -0.109806046 0.00706242
000030 32 f6 e3 3b 8c 08 36 bd 33 3e 83 bb bf 85 82 3d
       0.006956839 -0.044441745 -0.0040052175 0.06373166
000040 47 a8 9a bc 12 4a 68 3d 73 27 cd 3d 3c a6 45 3d
       -0.018879069 0.056711264 0.1001729 0.048254237
000050 a5 ff 50 bc 68 c5 fc 3c 54 46 61 be 98 54 f4 bc
       -0.012756263 0.03085585 -0.21999484 -0.029825494
000060 2f ae 03 3d 1f bc a1 bd bb 1f b9 bd 5e bc d9 3c
       0.032148536 -0.078972094 -0.09039255 0.026579078
000070 a2 69 4f 3b cc 1b b8 3c 9c 63 8e bd 91 2b f5 bc
       0.0031648655 0.022474192 -0.06952593 -0.029928
000080 ef 36 21 3d 90 d2 0b 3d dc 5f a2 38 e5 e4 7b bd
       0.03935903 0.034136355 7.742617e-05 -0.061497588
000090 a3 4b d1 bc 85 0b 8c bd 20 db 0d 3d cc 46 c1 bc
       -0.025548762 -0.06838135 0.034632802 -0.023593329
0000a0 ff cc d4 bd 98 80 30 bc 10 c4 63 3b 6b 6a 1a bd
       -0.103906624 -0.010772847 0.0034754314 -0.037699144
0000b0 07 89 43 bc 73 ff 12 3d dc 9c a6 3b 6b 88 12 bd
       -0.011934525 0.035888147 0.005084617 -0.03577463
0000c0 10 ac 29 bb 2e ed 4d bd c7 7f 2f bd 1c 49 db bd
       -0.002588991 -0.05027502 -0.042846467 -0.10707304
0000d0 73 96 ea bc 0c a9 84 3c 7a b7 78 bd 72 37 b6 bc
       -0.028636193 0.01619389 -0.060721852 -0.022243235
0000e0 64 43 93 bd 94 48 71 bd f3 cb 02 3d 1f f5 83 bd
       -0.07190588 -0.058907107 0.031932782 -0.064432375
0000f0 c5 ef a2 bd 5b 2f 6a bc ed 06 5e bc 9e f3 32 3d
       -0.07955889 -0.014293517 -0.013551456 0.043689363
000100 dc f0 08 bb a2 44 b8 bc 67 e5 18 3b 82 d4 87 be
       -0.0020895516 -0.022493664 0.0023330094 -0.26529318
000110 bf 56 92 bd a0 37 5a 3d 14 38 84 3d a5 6b 21 3d
       -0.07145452 0.053275704 0.064560086 0.0394093
000120 e1 8e cc bc aa fc c5 3c 18 14 ec 3b c8 34 5a 3d
       -0.024970474 0.024168331 0.007204544 0.053272992
000130 91 8f 9c 3c cc 54 31 bd 1c ec 0e bd e4 b7 19 3d
       0.019111427 -0.04329376 -0.03489314 0.037528887
000140 cf 69 60 bc 29 82 3b bd 23 29 a3 bd 47 26 e0 bd
       -0.013697102 -0.045778427 -0.079668306 -0.10944801
000150 18 57 54 3b 81 6f 95 bd 0f 5e a7 3c 6a d0 28 bd
       0.0032400545 -0.07296658 0.020430593 -0.041214384
000160 ef 80 82 bb e3 2a 98 bc fa 8b d3 3c c2 ec c2 bd
       -0.0039826552 -0.018575137 0.025823582 -0.09517814
000170 6c d0 a6 bd 37 86 fc 3c 2b c0 81 3c ff 31 96 3d
       -0.08145222 0.030825717 0.015838703 0.07333755
000180 b6 21 e2 bd 92 03 b7 bc 46 76 91 bd 9e 9f 54 3d
       -0.11041586 -0.02234057 -0.07102637 0.051910035
000190 29 e3 c6 bc 35 2f 39 bd 54 f5 2c bd 67 15 02 3b
       -0.02427824 -0.045211036 -0.04222615 0.0019849183
0001a0 1d 7c d9 3c a5 ff b5 bd 8a 78 0e bc 23 f4 ae bd
       0.02654844 -0.08886651 -0.008695731 -0.08542659
0001b0 ba 10 87 be ca 3d a6 bd 71 cb 29 bc 86 74 e1 bd
       -0.2637995 -0.08117254 -0.010363446 -0.11008553
0001c0 a6 50 03 3d 77 a7 8d 3c 95 d3 dc bc 16 c9 89 bb
       0.032059334 0.017291768 -0.026956359 -0.0042048795
0001d0 bf 06 67 bd ee e6 97 3c 03 bd e6 bc e2 2e 6d 3d
       -0.056402918 0.018542733 -0.0281663 0.05790604
0001e0 48 7c 11 bd 65 69 81 bd 1d d2 25 bd 2e 82 0e 3d
       -0.035518914 -0.063189305 -0.040483583 0.034792118
0001f0 2c 5a 2c bd e0 7b 8d bd a2 e8 e8 3c c1 15 c7 bd
       -0.042078182 -0.06908393 0.02843124 -0.09720946
000200 f7 95 3e be ed 9c 64 3b 53 a3 31 3c f5 22 2b be
       -0.18611895 0.0034883574 0.010842162 -0.16712554
000210 a7 24 3e 3d c0 47 f6 b9 4c 24 62 3d 08 cf 45 3d
       0.046421673 -0.00046974234 0.055210397 0.048293144
000220 83 f2 84 bd bd ef d1 3c 4d ee b0 3d 4e 00 46 3d
       -0.06491568 0.025627011 0.08639202 0.048340134
000230 5f d4 18 bd ed 00 42 3b 53 d2 b2 bd 79 16 3e bc
       -0.037311908 0.0029602603 -0.087315224 -0.011602038
000240 61 52 b6 3a e2 96 b9 bc d0 03 6e 3c 92 46 2b 3c
       0.0013910049 -0.022654954 0.014527276 0.010453837
000250 5a 20 5f bc 12 31 9a bd d5 8e ea 3c f5 5b 43 3c
       -0.013618553 -0.07528891 0.02863256 0.01192378
000260 47 1b 22 bd c5 69 fb b9 f7 c0 86 3d 54 4e 1d bc
       -0.039576795 -0.00047953255 0.06579774 -0.009601194
000270 0b e2 26 3b b6 b6 52 3d 0b a8 00 3d 0a 22 e7 bb
       0.0025464322 0.051443778 0.03141026 -0.0070536183
000280 f2 17 ff bc 85 39 81 bd e3 29 7d bd 16 4d a0 bd
       -0.031139348 -0.06309799 -0.061807524 -0.07827203
000290 c9 a1 62 3d 5b 1a 1b bb 87 37 76 3c ec d2 ac bd
       0.05533007 -0.0023666832 0.015027887 -0.08438668
0002a0 62 7b 98 bd 45 9a 81 bd 1e ef 4a 3b 8d 59 eb bc
       -0.074454084 -0.06328253 0.003096528 -0.028729225
0002b0 5d 86 f2 bc 8f b2 6d bd 00 9b b6 bc ca 54 8e 3c
       -0.029605085 -0.058031615 -0.022290707 0.017374415
0002c0 2f 30 d9 3c d7 f4 c2 bc cb 9c 04 be 46 de 3e bc
       0.026512234 -0.02379839 -0.12950437 -0.011649674
0002d0 a8 1d 21 bd 1a 84 e8 bd 3a 75 db bd 3b ae d5 bc
       -0.039334923 -0.113533214 -0.107157186 -0.026084056
0002e0 d0 8b 9d bc a5 43 8a 3d 54 d2 7f bc 54 5f a0 3d
       -0.019231707 0.067511834 -0.015614111 0.078306824
0002f0 53 79 78 bd a8 cd 3c 3d ba 94 17 be c6 9f a0 bd
       -0.06066258 0.046094567 -0.14802828 -0.07842974
000300 a5 5b 9a bd 24 5d 36 3d a2 f7 2d 3d ce 2c 9f bd
       -0.07537011 0.04452242 0.04247249 -0.07772218
000310 ea 5d d9 3d ed 7f fd 3c 23 59 3e 3c bd e3 be bc
       0.10613616 0.030944789 0.011617932 -0.023301953
000320 cc 36 e2 3c 93 eb 87 bd 18 94 6d bc 83 2b c1 3c
       0.02761402 -0.06636729 -0.01450064 0.023580318
000330 81 c4 25 3d df 8f 50 bc 5c a0 62 bd b4 9e c2 bc
       0.040470604 -0.012729614 -0.055328712 -0.023757316
000340 18 da e5 bd ce 5e 72 bd cd 3b 8a bc c1 d9 15 3d
       -0.11223239 -0.059172444 -0.016874218 0.03658462
000350 68 75 f2 bd ac 3e 07 bd b9 47 6e 3d 5d df 9c b9
       -0.118388 -0.033018753 0.05817387 -0.00029921057
000360 15 03 02 bd d9 43 04 3e 8e 8c 62 3d 08 30 a6 bd
       -0.03174122 0.12916507 0.055309825 -0.0811463
000370 d8 58 2b bd a8 d2 33 3d 07 88 bf bd 2a e5 1d be
       -0.041832775 0.04390207 -0.09352117 -0.1541945
000380 a2 d1 11 be bd 74 9e 3d 32 f7 c6 b8 79 49 1a 3d
       -0.14240125 0.0773711 -9.4874194e-05 0.037667725
000390 09 9f a5 bb 82 b0 89 bc fe c3 2e 3e 51 f1 d8 bd
       -0.005054359 -0.016807798 0.17066953 -0.105929025
0003a0 4d 26 03 3d 64 47 eb bc 9c 17 aa bd 74 f1 96 3c
       0.03201895 -0.028720565 -0.083052844 0.01842568
0003b0 fe a5 48 bd 6e e0 14 3c d7 1c 9e 3c 9e ec 00 bd
       -0.048986427 0.009086711 0.019300861 -0.031475656
0003c0 16 be 34 bd 87 5c 46 3c b2 29 60 bd cf 4d 72 3c
       -0.044126593 0.012107021 -0.054727264 0.014789059
0003d0 1f 0b e8 3c 7d be 5a bd 7f e2 fc 3c 21 46 b0 bd
       0.028325615 -0.05340432 0.03086972 -0.08607126
0003e0 72 e7 18 bd 00 08 c6 3b e3 e9 1b be 09 6d f9 3c
       -0.0373301 0.006043434 -0.1522594 0.0304475
0003f0 51 a6 d2 3c 7c fe 82 bc 3e 87 03 bc c5 89 8d 3b
       0.025714071 -0.015990488 -0.00802785 0.004319402

_fc2.bias f4 [256]
000000 e9 cb 77 bd 4c 94 5f bd 5c e6 06 bc 96 e9 4a 3c
       -0.0604972 -0.054584786 -0.008233633 0.012384793
000010 b9 b0 49 3e a1 9b 33 3c d9 44 40 bd f0 47 f0 3d
       0.1969632 0.010962398 -0.04694066 0.11732471
000020 e7 d6 9b bd 6e 79 9d bd 07 c0 74 3c d9 2d 0c bd
       -0.07609349 -0.076891765 0.014938361 -0.03422341
000030 76 e1 fb bd 8d ed b1 bc bc 4e 98 bd f0 8b 66 bb
       -0.12298863 -0.021719718 -0.074368924 -0.0035178624
000040 3d 45 b7 bd f0 75 1a 3b 5e 2a 00 bd cf ad f9 bb
       -0.08948753 0.0023568831 -0.031290404 -0.0076195966
000050 f0 c6 24 bc 92 ea ed bd 63 19 1b be ac 64 05 bd
       -0.010057196 -0.11617006 -0.15146403 -0.03256671
000060 97 82 09 bb 0c a9 0d bd 26 21 4b bd 91 22 4f bd
       -0.0020982379 -0.034585044 -0.04959216 -0.050570074
000070 54 e6 9d bd 3d 7b 14 bd 37 df 2e bd fa 73 02 bc
       -0.07709947 -0.03625034 -0.042693343 -0.007962221
000080 a5 11 fe 3c 46 2a a9 bc e8 7a 15 bd 14 cc 69 be
       0.031014273 -0.02065004 -0.036494166 -0.22831756
000090 96 d0 be 3b 69 73 bf bd 2a e5 da bc 77 69 1a be
       0.005823205 -0.093481846 -0.026720602 -0.15079294
0000a0 30 82 5a bc 5c 4c 12 bc a6 fe 00 3d 50 1e 7b 3c
       -0.013336703 -0.008929338 0.03149285 0.015327051
0000b0 61 fc 59 3c 43 ef 18 be 9f 8b 1c be b5 58 7c bc
       0.013304801 -0.14935021 -0.15287636 -0.015402009
0000c0 61 2c 8b 3c cd c4 08 3e 3d 74 8f 3d 5d e9 0b be
       0.016988935 0.13356324 0.070045926 -0.1366324
0000d0 c4 21 65 bc 44 87 b2 3d c2 5b af bd 1b 45 cc bc
       -0.013985101 0.08717206 -0.08562423 -0.024935296
0000e0 46 65 ac bc 63 8a 81 bd af 63 51 be 48 c3 16 bb
       -0.021044385 -0.06325223 -0.20448183 -0.002300458
0000f0 4e 38 e8 bc 37 13 49 be a1 37 a6 3c 19 28 f7 bd
       -0.02834716 -0.19636236 0.020290198 -0.12068195
000100 7c 2a 3a be a9 70 8f 3b ff 63 94 bd 3f be 56 bd
       -0.18180269 0.004377444 -0.07245635 -0.052427527
000110 62 8f 22 bd ba 18 b7 3d 04 9a c2 bd 5d 5d 44 bc
       -0.03968752 0.08940263 -0.095020324 -0.01198515
000120 dd e1 86 bc 03 59 df 3c 90 ce c6 3b cf 25 44 3d
       -0.016465122 0.027264124 0.0060671046 0.04788762
000130 51 b1 c0 bd cf 38 cf 3b e4 13 14 3c 5c 58 c2 3b
       -0.094088204 0.006323911 0.009037945 0.0059309434
000140 82 f9 15 3d 8e 74 15 be 9d 02 51 3d 04 2f f5 bd
       0.036614902 -0.14595243 0.051027883 -0.11971858
000150 05 4c c8 bd fd 6d 95 bd 3e e7 1c bd 4f 0e 4d 3d
       -0.097801246 -0.07296369 -0.038306467 0.050062474
000160 25 39 79 bd f9 e0 70 bd 71 77 b1 bd 66 32 5e bd
       -0.060845513 -0.0588083 -0.0866536 -0.054247282
000170 9f c2 7b bd 92 80 85 3c b2 18 19 3c 51 0d 09 bd
       -0.061464902 0.016296659 0.009344267 -0.033459965
000180 23 aa af bd 98 99 73 be d8 8c 62 bd f0 c3 94 bd
       -0.08577373 -0.2378906 -0.0553101 -0.072639346
000190 48 95 bf 3d 8c b5 7e bd f2 3b c6 bc ad 61 a7 bd
       0.09354645 -0.062184855 -0.024198506 -0.08172927
0001a0 5f 15 3b bd c2 dc 97 bd eb e3 be 3d 30 a0 ea bd
       -0.045674678 -0.07415153 0.09320816 -0.114563346
0001b0 c7 48 82 bd 9e 39 ad bd 67 5b 15 be 45 8c 5b bc
       -0.063615374 -0.08458255 -0.14585648 -0.013400142
0001c0 45 fa 30 bd 9c f7 6e bd 34 7f ac bd ab 99 ec bd
       -0.043207426 -0.058341607 -0.084226996 -0.11552747
0001d0 dd 8c 9d bd cd 6b cb bd e0 94 47 3d 0c 83 09 bd
       -0.07692883 -0.09932671 0.048725963 -0.03357224
0001e0 db cd f7 bc 78 5e ab bc eb bc 79 bd e3 9d 65 bd
       -0.030249527 -0.02091907 -0.06097118 -0.056058776
0001f0 44 26 07 bc 1a a2 e2 bd 63 92 27 bc 8c 15 9f bd
       -0.008248869 -0.11066075 -0.010227772 -0.077677816
000200 91 94 b4 3c 85 f8 92 bd 18 ee 89 bd 27 ef 2d be
       0.022043498 -0.071763076 -0.06734866 -0.1698576
000210 73 be 3a be 3c 99 70 3b 6f 71 09 bc e6 6f 02 3d
       -0.18236713 0.0036712429 -0.008388861 0.031844996
000220 0d 91 81 bd 68 17 66 3c 97 9d da bc 97 fa 06 be
       -0.06326494 0.014043666 -0.026686473 -0.1318153
000230 3f 1c fe 3c ea d3 de bd 4f a4 94 bd fd 2c 0f bd
       0.031019328 -0.10880263 -0.07257902 -0.034955014
000240 66 6c 88 bd 31 5f 5e 3b 0b 8e b2 bc 4c 98 16 3e
       -0.066613 0.003393125 -0.021796247 0.14706534
000250 71 44 37 bd 70 b9 69 bb 4b 50 3f bd 79 41 60 bd
       -0.044743005 -0.0035663508 -0.046707433 -0.05474994
000260 bf 93 53 bd 6c ac 2e be 49 bd 06 3d e3 35 37 3c
       -0.051654574 -0.17057961 0.03289536 0.011182281
000270 57 10 09 bd 6f d1 58 bd 66 b8 1a 3c cb 21 8f bd
       -0.03346285 -0.052934106 0.009443378 -0.06988867
000280 98 9f ef bb 72 26 66 bd 1b 41 8f bc a6 79 65 3d
       -0.007312726 -0.056189008 -0.0174871 0.056024216
000290 02 66 87 3d cd 05 a3 3d c8 be cf 3d 7e 55 92 bd
       0.06611253 0.07960091 0.101438105 -0.071452126
0002a0 6e f8 be bc 96 93 20 bd a7 1c 26 3b af 58 ed bd
       -0.02331182 -0.03920325 0.0025346668 -0.11589181
0002b0 cd 88 09 bd 78 62 a2 3c 29 ae e2 3d 08 8a b4 bc
       -0.03357773 0.019822344 0.11068375 -0.022038475
0002c0 22 37 53 bd ea 70 bd 3d ac 68 26 be 08 aa 57 be
       -0.05156625 0.09250052 -0.16250867 -0.21060956
0002d0 d1 7c 8c bd 29 89 15 bd 07 e6 21 bc d1 e8 68 3c
       -0.06859744 -0.03650776 -0.009881503 0.014215664
0002e0 f1 8b 6b bd 04 82 43 3c 7d 26 97 bd 39 99 11 bd
       -0.057506505 0.011932854 -0.07380388 -0.035546515
0002f0 e8 56 e7 bd 43 04 b0 bd b1 b7 66 bd a5 8e 31 3d
       -0.11295873 -0.08594563 -0.056327526 0.043348927
000300 fc 0b 3e bd 9a 2e 5d 3d 54 c2 ce bd 6d b6 8c bc
       -0.046398148 0.05399952 -0.10095659 -0.017176831
000310 63 49 d6 bd e8 96 ab bd 27 60 8a 3d 99 87 aa 3c
       -0.10463216 -0.083783925 0.06756621 0.020816611
000320 52 6a aa bd a6 e7 29 ba 45 2e 87 bd cb 19 12 3d
       -0.0832106 -0.00064813567 -0.06600622 0.03566913
000330 6a d7 b3 39 17 18 05 be a8 ae 05 3c a1 90 48 bd
       0.00034302037 -0.12997471 0.008159317 -0.048966054
000340 c1 c6 35 be 2d 0d a3 bd 05 32 ed bc d6 28 0d bd
       -0.177516 -0.079614975 -0.028954515 -0.034462772
000350 f1 0c 00 3d 3c a9 7c bd 34 da fa bd d6 84 6e bc
       0.031262342 -0.061684832 -0.1224865 -0.014558038
000360 a0 99 84 bd b4 3f 2a bd 66 31 d9 bd c3 b7 41 bd
       -0.06474614 -0.04156466 -0.10605125 -0.04729439
000370 39 11 45 bd aa 71 57 bd 76 15 9a bd 8b 7c 16 be
       -0.048112128 -0.052598633 -0.075236246 -0.14695947
000380 d1 3a 14 be a0 45 f6 3c 8b 4e 30 bc 67 9f 63 bd
       -0.14475562 0.030062497 -0.010760914 -0.05557194
000390 97 2f f0 3d 69 77 0f be f0 46 5f 3b 81 b3 d9 bd
       0.11727827 -0.14010395 0.0034069382 -0.10629941
0003a0 1f a2 16 be 70 b2 18 bc 40 6a 88 bd 40 fd 21 be
       -0.14710282 -0.009319887 -0.066608906 -0.15819263
0003b0 5c 9f eb 3c f4 65 f5 3b e2 2c 56 bb 07 69 a8 3d
       0.028762512 0.0074889604 -0.003268056 0.082231574
0003c0 6f a1 b2 bd 54 58 31 bd 00 31 bb bd c4 39 ee bd
       -0.08722197 -0.043297127 -0.091402054 -0.11632112
0003d0 3e 41 b2 3c 8b 15 97 bd 61 0a d2 bd ca 9e 8d bd
       0.021759626 -0.07377156 -0.10255886 -0.06915052
0003e0 1f bf 60 bd bd 08 e9 bd cc 3e 56 be 68 a9 45 bd
       -0.054869767 -0.1137862 -0.20922393 -0.04825726
0003f0 f6 ef 7f 3b a2 e2 4c bd 79 ff 3f be 06 27 b7 bd
       0.003905294 -0.05002082 -0.18749799 -0.0894299

_value.weight f4 [1, 256]
000000 46 ef b3 3c 51 b4 f6 3c a7 e7 33 bd 91 80 2c 3d
       0.02196468 0.030115278 -0.043922093 0.042114798
000010 c5 66 70 bd bc 5b 01 3c be c6 02 3f cb 93 41 be
       -0.05869176 0.007895406 0.51084507 -0.18904035
000020 20 97 27 bd 97 2f d4 bd 3c d1 ab 3e 14 cd c3 bd
       -0.04091561 -0.103606395 0.3355807 -0.095606
000030 25 e6 90 bb 21 a5 98 bd 01 03 d2 3e 00 5c 76 3c
       -0.0044219666 -0.07453371 0.41017917 0.015036583
000040 00 67 94 bd 34 e4 0f 3f fa 42 6d be 4c e5 c7 3d
       -0.07246208 0.56207585 -0.23170081 0.09760532
000050 d2 f3 6f 3f eb e8 93 bd 3f 4f 20 be 1f 44 eb bc
       0.93731415 -0.0722216 -0.1565523 -0.028719006
000060 0a 64 89 be 41 ef 84 3e 95 cf fb 3e 05 9e 0a be
       -0.26834136 0.25963786 0.4918181 -0.13536842
000070 8d b7 5b bd c7 34 88 bd 21 b1 00 3c 7b 9c e2 3c
       -0.053641845 -0.066506915 0.007854731 0.027662506
000080 75 65 54 3c 84 fb 5d 3d c9 69 98 3e 92 91 ff 3e
       0.012963642 0.054194942 0.29768208 0.4991575
000090 b5 ac 96 bd 9d ec 26 be 41 7a e1 ba 1d 54 bb 3e
       -0.0735716 -0.16301198 -0.0017202572 0.3658761
0000a0 53 43 6e be 55 42 3b 3f 55 02 08 bf e9 ea 2e be
       -0.2326787 0.7314809 -0.5312856 -0.17081799
0000b0 27 e9 73 be 1b 5c be 3c 3c f9 bc 3d 95 4b c9 be
       -0.2381941 0.023237279 0.09227225 -0.39315477
0000c0 2c e8 1b 3c 56 42 46 bd ce cc 24 3d 9d 15 c0 bc
       0.009515803 -0.048403107 0.04023438 -0.023447806
0000d0 ff 7a e1 be db 58 7f 3d 33 94 1c 3f ae bd 38 3f
       -0.4403915 0.0623406 0.61163634 0.7216443
0000e0 fd df 09 be 26 34 5a bc f6 7f a6 3e e3 01 0f be
       -0.13464351 -0.013318097 0.325195 -0.13965563
0000f0 7a 8f 04 3d 8d 5a 22 be 11 c6 90 3d 7e d9 a3 3e
       0.032363392 -0.15854855 0.07069028 0.3200187
000100 33 52 13 3f 0e e6 b6 3c d0 e4 a3 bc 3f 5f 3d 3e
       0.575473 0.022326495 -0.020006567 0.18493365
000110 b7 e8 32 3e a3 f3 91 3e 61 3d 4a bd 78 f5 92 be
       0.17471586 0.28506193 -0.04937494 -0.28702903
000120 89 37 d5 be 98 4c a1 3d 8e 33 dc bd b7 c0 d6 3c
       -0.41643932 0.07875937 -0.10752021 0.02621494
000130 c1 20 a0 bd aa ea ac bc bf 98 be bb 74 b1 a7 bb
       -0.07818747 -0.02110799 -0.0058165486 -0.0051175896
000140 62 2e 19 bf c8 be 70 3e bf 4d dd bc 1b b3 44 bd
       -0.598364 0.23510277 -0.027014611 -0.04802237
000150 82 e7 fd 3c 33 2e bf 3d 6e 1e 20 bd 8d 43 4d 3f
       0.03099418 0.09334984 -0.03909152 0.801812
000160 4a bc 81 3d d2 c3 18 3d 89 a4 13 bf e6 e0 ef bc
       0.063347414 0.037296124 -0.57672936 -0.029282045
000170 bd b5 8f 3e df 59 a8 3e e6 b4 22 3d a5 e4 45 bd
       0.28068343 0.32881066 0.0397233 -0.048313756
000180 9f 4d 24 bd a7 b7 ba 3e 23 91 21 bd 74 fb f0 be
       -0.040113088 0.3646824 -0.039445054 -0.47066844
000190 2a f6 91 3d d0 43 14 3e 9d 3a de 3d 0e 64 ac 3c
       0.0712703 0.14478993 0.10851023 0.021043804
0001a0 4b 0f 36 3d 4b 23 54 be 05 90 7d bd af 84 d6 3d
       0.04444818 -0.20716588 -0.061904926 0.10474526
0001b0 cc a6 24 bc 14 02 09 3f 4f 44 ed bd 41 5d d1 3e
       -0.010049533 0.53518796 -0.115852945 0.4089146
0001c0 a6 ab bb be db 6f f5 3e 18 3b 70 bd 00 fe 2a 3d
       -0.36654395 0.479369 -0.058650106 0.04174614
0001d0 63 02 de bc 9c d0 91 bc 46 e1 27 3d 54 40 b1 bc
       -0.027100747 -0.017799668 0.040986322 -0.02163712
0001e0 1b ea 02 be 06 2c 4a bd 78 bc 01 be 85 91 82 3d
       -0.12784617 -0.04935839 -0.12669551 0.06375412
0001f0 f9 13 19 bd 48 7f 8a bd 54 12 d3 bd c0 3f f5 be
       -0.037372563 -0.06762558 -0.1030623 -0.479002
000200 f4 19 fa 3d 58 81 24 bd f7 bd 54 3e 5d 26 94 3e
       0.122119814 -0.040162414 0.20775591 0.2893552
000210 1c b4 23 bf 65 d5 63 bd e9 27 ce 3e 3f 83 f7 3c
       -0.639467 -0.05562343 0.40264824 0.03021395
000220 a8 7d 23 bd 02 4b f0 bb 9f f1 0a be 09 7a 39 bf
       -0.039914757 -0.0073331604 -0.13568734 -0.72451836
000230 66 36 c7 3c 04 1a 41 3f a6 8d be 3b c6 c2 3d bd
       0.024317931 0.7543032 0.0058152257 -0.04632833
000240 9c ba 18 3d 87 4f 09 bd 8a 59 4f 3d 8b e7 85 3c
       0.03728734 -0.03352311 0.0506225 0.01634576
000250 0d bb c7 3c a0 a3 92 bd 36 c1 34 bd 71 f0 ef bc
       0.024381185 -0.07160115 -0.044129573 -0.029289456
000260 2a 23 04 3d 24 bc 29 3f 15 ca 6a 3e 3c 96 33 bd
       0.032260098 0.66302705 0.2292865 -0.043844447
000270 55 fe 69 bd 77 8b d6 3c 94 d0 c8 bd ae b7 06 bd
       -0.057127316 0.026189549 -0.09805408 -0.032890014
000280 c9 71 6d bc 3e 48 4b 3c b8 94 0d 3d 79 40 a6 3d
       -0.0144924605 0.012407361 0.034565657 0.08117766
000290 7c 19 6a 3d 44 0d 31 bd 69 1c bd bd 2a 9a 97 3e
       0.05715321 -0.04322554 -0.092339344 0.29609805
0002a0 fb c2 40 be 69 0c ad 3d 9e 3b 4f 3e fa 22 9e be
       -0.18824379 0.08449633 0.20237586 -0.3088606
0002b0 11 ea cb 3b b8 b9 2c 3d 9f b8 46 3d fb d9 e8 3d
       0.0062229712 0.042169303 0.048515912 0.113697015
0002c0 b8 e4 25 be 84 a4 0d 3e e6 54 46 be 01 99 3c be
       -0.1620053 0.13832289 -0.19368324 -0.18417741
0002d0 60 63 b6 bc 60 63 a4 3c eb c0 0f 3d 4d 29 37 3d
       -0.022264183 0.020066917 0.03509609 0.044717122
0002e0 44 2f a4 be b9 37 ad 3c 8c 69 ab bd 55 d4 7c 3c
       -0.3206731 0.021144735 -0.08369741 0.015431483
0002f0 9b 97 03 be b1 27 01 3d a5 91 2c bf 56 be 9f be
       -0.12850802 0.031531993 -0.67409736 -0.31199902
000300 8f 26 c2 bc 1b fe 5f bd 40 da 85 3e e2 78 b3 bd
       -0.023700027 -0.054685693 0.26143074 -0.08763291
000310 69 96 92 be 2d f5 5c 3f ef 2f 33 3d 4d 0c 90 bc
       -0.2863038 0.8631161 0.043746885 -0.01758399
000320 ac 25 df be 79 0b 90 3d 80 f9 16 3e 20 e7 bc bd
       -0.4358343 0.07033438 0.14743614 -0.09223771
000330 90 a5 76 bc b3 2d 2d 3e f9 6e 31 bd 40 af c8 3c
       -0.015054122 0.16911964 -0.043318722 0.024497628
000340 cb dc e8 3e 5a fb 34 be 7a 01 f2 3c 3b aa eb bc
       0.45480952 -0.17674008 0.02954172 -0.028767696
000350 0a 1a 80 be c5 f9 e8 3d ff 85 94 3d 84 70 91 3b
       -0.25019866 0.11375765 0.0725212 0.0044384617
000360 8d ea 1e bd 79 b6 99 bd 81 d7 13 be 18 c6 9f 3e
       -0.038797904 -0.07505507 -0.14437677 0.3120582
000370 f8 a8 f3 3e 5b 6e a4 3c 49 92 3c bf 9e 70 13 be
       0.4758985 0.020072153 -0.73660713 -0.14398429
000380 5e dd 15 bd 1e f5 d0 bc 4e 25 29 3e 7b 5a 11 3e
       -0.036588065 -0.025507506 0.16518137 0.14194672
000390 1d 7a ce 3d 17 91 74 3f ea b5 ce bc ac 63 0b be
       0.10081885 0.9553389 -0.025233228 -0.1361224
0003a0 9e 18 a3 bd 7d 1f 27 3e d8 0c 2b bd b5 9c d9 3d
       -0.0796368 0.16320606 -0.041760296 0.106255926
0003b0 ea 41 a5 be 20 ab 95 be d2 17 9b bc 0d 74 24 be
       -0.3227685 -0.2923212 -0.018932257 -0.16059895
0003c0 19 c3 0e bf 23 65 16 bd 0b 0c 85 3e 0b 2f 1d bd
       -0.55766445 -0.036717545 0.2598575 -0.03837494
0003d0 46 cb 6d 3d 17 fe 73 3d 67 47 d4 bc fd ff 91 bd
       0.058055185 0.05956849 -0.025912954 -0.07128904
0003e0 aa 94 9a 3e af ba 3d be fa c9 da be d8 2a b5 3e
       0.30191547 -0.18528245 -0.4273222 0.3538425
0003f0 80 15 38 be 81 64 bb bc b1 e0 83 be 9e 57 0e be
       -0.17976952 -0.022875072 -0.25757363 -0.13900611

_advantage.weight f4 [3, 256]
000000 0d 37 fa 3c 86 dc 1e bd 89 8c 73 3d dd b6 03 bb
       0.030543828 -0.038784526 0.059460197 -0.0020098009
000010 de d7 53 bd 3c d6 ab bd ce eb 9d 3e 2c 1c e2 bd
       -0.05171954 -0.08390471 0.30843967 -0.110405296
000020 3a 02 d4 bc b8 e6 b7 bd 7c af 10 3e fd 62 ee bb
       -0.025879968 -0.08979553 0.14129442 -0.007274984
000030 32 67 19 3c 8c 07 25 be fb 92 0f 3e fa 3d 99 bc
       0.009362983 -0.1611616 0.14020912 -0.01870631
000040 b1 92 ef bc a3 f8 03 3f f9 83 76 bd 39 39 3f 3d
       -0.029244753 0.51551265 -0.060184453 0.04668543
000050 2f 92 dd 3e 17 2f c2 bc c6 c2 cd bd f4 c2 47 bd
       0.43275592 -0.023704095 -0.10046916 -0.048769906
000060 13 4a d1 3c 08 e1 a1 3e 0c 3a 67 3c 01 13 e9 bd
       0.025548017 0.31616998 0.014112961 -0.11380578
000070 e3 f6 4f bd 3c f1 bd bc 08 55 c9 3c c5 62 6d 3c
       -0.05077256 -0.023186319 0.024576679 0.0144888805
000080 e4 07 09 bd 52 8a 7f 3c 5d c1 2c 3d b4 95 85 3e
       -0.03345479 0.015596943 0.042176593 0.26090777
000090 e8 cf 53 ba 0a f2 1c bc a2 cf ac 3d b7 ec b0 3e
       -0.00080799917 -0.009579191 0.0843804 0.345556
0000a0 4a 05 32 be b7 b0 e1 3e f6 b2 b6 be 17 19 1a be
       -0.1738483 0.44080135 -0.3568341 -0.15048634
0000b0 97 c7 90 bd 7d d9 04 3e 19 0f be 3d b8 1f a0 be
       -0.07069319 0.1297359 0.092802234 -0.312742
0000c0 0d 42 f9 bc cc 50 0c bd e9 53 0b 3d 4d 3b 40 3e
       -0.030427003 -0.03425674 0.03401557 0.18772621
0000d0 ab 0e 8a be 06 2b 2c 3c 00 32 9f 3e 94 ff 22 3f
       -0.26964316 0.010508304 0.31092834 0.6367123
0000e0 04 d0 06 bd 51 fb 80 3c 88 fe 66 3e cf 5b 42 bd
       -0.032913223 0.015744837 0.22558033 -0.047450837
0000f0 d5 71 46 bd 83 55 1a be f0 d0 6a 3c 3d 19 c6 3e
       -0.048448402 -0.15071683 0.014332041 0.3869113
000100 aa 2e b0 3e b9 98 13 3d 70 2f 6b bd 8f f5 02 3e
       0.34410602 0.03603432 -0.057418287 0.12788986
000110 a4 94 00 3e d3 52 6e 3e c7 dc 19 bd b9 46 24 be
       0.12556702 0.23273782 -0.037564065 -0.16042604
000120 85 ee 4c be bb 02 7e 3b c1 3e 4b bb 1b 3d 1a 3d
       -0.20012863 0.0038758952 -0.0031012746 0.03765593
000130 8d 32 2c be 6b ca de 3b 95 26 cb 3c 2b cc 62 bd
       -0.16816159 0.0067990324 0.02479867 -0.05537049
000140 63 87 46 be 13 11 2b 3e 93 62 41 bd f8 15 28 be
       -0.19387583 0.16705732 -0.04721315 -0.1641463
000150 ed 4a 2b 3c 1e d1 2a 3d 0d 85 02 be bf bd 9b 3e
       0.010454875 0.041703336 -0.12746067 0.30418202
000160 f7 c7 4a 3d 34 5d 96 3c 3d 3e 80 be 48 30 a7 3c
       0.049507108 0.01835499 -0.25047484 0.020408764
000170 2d d6 ca 3d 77 39 4a 3e c0 95 fc 3c f1 d4 42 bd
       0.09904132 0.19748484 0.030833125 -0.047566358
000180 af 03 0a bd e3 83 5b 3e ef e1 a6 bc dc 4d 96 be
       -0.03369492 0.2143703 -0.020371405 -0.29356277
000190 7d fe c2 3c 9f 8c ac 3d 92 f3 0f 3e b3 97 8e 3c
       0.02380299 0.08425259 0.14057758 0.01740632
0001a0 4e bb 58 3d 76 66 9b bd 19 82 90 bd ab 5f 34 bb
       0.052913003 -0.07587902 -0.07056064 -0.0027522843
0001b0 c6 eb 5b 3c 69 e0 5f 3e 80 b1 1c be c5 4b aa 3e
       0.013422912 0.2186295 -0.15302086 0.33260933
0001c0 3d a5 20 be ae b1 85 3e 35 4d 30 bd c9 21 d5 3d
       -0.15688033 0.2611212 -0.04304238 0.10406835
0001d0 d2 79 84 bd ee 2e b0 3d 29 a0 3a 3d 02 13 67 3c
       -0.06468548 0.08602701 0.045562897 0.014103653
0001e0 4c 39 96 3c 72 0d a1 bd eb b1 03 bd bc 1a 24 3c
       0.018337868 -0.078638926 -0.032152098 0.01001614
0001f0 44 0a bf bd 0f 13 7e bd 4a 1a 31 3d 1e 3c ab be
       -0.0932813 -0.062029894 0.04323796 -0.33444303
000200 44 f6 b2 3d 38 5a da 3c 84 d8 07 3e b8 72 77 3e
       0.08738378 0.026654348 0.13266188 0.24164855
000210 e5 ac c3 be 88 32 02 bd 71 43 ca bd 1d 93 c5 bc
       -0.38217846 -0.03178647 -0.09876145 -0.024118
000220 fc 38 43 3d 68 1a e2 bc 0a ef 9a bc f4 64 c5 be
       0.047661766 -0.027600482 -0.01891281 -0.38553584
000230 fb c7 d1 3c 3a 27 01 3f c3 03 94 bc 96 e4 a6 3c
       0.025608053 0.5045048 -0.0180682 0.02037267
000240 06 51 10 bd 14 b5 1c bc 5b e9 97 bd ca 09 4d 3d
       -0.03523352 -0.009564657 -0.07417556 0.050058164
000250 a8 a3 0f 3d a4 d5 74 bc 5b 5a 8c bd 66 dc 12 3a
       0.035068184 -0.014943514 -0.068531714 0.00056023
000260 0f 90 c4 3c b2 fe 9f 3e d4 00 a2 3c 17 95 c6 bd
       0.023994474 0.31249005 0.019775786 -0.096964054
000270 7b e9 92 bc 5f 5a e9 3c e5 43 48 3b e3 10 d2 ba
       -0.017933598 0.028485475 0.0030558046 -0.0016026761
000280 f8 93 a9 3b a6 5a dd b9 5c 05 46 3d e1 6d 12 3e
       0.00517511 -0.00042219943 0.048344955 0.14299728
000290 46 3c 5b 3d 81 ef 10 be 5c d9 cd 3b d8 40 5a 3e
       0.053524278 -0.14153863 0.006282015 0.21313798
0002a0 04 76 21 3d 29 d9 95 3d e3 9c 19 3d e7 81 4a be
       0.03941919 0.07316811 0.037503134 -0.19776116
0002b0 5f 50 43 3d 26 49 8b 3d 8e be a8 bc 82 a2 49 3d
       0.04768407 0.06801061 -0.020598676 0.049227245
0002c0 8c 24 1d be aa 5a cd 3d 58 d9 00 be 05 cc b1 bd
       -0.15345973 0.100270584 -0.1258291 -0.08681492
0002d0 01 5b 40 bd fb 50 58 3d fc d0 ba 3c b9 46 74 3d
       -0.046961788 0.052811604 0.02280473 0.05963776
0002e0 bb 0d 9f bd b8 c4 b0 3c e6 a4 e0 bb 42 08 04 3b
       -0.07766291 0.021578178 -0.006855595 0.0020146524
0002f0 6a a6 1d be be 1f 30 3d 61 8e f6 be 5c 98 89 bd
       -0.15395513 0.04299902 -0.481555 -0.06718513
000300 e0 f5 d7 bb 46 d6 8f bd 91 6b b9 3e 78 3a bf 3c
       -0.00659059 -0.07023291 0.3621488 0.02334331
000310 bf f1 0e be 8c 4a db 3e a7 d3 da 3b ce 3e 7d bd
       -0.13959406 0.42830312 0.006678063 -0.061827473
000320 24 3a 49 be ee 17 a4 3d fe 0d b5 3d d7 eb e7 bc
       -0.19651085 0.08012377 0.088405594 -0.0283107
000330 22 20 fe bb 0f 08 a1 3d 59 e6 3d bd e8 af c0 3b
       -0.0077552954 0.07862865 -0.046362255 0.0058803447
000340 e0 f4 79 3e 6a 23 44 3c 42 08 02 3c 9f 87 07 bd
       0.24409819 0.011971334 0.007936539 -0.033088323
000350 aa ff ff bd b0 bf a3 3d 4d 1f cc 3c d3 ff 08 3d
       -0.12499936 0.07995546 0.02491727 0.033447098
000360 a3 73 14 3d 9f d1 9a bd d8 f4 9b 3d 60 e6 19 3e
       0.036243092 -0.07559513 0.076150596 0.15029287
000370 08 d7 b6 3e 2f 71 f3 bc a1 23 bd be ed 6f a3 be
       0.3571093 -0.029717056 -0.36941245 -0.3192133
000380 f0 24 ff bd 29 cd 04 bd 11 37 c0 3d 59 7f cc 3d
       -0.12458217 -0.03242222 0.09385503 0.09985227
000390 ca 8b a7 3c be 05 ea 3e be ce 3c 3b c7 47 72 3d
       0.020452399 0.45707506 0.0028809751 0.059150483
0003a0 35 93 05 bd 17 3b c3 3d f0 ac 44 bd 44 a2 04 3d
       -0.03261109 0.09532755 -0.04801649 0.03238131
0003b0 fb ee 9d be 5c 50 0a be a4 db cd 3d 4a 6d d3 3c
       -0.3084639 -0.13507217 0.10051659 0.025808949
0003c0 f4 7b b8 be a7 30 f4 3a 55 85 57 3e 18 70 cb bc
       -0.3603207 0.0018630222 0.21046956 -0.024833724
0003d0 19 0f 5b 3c c7 85 00 3d dd b1 27 bd e7 fc 80 bc
       0.013370299 0.03137758 -0.040941108 -0.015745593
0003e0 ec 5e fd 3d 31 16 e6 bd 1c 5b 94 be 94 b4 aa 3e
       0.123716205 -0.112347014 -0.2897576 0.33340895
0003f0 88 1d 14 bd e9 5e 57 3d bf b7 be bd 87 a9 21 be
       -0.036160976 0.052580748 -0.093123905 -0.15787326

_advantage.bias f4 [3]
000000 96 9a ac bc 39 a0 b3 bc 72 de ab bc
       -0.021069806 -0.021926986 -0.020980094

_out.weight f4 [3, 256]
000000 28 88 da bc 16 d0 4d bd 44 ac c9 3c dc 57 ac 3c
       -0.026676252 -0.050247274 0.024618275 0.021037988
000010 00 d6 f5 bb 40 df 21 3d ec 67 03 3d 40 2b 4e 3b
       -0.0075023174 0.03951955 0.03208153 0.0031458884
000020 b0 d3 e1 bc 8c 14 d3 3c ec bc 3c bd e6 02 12 3d
       -0.02756676 0.025766633 -0.046078607 0.035647295
000030 68 8f 54 3d e8 73 55 bc 98 0e fa 3c 30 03 4f bd
       0.051894575 -0.0130281225 0.030524537 -0.05054015
000040 9c c9 0c bd 08 a9 92 bc 7c 70 49 bd 10 c8 54 bc
       -0.034371957 -0.017902866 -0.04917954 -0.012987152
000050 92 41 14 bd 20 8b 3a bd 84 f2 78 3d d8 c6 cc 3c
       -0.036195345 -0.045542836 0.060778156 0.02499716
000060 c0 3b ca ba 70 71 10 bc 9c 00 6a 3d b0 75 5b bc
       -0.0015429184 -0.008816108 0.057129487 -0.013394758
000070 50 1e 10 bd 78 5d 82 3c 46 06 4e 3d 70 04 bd bb
       -0.03518516 0.01591371 0.05029895 -0.0057683513
000080 54 0a 37 bd e8 81 03 bd 30 f0 0d 3d 12 0f 64 3d
       -0.044687584 -0.03210631 0.03465289 0.055678435
000090 d0 10 7b bc 60 b1 51 bb 4c 47 75 3d b6 e4 15 3d
       -0.015323833 -0.0031996593 0.059882447 0.03659507
0000a0 34 a5 c7 3c 2c 5a 96 3c d8 43 25 bd 70 0d 6d 3c
       0.024370767 0.018353544 -0.040347904 0.014468536
0000b0 8e db 04 bd 9c 0a 98 3c bc 4f 36 3d ca df 50 bd
       -0.032435946 0.018559746 0.044509634 -0.050994672
0000c0 06 a3 28 3d 1c 93 67 3d 46 3f 10 bd 00 6d 7f bb
       0.041171096 0.05653678 -0.035216592 -0.0038974881
0000d0 60 ed 76 bd 12 cc 79 3d 28 6b 78 bc 70 af 7d bd
       -0.060284972 0.060985632 -0.015162267 -0.06193489
0000e0 ec 99 89 3c b4 79 b0 bc 70 58 5d bc be 11 2f 3d
       0.016797028 -0.021542408 -0.013509855 0.04274153
0000f0 80 ea a1 bc 00 9f 3f ba 7c ff c7 3c 80 a7 7f bb
       -0.019765139 -0.00073097646 0.024413817 -0.003900975
000100 16 09 1e 3d 1a 09 5a bd 04 1c f4 bc ca 27 1e 3d
       0.038582884 -0.053231336 -0.029798515 0.038612165
000110 08 27 39 3d 1c 26 a2 3c d0 14 96 3b 86 bb 60 bd
       0.04520324 0.019793563 0.0045801178 -0.054866336
000120 88 ab 3f bd 20 09 66 bc b4 74 d1 3c 1c ec 2b 3d
       -0.046794444 -0.0140402615 0.025568344 0.04197322
000130 90 2c 8b bc 34 da b8 3c 28 fb 79 bd 68 5d 2b 3d
       -0.016989022 0.022564985 -0.061030537 0.041837126
000140 ec 8d bc bc f2 6e 7f bd 28 51 05 3d 38 03 cc 3c
       -0.023016892 -0.062361665 0.0325481 0.024903879
000150 ce c3 09 bd 88 a9 3c bd aa 1a 47 3d 70 2e bc bc
       -0.033634 -0.046060115 0.048609413 -0.022971362
000160 84 70 65 3d 3c 12 56 bd 00 5c 48 bb c8 c8 b4 bc
       0.056015506 -0.052263483 -0.0030572414 -0.022068396
000170 7e a1 69 3d 64 50 0c bd cc 20 00 3d 30 1b 81 bc
       0.057038777 -0.034256354 0.031281278 -0.015760034
000180 28 a2 3d 3c e6 dc 72 bd 20 a2 b7 bc 84 49 7e bd
       0.011574306 -0.059292696 -0.022416174 -0.06208183
000190 b2 97 11 bd 00 11 fa ba 40 29 75 bd 60 c5 e1 bc
       -0.03554506 -0.0019078553 -0.059853792 -0.027559936
0001a0 60 e4 f8 bc 36 64 48 bd 10 5b e9 3c 52 52 0e 3d
       -0.030382335 -0.048923694 0.028485805 0.034746476
0001b0 ee aa 4d bd f8 e8 33 3d 48 62 6a 3d ec 7a 3b 3d
       -0.05021184 0.04392335 0.057222635 0.045771524
0001c0 30 03 6d 3c 00 a1 e2 bb 80 bf 27 3d 50 10 5f 3d
       0.014466092 -0.0069161654 0.040954113 0.054458916
0001d0 f8 c5 01 bd 00 2d 24 bb d2 7d 60 bd 08 06 16 3c
       -0.03168294 -0.0025051236 -0.05480749 0.009156711
0001e0 82 fb 45 bd 60 1f a1 3c 62 92 4d bd 2c 0d ca bc
       -0.04833556 0.019668281 -0.05018843 -0.024664484
0001f0 3c 98 de bc 74 f1 12 bd cc c5 07 bd 70 14 25 3d
       -0.0271722 -0.0358748 -0.03314762 0.040302694
000200 1a e8 43 3d 42 4f 53 3d d8 7a f6 bc 18 2b ce 3c
       0.04782877 0.051589258 -0.030087873 0.025167033
000210 20 3b 77 bd f0 38 c0 3b 2c ba ac bc 3c 03 a0 3c
       -0.06035912 0.0058661625 -0.021084867 0.019532792
000220 5a ee 00 3d 94 c8 44 bd 88 39 b8 bc 5a 2a 55 bd
       0.03147731 -0.04804285 -0.02248837 -0.052042343
000230 d4 70 91 bc 4c 2f 7f bd 06 ca 11 bd 62 6f 55 bd
       -0.017753996 -0.062300965 -0.035593055 -0.052108176
000240 a4 29 d2 bc 98 d0 0b bd a8 84 3f bc ac 26 5c 3d
       -0.025654621 -0.034134477 -0.011689343 0.053747818
000250 b0 e2 31 3d 0c b8 49 3d 68 42 7b bd 54 6f ef bc
       0.043429077 0.049247786 -0.061342627 -0.02922789
000260 64 b1 66 bd 00 93 ef 3a dc e9 7e bd 18 79 f8 bc
       -0.056321517 0.0018278062 -0.062234744 -0.03033118
000270 7a fa 34 bd 7c 12 e7 3c 0e 91 7d 3d 42 ba 16 3d
       -0.044184186 0.028207056 0.061905913 0.036798723
000280 80 c2 d1 ba f0 8d 52 bd b8 98 61 3d 42 b0 43 bd
       -0.00160034 -0.051404893 0.055077285 -0.047775514
000290 de 57 75 3d 00 81 70 3a a2 7c 15 bd b8 03 4b bc
       0.05989825 0.0009174496 -0.036495812 -0.012391023
0002a0 a4 66 8c bc b8 a8 7a 3c 4a e7 3f 3d 6c 85 84 3c
       -0.017138787 0.015299015 0.046851434 0.016176902
0002b0 68 70 4e 3c 90 a0 3b 3c ec a5 15 bd d0 5b 55 3c
       0.012600042 0.011451855 -0.03653519 0.013022378
0002c0 4e 0a 01 3d 60 cf 9c 3b c0 61 11 3b 3e 83 09 3d
       0.031503968 0.004785463 0.0022183508 0.033572428
0002d0 58 9a 53 bc e6 7a 37 bd 80 89 1e ba 00 10 5f bd
       -0.012915216 -0.04479494 -0.0006047711 -0.05445862
0002e0 38 f8 2d 3c 0c 88 57 3d 70 bf 41 3d 02 cc 2b 3d
       0.010618262 0.05261998 0.04730171 0.041942604
0002f0 20 44 84 3c 40 aa 9f ba b2 4b 7b 3d 1e 17 3d 3d
       0.016145766 -0.0012181476 0.061351486 0.046164624
000300 20 6d a4 3b a4 35 81 3c 04 f4 6f bd dc c6 1c 3d
       0.0050178915 0.015772648 -0.05858232 0.038275585
000310 10 a8 39 bd 24 70 26 bd 84 0c 94 3c dc d8 69 3d
       -0.045326293 -0.04063429 0.018072374 0.05709158
000320 30 75 be 3b 86 21 6b bd 02 bb 35 3d f0 b1 b3 3c
       0.0058123097 -0.057405017 0.044367798 0.021935433
000330 a4 1c f7 bc 50 40 9c bb fc bd 47 3d c0 b3 29 bc
       -0.030165024 -0.004768409 0.048765168 -0.010357797
000340 84 bc 8c bc b4 6e fe 3c fc 88 83 bc a0 bf 28 bb
       -0.017179735 0.031058647 -0.01605653 -0.0025748983
000350 02 a0 26 3d ea d0 44 3d 00 5b c0 3b 9a c6 4b 3d
       0.04067994 0.0480508 0.005870223 0.049749948
000360 86 96 5e bd 0c 9f ae bc 00 c5 0c 3d 88 22 87 bc
       -0.05434277 -0.021316074 0.03436756 -0.016495958
000370 c0 b5 14 3d da 7f 1a bd 56 87 12 bd bc c7 3b bd
       0.036306143 -0.037719585 -0.035773598 -0.04584478
000380 76 d2 5f 3d 54 f3 bc bc 3e e0 1a bd 00 48 8f 3c
       0.05464407 -0.023065247 -0.03781151 0.017490387
000390 c2 ae 7a bd 78 51 4c bc fe da 2e 3d a2 ae 14 3d
       -0.06120182 -0.012470596 0.042689316 0.036299355
0003a0 fc 9e 64 bd 5c 82 4e bd 92 20 7c 3d f4 c0 75 bd
       -0.05581568 -0.05041729 0.0615545 -0.059998468
0003b0 80 16 2f 3c a0 93 6e bb 40 70 a7 3b 90 c6 33 bc
       0.010686517 -0.003640391 0.005109817 -0.010972634
0003c0 f0 a5 35 3c be ad 55 3d d4 62 15 bd 08 7e 6a bc
       0.011086926 0.052167647 -0.036471203 -0.014312275
0003d0 78 00 6c 3d 10 95 1b bd d0 8c 50 bc ba d1 7e 3d
       0.057617635 -0.037983954 -0.012728885 0.06221173
0003e0 1c 22 24 bd 28 50 36 bc 98 e0 f9 bc 9a 69 4d 3d
       -0.04007159 -0.011127509 -0.030502602 0.050149538
0003f0 f8 5b 51 bd 40 d5 5d 3d d0 fa 7e bc 30 a1 e7 3c
       -0.0511131 0.05415845 -0.015562728 0.028275102

_out.bias f4 [3]
000000 b0 ec c4 3c d6 49 05 3d b4 76 b1 3c
       0.024038643 0.03254112 0.021663047
