rl/models/self_play/pong_dueling_ddqn_sp_per.pth (torch, 287782 bytes, 9 tensors)

_fc1.weight f4 [256, 12]
000000 8f c4 e6 3d a6 b4 1a be 83 92 42 3c b7 96 a4 3d
       0.11267959 -0.15107974 0.011875751 0.08036559
000010 27 7c a6 be f9 d6 00 3f e4 e3 07 be 60 d6 48 be
       -0.32516596 0.5032802 -0.13270527 -0.19613028
000020 7d 98 1f 3e 84 f1 dc 3b ae 24 4b 3e 0b b4 86 3e
       0.15585513 0.006742658 0.19838211 0.26309237
000030 24 85 2c 3e 91 17 3a 3e 07 fb 2f bf 28 d4 2c bd
       0.16847664 0.18173052 -0.6874241 -0.042194515
000040 bc af b4 3d a5 31 12 be 16 4d 85 bf fc 5e 7a bd
       0.08822581 -0.1427675 -1.041415 -0.06112574
000050 84 5e ce 3d cc de f9 bd c3 b0 0c be bb a7 3b bf
       0.10076621 -0.12200698 -0.13739304 -0.7330281
000060 44 47 fc bd a2 d7 1e be c4 48 80 be fb 9e d3 bb
       -0.1231828 -0.15511945 -0.25055516 -0.006458161
000070 6c 3c 2a 3e 1c bf d3 be 1b 03 a0 bf 9f d7 9a bc
       0.16624612 -0.41356742 -1.2500948 -0.018901644
000080 ef 61 83 3d 65 94 fb 3e 36 3d 4c 3e c0 f1 e8 3e
       0.06415164 0.49136654 0.19945225 0.4549694
000090 d5 c0 9d 3e 22 5b e7 bd 16 d8 9a 3d 6e c0 68 bc
       0.30811182 -0.11296679 0.07560746 -0.014206035
0000a0 01 ff f6 bd 19 b9 e8 3e f5 47 70 be dd 4f 88 be
       -0.12060357 0.45453718 -0.2346495 -0.2662343
0000b0 cc f1 19 3e 0a 6c a7 be 78 e7 95 3e 47 6c 2e bf
       0.15033644 -0.32699615 0.2927816 -0.6813397
0000c0 fd 0e 10 bd 91 ed 4a be fe 92 90 3e ef 1a 79 bc
       -0.035170544 -0.19817187 0.28237146 -0.015204175
0000d0 45 52 91 be dc 1f 2a bd 1a 2a 59 3c ab da fb bc
       -0.2838308 -0.04153429 0.013254667 -0.030743917
0000e0 ab ac df 3e a5 1a 0d be 42 78 fe 3d 21 a2 93 be
       0.43686423 -0.13779695 0.12425281 -0.28834632
0000f0 d8 74 30 3e 5d 25 7e 3e 48 9d 7d 3e 03 74 82 3c
       0.17232072 0.2481894 0.2476703 0.01592446
000100 de 56 21 be 72 33 9e be 63 46 db be ba 0c 0b be
       -0.15755793 -0.30898625 -0.42827138 -0.13579074
000110 fd ab 71 be 0c fe 7e be 85 40 0f 3e c9 45 63 3e
       -0.23600765 -0.24901599 0.13989456 0.2219459
000120 24 62 01 3e 0a bf d7 bc 99 ac 01 be 0f 0b 62 3b
       0.12635094 -0.026336212 -0.12663497 0.0034491455
000130 bb 7e 19 bd 9c 34 e9 be 48 db 45 3e f2 fb 97 bd
       -0.037474375 -0.4554795 0.1932193 -0.07421102
000140 a5 30 30 3e 1c 66 b9 3e 36 f2 03 3e 00 a6 b3 be
       0.17206056 0.36210716 0.12885365 -0.35087585
000150 ef 04 63 3d 5b 6c 03 ba 0c 14 ef 3d 3a df de 3b
       0.055424627 -0.00050133996 0.116737455 0.006801513
000160 13 70 13 bd 02 c7 45 be 9c 3f 1c be 5f 43 14 bc
       -0.035995554 -0.19314197 -0.1525864 -0.009049266
000170 f3 f2 17 be 19 8a 87 be 0c 75 35 be c8 c5 09 bf
       -0.14838772 -0.26472548 -0.17720431 -0.53817415
000180 11 26 af 3c 6e 80 0d 3e 42 5e 36 be 12 c5 01 3c
       0.021380456 0.13818523 -0.17809394 0.00792052
000190 25 9b c3 be 94 e6 86 3e 51 26 f8 bd 08 6f d5 3b
       -0.38204303 0.26347792 -0.12116683 0.00651348
0001a0 34 29 02 be 74 ec 54 3d e7 f0 e2 be 9c c9 df 3d
       -0.1271103 0.05198331 -0.4432442 0.10927126
0001b0 c4 e6 cb bd a7 21 db be 22 1a 5c 3d 55 5b 18 3c
       -0.099561244 -0.42799112 0.05373586 0.009299119
0001c0 8e 09 7d 3e 3d de 8f bd 43 96 16 3e 06 ec 8b bb
       0.24710676 -0.070248105 0.14705758 -0.0042700795
0001d0 7d f0 bb 3d 56 8d 0d 3f b3 53 61 be 53 7a 47 3f
       0.09176729 0.55293787 -0.22004585 0.77921027
0001e0 2e 62 a7 bc c6 c1 e1 3c 4b ce b6 3e 78 d3 3e 3b
       -0.020432558 0.027558219 0.35704264 0.0029117744
0001f0 5b 6d 2b be 59 38 ab be 41 8c 1d bf 06 a5 32 bd
       -0.16740935 -0.33441427 -0.61542135 -0.04361441
000200 18 8d b0 be 5b 54 d2 be 25 6b 7d bd 6d 44 15 be
       -0.34482646 -0.41079983 -0.06186976 -0.14576884
000210 08 11 2c be 4d e6 29 3c b4 e1 21 3d 03 0a af bb
       -0.16803372 0.010369849 0.039521888 -0.0053417697
000220 65 b8 3d be f2 c0 22 bd 8f c4 49 3d 6e d6 8d bb
       -0.18527372 -0.03973479 0.04925972 -0.0043285405
000230 7b 65 0e 3f a3 48 11 be 59 11 76 3e 33 cd 9e bd
       0.55623597 -0.14187865 0.24030055 -0.077539824
000240 eb cd 38 bd 10 84 16 bd 4e a8 14 3e 14 4c 11 3c
       -0.045118254 -0.03674704 0.14517328 0.008868236
000250 3f 89 fe bc fb df fe bd 05 a8 73 be e3 2d 0d bc
       -0.031071303 -0.12445065 -0.23794563 -0.008616897
000260 9d 89 41 bd cf e1 03 3f 89 19 86 bc dd 00 42 3f
       -0.04725038 0.5151643 -0.016369598 0.7578257
000270 19 46 29 3e 06 8d 0a 3f b5 b9 24 bd c2 ca 4f bb
       0.16530646 0.54121435 -0.040216167 -0.0031706546
000280 88 7d 9f 3b 8f 8e e5 bc 6b a7 c9 3e 81 e8 c0 3b
       0.0048672594 -0.028022079 0.39385542 0.0058870916
000290 8c cf 06 be bb 0e 15 bf fa 91 55 bd 8a 89 da 3d
       -0.1316511 -0.582256 -0.052141167 0.10670765
0002a0 7e 0b d6 3c cd e9 cb 3e e6 4b 3a be ba 53 ee 3b
       0.026128527 0.39826813 -0.18193015 0.0072731646
0002b0 41 6f ba bd 79 13 7e bc 4e 12 b7 be 5f 38 9c bc
       -0.09103251 -0.015507572 -0.35756153 -0.019069849
0002c0 e3 7f 7e 3d aa bf 52 be 2d 07 7c 3d 74 f1 fc 3e
       0.06213368 -0.20580927 0.06153028 0.49402964
0002d0 7a 65 f7 3d b7 83 7e 3c 3c 1a 2f bd 63 f8 ca bc
       0.12079902 0.015534333 -0.04274963 -0.024776643
0002e0 ab c5 70 be 91 9d 40 bd 1a 37 91 3c e8 f5 89 be
       -0.23512904 -0.047025267 0.01772647 -0.26945424
0002f0 16 5b 28 3e a5 98 a9 bd da 05 8c 3e 22 ae 63 be
       0.16440997 -0.08281068 0.27348214 -0.22234395
000300 a8 9f 10 bc 06 e9 25 bf d8 ff b0 be 02 03 0e 3c
       -0.0088271275 -0.6480869 -0.34570193 0.008667709
000310 da 88 01 3d 52 d3 a8 bc aa 2f 8f bd 61 1b 80 ba
       0.031624652 -0.020608578 -0.06991513 -0.0009773785
000320 70 f0 00 bd 84 e2 27 3f a7 3b 2e be 63 1e 90 bd
       -0.0314793 0.6558001 -0.17014943 -0.07037046
000330 fc 41 9e 3d 92 01 12 3c 5a 50 78 3e 50 97 91 3c
       0.07727429 0.008911507 0.24249402 0.017772347
000340 8e 05 2e 3e c4 62 8c 3e 59 06 2d bf e9 29 a4 3c
       0.16994306 0.27419102 -0.6758781 0.020039516
000350 05 5f 8b 3d bf 5d 1e be 4e 72 1a be e2 86 1c 3f
       0.06805233 -0.15465449 -0.15082666 0.61143315
000360 61 04 f7 3c b7 2a 7f be 41 77 10 be 6e d8 f4 bc
       0.030153455 -0.24918638 -0.14107992 -0.029888358
000370 95 42 09 3d bc e3 22 be 85 48 09 3f 89 05 1e bd
       0.033510763 -0.15907186 0.5362628 -0.038579497
000380 d3 f5 d9 bd 63 80 37 3e 65 03 32 3e f2 a7 44 3e
       -0.106425904 0.1792007 0.17384107 0.19204691
000390 15 92 33 3e 05 bd 06 3e 9b f5 f8 bd 97 6e 01 3b
       0.17536195 0.13158043 -0.121562205 0.0019749755
0003a0 41 03 32 be 3b a1 be be 82 e6 6d be 53 62 02 be
       -0.17384054 -0.37232384 -0.23232463 -0.1273282
0003b0 ac e9 16 bb 3b 6c 31 be 39 a9 a7 bc be 90 2f be
       -0.0023027463 -0.17326443 -0.020466434 -0.17145059
0003c0 2b 20 c8 bd 7e dd 2b be 75 c3 41 3d 14 3c 9a 3b
       -0.097717606 -0.16783711 0.047305543 0.004706869
0003d0 73 b9 80 3d 23 1d 4a be a9 57 37 3e 39 7a be bc
       0.06285372 -0.19737677 0.17904533 -0.02325164
0003e0 82 a6 a1 3e 54 27 a4 3c 17 01 b7 3e 5a 1b 30 be
       0.31572348 0.020038284 0.3574302 -0.17197934
0003f0 30 30 35 3c 15 11 17 be 72 73 05 be a6 94 55 ba
       0.011058852 -0.1475261 -0.1303232 -0.00081474555

_fc1.bias f4 [256]
000000 84 49 22 bd e5 f4 61 be 68 ec 0a be 62 84 11 be
       -0.03962089 -0.22066076 -0.13566744 -0.14210656
000010 37 97 6e be c1 c5 5d bd f8 03 6a bc 2d 4a 94 bd
       -0.23299871 -0.05414367 -0.014283173 -0.072407104
000020 7c 16 a2 3d 0f 09 93 bd 3b 6b 17 be 54 e5 69 be
       0.07914445 -0.07179462 -0.14786999 -0.22841388
000030 2a 2d 5c be d2 62 ed 3d 5f d6 b5 3d c8 8f 1c bb
       -0.21501604 0.11591114 0.08878779 -0.0023889411
000040 1b 4b c2 bd e9 39 41 be 10 48 51 be 8e ce 15 3c
       -0.094869815 -0.18869747 -0.20437646 0.009143485
000050 0c 0d 56 be 24 9d 6f bd 18 7d 6e 3e d9 bd aa be
       -0.20903414 -0.05849947 0.23289907 -0.33347967
000060 7b e2 28 3e 74 11 70 be b3 12 fa bd f6 2f 75 be
       0.16492645 -0.23444158 -0.12210598 -0.23944077
000070 5b d4 fb bd 25 dd 40 3d 35 cd 69 bc f1 fc d3 3b
       -0.12296363 0.0470859 -0.014270117 0.006469362
000080 18 cf 04 3e 93 a6 68 be 62 58 c1 3d 4a 38 43 bd
       0.12969625 -0.22719793 0.09440686 -0.047661103
000090 f6 d1 47 3e 58 37 b9 bd 80 77 3a bd 8f 35 a4 3c
       0.19513687 -0.09043759 -0.04552412 0.02004507
0000a0 d2 22 b1 3d 71 82 a1 3c 5a f8 0b be 98 07 72 be
       0.086492196 0.01971552 -0.13668957 -0.2363571
0000b0 6c f2 d4 bd 19 f3 3c bd 96 76 d7 3c bf b5 48 3d
       -0.10397801 -0.046130273 0.026301663 0.04900145
0000c0 60 f9 bf 3d 9c 46 67 bd f7 0b 45 3e 43 d8 8f 3d
       0.093737364 -0.056463823 0.19242845 0.070236705
0000d0 21 44 90 be be 55 a6 3d ea 5e e3 bd 04 8b 4c be
       -0.28176978 0.08121823 -0.11102088 -0.19974905
0000e0 7f 46 38 3e 98 bb 00 3e b3 22 5f bd 78 b4 91 bd
       0.17995642 0.12571561 -0.05447645 -0.071145
0000f0 68 77 29 be cc a9 9d be 93 bf d6 3d 61 d7 03 3e
       -0.16549456 -0.30793607 0.10485759 0.1287513
000100 2d 61 86 be 33 ed 2e bd e8 d4 48 bd 06 dd 1e be
       -0.26246014 -0.04270668 -0.04903117 -0.15514001
000110 02 7f c2 bd ba 9f 71 be fd 0a 6e be 9c bd 01 be
       -0.09496881 -0.23596087 -0.23246379 -0.12669986
000120 10 76 c6 bd 7b cb 1c 3e 12 64 20 be d8 27 26 be
       -0.096904874 0.15311997 -0.15663174 -0.16226137
000130 7e 0a 02 3e e7 10 c3 3b de 8f 20 be d6 b2 e3 3d
       0.12699315 0.0059529427 -0.15679881 0.111180946
000140 fc f9 20 bd 99 e3 45 3d c1 e9 e8 bd d0 3b b8 3c
       -0.039300904 0.048312757 -0.1137271 0.022489458
000150 13 b9 2c bd 88 60 93 3d 9e 95 b6 bc 17 08 49 3d
       -0.042168688 0.07196146 -0.02228814 0.04907998
000160 c6 d9 5b be d5 30 43 bd 93 d7 4c bc 22 f2 36 be
       -0.21469793 -0.04765399 -0.012502569 -0.17865804
000170 f0 67 f3 3d fb 04 3e be e9 89 3e be d8 b6 a6 be
       0.11885059 -0.18556587 -0.18607296 -0.32561374
000180 21 ce 8b be 63 c5 67 be 61 80 6e bc 64 e9 64 bd
       -0.273057 -0.22633891 -0.014556975 -0.05588664
000190 d6 74 6f 3e 7c 32 82 bc 19 63 49 3d 30 04 48 3d
       0.23384413 -0.015893213 0.049166773 0.04883212
0001a0 58 1e 3f be e5 73 68 be 02 8a f5 bc d0 88 09 be
       -0.18663919 -0.2270046 -0.029973034 -0.13431096
0001b0 7a 52 6f be c6 cc 18 bd 83 28 e6 bd af 6a a8 bb
       -0.23371306 -0.037304662 -0.11238196 -0.005139671
0001c0 a9 49 b7 bd ed 3d bd be a8 0d a3 bd e6 a3 28 be
       -0.089495964 -0.36961308 -0.07961589 -0.16468772
0001d0 1a 0c 9b 3d af 8d 8e 3e 32 b6 d8 3d f8 7d 76 3d
       0.075706676 0.2784247 0.10581626 0.060178727
0001e0 cb 52 94 3d 45 99 3c 3d df 56 ac bd b2 e2 15 be
       0.07242354 0.046044607 -0.08415007 -0.14637259
0001f0 40 7d e5 3c f3 66 7f be 3d 8e 81 be ea 23 a3 3d
       0.028013825 -0.24941616 -0.25303832 0.079658344
000200 5a 48 d3 bc 4c f9 03 3e 0a 21 84 be dc 61 76 be
       -0.025791336 0.12888068 -0.25806457 -0.24060768
000210 e3 25 83 be c5 36 f8 3b cc ab 9b 3a 6e 92 46 be
       -0.25614843 0.0075748884 0.0011876761 -0.19391796
000220 03 e1 ba bd a7 2a 3b bc b8 54 fc bd 52 1f 10 be
       -0.09124949 -0.011423743 -0.12320846 -0.14074448
000230 33 91 f0 be 10 0c c4 be 6c 23 6b 3d d1 bf 56 be
       -0.46985778 -0.38290453 0.057406828 -0.2097161
000240 b1 2f c3 3d 8a 36 b3 bd b6 c4 12 3e 09 37 9b be
       0.09530581 -0.08750637 0.14332852 -0.30315426
000250 6e 84 14 3d a0 0f 8d 3c 77 c2 51 be 62 b8 61 3e
       0.036259107 0.017219365 -0.20484339 0.22042993
000260 12 e8 52 be 18 60 e0 3d 74 3a 7d bd 52 3c 72 3d
       -0.2059634 0.109558284 -0.061823323 0.059139557
000270 35 c5 80 be 64 be e1 bd 93 2e 3f bc f8 a6 42 be
       -0.25150457 -0.11022642 -0.011668819 -0.19009006
000280 a2 cd f6 3d 41 96 ad 38 e3 c2 57 be 05 8b 61 be
       0.1205094 8.27727e-05 -0.21070437 -0.22025688
000290 3c 96 20 be 38 95 a2 be 59 4c 89 be 23 8e 95 be
       -0.1568231 -0.3175447 -0.2681606 -0.29210004
0002a0 9d 73 21 be c6 b9 83 be fc af a9 3b c3 fa 71 3c
       -0.15766759 -0.2572767 0.0051784497 0.014769259
0002b0 7e 09 30 bc 30 46 9c 3d b8 ab 15 3d 63 65 ba bd
       -0.010744451 0.07630575 0.036540717 -0.09101369
0002c0 99 8f b3 bd b5 f0 ec bb b1 e9 0c be f6 e6 f1 bd
       -0.087676235 -0.007230843 -0.13761021 -0.118116304
0002d0 2d cf 91 bd 1e 1d bf be 49 44 80 be 7b ed 2c be
       -0.07119594 -0.37326902 -0.25052097 -0.16887467
0002e0 a7 e5 0d 3e c3 06 20 be 52 10 12 bd 04 62 10 3d
       0.13857137 -0.1562758 -0.035660096 0.035249725
0002f0 94 05 6f 3d c3 e7 d8 3b 6f e7 e0 3d 2c 0b 83 3e
       0.05835493 0.006619425 0.109816425 0.2559446
000300 04 b2 d1 bb 55 e9 6c be f8 d1 a6 bc cd ea 6f be
       -0.006399395 -0.23135884 -0.020363793 -0.23429413
000310 64 21 a5 be 30 77 45 be 28 3f 60 be 83 b5 9d 3b
       -0.32252038 -0.19283748 -0.21899092 0.0048128976
000320 ec 01 d4 3d 12 53 8c be 79 2e 5b 3e 83 f9 23 be
       0.10351929 -0.27407128 0.21404447 -0.1601315
000330 8c f7 9d 3d 0b 87 a6 3c ab a5 0b 3e fc 7c 74 3e
       0.077132314 0.020328065 0.13637416 0.23875803
000340 bb 91 93 be 47 26 7b 3d e2 9e 9a be e9 6f 21 3d
       -0.2882212 0.0613158 -0.30199343 0.039413366
000350 32 37 9a be c8 b2 59 bd 9b d8 87 bc b0 b8 08 bd
       -0.30120236 -0.053149015 -0.016582778 -0.033379257
000360 5d 62 0c be 8a e9 83 bd 4c 84 05 be df ba 4f be
       -0.13709398 -0.064410284 -0.13038749 -0.2028613
000370 99 2c 7c be b0 79 04 bd 08 e4 9b be 2d 42 e3 bd
       -0.24626388 -0.032342613 -0.30447412 -0.110966064
000380 61 9a bc bd 15 3e 20 be 33 62 e9 3d d9 a3 37 be
       -0.09209133 -0.15648682 0.11395683 -0.17933597
000390 86 4e d1 be cd 59 a7 bd ac 27 3e be fd 1e 00 3e
       -0.4088022 -0.08171425 -0.18569821 0.12511821
0003a0 78 f3 d9 3d df 4b 4b 3d 56 21 ad b9 85 26 15 3e
       0.10642141 0.049632903 -0.0003302197 0.14565475
0003b0 54 5b 37 be 31 8b e6 bd 0c 3f 75 be bd 05 0f bd
       -0.17905933 -0.112570174 -0.23949832 -0.03491758
0003c0 38 c9 21 3d 54 0d 75 bd 65 8c 6f bd fd 96 9f be
       0.039498538 -0.059827164 -0.0584835 -0.31169882
0003d0 e7 2b 10 be 75 a7 b4 be cd 72 ad be ba 13 3c be
       -0.14079247 -0.3528401 -0.3387665 -0.183669
0003e0 4e b3 08 3e d4 ca 00 be a0 f8 19 be 5a be 3b bc
       0.1334965 -0.12577373 -0.15036249 -0.011458958
0003f0 f4 ff d3 3d 0f e8 d8 3d a0 4e 82 be ae a5 03 3e
       0.103515536 0.10591137 -0.2545061 0.1285617

_fc2.weight f4 [256, 256]
000000 aa 31 7a bd 93 1e fd bc b3 b1 94 3d 30 57 62 bd
       -0.06108252 -0.030898368 0.07260456 -0.05525893
000010 03 fa 60 bd d5 02 7a bd e4 b4 05 3e 5b 46 05 be
       -0.05492593 -0.061037857 0.13057286 -0.1301512
000020 c9 99 46 3e de 0b fc bd c9 20 ae be 9b fd 3c 3c
       0.19394602 -0.12306951 -0.34009388 0.011535074
000030 4b 5d 1c bc c2 69 a0 3d 8a c1 54 be 3d 43 54 3e
       -0.009543727 0.07832672 -0.20776954 0.20728774
000040 8c 05 24 be 5e 2b 27 3e 0f c1 36 3e 5a 53 4d be
       -0.16017741 0.16325137 0.17847084 -0.20051327
000050 54 91 4f 3e 1c 7d 0d be 2f ab 26 be 97 98 19 be
       0.20270282 -0.13817257 -0.16276239 -0.14999615
000060 f6 ce 0c be 58 61 eb bd 93 2a 3a be 33 0c 66 3a
       -0.13750824 -0.11493176 -0.18180303 0.00087756215
000070 39 17 3c 3e 93 10 8c be 17 f5 a7 3e 39 2f bc 3e
       0.18368234 -0.27356395 0.32804176 0.36754778
000080 ab f0 01 be 95 10 b5 3e 24 25 27 3e 8f 64 7e ba
       -0.12689464 0.35364214 0.16322762 -0.00097043155
000090 50 b8 8c bb 4d 8d 82 3e 39 52 6a be 95 ee c7 3d
       -0.0042944327 0.2549843 -0.22882928 0.09762303
0000a0 60 41 a3 3a 64 f5 10 3f f7 af 0a be 40 01 0b bd
       0.0012455396 0.56624436 -0.13543688 -0.03393674
0000b0 e8 6f 89 be 63 92 82 bd ec f5 b7 bd 04 18 d1 3d
       -0.2684319 -0.06375577 -0.08982453 0.10209659
0000c0 d5 11 db bd 7d 80 07 3e a7 76 de be 5f 9c f2 bd
       -0.106967606 0.13232608 -0.434499 -0.11846232
0000d0 ae 72 45 3e a8 8f 01 3d af af 07 3e 22 3b c7 bc
       0.19282028 0.031631142 0.13250612 -0.024320189
0000e0 73 61 76 3e ce 6e 8d 3e 42 d7 9f 3e 15 e0 ea bd
       0.24060611 0.276236 0.31218916 -0.114685215
0000f0 1f 4a 11 be 08 c0 92 3d 1e 5f 67 be b7 3a 5c bd
       -0.14188431 0.07165533 -0.22594878 -0.053766932
000100 db be 1e 3e 49 b8 15 be d0 47 0d 3e 4e f5 1f 3e
       0.15502493 -0.1462108 0.13796926 0.1562092
000110 6e ef 89 bf 83 fe fd bb 4c 80 21 3b cc 84 7a 3e
       -1.0776193 -0.0077512874 0.0024643121 0.2446472
000120 5e 0f a3 bc e7 10 b4 be 5a 21 69 bf 5a 61 d7 bc
       -0.019904789 -0.35169145 -0.91066515 -0.026291538
000130 8a 73 9f 3e da cb cf bd 19 e7 68 3c 49 ee 0c be
       0.31142837 -0.101463035 0.014215254 -0.13762774
000140 38 78 8c 3e b5 7f 89 bc 60 60 17 3e 32 36 41 3e
       0.2743547 -0.016784528 0.14782858 0.1886833
000150 91 6e 06 be f7 2f 9f 3d 8e 33 2f 3d d1 2c ce bd
       -0.13128115 0.077728204 0.042773776 -0.10067142
000160 05 9a 5e bf 4e f6 28 bd 6d 74 57 be 0c 81 93 bb
       -0.86953765 -0.04125052 -0.21040507 -0.0045014676
000170 9d d3 70 3d 89 67 94 bd e0 cd 21 bf 6f 91 38 3d
       0.05879556 -0.0724631 -0.63204765 0.04506057
000180 02 af a3 3d e2 76 ae 3b 8e 81 db be 00 07 31 3c
       0.079923645 0.0053242305 -0.4287228 0.010804892
000190 f2 09 31 3e 27 39 09 3e ab 80 4e be d5 3a 28 3d
       0.1728895 0.13400708 -0.2016627 0.04107173
0001a0 9b 1a 03 3e c6 26 a6 3c 18 d8 07 be 6c d6 2f 3e
       0.12803118 0.02028216 -0.13266027 0.17171639
0001b0 b2 15 1f be e1 90 eb 3e ea c3 ca bc 4a 78 53 3d
       -0.1553562 0.4600897 -0.024751622 0.05162839
0001c0 d0 5c ea bd 4a 17 2e be f9 6c 5c 3e 8c 1f 86 bd
       -0.11443484 -0.17001072 0.21525945 -0.06548986
0001d0 75 1d a1 3c 65 6c a8 bd 06 92 3b 3d 44 d6 6d bd
       0.019667367 -0.082237996 0.045793556 -0.058065668
0001e0 00 84 9f bc 32 76 cd bc ab 7c 64 bd 0f 9f e5 bd
       -0.019472122 -0.025080774 -0.055782955 -0.11211979
0001f0 8c 84 f9 3d 1c a1 9d 3d 95 b0 8a be 69 97 83 be
       0.121834844 0.07696745 -0.27087846 -0.25701454
000200 28 bc 09 bd bc 6b d5 bb 5b 9a 1c bf 53 e9 4b 3e
       -0.033626705 -0.006513087 -0.6117303 0.19913225
000210 84 43 9f 3d bd 0f 80 be 97 81 23 bd 67 70 af bd
       0.077765495 -0.25012007 -0.03991851 -0.08566361
000220 a7 bb fe bd 1d 90 46 3e 3b 0e e5 be 7a 22 59 bd
       -0.124381356 0.19390912 -0.4473742 -0.053011395
000230 79 49 43 be 3b 5e ca 3d 7b 77 35 bf b0 ae 02 3e
       -0.19070996 0.09881254 -0.7088544 0.1276195
000240 8b 21 93 3e 74 73 6d 3e 07 55 fd 3d 1a 79 b0 bd
       0.2873653 0.23188573 0.12369733 -0.08616848
000250 07 dd c1 bd 2c 84 d3 3d c0 09 eb bc 7b d0 03 be
       -0.09465986 0.10327944 -0.028691173 -0.12872498
000260 43 0e 1b 3d cb c2 b2 3d d2 81 80 bd df ea 46 3e
       0.037855398 0.0872856 -0.06274761 0.19425534
000270 6c 4e 01 3e bc a9 97 3e 09 af 00 3e 90 2c 71 bd
       0.12627572 0.29621685 0.1256677 -0.05888039
000280 64 1a ca bd d4 53 30 3f 99 c8 fe 3c c2 2d 7d 3e
       -0.09868315 0.6887791 0.031101512 0.24724486
000290 28 c0 c9 3c 25 31 e6 3d 80 4b ae be 05 22 e9 be
       0.02462776 0.11239842 -0.34041977 -0.45533767
0002a0 92 57 d0 3d fa ba e6 bd 76 0f 01 bd ab 0a 1f bf
       0.10172953 -0.11266132 -0.031508885 -0.62125653
0002b0 d5 ed 25 3e bc b6 90 3e 63 84 bd 3d 74 7e cd be
       0.16204007 0.28264415 0.092537664 -0.4013554
0002c0 c8 32 0c be 17 55 87 3e 19 a4 2c bf d6 4c c0 3d
       -0.13691247 0.26432106 -0.67437893 0.09389655
0002d0 4e 46 cd bc 29 52 1c 3e a7 1d 54 3e 90 6b c4 3c
       -0.025057938 0.15265717 0.20714436 0.023977071
0002e0 1c 94 2f 3e 26 7a c9 bc 1b 9b 51 bd bc 62 24 be
       0.17146343 -0.024594378 -0.05117331 -0.16053289
0002f0 31 e4 29 3c ba ff 74 3b 6e fe 75 be c5 3f 27 be
       0.0103693465 0.003738387 -0.24022838 -0.1633292
000300 da 31 93 3b c9 ee 88 ba ea 5d c4 bd bf 9e 8a be
       0.0044920268 -0.001044714 -0.09588225 -0.2707424
000310 4c 18 09 be f3 ce aa bc 4f 0b 00 3b 66 6d 8b be
       -0.13388175 -0.020850634 0.001953799 -0.27231902
000320 b9 91 0f 3e a4 1c e1 be 6d cf 36 3e eb d3 81 bb
       0.14020433 -0.43967164 0.17852564 -0.00396203
000330 0b 72 14 3e c7 18 46 3d 64 7e 26 bc c4 b0 2f bc
       0.14496629 0.048363473 -0.01016197 -0.010723297
000340 87 57 9a be 67 b2 7c 3d f5 da 8f bb 22 b4 35 3e
       -0.30144903 0.061693575 -0.0043901154 0.17744496
000350 36 34 be bd 0c d3 d8 3e 76 ac e1 3d b9 d3 79 3c
       -0.09287302 0.42348516 0.110192224 0.0152482325
000360 7e 76 e7 3d 35 88 51 3e 86 d5 b8 3b bb 77 92 bd
       0.113018975 0.20462115 0.0056406884 -0.07151743
000370 96 a3 26 3d a9 6e dc 3d 30 49 99 3d 52 d9 eb bd
       0.04068335 0.10763294 0.074846625 -0.1151606
000380 13 a3 f1 bc 58 1b 2e c0 62 e4 04 3e 36 bb 47 3c
       -0.029496705 -2.720419 0.12977746 0.012190631
000390 b7 0c 19 3e 0e 37 7d 3e 07 1d d5 bd c3 a4 bc bc
       0.14946257 0.24728033 -0.10405927 -0.023027783
0003a0 8f 10 53 3e 45 f0 39 3e 28 a8 8a 3e 7e c6 84 3d
       0.20611785 0.18158062 0.27081418 0.06483172
0003b0 e1 9b 82 3d 84 9e 87 3e ec 92 b7 be ef 9f 91 3e
       0.06377388 0.26488125 -0.3585428 0.28442332
0003c0 8e 5a a4 be 96 c5 0f 3e a3 c7 0a 3d 34 7e 91 3d
       -0.32100338 0.14040217 0.033881795 0.071041495
0003d0 06 5d be bd 37 79 23 3e a7 e4 e5 3d 73 17 cc be
       -0.092950866 0.15964209 0.112252526 -0.3986164
0003e0 b3 74 e9 3d 51 2c 56 be cf a7 aa 3d 4a a2 5f 3d
       0.11399212 -0.20915343 0.08332788 0.05459813
0003f0 a0 56 a8 3d e4 81 45 3d 98 bd 3c 3e 94 ef 57 3d
       0.082196474 0.048219576 0.184317 0.052718714

_fc2.bias f4 [256]
000000 1e 39 81 3c c0 20 99 bd 9f 91 59 bc 57 17 4a be
       0.015774306 -0.0747695 -0.013279348 -0.19735466
000010 08 ac 77 3d 34 f6 a9 bd c1 26 02 be 3d 4f 33 3d
       0.060466796 -0.08298913 -0.12710096 0.04377674
000020 b5 c7 c8 bd b5 74 26 be 4b f9 bf bd 28 08 aa 3d
       -0.09803716 -0.16255458 -0.09373721 0.08302337
000030 4f 13 63 3c 4e 17 a3 bd 7e a9 51 3d 23 b3 70 bd
       0.013859584 -0.079634294 0.05118703 -0.058764588
000040 2a 90 dd bd b5 a2 c6 bd 41 78 88 bd 28 2a 26 3d
       -0.10818513 -0.09699003 -0.066635616 0.040567547
000050 85 c2 c0 bd 5d 7b 6c bb 2e e2 82 bc c7 02 18 3b
       -0.09412102 -0.0036084272 -0.015976992 0.0023195015
000060 37 82 12 bd ac 86 d2 3c ea 44 4f bc b2 76 1e bd
       -0.035768714 0.025698982 -0.012650708 -0.038687415
000070 0f 56 17 bd 41 f2 3b 3d d0 bf 80 3d 81 9f 2d be
       -0.036947306 0.04588533 0.06286585 -0.16955377
000080 a9 80 02 be fc be 10 be c9 07 1b bd 22 d7 70 3d
       -0.12744392 -0.14135355 -0.03784922 0.058798917
000090 fd 3d 08 bc 56 db 34 bd 46 ff 1e be 04 31 ce bc
       -0.00831556 -0.044154488 -0.15527067 -0.025169857
0000a0 90 31 f4 bd bc 08 1d be 3a b9 9c bd 14 90 42 bd
       -0.11923516 -0.15335363 -0.07652517 -0.047500685
0000b0 58 dc eb bd f5 01 da bd de 6b 6e bd dd 57 d3 bd
       -0.115166366 -0.106449045 -0.05820834 -0.10319493
0000c0 60 ff 4f bd 91 dd f3 bc de 96 28 be 25 db e9 bb
       -0.050780654 -0.029768737 -0.16463801 -0.0071367198
0000d0 35 de 27 bb d3 76 b4 3d 1d ff 03 3e f1 21 00 be
       -0.0025614623 0.088117264 0.12890287 -0.12512948
0000e0 7b 66 37 bd e4 4b 94 bd 43 7f ed 3c 1e ce 2a bd
       -0.044775467 -0.072410375 0.028991347 -0.041700475
0000f0 22 be 95 3d c4 82 1e 3b d0 16 87 3c 88 17 c8 bd
       0.073116556 0.002418683 0.01649037 -0.09770113
000100 cc 29 ad bd a5 55 be bd b0 e3 6d bd 24 ff 30 bd
       -0.08455238 -0.09293679 -0.058078468 -0.04321207
000110 28 7f 30 bc 17 05 59 be 00 59 05 3e 8f 8c f2 3b
       -0.010772504 -0.21193348 0.13022232 0.00740201
000120 29 d3 1b bd 42 99 6f bd b8 77 a7 bd da ad f8 bc
       -0.038043175 -0.058495767 -0.081771314 -0.030356336
000130 73 73 70 3a 33 75 b0 bc 9b 57 7a bd 1c db 63 bd
       0.0009172477 -0.02154026 -0.061118703 -0.05562888
000140 f8 69 18 bb b6 9f 84 bd fe 28 3d be 74 72 0e be
       -0.0023256522 -0.06475775 -0.18472669 -0.13910848
000150 c8 4a 2b bb 8b 60 ff bc e8 b2 8d 3b c7 8e 9f bc
       -0.0026137102 -0.031173965 0.004324306 -0.019477261
000160 48 bf 5f 3c f2 d2 14 3d ce 4c a9 bd 0a aa 11 be
       0.013656445 0.036333986 -0.082666025 -0.14225021
000170 0f a4 ad bd 28 5f 8f bd e0 77 17 bd a6 02 d3 bd
       -0.08478557 -0.070005715 -0.036979556 -0.103032395
000180 fd 4f 5c 3d f4 94 ff 3b d6 a0 c1 3d 1c 1f 47 be
       0.05378722 0.007799739 0.09454505 -0.19445461
000190 76 e5 fb bd 98 47 89 bd b6 9d 17 be 48 32 82 3b
       -0.122996256 -0.067031085 -0.14806256 0.003973279
0001a0 e1 6a 0c bd 82 ea 25 3c 60 f8 af bc 63 fb 75 be
       -0.034281615 0.010126712 -0.02148074 -0.24021678
0001b0 2e 27 a9 bb 0d da 3b 3d 9d e0 7b 3b b1 92 8a bd
       -0.0051621413 0.045862246 0.003843344 -0.067662604
0001c0 d1 33 11 bd 9f 64 83 bc cd 32 3b bd fb 62 1a bd
       -0.035449807 -0.01603919 -0.045702744 -0.03769205
0001d0 29 26 30 be fd 05 d9 bd 39 7e 2e bd bf a0 e0 bd
       -0.17202057 -0.10596845 -0.042600844 -0.1096816
0001e0 c0 d0 34 bd a6 e7 44 3d 76 de 22 bc 7b 95 d5 bd
       -0.044144392 0.04807248 -0.009940734 -0.10428902
0001f0 49 e0 92 3d 15 dc ca 3d 6a f1 b0 bd c7 32 f6 3c
       0.07171685 0.099052586 -0.08639796 0.03005351
000200 de eb b2 bc 98 62 39 bd 27 72 32 be 09 41 2b 3d
       -0.021840986 -0.045260042 -0.17426358 0.04181007
000210 83 45 7e bc 66 e3 60 bd 01 b9 60 bd 44 0b 35 bc
       -0.015519503 -0.054904364 -0.054863933 -0.011050049
000220 ce fd 58 bd c3 7e b0 bd e9 7d ea bd 71 6d 11 bd
       -0.052976422 -0.08617928 -0.11449797 -0.035504762
000230 94 65 2d bc e6 54 2c be 82 57 ed bd 39 90 75 bd
       -0.0105833 -0.16829261 -0.115889564 -0.059951995
000240 e7 ac 71 3d 34 1c 86 bd db 35 a4 3a 53 56 4d bb
       0.059002783 -0.06548348 0.0012528257 -0.003133197
000250 ed 9a 6d 3c 70 00 4c bd fe be 9a 3c db ab 37 be
       0.014502269 -0.049805105 0.0188899 -0.17936651
000260 ae 84 95 3b 8f b5 78 bd 36 da de 3b 39 a0 6f be
       0.004562936 -0.060720023 0.006800915 -0.23400964
000270 10 dd 1e bd 26 54 80 bd 03 28 ce bb 12 c0 89 bc
       -0.03878504 -0.0626605 -0.006291391 -0.01681522
000280 4b 01 b0 3d 0c 9e 51 bc e4 f1 61 bd 63 bc 95 bc
       0.085939966 -0.012794029 -0.055162326 -0.018278306
000290 cc b4 06 bd 7f 83 3f be 03 a3 c7 bc 61 43 2a be
       -0.032887265 -0.18702506 -0.024369722 -0.16627266
0002a0 f5 2d 10 3e aa 28 6a bd c7 2e c4 3c f7 96 c7 ba
       0.14080031 -0.057167687 0.023948086 -0.0015227486
0002b0 66 0e 3a bd d9 4d f1 3c bb ca 26 3b c7 71 07 bd
       -0.045423888 0.029456066 0.0025450427 -0.03306749
0002c0 6b ff b2 bd fd 3a 8d bd ca 73 5e be a5 05 b2 bd
       -0.08740123 -0.06896017 -0.21723858 -0.08692483
0002d0 22 d0 c5 3c cc dd 66 bc 76 db cd bd 74 7f b8 bd
       0.024147097 -0.014090966 -0.100516245 -0.09008685
0002e0 d2 91 7f bd f5 87 79 bd 11 e5 ac bd 48 2e 7a 3d
       -0.062394924 -0.060920674 -0.084421284 0.061079293
0002f0 a7 20 a5 bd 4c f3 ec 3d ce 73 17 3d 7c a9 9d 3c
       -0.080628686 0.11569843 0.036975674 0.019245856
000300 44 89 34 bd 21 ec 38 bd 4f 63 29 3d 7c 91 64 3b
       -0.04407622 -0.045147065 0.041354474 0.0034876755
000310 61 2e a9 b9 d0 01 c9 bd 2e 85 24 ba fd 9f 0f 3d
       -0.00032268747 -0.09814799 -0.0006275949 0.035064686
000320 cf 0a 1f be ee 2f 60 bd fa 3a 69 be f2 2b 8f bd
       -0.15531467 -0.05473321 -0.22776404 -0.06990804
000330 4d 1b 3f be 71 22 8b bd 45 5c 5f 3d 3f eb 7c bd
       -0.18662758 -0.067936786 0.054531354 -0.061747786
000340 bd 9c 0c bd 2d 2a 34 be e9 6c ec bc cf 88 42 bd
       -0.034329165 -0.17594214 -0.028860526 -0.047493752
000350 67 6e 1c bd c8 32 ae bd 26 de 2a bd 24 2c 50 bd
       -0.038191225 -0.085057795 -0.041715764 -0.050823346
000360 2e aa 41 3d e4 b4 74 be 0f 1c 03 3c 88 93 86 be
       0.047281437 -0.2389713 0.008002295 -0.26284432
000370 21 c1 8e bd 71 ee c4 bd 98 f2 52 bd 11 51 f6 bb
       -0.0697043 -0.096157916 -0.051500887 -0.007516988
000380 d5 1e 3d 3d 94 ad fd bc cf 81 67 bd 34 18 ac bd
       0.04617198 -0.030966558 -0.05652028 -0.08403054
000390 cb c4 a7 bd 44 04 32 bc d7 ab d0 3c a2 7b 87 bd
       -0.08191832 -0.010865275 0.025472565 -0.06615378
0003a0 d4 9c d7 bd 96 c1 7a 3c 2f f1 32 bd e1 c3 00 bc
       -0.105279595 0.015304944 -0.04368704 -0.007859201
0003b0 65 d8 4f bd 39 43 68 be 73 6f 22 3d 5b eb 13 be
       -0.05074348 -0.22681893 0.039657068 -0.1444525
0003c0 09 71 fb bd 13 e0 6a bd 34 11 1c bd 73 74 01 3d
       -0.12277419 -0.0573426 -0.038102344 0.031605195
0003d0 bf 08 89 bd ca 58 45 bd 64 6c 7a bd e8 a4 4a be
       -0.06691121 -0.04818038 -0.061138526 -0.19789469
0003e0 54 9f a1 3d 69 55 84 bd 75 65 d2 bc ce d8 64 3d
       0.078917176 -0.06461603 -0.025683144 0.055870824
0003f0 3c d4 91 bd 65 32 9f bc 6c 2e 59 bd bb 7a fa bc
       -0.071205586 -0.01943321 -0.053022787 -0.0305761

_value.weight f4 [1, 256]
000000 82 f4 29 3d a4 02 6e bd 12 7e 0c bd ea 44 81 3e
       0.041492946 -0.058107987 -0.034299918 0.2524789
000010 43 e6 10 bf 65 97 fe 3c 7a 49 9b bd af 21 9a ba
       -0.5660135 0.03107805 -0.07582374 -0.0011759306
000020 43 0c 79 be fe 96 0f bd 54 c2 ec bd 58 64 31 3e
       -0.24321084 -0.035056107 -0.11560503 0.17323434
000030 9e 38 9c bd fd 9e c4 bd 44 f3 91 3e 79 a7 b9 3c
       -0.07627986 -0.09600637 0.2850591 0.022662865
000040 b1 2d 1a bf ed 87 d5 be 80 95 02 3f 8b 00 9c bc
       -0.6022597 -0.41705266 0.5100937 -0.019043228
000050 cc 89 0f 3f a9 c1 8b 3d 35 e1 c3 b9 fc 10 61 bd
       0.56069636 0.06824047 -0.0003736109 -0.05494784
000060 f2 df 1e 3e 3c 1f 6a 3f d5 84 c1 bd 5c 12 68 be
       0.15515116 0.9145391 -0.09449164 -0.22663254
000070 9e ff e2 bc eb 85 3c 3e c4 b7 73 3d 17 58 85 be
       -0.027709778 0.1841046 0.059501424 -0.2604377
000080 6c 98 13 3f 76 da 1e 3e 25 ff b8 bd 3f 7f 98 be
       0.5765445 0.15513024 -0.0903304 -0.2978458
000090 53 40 fc bd cb ba 08 bb 17 61 0a be d7 e2 3c bd
       -0.12316956 -0.002086329 -0.135136 -0.04611477
0000a0 cd 2f 12 bf 8a 1e f2 bd 1f fc 18 be a4 fe b0 3b
       -0.5710419 -0.11822231 -0.14939927 0.0054014493
0000b0 38 31 fe 3c 59 2b b2 3e 98 4d 0c 3e 07 aa 86 be
       0.031029329 0.34798697 0.13701475 -0.26301596
0000c0 18 89 d4 ba d3 ef 60 3e 96 e1 bb 3e 7d a6 c8 bd
       -0.0016215174 0.21966486 0.36695546 -0.0979738
0000d0 3c 3f 8c 3d 2d ac 31 3e df c9 24 3f 70 2a 40 3e
       0.068479985 0.17350836 0.6437053 0.18766189
0000e0 b5 35 cb bc e7 c6 26 3d 02 81 76 bc ed 2e 17 3f
       -0.024805883 0.04071703 -0.015045406 0.5905598
0000f0 eb ed ed 3d 72 0e c3 bc 43 95 aa bc e4 36 2f 3e
       0.11617645 -0.023810599 -0.020823127 0.17110783
000100 fb 8b b7 bd b7 33 14 3f 97 c1 71 bc 51 e5 2a bc
       -0.08962246 0.5789141 -0.014755628 -0.01043065
000110 5e 47 16 bd 25 3e 8d be 4a a9 3f bd 1c 14 c8 bc
       -0.036689155 -0.27586475 -0.046792306 -0.024423651
000120 b8 08 05 3d 03 d1 e5 bd 5a bc b5 bd df 3e 1c 3b
       0.032479018 -0.112215064 -0.08873816 0.0023841185
000130 24 83 86 3d 98 3b 5d 3d 14 27 54 bd 52 b3 c1 be
       0.06567982 0.05401191 -0.05179508 -0.37832123
000140 7f ca 68 ba 84 90 65 3d 38 b0 fe 3d 69 2c 02 3e
       -0.0008880272 0.056046024 0.12435955 0.12712254
000150 fe 2a 1b bd e8 26 54 bd 74 e2 23 3d ea 1a 3c bd
       -0.037882797 -0.051794916 0.040010884 -0.045924105
000160 74 9d d9 be 3c 95 21 bd 7f 2e 8c 3e 05 39 60 3d
       -0.4250294 -0.03944896 0.27379224 0.054741878
000170 db ee 6e 3e be 2b 51 3e 15 cb 1a be e6 4b 37 3e
       0.23333304 0.20426843 -0.15116532 0.17900047
000180 fa f0 b8 3e fe 17 1c 3e e7 7d 7b 3d f5 21 27 bd
       0.3612135 0.15243527 0.061399367 -0.04080387
000190 11 89 4e 3e 3b 4c 0d be 85 eb 13 3f 4b 2e bd 3e
       0.20169474 -0.13798611 0.5778125 0.3694938
0001a0 91 37 73 bd 65 c3 8b 3c 86 8d 18 bd 54 d7 e5 3e
       -0.059379164 0.017060945 -0.037244342 0.44890845
0001b0 c2 89 b6 3c 0d 37 21 3f 8a de 8e bc 52 bf 2c bd
       0.022282485 0.62974626 -0.0174401 -0.042174645
0001c0 d2 7c e4 3c 8e fd 12 bd f4 2f 2e bc 4f 6d 0b 3f
       0.02789155 -0.03588634 -0.01063155 0.54463667
0001d0 72 19 c3 be f6 90 9a 3e 54 ae 06 3d 7b 26 ca bd
       -0.3810535 0.3018872 0.032881096 -0.09870621
0001e0 43 84 28 3c 41 8a 6a 3d e5 31 01 3d 08 05 d1 be
       0.01028544 0.057260755 0.031541724 -0.4082415
0001f0 38 66 86 3d 37 b5 1b 3f c4 40 07 be 3d f2 e6 3d
       0.065624654 0.60823387 -0.132083 0.11276672
000200 0d 82 87 bc 24 fb 41 3e 24 33 18 3c 21 93 34 3d
       -0.016541505 0.18943459 0.009289537 0.044085626
000210 d3 bd 1d 3d f4 e8 6e 3e 19 b8 f2 3d 90 e9 2c be
       0.03851111 0.23331052 0.1185152 -0.16885972
000220 3a 09 8a be da 80 95 bc b0 49 8f be ac 9d 16 3f
       -0.26960164 -0.018249918 -0.27985907 0.5883434
000230 f8 22 65 be 7c 98 70 3f e8 59 e9 be 0d 5f c0 be
       -0.22376621 0.9398267 -0.45576406 -0.37572518
000240 5a 33 54 3d b3 6a 2d 3d 5d 38 48 bb 6c 3a 40 be
       0.051806785 0.042338084 -0.0030551173 -0.18772286
000250 88 56 91 3c 67 cd 0f bd 2a fc 25 3c 38 ed 4e 3e
       0.017741457 -0.035107996 0.010130921 0.2020768
000260 84 7c 7e bb a8 84 03 bd b4 72 0f bd 53 6a 16 bf
       -0.0038831541 -0.032108933 -0.0350215 -0.5875599
000270 9f 99 36 bf e7 87 f8 3d 3a 4c 9b 3d f9 5a 8e 3e
       -0.7132816 0.12135296 0.075828984 0.27803782
000280 a2 dd 08 3d b4 4d 8f bd 8f 46 70 bc 31 6f 4b bd
       0.03341449 -0.069972426 -0.01466526 -0.049666587
000290 5f 54 27 bd d3 ae 8a be 20 cf d1 3d 54 70 62 3e
       -0.040851947 -0.27086505 0.10244584 0.22113162
0002a0 ed 6a 13 bf 79 d3 06 bf 4a c8 cf bd f5 9a 0e be
       -0.5758503 -0.5266643 -0.10145624 -0.13926299
0002b0 49 a8 e0 3c 2c 9c 42 3d fb 6b ea 3e 37 c1 c0 3d
       0.027423995 0.04751222 0.45785508 0.09411853
0002c0 5a cd 26 3f 1b d5 74 be 0d 39 40 bd b1 26 d7 3d
       0.6515709 -0.23909418 -0.046929408 0.10505427
0002d0 4a 65 4a bc 53 1e 74 3e 9d cb 40 3d ee cb 8b bd
       -0.012353251 0.23839693 0.04706918 -0.06826006
0002e0 87 72 8a bd a3 e7 17 3d fb c7 81 bd ad 26 09 3f
       -0.067601256 0.03708614 -0.06336971 0.5357464
0002f0 93 7e 92 3c 36 5d 6a 3d 1b 67 46 3d 26 a9 fc be
       0.01788262 0.0572178 0.048438173 -0.493478
000300 92 39 4d bf 5f 92 3e 3d 48 fe 43 bd 14 0f 1b 3c
       -0.8016597 0.04652631 -0.047849923 0.009464044
000310 67 6f 15 3d a7 31 30 bf 50 e5 0d bc ce c9 e3 3a
       0.036483195 -0.68825763 -0.008660629 0.0017378868
000320 3e 25 0b 3e 9c f7 ba 3c e5 99 45 3f 70 8a 73 3f
       0.13588426 0.022823147 0.7718795 0.95133114
000330 c4 15 c9 3d 71 8d 1e bd d4 7c 35 be 4f fb 90 3c
       0.098186046 -0.038709108 -0.177234 0.017697958
000340 8c d1 02 bd 89 af 17 3f a7 a0 b2 3e e0 26 73 bd
       -0.03193812 0.5925222 0.34888193 -0.059363246
000350 84 41 2d 3b ab 4e bd 3e 28 07 a1 3b 19 4a f5 be
       0.0026436755 0.3697408 0.004914183 -0.47908095
000360 91 80 1c be 65 be 3b bf e6 d9 96 bd 94 07 1d 3f
       -0.15283419 -0.73337394 -0.073657796 0.6133969
000370 49 cb 14 3d b5 d3 3f 3e a4 f6 26 3f 41 bc 09 3f
       0.03632668 0.18733104 0.65220094 0.5380288
000380 2f 95 18 3d f3 54 6d 3e f6 d1 be 3a 4e f8 d9 bd
       0.037251648 0.23176937 0.0014558423 -0.106430635
000390 15 2d a0 3b d5 fb 7c 3d a2 22 29 3e a7 b3 c1 3c
       0.0048881867 0.061763603 0.16517118 0.023645235
0003a0 73 f5 1e 3f 1d 3b 74 bf b2 47 d2 3c 55 ec 08 3c
       0.62093276 -0.954027 0.025668953 0.008357127
0003b0 4f 65 8c 3e d0 58 05 3f e1 61 ce 3d 65 0f aa 3e
       0.27421042 0.5208864 0.10077263 0.3321487
0003c0 81 c4 4a 3e 27 f4 37 3c c1 d0 ff 3d d0 45 55 3d
       0.19801523 0.011227644 0.124909885 0.05206853
0003d0 7b 5f 99 bb 82 64 b5 3e b2 21 43 3e 33 af 4d bf
       -0.0046805716 0.35428244 0.19055822 -0.8034546
0003e0 6c 33 81 bd ba 99 09 bc 93 87 29 3d cd 21 67 bd
       -0.06308636 -0.008398468 0.04138906 -0.05642872
0003f0 dd f8 a3 3e a9 0f 33 bd 61 9e b4 3e 90 e3 b2 3e
       0.32025805 -0.043716107 0.35277084 0.3493924

_advantage.weight f4 [3, 256]
000000 86 7b 73 3d e3 dd db bc a1 e6 24 bd 22 c1 8f 3d
       0.059443973 -0.026839202 -0.040259007 0.07019259
000010 0e e5 32 3e f9 c1 89 3c 7a 66 ff bc 0c 83 76 bd
       0.1747019 0.016816126 -0.031176794 -0.06018357
000020 bd 81 49 bd 34 77 4e bd e3 40 e8 bc b8 26 cc 3d
       -0.049195994 -0.05040665 -0.028351253 0.099683225
000030 4c 38 58 bc 96 b8 ce bc e5 bc 56 3e 5d 8d 70 3c
       -0.013197016 -0.025234502 0.20970495 0.014682141
000040 75 3e ae be f4 d8 3a be 67 04 37 3e bd 5f 57 bd
       -0.34032026 -0.18246824 0.17872773 -0.052581538
000050 15 aa 44 3e ed 00 ac 3d e7 e3 bf bd ab 36 8b bd
       0.19205506 0.08398614 -0.09369641 -0.067975365
000060 b4 c5 d7 3c 0e fa 2d 3f dd f9 d1 3c bf f0 f4 bd
       0.02633939 0.6795968 0.02563184 -0.11959981
000070 53 2c 3d ba 7a ef f2 3d 63 b0 ec 3b 90 9d 65 bd
       -0.00072163827 0.11862083 0.0072231754 -0.056058466
000080 38 a0 84 3e cb 3b ab bc 7f a3 44 be 71 e2 14 bd
       0.25903487 -0.020902535 -0.19202994 -0.036348764
000090 a7 e7 c5 3d 69 92 86 bb 78 df ed bd ec 3a 97 bb
       0.09663325 -0.004106809 -0.11614889 -0.0046151783
0000a0 58 af 61 be c1 f7 99 bd ce d7 a7 3d c6 3f d1 bc
       -0.22039545 -0.075179584 0.08195458 -0.025543105
0000b0 9e 77 19 3d cf d3 d0 3d 7e d6 fe 3c d6 af 0e be
       0.03746759 0.10196649 0.031108137 -0.13934264
0000c0 d8 4a 53 3d 64 1e 26 3e 0b cd 8b 3e 80 08 1f 3c
       0.05158505 0.1622253 0.27304873 0.009706616
0000d0 b0 85 08 3e 97 5e 00 3e 77 aa e8 3e f3 e4 96 3e
       0.13332248 0.12536083 0.45442554 0.2947155
0000e0 1e 31 11 3d 8b 00 88 3c 26 70 93 bd a7 b2 d0 3e
       0.035447232 0.016601821 -0.07199125 0.407613
0000f0 49 f9 b8 3d 94 ea 38 bd 38 80 0c 3c c1 67 9b 3d
       0.09031922 -0.045145586 0.008575492 0.07588149
000100 56 14 fa 3b c9 55 95 3e 8f b7 1e 3d 3c ab 38 bc
       0.0076318188 0.2916701 0.038749274 -0.011271294
000110 cf eb 0e bc 81 e8 0d be d8 f2 4d bd f6 ab 0e bd
       -0.008723213 -0.13858224 -0.050280422 -0.034831963
000120 1d 87 59 3d cc eb 95 3d 26 fd 58 bd 3b 34 72 bd
       0.05310737 0.07320365 -0.052975796 -0.059131842
000130 58 8e 94 3e e4 a2 c5 bc 56 a2 1a bd a9 c5 97 be
       0.2901485 -0.024125524 -0.037752472 -0.2964299
000140 1c 8c ea bc 8c 2b d2 3c 6f 00 f4 3d 34 d7 c0 3d
       -0.028631262 0.02565553 0.11914145 0.09416047
000150 b9 20 46 3d b3 12 ba bd 2f c3 21 bd 9d b3 d3 bc
       0.04837105 -0.09085598 -0.039492782 -0.025842482
000160 f8 78 aa be 57 e0 28 3d 8e 15 67 3e 0e 05 dd 3c
       -0.33295417 0.041229572 0.22566816 0.02697995
000170 39 29 c4 3d ba a6 7b 3d d3 f4 c1 bc d4 f7 e7 3d
       0.09578175 0.0614383 -0.023676312 0.11326566
000180 99 c6 89 3e 5b 65 e8 be a2 91 7d 3c 9d 6a 0c bd
       0.2690933 -0.45389828 0.015476616 -0.03428136
000190 9a 92 1b 3e 7d 29 d4 bd 9a f5 9a 3e 68 0e 76 3e
       0.15192643 -0.10359476 0.30265504 0.24028933
0001a0 38 ff 7f 3d ca a1 19 3d aa 11 3d 3c 67 55 43 3e
       0.062499255 0.03750781 0.011539856 0.19075547
0001b0 f2 01 90 3c 69 fa d9 bd 70 0c 22 3d 9c b6 de bc
       0.017579053 -0.10643465 0.039562643 -0.027186684
0001c0 e7 b6 cd bc ef f2 61 bd 45 57 72 bd 41 29 e5 3c
       -0.025111629 -0.05516332 -0.059165258 0.027973773
0001d0 84 14 7e be 5c c9 51 3e f3 72 2d 3d eb d3 26 bd
       -0.24812514 0.20486969 0.042345952 -0.040729444
0001e0 d4 95 63 bd df 52 04 3d 8b ee 3c bd a3 0a 36 be
       -0.05556281 0.032305595 -0.04612593 -0.17777495
0001f0 c4 bb 6a 3d c3 4b 96 3e 2e 18 a6 bd 6e f2 69 3d
       0.057307974 0.29354677 -0.08110081 0.057115965
000200 07 76 fd bd 2e b8 5d 3d ab 65 33 bd a4 40 9c 3d
       -0.123760276 0.054130726 -0.04379813 0.07629517
000210 73 20 60 bd 63 6d 90 3e 1b ca bd 3d 19 3d b0 bd
       -0.054718446 0.28208455 0.09267064 -0.086054035
000220 2c b3 b3 bd 26 ac a9 bc 36 91 db bd b2 d6 cd 3e
       -0.08774409 -0.02071197 -0.10721056 0.40202862
000230 ed 32 72 bd 84 63 f5 3e 85 4c 42 be 5e b5 8a bd
       -0.059130598 0.47927487 -0.18974502 -0.06772874
000240 07 6f 1f 3d 4b da 1b 3d c5 89 82 3c b8 d7 01 3e
       0.038924243 0.038049977 0.015934834 0.12679946
000250 38 e3 2a bc 57 f0 11 3d e0 92 97 bc 42 15 5e 3c
       -0.01043015 0.035629597 -0.018502653 0.013554873
000260 13 ed 3f bd 18 9a b6 3c 9e 66 56 bc 57 e3 72 be
       -0.04685695 0.022290275 -0.013085989 -0.23719536
000270 de a8 a1 be 73 2f c4 3d a9 56 23 3e 5f d0 90 3e
       -0.31574148 0.09579363 0.15951027 0.28283975
000280 88 b0 fa 3c 46 4a 0c bd 0b cb 0b bd 08 02 52 bd
       0.030601755 -0.03425052 -0.034129184 -0.05127147
000290 4f b8 cc bc e3 5b 34 be 91 bb a7 3c 2f 2e 93 3d
       -0.024990229 -0.17613177 0.02047518 0.07186543
0002a0 23 6c 5d be 29 65 86 be 55 1f 1e bd bb 1f 31 3d
       -0.21623282 -0.26249054 -0.0386041 0.04324315
0002b0 c5 3a f5 3c 39 40 82 3d c7 bd 65 3e 07 66 b5 3c
       0.02993525 0.06359906 0.22435676 0.022143377
0002c0 ba 7b 32 3f 4f 46 83 bd 09 bf f1 bd 6e 7d a3 3c
       0.6972004 -0.06409895 -0.11804015 0.01995727
0002d0 06 0e 1b bd 4e 12 47 3d 8b f4 9e 3d 43 77 99 bd
       -0.03785517 0.04860144 0.077614866 -0.074934505
0002e0 49 8c 75 bd 44 d1 d2 bc 6d ae 57 bb 49 09 9b 3e
       -0.05994824 -0.025734551 -0.0032910362 0.30280522
0002f0 8d be 8b 3c 3f d7 cd bc 28 9d b9 3c 20 51 82 be
       0.017058635 -0.025127051 0.022657946 -0.25452518
000300 a9 1c 1d bf e7 b2 89 3c fc 86 9f bd da dd c5 3b
       -0.61371857 0.01680894 -0.07789418 0.0060384097
000310 ed a9 82 bb f1 bb c7 be d9 9b 4c bc 97 e5 0f 3c
       -0.003987542 -0.39010575 -0.012488329 0.008782766
000320 15 b9 86 3c dc 4b 71 bd 28 fd c7 3e 7f 16 1e 3f
       0.016445676 -0.058910236 0.3906033 0.61753076
000330 b4 b7 37 3d 30 af 66 bc 3e 9a 16 be 58 4d 47 bd
       0.044852927 -0.014079854 -0.14707276 -0.048657745
000340 f6 f7 37 3d 92 b1 b0 3e d2 fc f5 3d 22 12 04 bd
       0.04491421 0.34510475 0.12011112 -0.032243855
000350 85 08 58 39 1c d9 98 3e 80 57 8e 3c f8 ed 30 be
       0.00020602539 0.2985314 0.017375708 -0.17278278
000360 ee 06 ce bd 15 11 a5 be 00 8f 94 bd b0 60 ad 3e
       -0.100599155 -0.32239595 -0.072538376 0.3386283
000370 47 a2 71 3d 68 ad 06 3e 09 f2 1a 3f b6 0f 80 bd
       0.05899265 0.13152087 0.60525566 -0.062529966
000380 56 f0 5a 3c 84 06 6d 3e 93 ad c3 bb eb c1 4f 3e
       0.013362965 0.23147017 -0.0059716194 0.20288818
000390 45 83 45 3d eb 93 48 3d c3 58 1a 3e cc 91 4c 3d
       0.04822089 0.04896919 0.15072922 0.04994373
0003a0 33 55 cb 3e 36 26 a5 be dd 79 db 3c b6 68 15 bd
       0.3971344 -0.32255715 0.026791507 -0.036476813
0003b0 1d 14 01 3d b8 c0 6d 3e a6 5f 6e 3d bb b4 87 3e
       0.031513322 0.23218048 0.058196686 0.26505074
0003c0 71 d1 c9 3d b2 4c 29 3d c9 70 17 3d 3a d8 66 3d
       0.09854401 0.041332908 0.036972795 0.056358553
0003d0 e6 b3 4f bb d9 80 4e bd b9 c0 3e 3e 97 18 bd be
       -0.0031692921 -0.050415847 0.18628205 -0.36932823
0003e0 2a 83 17 be a2 c1 a7 3b 02 e5 14 3b 10 2b 7e bc
       -0.14796129 0.0051195184 0.0022719507 -0.015513197
0003f0 2c 3b 41 3e b8 59 2f 3e 78 16 48 3e 8f de 01 3e
       0.18870229 0.17124069 0.19539821 0.12682556

_advantage.bias f4 [3]
000000 b4 2e 91 bc 40 b5 9a bc bf 32 8b bc
       -0.017722465 -0.018885255 -0.016991971

_out.weight f4 [3, 256]
000000 12 eb 65 3d 00 91 b2 bb 4e 45 3a 3d 28 a5 b5 bc
       0.056132384 -0.0054494143 0.04547625 -0.02217348
000010 de 8d 0f bd d4 33 c1 3c 1c 48 e9 bc a0 5c f0 bb
       -0.035047404 0.023584284 -0.028476767 -0.0073352605
000020 ce d7 24 3d 22 e9 13 bd 16 07 58 3d 64 98 86 bc
       0.04024487 -0.036111005 0.052741133 -0.016430087
000030 46 b9 14 bd 00 96 5c bb ca c8 59 bd cc 9a a7 bc
       -0.036309503 -0.0033658743 -0.053170003 -0.020459555
000040 9c cd f1 bc 58 1e 6c bd d8 4a 14 3d 1a ac 63 bd
       -0.029516988 -0.057646126 0.03620419 -0.05558405
000050 28 69 1f bd 9c b7 98 bc 88 bb d2 bc a0 78 1a 3c
       -0.038918644 -0.01864224 -0.025724187 0.009428173
000060 fa a8 09 bd 10 98 f9 3b e8 ce fe 3c 2c e8 3c bd
       -0.033608414 0.007617004 0.03110452 -0.046119854
000070 00 bc fa 39 be ee 67 3d ce bd 26 bd 76 02 75 bd
       0.00047823787 0.056624167 -0.040708356 -0.0598168
000080 48 38 32 bd 40 fb 5b bd 54 40 35 3d 28 13 10 bd
       -0.043510705 -0.053706408 0.0442508 -0.03517452
000090 38 aa d8 3c 38 2e 20 bd 0c 45 8d bc e0 33 13 3c
       0.026448354 -0.039106578 -0.017244838 0.008984536
0000a0 8c a4 dc bc 5c 5e 71 bd b0 cc 98 bb 00 7a 7b b9
       -0.02693393 -0.05892788 -0.0046630725 -0.00023982674
0000b0 a4 41 bb bc 12 42 51 3d 10 30 6c bd e4 b2 e4 3c
       -0.022858448 0.0510884 -0.057663023 0.027917333
0000c0 be ea 7e 3d ec 4a d8 3c b4 0a 60 3d 34 34 52 bd
       0.062235586 0.026402913 0.054697707 -0.051319316
0000d0 98 e7 f9 bc 08 80 9a bc ea fc 48 bd 94 14 08 bd
       -0.03050594 -0.018859878 -0.049069323 -0.03322275
0000e0 d8 e6 09 3c 04 c3 fb bc 84 83 8f bc 1a 69 1c 3d
       0.008416854 -0.03073264 -0.017518766 0.03818617
0000f0 44 71 90 bc e6 64 41 bd b2 d2 19 bd 5c 7b fc 3c
       -0.017632134 -0.047215365 -0.03755445 0.030820541
000100 80 d5 b2 3c 40 88 43 bc f4 ff 34 bd 80 57 9b 3a
       0.02183032 -0.01193434 -0.04418941 0.0011851639
000110 d0 78 2c 3c c2 5e 17 3d 70 fd 70 bc 60 89 ad 3c
       0.010526851 0.036955602 -0.014708862 0.02118367
000120 d6 8c 34 bd 66 32 13 3d 4a fa 37 3d 18 ef ed 3c
       -0.044079624 0.035936736 0.04491643 0.029044673
000130 6e c2 67 bd d4 40 e8 bc 34 8a f6 3c 00 c6 d1 b9
       -0.056581907 -0.028351225 0.030095197 -0.00040011108
000140 68 78 3a 3d 80 48 e3 bb 94 0e 44 bd 96 32 58 3d
       0.045524985 -0.006936133 -0.047865465 0.052782618
000150 ea 19 6b 3d d8 c3 10 3d 42 84 4d bd 48 42 27 bc
       0.05739776 0.03534302 -0.05017496 -0.010208674
000160 6c 5c 37 bd 20 a3 01 bd 5c 97 cc 3c b4 75 94 bc
       -0.044765875 -0.03164971 0.024974518 -0.018122531
000170 8e c4 61 bd 20 e0 56 3d 72 fd 5c bd 18 4c 0b bc
       -0.05511909 0.052459836 -0.05395264 -0.008502029
000180 00 1a de 3c 7c 21 24 3d 76 ce 67 bd cc 8e 2a 3d
       0.027112007 0.040070996 -0.05659338 0.041640088
000190 f0 b9 ee 3b 08 7e cc 3c f8 f0 c7 bc e0 74 9e 3b
       0.007285349 0.02496244 -0.024406895 0.00483571
0001a0 76 c3 44 bd 80 b9 b4 3b 04 c8 29 bd fc e5 c8 3c
       -0.04803797 0.0055152774 -0.041450515 0.024523728
0001b0 e0 00 cb bc 40 ab a3 bb 74 ea b1 3c a0 55 2d 3d
       -0.02478069 -0.00499478 0.021718241 0.042317986
0001c0 58 4f 4a 3c 1c 85 cb bc 38 50 8a bc a4 92 1f bd
       0.012348019 -0.024843745 -0.016883954 -0.038958207
0001d0 72 14 66 3d e8 b2 46 bc 68 34 21 3d 10 de d3 bc
       0.056171842 -0.0121276155 0.03935662 -0.025862724
0001e0 80 bd 69 bc be 2d 26 bd d8 56 e1 3c 8e 3c 5a 3d
       -0.014266372 -0.040570967 0.02750723 0.053280406
0001f0 64 8f bd 3c 00 79 c2 ba 12 aa 15 3d 68 88 82 3c
       0.023139663 -0.0014837086 0.036539145 0.015934184
000200 10 90 9f bc a0 fc 10 3d ba 33 56 bd 96 9f 55 bd
       -0.019477874 0.035397172 -0.052295424 -0.052154146
000210 14 d1 e5 bc dc c5 05 bd 00 07 88 3a 40 ed a1 3a
       -0.028053798 -0.032659397 0.0010378063 0.0012354031
000220 04 ce b8 bc 00 d3 92 3a 1a b8 68 bd 68 95 7e 3c
       -0.022559173 0.0011201799 -0.056816198 0.015538551
000230 40 67 05 3b f0 c7 3a 3d 20 3f 54 3b 00 c3 a4 bb
       0.0020355731 0.04560083 0.0032386258 -0.0050281286
000240 68 da d4 3c f4 f8 a7 bc aa 81 67 bd 16 b0 57 3d
       0.02598305 -0.020504452 -0.05652014 0.052658163
000250 40 79 03 3b 28 64 fa 3c 8e c2 6e bd 20 7e 6a bc
       0.0020061284 0.030565336 -0.05829101 -0.014312297
000260 28 c6 1a bd 18 19 58 bd 50 46 4b 3c 10 ab 72 3d
       -0.037786633 -0.052758306 0.0124069005 0.05924517
000270 78 75 09 3c 38 f7 44 3c 2a 1b 4e bd 50 b5 d7 3b
       0.008389823 0.012021832 -0.050318874 0.0065828934
000280 d6 f0 75 3d 9c f7 4f bd d4 fe 55 3d 88 d5 41 3d
       0.060044132 -0.050773248 0.052244976 0.04732278
000290 38 0b 53 3c f6 30 27 bd de 98 68 3d 44 be 70 3d
       0.012881093 -0.040818177 0.05678641 0.0587752
0002a0 8c a7 b0 3c 40 35 7a bc 4c 82 c1 bc e8 53 18 3d
       0.021564268 -0.015271485 -0.0236217 0.037189394
0002b0 20 04 c7 3b 7a 39 75 3d 70 f5 13 bc 9e 66 6d bd
       0.00607349 0.059869267 -0.009030685 -0.05795919
0002c0 58 d6 10 bc 24 29 e3 3c a8 af 85 3c 40 2e d1 3a
       -0.008840166 0.027729578 0.016319111 0.0015959218
0002d0 a0 a1 d6 3c c0 7b be 3b e2 ca 4f 3d c4 8a bc 3c
       0.026200116 0.005813092 0.050730594 0.023015387
0002e0 e0 89 17 bd 74 d0 93 bc 88 b8 17 3c c0 a5 d9 bb
       -0.036996722 -0.018043734 0.009260304 -0.0066420734
0002f0 0c 25 00 bd 84 f1 d4 3c 0e fd 2c bd 7a 92 7c 3d
       -0.03128533 0.02599407 -0.04223352 0.06166313
000300 8c 3c 9e 3c 98 e1 60 bc 60 ad 2d 3b 58 ca 65 bd
       0.01931598 -0.013725661 0.0026501045 -0.056101173
000310 96 1d 7c bd a0 83 c9 bc 8c 08 e3 bc 2c 90 22 bd
       -0.061551653 -0.024598897 -0.027714036 -0.039688274
000320 58 93 42 3d e8 00 59 bd 3a a5 78 bd ec 2f f4 bc
       0.0475038 -0.05297938 -0.060704447 -0.029808007
000330 a4 90 64 bd 58 54 31 3d 90 34 9a 3b 80 91 e9 ba
       -0.055802003 0.043293327 0.004705973 -0.0017819852
000340 9a df 68 3d 18 91 21 3c 7c 24 dc bc 80 30 00 bb
       0.056853868 0.009861253 -0.026872866 -0.0019560158
000350 7e 19 26 3d cc 9d 3d 3d a4 ba b3 bc c2 7b 03 bd
       0.040551655 0.046293065 -0.021939583 -0.032100447
000360 4e 51 2d 3d c0 f5 60 bb 24 5e 1a bd 54 f1 d0 3c
       0.042313866 -0.0034326166 -0.037687436 0.0255057
000370 60 fd f9 3c a4 3c 66 3d c0 6b c4 ba 10 6d c4 3b
       0.030516326 0.056210175 -0.0014985725 0.0059944466
000380 00 ce f5 3b 5a ae 1f 3d 34 33 fd 3c dc 6a 45 3d
       0.0075013638 0.038984634 0.030908205 0.048197612
000390 c8 cf cb bc a8 45 44 bc 50 c3 39 bc e8 94 48 3d
       -0.024879351 -0.011979498 -0.01133807 0.048970133
0003a0 ee 75 0f bd 40 cd b9 3b c8 27 c1 3c 68 f3 6e bc
       -0.035024576 0.0056702197 0.02357854 -0.0145844
0003b0 d4 c8 80 bc b0 a4 6d bc 5c 29 71 3d 14 c7 89 bc
       -0.015720762 -0.014504597 0.058877334 -0.01681856
0003c0 8c 7e 6a 3d fe da 36 3d c0 c1 ee 3b 4a b3 4c 3d
       0.05724959 0.04464244 0.0072862804 0.04997567
0003d0 b8 d2 73 3d 9c 94 25 3d 9c 5e c5 bc a8 5e 13 3d
       0.05952713 0.040424928 -0.024092965 0.035978943
0003e0 9e 38 30 3d 94 87 d5 3c 8c 7f 5a 3d a4 65 9f 3c
       0.043022744 0.026065625 0.053344294 0.019457646
0003f0 50 1b 69 bd 88 87 02 3c 20 b5 d4 bb 68 e8 0d bc
       -0.056910813 0.0079668835 -0.0064913183 -0.008661367

_out.bias f4 [3]
000000 60 35 09 bd 00 1c 6e bd 00 b5 c0 3a
       -0.033498168 -0.05813217 0.001470238
