rl/deep_q_networks/dueling_ddqn/training_session/sa/target.pth (torch, 287018 bytes, 9 tensors)

_fc1.weight f4 [256, 12]
000000 68 ff 4a be 89 9c b7 bd c2 3e 69 bd 63 f1 24 3b
       -0.19823992 -0.089654036 -0.056944616 0.0025168292
000010 f9 ab 0e be 3c 3f d2 3d ea e3 71 3e 00 f8 12 3d
       -0.1393279 0.10265967 0.23622099 0.035881042
000020 32 9e 3a 3e 62 5e 0f bd 99 8f 80 3e 8f 5c 8e bf
       0.18224409 -0.03500212 0.25109556 -1.1121997
000030 d0 c5 e2 bd 22 77 d7 be 88 8f b8 be 62 72 af 3c
       -0.11072886 -0.4208308 -0.36047006 0.021416847
000040 ac 9e 6d 3e a3 1c cc bd 1c 3f 56 3e 41 51 f4 3c
       0.2320506 -0.099663995 0.20922512 0.029823901
000050 3f c0 42 3e 1b ef 14 3f 37 90 65 be 5d a0 b8 3e
       0.19018649 0.58177346 -0.22418295 0.36059847
000060 4e 5f 38 be 38 66 9d be 49 14 63 bc 2c 4c 02 3b
       -0.18005106 -0.3074205 -0.013859817 0.0019881828
000070 9b 2e 71 bd 38 03 82 bd e7 a7 db bd df 7d 8a 3c
       -0.058882337 -0.0634827 -0.10725384 0.016905723
000080 0c db 67 3e 71 55 04 3f 56 43 18 bd a6 14 64 3e
       0.22642154 0.51692873 -0.03717359 0.22273502
000090 ae f1 a4 3e 99 1c 38 be f4 60 67 3e 9d e8 bd bc
       0.32215637 -0.17979659 0.22595578 -0.023182208
0000a0 85 50 88 be 9a b0 6a 3e 1c 49 77 3e 78 bd ba be
       -0.26623932 0.2291893 0.24148983 -0.36472678
0000b0 c2 f2 4e 3e d2 f4 9d 3e bc 87 2c 3d 15 52 2c bb
       0.20209792 0.30850846 0.042121634 -0.0026294042
0000c0 6c 1d 70 3e 19 5b 28 3e 7d 65 63 3e 3e 5e fe 3b
       0.23448724 0.16441001 0.22206683 0.0077626994
0000d0 9b ef ad bd ee b4 dc 3c 49 12 10 bd 21 75 df 3e
       -0.08492967 0.026941743 -0.035173688 0.4364405
0000e0 c5 f5 0f be e1 0c 29 3e 23 28 71 3e e7 92 ac be
       -0.14058597 0.16508819 0.23550467 -0.33705828
0000f0 a6 e5 2e 3e 27 53 95 be 18 f3 fa be c6 de e0 bc
       0.17079791 -0.29165003 -0.4901359 -0.027449977
000100 37 5e 45 3d 9f e6 0d 3d da 10 59 3c c6 e4 c2 bd
       0.048185553 0.034643766 0.013248647 -0.09516291
000110 62 95 f0 3c d3 2f 07 3e bb f2 14 3e 28 72 3f 3f
       0.029368106 0.13201837 0.1454572 0.74783564
000120 cc bc e4 3d 6b ad d5 bc c0 53 1e 3d 44 b6 00 bb
       0.11168823 -0.026083669 0.03865409 -0.0019639889
000130 2a cd dd 3d 3f 26 12 3e a9 c2 e6 3d 5d 8d 4e 3e
       0.108301476 0.14272402 0.11267597 0.20171113
000140 65 ed e2 3c dc 60 98 be e4 93 57 3e f9 8c ca be
       0.02770109 -0.29761398 0.2105251 -0.3956068
000150 ae 5a f6 3e 05 7a b3 bc e8 96 c2 bc ea 2b 43 3c
       0.48116058 -0.02190877 -0.023753598 0.011912325
000160 5f 5e 3d be c4 f5 9b bd 83 dc 8a bd 9a c4 51 bc
       -0.18493031 -0.076152354 -0.067803405 -0.012803221
000170 29 e3 8b 3e ba 8d b9 be e2 70 f9 bd ff ba 51 3f
       0.27321747 -0.3624094 -0.12179734 0.8192596
000180 af b8 23 3e be d4 e2 3c 68 8d bd be da 15 5f ba
       0.1598842 0.027689334 -0.37021947 -0.0008510031
000190 78 ec 23 bc a8 a0 e0 3e c9 fc 78 3e d8 7b 81 bb
       -0.010005109 0.4387257 0.2431518 -0.003951531
0001a0 56 22 5a 3e cc fc 3e bf 0e ba 88 3e 88 7c 1e bc
       0.2130216 -0.7460449 0.26704448 -0.009673245
0001b0 7e ce 5d 3d 54 ee 54 bd 2f fa 8e 3f 11 0c 56 b9
       0.054152004 -0.0519851 1.11701 -0.00020413125
0001c0 0f a1 8e be e7 53 93 bd 9c 54 a5 be 33 29 22 3d
       -0.27857253 -0.071937375 -0.32291114 0.039590072
0001d0 c7 6d 4a 3e 53 3d 87 3e 6a cb 95 3e 37 d5 16 bf
       0.19768439 0.26413974 0.29256755 -0.5891909
0001e0 f9 cb 1e be 10 8e 04 bf f9 d5 68 3e 45 11 da bb
       -0.15507497 -0.5177927 0.22737874 -0.0066548907
0001f0 36 45 88 be a9 9b 86 be 55 0e c8 bb 08 2a 71 3d
       -0.26615304 -0.26290634 -0.006105224 0.058877975
000200 70 3a 99 bd 1d a1 28 3f 39 c5 6f be fc a3 15 3c
       -0.07481849 0.6587084 -0.23415078 0.009133335
000210 3c 27 86 3e 91 d4 89 bd ed ce a9 3b f6 c1 ab bb
       0.26201808 -0.06729997 0.005182138 -0.005241628
000220 ed 19 bd be d7 18 b0 3e 50 ce 38 3e 74 21 74 3e
       -0.36933842 0.3439395 0.18047452 0.23840886
000230 b3 2b 22 be 91 b9 0a 3f 4b ad 8e 3d a0 58 ee bd
       -0.15836982 0.541894 0.06966647 -0.116379976
000240 42 db df 3d d3 c2 96 bd 83 a6 b1 be 94 48 94 3c
       0.10930492 -0.073613785 -0.3469735 0.018101014
000250 8d 3d ba bd d5 92 ca 3d 26 99 ec 3e 4b b4 8a be
       -0.09093771 0.09891287 0.46210593 -0.27090678
000260 91 80 02 3e b5 0f 06 bf 72 a4 9e 3e b7 31 8c be
       0.12744357 -0.5236772 0.30984837 -0.2738168
000270 83 65 0a bb 67 b2 4a 3e 4c 63 c1 3d b5 4c a7 3b
       -0.0021117635 0.19794618 0.094427675 0.0051055797
000280 f9 74 93 3d de f3 38 3d b1 88 4e bd 98 0b 41 3d
       0.07200045 0.045154445 -0.050423328 0.047130197
000290 4a 31 d4 bd 0f 1f 3d be 63 ba 7e 3e ec 00 d3 be
       -0.10360964 -0.18468879 0.24875788 -0.4121164
0002a0 8f 41 5d 3e cc 1f 25 be 8e 09 a9 3d 4c 25 b2 3b
       0.2160704 -0.16125411 0.082537755 0.005436575
0002b0 bf 1b 84 be e5 db 95 3e ab bb 1b be 7d f7 46 3d
       -0.2580242 0.2926933 -0.15208308 0.048575867
0002c0 aa 8f ad bd 92 54 83 3d 21 b4 86 3d 83 01 8d 3f
       -0.08474667 0.06412615 0.065773256 1.1016086
0002d0 96 ee 2d 3e 49 47 0d 3b b7 8a b4 be bf ca 11 b9
       0.16985545 0.0021557382 -0.3526208 -0.00013903806
0002e0 f9 53 99 be 23 07 89 3e 19 e2 c0 be 7c 57 9d 3c
       -0.2994688 0.26763257 -0.376725 0.019206755
0002f0 c4 b8 0f 3f 16 7f f9 be 0c 10 63 be 3f 56 ba 3e
       0.56141305 -0.4872977 -0.2217409 0.36393926
000300 0e d0 5c 3e 95 cf 30 bd 62 04 24 be fe 17 f5 3d
       0.21563742 -0.043166716 -0.16017297 0.11967467
000310 8b cc d8 3c 8e 64 93 be db 80 73 3d 5b 09 3e be
       0.026464721 -0.28787655 0.059449058 -0.18558256
000320 c0 3c 49 bc e7 26 cf 3e 5e 95 1a be 50 ad cd 3e
       -0.01228255 0.40459368 -0.15096042 0.4017129
000330 a9 92 fc bc 4a db 85 3e 21 1f 73 be d4 19 fa 3c
       -0.030831652 0.26143867 -0.23742343 0.030529894
000340 35 e1 ff bd a2 94 87 3e 4c c8 22 be a9 12 99 3e
       -0.12494127 0.26480585 -0.1589672 0.2989705
000350 1c f2 81 3e 99 ed db bd 5d 02 b3 3e 06 a4 51 be
       0.25380027 -0.107386775 0.3496274 -0.20472726
000360 02 f8 96 3e 56 fe b5 bd 27 51 d3 3e 6a 89 18 3c
       0.2948609 -0.08886401 0.41272852 0.009310106
000370 30 13 9e be 8f 9c 4e 3e e8 17 78 be ca 08 4f 3f
       -0.30874014 0.2017691 -0.2422787 0.80872786
000380 5d 6e 81 3e 84 32 54 be 3b 17 24 3f 0f 87 d6 3e
       0.25279513 -0.20722395 0.64097947 0.41899917
000390 0a 7f 79 bc fb 68 fb 3c d5 0e 9b 3f 1d 3d 38 bc
       -0.015228042 0.030689707 1.2113901 -0.011245039
0003a0 0e a3 52 3e 1a 98 14 bf 79 5e 3b 3e 19 c1 43 bd
       0.20570013 -0.5804459 0.18297757 -0.047791574
0003b0 78 86 1d 3e 69 5f 25 3f b7 d9 48 3e 19 19 21 3f
       0.15383327 0.6459871 0.19614302 0.6292892
0003c0 8c 7f ab 3e d4 e3 c3 3b d5 33 46 be 3b b8 fa 3c
       0.33495748 0.005978087 -0.1935571 0.030605426
0003d0 c4 35 da bd 69 59 8d be 48 36 05 bd ee 84 8f 3d
       -0.10654786 -0.27607277 -0.03252247 0.07007776
0003e0 78 15 39 bf ef fb ab 3e 43 f4 75 bd 12 2b 87 3e
       -0.72298384 0.33590648 -0.0600474 0.26400048
0003f0 23 7d 57 3c 03 84 50 3e 8e 42 98 3e 58 8d 9c 3c
       0.0131523935 0.20362858 0.29738277 0.019110367

_fc1.bias f4 [256]
000000 59 41 a2 be 71 ac ec bd bc 45 3d 3e a3 9b 33 be
       -0.3169048 -0.11556328 0.18483633 -0.1753984
000010 05 f3 d2 bd c6 3f 14 be 80 7e dc bd ee 35 2f be
       -0.103002585 -0.14477453 -0.107663155 -0.17110416
000020 4b 04 b7 3d ab a3 90 3d e2 61 bd 3d 4d 9f c4 bd
       0.08936366 0.07062467 0.09247185 -0.09600697
000030 ac 94 2f be a9 ba a2 bd 4f c0 1d 3e 6f 78 5b be
       -0.17146558 -0.07945759 0.15405391 -0.2143266
000040 4a c0 28 be f7 03 4f bd 1e 73 41 3d ae 98 91 bd
       -0.16479602 -0.05054089 0.047228925 -0.071091995
000050 cf 51 95 be 10 14 35 bd f0 26 3c 3e f9 c4 e9 3c
       -0.29163978 -0.044208586 0.18374228 0.028536307
000060 66 ad 31 3d cb 2c b3 3c 9d c3 25 bd f8 21 8f be
       0.043378256 0.021871945 -0.040469754 -0.27955604
000070 2a 2c 4f be 3c 57 95 be 89 9d 8a be 04 5b 8d 3e
       -0.20231691 -0.29168117 -0.27073315 0.27608502
000080 ee d0 80 be 49 62 16 3e ea 1d 74 bb 92 dc 00 3e
       -0.251594 0.1468593 -0.0037249275 0.12584141
000090 65 51 65 be 48 b6 94 3d c4 ec 4d be 25 85 5b bb
       -0.22394331 0.0726133 -0.2010985 -0.0033496108
0000a0 2e a8 ca 3b 58 76 f6 bb 54 93 71 be 9b 47 0c be
       0.0061845994 -0.007521432 -0.23591357 -0.1369919
0000b0 80 d4 08 be 5d f8 a3 bc 9f 5d 04 be 9a 39 9c be
       -0.13362312 -0.02001589 -0.12926339 -0.30512697
0000c0 7f 36 5a 3c 2a 14 a3 be e4 f7 55 be 04 06 36 3e
       0.013318657 -0.3185132 -0.20895344 0.17775732
0000d0 55 52 86 be e3 de bc b8 2f 7e ff be aa 0c b4 bd
       -0.2623469 -9.0060545e-05 -0.49900958 -0.08791478
0000e0 65 29 19 be 71 fd 92 ba 20 46 42 be a6 b6 20 be
       -0.14957197 -0.0011214447 -0.18972063 -0.15694675
0000f0 ee 96 9b 3c 50 4b dd 3d 09 8d 1b 3e 7c 33 b0 3d
       0.018992867 0.1080538 0.1519052 0.0860357
000100 50 a7 c0 3d 35 d8 86 3c ae 90 f4 3c 41 69 d5 3d
       0.09406912 0.016460517 0.029854145 0.10420466
000110 21 69 fa bd 1e 35 16 3e 1a ab 99 be bf d1 88 be
       -0.12227083 0.146687 -0.30013353 -0.26722524
000120 0e f7 94 be 88 61 a6 be 11 12 5e 3d 0f 99 43 be
       -0.29094738 -0.32496285 0.05421645 -0.19101356
000130 20 e2 b3 3c de 27 02 3e 36 27 96 be 74 f6 2e 3d
       0.02195841 0.1271052 -0.2932679 0.042715505
000140 3b f2 19 be 2b 79 90 bd e5 5c c5 be 9a a4 d7 3d
       -0.1503381 -0.07054361 -0.38547435 0.10529442
000150 4c 52 43 be 20 25 84 be 87 9d 03 be a9 ee 61 3e
       -0.19074363 -0.25809574 -0.1285306 0.22063698
000160 36 64 72 be 67 ac 81 3d d6 91 3b bc c0 e3 ed bd
       -0.2367104 0.06331711 -0.011448344 -0.116157055
000170 e7 4c 29 be df 46 6c bb 4a 18 1d be c1 a3 99 bc
       -0.16533242 -0.0036052985 -0.15341297 -0.018754842
000180 99 3c 45 3c ea bc 14 be 18 a8 68 be e2 30 db 3d
       0.012038373 -0.1452519 -0.22720373 0.10702683
000190 4d 0e 88 be 60 ea 70 3d 7c 46 38 be 2b 1b b9 3c
       -0.2657341 0.058817267 -0.17995638 0.022595963
0001a0 fa e0 a3 be 9e 03 14 3d 11 c7 1d bd fd e6 0c 3e
       -0.3200758 0.036136262 -0.038519923 0.1375999
0001b0 03 11 3c be 6c a0 50 bd 97 16 ff 3c 37 92 44 be
       -0.18365864 -0.05093424 0.031138701 -0.19196402
0001c0 e8 7f cf bd 5b d6 a2 be 96 6c 7a be fb b6 ef 3d
       -0.10131818 -0.31804165 -0.24455485 0.11704823
0001d0 cf eb 87 be 47 55 36 3e b2 05 79 3d 8d 23 9c 3d
       -0.26547095 0.17805968 0.060796447 0.07623968
0001e0 0a 13 d1 3d bc 17 88 be 72 d0 c0 be f3 61 ca 3c
       0.102087095 -0.26580608 -0.3765903 0.024704909
0001f0 a8 0e 5a be f9 39 87 bc 0f 8d c9 bd 2a 0a a1 3d
       -0.21294653 -0.016507136 -0.09841358 0.07863267
000200 3a 83 8e be 25 99 9e be cd f4 bc be 38 ad ad bd
       -0.27834493 -0.30976215 -0.36905518 -0.084803045
000210 55 d9 ae be 98 e1 ae 3d 25 a5 dd bc 7f 5d 51 bc
       -0.34150186 0.08539122 -0.027056286 -0.012778639
000220 13 eb 2a be 37 e6 b9 be 16 c1 1e bd 2f 84 36 be
       -0.16691236 -0.36308452 -0.03875836 -0.17823862
000230 cb a1 fd bd 7d 07 35 bc a5 8d 78 be a9 6b 9f bd
       -0.12384375 -0.011049149 -0.24272783 -0.077842064
000240 a4 5e 5e bc df d5 1e be 10 1c a6 be 30 6f 13 be
       -0.013572369 -0.15511273 -0.32443285 -0.14397883
000250 2c 31 de be 48 f1 5a bd 01 19 17 be 63 50 83 bd
       -0.4339689 -0.05345276 -0.14755632 -0.06411817
000260 b5 08 d8 3c ab fa 63 be a5 8a a7 3d 9f ef fd 3d
       0.02637134 -0.22263591 0.08180741 0.1239922
000270 92 ed 6c be 78 60 80 3d d4 e8 2f be 43 58 83 be
       -0.23137501 0.062684 -0.1717866 -0.25653276
000280 b8 0c 91 3d 2c af 23 be 17 68 c0 3d 8d c7 2f bd
       0.07082504 -0.15984792 0.093948536 -0.042914916
000290 ea 3b 2d bd af c2 30 3e 06 ba f3 bd 9e 0d 8a be
       -0.042293467 0.17261766 -0.119007155 -0.26963514
0002a0 0b f8 85 be db 4b 0f be 38 b8 8c bd 3a bd 16 3e
       -0.26165804 -0.1399378 -0.068710744 0.14720622
0002b0 3a ff e8 3d 2b fb cd be e2 98 d6 bb 42 08 7e be
       0.113768056 -0.40230688 -0.006548987 -0.24807838
0002c0 e3 43 0c be 56 98 03 3e 4e 0c 05 3d 9c 58 de 3d
       -0.13697772 0.1285108 0.032482438 0.10856745
0002d0 b4 94 38 be c7 e5 46 be 3e 17 3b be f7 c1 00 be
       -0.18025476 -0.1942359 -0.18270585 -0.12573992
0002e0 01 ca 80 be b4 f2 05 3e 38 51 33 be a1 7a 58 bd
       -0.25154117 0.13080865 -0.17511451 -0.052851323
0002f0 a6 8c 9c be cf 37 b1 3d 16 ae 28 be 7a 6f 48 3e
       -0.30576056 0.08653223 -0.16472659 0.19573775
000300 4b 2f 7b be 79 39 23 bd 58 e0 1d be de 1c 05 be
       -0.2452976 -0.039849732 -0.15417612 -0.12999293
000310 7e 3e b7 bc 10 46 f2 bd 6f 60 25 3e 72 cf a2 bd
       -0.022368666 -0.118297696 0.16150068 -0.07949723
000320 18 4a e6 3c 04 ae 81 bd c1 79 1f be 88 d7 d1 3d
       0.028111503 -0.06332019 -0.15573789 0.102461874
000330 bb 8a 1b be 36 0f 1c 3e 8f aa ab bd ec d5 c5 bd
       -0.1518964 0.15240178 -0.08382141 -0.09659943
000340 33 14 68 be 03 a0 94 be 03 39 86 3d 95 f3 36 be
       -0.22663955 -0.2902833 0.06553843 -0.17866357
000350 50 97 67 be ec 3d ff bc 97 cd a9 be 38 a7 97 be
       -0.22616315 -0.031157456 -0.33164665 -0.29619765
000360 c1 97 d1 bd 7e 3d c8 bd ec b3 da bd 7e cc 84 3c
       -0.10234023 -0.09777354 -0.106788486 0.01621079
000370 5e a5 69 bd c3 c1 a4 3c 99 63 1e be 8e b9 80 be
       -0.057042472 0.020111924 -0.15467681 -0.25141567
000380 ef 65 10 bc 93 84 39 bd c3 80 ca 3d 11 7b af 3d
       -0.008813365 -0.04529245 0.098878406 0.08568395
000390 de 9c 4d be 2e ea a6 3d ea fe 80 be 26 a9 b2 3d
       -0.20079371 0.08150135 -0.25194484 0.08723669
0003a0 ae 28 0c be 67 d5 77 bd 09 f4 c5 bd 33 22 09 be
       -0.13687393 -0.06050625 -0.09665687 -0.13391952
0003b0 2d e3 16 3d 2e 72 65 be d9 f7 86 bd 9b 83 c4 bd
       0.036837745 -0.22406837 -0.06590242 -0.09595414
0003c0 8f 58 58 be 2f 07 96 3c b4 c1 cd 3d ca cf a6 bc
       -0.21127532 0.018313972 0.100467116 -0.020362753
0003d0 23 3b 87 be 7f 0e e5 3d 75 24 b3 3d c6 3f f8 bd
       -0.26412305 0.111844055 0.08747188 -0.12121539
0003e0 27 96 01 3e 4b bc bb 3d 24 96 53 be b3 05 b6 bc
       0.12654935 0.091667734 -0.20662743 -0.022219514
0003f0 9a 8b 30 bd d5 32 73 3c e4 4f 47 3d b2 7f 78 3d
       -0.043101884 0.014843662 0.048660174 0.060668655

_fc2.weight f4 [256, 256]
000000 2d 32 f7 bc 3b ea bc 3d 7a 1b f0 bb 13 d0 9f be
       -0.030175293 0.092243634 -0.007327494 -0.31213436
000010 e2 66 1f 3e 90 27 6e be c5 50 4e 3e d6 1a e1 bb
       0.1556659 -0.2325728 0.20147999 -0.006869654
000020 c9 7c 93 be 16 71 1a bf 48 31 56 3e eb 81 eb 3c
       -0.2880614 -0.60328805 0.20917237 0.028748473
000030 13 e0 3a be 1d 6c 28 be 39 2c 91 bc 7e e9 85 ba
       -0.1824954 -0.16447492 -0.017721282 -0.0010216681
000040 d6 98 0f 3d eb 9a f3 bd c3 7f 9b 3e 1d b1 10 3e
       0.035057865 -0.11894783 0.30370912 0.14130063
000050 19 f1 b4 3d 5c 72 25 bf 83 83 41 3d 30 7b 41 be
       0.08835048 -0.64627624 0.04724456 -0.18894649
000060 b8 ea 22 bf a9 77 83 be 09 e0 0b 3d 5d a5 19 3e
       -0.636394 -0.2567723 0.034149203 0.15004487
000070 0c d4 13 3e 47 fa a5 3d ca 56 75 bf f7 c2 ae bd
       0.14436358 0.08104377 -0.95835555 -0.0853328
000080 c1 56 dd bd 88 36 ce 3c 56 fa c4 be c2 f3 be 3d
       -0.108075626 0.025172487 -0.3847224 0.09323837
000090 06 cf d6 3d 11 b4 0a 3f d4 06 d8 3d 9e f0 68 bf
       0.10488705 0.5418101 0.10548177 -0.9099215
0000a0 97 bf 3d be a8 96 c6 3d 1d 73 8d be b6 a8 c5 3c
       -0.18530117 0.09696704 -0.27626887 0.0241283
0000b0 83 dd 9e be 88 89 ce 3d c5 ec fb bd 6d c3 49 be
       -0.31028375 0.10084826 -0.123010196 -0.19703455
0000c0 be e5 9e 3d b6 c1 60 bd 98 56 be be 4e 84 f2 ba
       0.077586636 -0.054872237 -0.3717544 -0.0018502565
0000d0 d5 7c 54 3d 67 29 03 be f4 ed c5 3d 2f 74 6d bc
       0.05187686 -0.12808762 0.096645266 -0.014493032
0000e0 42 af 8e 3d e4 2e d3 be 48 96 af be 49 3c 68 be
       0.069670215 -0.41246712 -0.34294343 -0.22679247
0000f0 1d 7e 49 be 4c b0 89 3d e1 85 3e bf a7 b0 e1 be
       -0.19677015 0.06723079 -0.74423033 -0.44080088
000100 63 28 17 be 5c d9 07 3d c5 0f ca be 40 a0 50 bc
       -0.147615 0.033166274 -0.39465156 -0.012733519
000110 66 c6 19 be 06 1a fa be 9f 8c 09 3d 16 21 dc 3d
       -0.15017089 -0.4884798 0.033581372 0.10748498
000120 79 a6 24 bf 20 db 08 3d 7b b9 09 bf 0e 3d 80 3e
       -0.6431652 0.0334121 -0.53798646 0.2504658
000130 a8 fe 3a bf 20 23 2c 3e 0f e2 7f 3e 87 43 52 3c
       -0.73044825 0.16810274 0.24988578 0.012833483
000140 74 f7 bf 3c a8 63 6a be 8e 6f ca 3c c0 04 fb be
       0.023433425 -0.22889578 0.024711397 -0.4902706
000150 de ff 89 3e 2a cb 50 3e 83 58 b5 bc 16 b3 a7 3c
       0.26953024 0.20390001 -0.022136932 0.020471137
000160 62 92 ac 3e 3d fe 68 3d d4 68 ed ba 35 9e 26 be
       0.3370543 0.056883086 -0.0018112906 -0.16271289
000170 a5 42 17 bd 1b 5d 44 be d5 ff a5 bd 15 0b de 3d
       -0.03692879 -0.19176142 -0.08105437 0.108419575
000180 d3 f0 80 3d cb 89 0b 3f da a8 36 3d fc b7 e1 3d
       0.062959336 0.5450713 0.044594623 0.1102142
000190 a2 8f 93 bd 89 26 49 3d d5 43 eb bd ee 3a 03 be
       -0.0720513 0.049109016 -0.11487547 -0.12815449
0001a0 2e fb 0d bd 74 08 05 bf 7c ba 72 3d 90 6e 3a bd
       -0.03466337 -0.51966023 0.059259877 -0.045515597
0001b0 cf 19 a0 3c 9a e6 a4 3c 41 cb 7d 3d a0 28 17 3e
       0.019543556 0.02012949 0.061961416 0.14761591
0001c0 0e 6b 9e bd 49 30 b3 3d b0 c8 cd be e8 55 c1 3d
       -0.07735263 0.08749444 -0.40192175 0.094402134
0001d0 c6 59 6b 3d c4 74 fe 3d af cb b7 3d 71 b7 62 be
       0.05745866 0.12424615 0.089743964 -0.2214029
0001e0 6c 83 4f bc 97 59 40 3c 2a 68 0d 3e a4 f8 03 3e
       -0.012665611 0.01174011 0.13809267 0.12887818
0001f0 58 3a 5f 3c 9d 97 60 be a0 cc 7f be 6f d2 2e 3d
       0.01362475 -0.21932836 -0.24980402 0.042681154
000200 c0 06 e4 3a 13 41 7b be cc c1 a6 3e 28 53 e1 3c
       0.0017397031 -0.24536543 0.3256973 0.027505472
000210 6d 5a 3e 3e 5e 64 0a 3e fe c9 02 bf 7c 4b e0 bd
       0.18589182 0.1351485 -0.51089466 -0.109518975
000220 c0 62 9c bd 27 1e 10 3d 2e c0 a1 be d6 61 b2 be
       -0.076360226 0.035185006 -0.31591934 -0.34840268
000230 58 e4 41 3e b2 6f 85 3e 75 11 0c bf ce 2c ba bd
       0.18934762 0.2606178 -0.5471414 -0.09090577
000240 57 24 63 be c6 84 4d 3d a0 1c 4c 3e 56 55 02 3e
       -0.22181831 0.05017545 0.19932795 0.12727866
000250 f8 46 b9 3d 29 ed a4 3e 01 56 83 3d 79 91 c4 be
       0.09046739 0.3221219 0.06412888 -0.38392237
000260 a5 d9 19 3e 09 88 3e be 12 51 19 3d ac ee 90 3d
       0.15024431 -0.18606581 0.03743083 0.07076773
000270 22 8c b0 3d 80 f2 f4 3d cc 3d b1 bf 39 63 42 be
       0.08620478 0.11960316 -1.3846984 -0.18983163
000280 3f ff c3 3c 4b 55 17 3e 0e 86 1b be 0b 8a 47 3c
       0.023925422 0.1477863 -0.15187857 0.012178908
000290 74 fa 1c 3d 10 e0 20 3e cf d2 00 3e c2 11 81 bd
       0.03832479 0.15710473 0.12580417 -0.06302215
0002a0 b9 d5 6c 3e 8a 31 15 bf 8c 20 32 3d 99 f1 49 bd
       0.23128404 -0.58278716 0.04348807 -0.04930267
0002b0 a3 54 03 3e 9c f8 14 3f 39 6a a3 3e 30 83 0e 3d
       0.12825255 0.5819185 0.3191698 0.03479308
0002c0 c8 85 d5 bd f2 bb b9 be 78 42 0f 3e 4c ab 23 3e
       -0.104259074 -0.36276203 0.139902 0.15983313
0002d0 16 8e 83 be 30 9d 15 3e e8 0d 85 be d4 8d e5 bf
       -0.2569434 0.14610744 -0.25987172 -1.7933908
0002e0 3c 93 51 be 1d 59 d4 bd f9 47 84 bd a7 b5 e6 bf
       -0.20466322 -0.103685595 -0.0645904 -1.8024186
0002f0 f5 eb 93 bf 97 ca 71 be 48 6b fe bd 8c 03 73 bd
       -1.1556383 -0.23612438 -0.12422806 -0.059329554
000300 86 7a e5 3e 60 d4 0c be 7e 6c 2f bc 49 c0 99 be
       0.4482004 -0.1375289 -0.010707019 -0.30029514
000310 c3 f9 9f 3d a8 c8 72 be 56 3f 10 3d 7f e9 8e 3e
       0.0781131 -0.23709357 0.03521665 0.27912518
000320 53 6c a9 3d d2 0f 78 be 83 83 26 3e 9b c5 ed be
       0.08272614 -0.24224785 0.16261105 -0.46439824
000330 a5 18 71 3c 85 ad 42 3d c7 64 aa be 75 af be bf
       0.014715348 0.047528762 -0.33280012 -1.4897295
000340 97 33 5f be fe a4 7e 3d c4 f8 92 be bd 48 a0 bd
       -0.21797024 0.062169068 -0.28705418 -0.07826374
000350 8a 88 79 bd 5e 09 87 3d 4d fa b7 bd ae 15 d2 3b
       -0.06092123 0.065935835 -0.08983288 0.006411276
000360 af 15 eb bd 1b 7f 90 be 7c d4 82 3d ec 47 b3 3e
       -0.11478745 -0.28221974 0.063881844 0.3501581
000370 4d 40 37 bd 3d 3b 23 be 55 4d f6 3d 1a 98 8b be
       -0.044739056 -0.15940566 0.12026469 -0.27264482
000380 92 df 1e 3e ce 47 7c bc be f2 af 3d 4e ec d7 3d
       0.15514973 -0.015397979 0.08591221 0.105431184
000390 fd 06 81 3e f1 0c cd bd 5f a3 cf 3d 6c f3 e2 3d
       0.25200644 -0.10012234 0.101385824 0.11081585
0003a0 10 62 d0 be bc 2e 70 be 4d e4 96 3d eb 4b c5 3d
       -0.40699816 -0.23455328 0.07367764 0.09633621
0003b0 9f ec d6 3d ef e4 35 3e 72 43 2d bf e9 41 3a be
       0.10494351 0.17763112 -0.6768104 -0.18189205
0003c0 3b 1c 53 3e 60 a9 a4 be 9c 9f 11 3d cd 5d 32 3e
       0.20616238 -0.32160473 0.035552606 0.17418595
0003d0 d7 e3 21 be 70 1c a4 be c8 23 06 3e ed 71 76 bd
       -0.1580957 -0.32052946 0.13099587 -0.06016724
0003e0 c7 43 94 be 9c b7 0d bf a0 5e bc be 8a 6a d4 be
       -0.2895796 -0.5535829 -0.36790943 -0.41487533
0003f0 21 5c 55 3c 90 68 a0 3d 91 f3 ae 3e 67 ef 81 3d
       0.0130224535 0.07832444 0.341702 0.063444905

_fc2.bias f4 [256]
000000 f6 a0 c9 bd 54 46 50 bd 63 bb 1f 3d ba e0 f6 3c
       -0.09845154 -0.05084832 0.038997065 0.030136455
000010 58 8d 4d be 82 d0 22 3d 52 66 c8 bd 37 e2 b9 bc
       -0.2007345 0.03974963 -0.09785141 -0.022690875
000020 ee ff 0b bb 69 55 1c be b1 13 4b be 81 cf 8b bc
       -0.0021362263 -0.15266956 -0.1983173 -0.017066719
000030 a1 3c 89 bd f4 27 16 be ce 94 98 bc 58 2e 01 3d
       -0.06701017 -0.14663678 -0.018625643 0.031538337
000040 e3 c0 60 bc 27 3e 55 bd f0 13 10 be c8 4f 53 be
       -0.013717863 -0.052061226 -0.14070106 -0.20635903
000050 a6 c9 c2 3d 12 17 98 bd 29 cc 35 bd f3 29 07 bd
       0.09511118 -0.07426275 -0.044384155 -0.03299899
000060 e3 04 c8 3b 48 02 33 3c 92 dd a9 3c e9 25 30 bd
       0.006104098 0.010925837 0.020735536 -0.043004904
000070 0b d0 bb bc 5d d8 8a bd 4f 88 fc bd c4 a2 d7 bd
       -0.022926351 -0.06779549 -0.12330686 -0.10529092
000080 43 3f 66 bc 43 ad 94 3a 8e ae 43 bd 19 bd 3c be
       -0.014053169 0.001134314 -0.04777389 -0.1843151
000090 f8 c1 4a bd 62 14 39 bd d8 bb 27 be 18 81 10 be
       -0.04950139 -0.045185454 -0.1638025 -0.14111745
0000a0 72 bf 2f be 05 aa 64 bd 7b 30 d1 bc d1 d6 1f be
       -0.17162874 -0.055826206 -0.025535813 -0.1560929
0000b0 61 6c 65 bd ac 57 1b bd 15 0f ed bb 4c 64 2e bd
       -0.05601156 -0.037925407 -0.007234464 -0.04257612
0000c0 98 cd 8f bd ba 10 87 bd b2 7c 81 bd 96 70 a0 bd
       -0.07021636 -0.06594987 -0.06322612 -0.07833974
0000d0 5f e2 fe 3c 53 56 a4 bd 5d d3 00 be fa d2 05 3d
       0.031113802 -0.080242775 -0.12580629 0.032671906
0000e0 ec 31 1e 3e 52 77 b0 bd 69 b8 b1 bd 4a 66 03 bd
       0.15448731 -0.086165085 -0.086777516 -0.032079972
0000f0 c6 dc 1e bc 61 9e f3 bd a8 67 8b bd 98 7b 9b bd
       -0.009696191 -0.11895443 -0.0680688 -0.07591933
000100 26 16 c3 3d 60 ad dd bc 7b 99 0c bd a0 95 07 bd
       0.09525709 -0.02706021 -0.034326058 -0.033101678
000110 8e 21 02 be c1 7c 99 bd 34 79 d3 3c e9 ed b8 3b
       -0.12708113 -0.07494498 0.02581463 0.0056435955
000120 d8 fb bf bd 36 c7 c4 bd 26 5f 9c bc d8 c9 83 3d
       -0.09374207 -0.09608309 -0.019088339 0.06434983
000130 90 06 96 bd ea 2f a5 bd 50 29 af bd 9d a7 5b bd
       -0.073254704 -0.080657795 -0.085528016 -0.053626645
000140 b4 36 1a bd 0c ae 61 bb da 92 52 bd df 6b 89 bd
       -0.037649825 -0.0034436015 -0.05140958 -0.06710028
000150 6e 11 b9 bd 51 87 aa bc 63 47 9c bd 18 4e 88 bd
       -0.090365276 -0.020816477 -0.076308034 -0.0665552
000160 4e ca ac bd 60 2a 83 bd 3d 94 8b bd 6a 1e 08 3e
       -0.08437024 -0.06404567 -0.068153836 0.13292852
000170 b8 85 07 bd c7 cc 5a 3d 93 89 d7 3b 13 c7 c5 bc
       -0.03308651 0.053417947 0.0065776794 -0.024142778
000180 90 2e 1f bd 5f 6d 63 bd 42 7e 00 bd 7e 42 86 be
       -0.038862765 -0.055524226 -0.03137041 -0.26222605
000190 02 76 9f bd 30 e2 1d bd a5 b2 74 bc 31 3a 0c be
       -0.0778618 -0.038545787 -0.01493517 -0.13694073
0001a0 4d 1a 35 bc 7c 8a 9f bd d1 49 6a bc a3 00 ac bd
       -0.011053634 -0.07790086 -0.014299826 -0.08398559
0001b0 5f cc 83 bd b7 60 38 bc c0 49 8c bd 5f 1d ad bd
       -0.06435465 -0.011253527 -0.06850004 -0.08452868
0001c0 75 54 0c 3e c0 66 25 bc 10 6b 70 bc 22 40 3a 3e
       0.13704093 -0.010095298 -0.014673963 0.18188527
0001d0 b4 36 ce bc 0c 26 09 3d aa 76 b3 bd c5 d1 d7 bc
       -0.025172569 0.03348355 -0.08762868 -0.026345143
0001e0 f9 f0 8a 3b c5 0c a8 bc e1 f3 8b bd e7 d9 ff 3b
       0.004240152 -0.020513901 -0.068336256 0.0078079584
0001f0 f9 bb b8 bc 7e e3 98 bd 75 d4 19 bd c9 df 88 3b
       -0.02255057 -0.07465266 -0.03755613 0.004177068
000200 e0 1b 8d bd ec d3 64 bd c6 65 9f 3c 2e 05 74 bd
       -0.06890082 -0.055866167 0.019457709 -0.059575252
000210 a4 1e c2 bd 82 f7 0d 3e 5d 25 df bd cb c2 85 bd
       -0.094785005 0.13863948 -0.10895798 -0.065312944
000220 12 6b c0 bb e5 dd 47 be ca 06 78 3c dc c7 cc bd
       -0.005872139 -0.1951824 0.015138337 -0.09999058
000230 00 e3 34 bd af 4c fa 3b 2a 30 b2 be 3e 3a 22 be
       -0.044161797 0.007638536 -0.3480237 -0.1584253
000240 f4 ff 95 bd 04 77 d9 bd 95 52 fa bd d6 99 9b bd
       -0.0732421 -0.106184036 -0.122227825 -0.07597701
000250 fa 27 e5 bd 8e 4c 9b 3d bd 7b 61 be 4e 7d c2 3d
       -0.111892655 0.07582961 -0.22019859 0.09496556
000260 44 5d 9a 3d 04 29 14 be c8 c7 d0 bd 57 fb f1 bd
       0.0753732 -0.14468771 -0.10194355 -0.118155174
000270 56 9e ea bc bb 91 13 bd 69 cb 5b bc 6e 00 37 bd
       -0.028639954 -0.03602765 -0.013415196 -0.044678144
000280 f5 5f d2 3c 70 f0 26 be fc c8 9c bd fc 4b e3 bd
       0.025680522 -0.16302657 -0.07655522 -0.11098477
000290 49 ff 5e be cf ec 0c 3d 36 23 98 bd 82 38 8a bd
       -0.21777071 0.034405526 -0.07428591 -0.06749059
0002a0 2c df c7 bd e9 89 18 be f6 01 a6 bc 2e 39 0a be
       -0.097593635 -0.14896359 -0.020264607 -0.13498375
0002b0 c8 21 b7 bd f0 a9 91 bd e5 45 2a bd e4 c3 a5 bd
       -0.0894199 -0.07112491 -0.041570563 -0.08094004
0002c0 0d 2e 73 bd 5d 39 ab bd 96 98 20 bd a5 96 56 3b
       -0.05937009 -0.083605506 -0.039208017 0.00327436
0002d0 59 e1 12 bd 31 9b 28 bd 7a c9 78 bd 86 49 39 bd
       -0.03585944 -0.041163627 -0.060739018 -0.045236133
0002e0 ec e9 73 bd fb 92 9d bd b0 d4 8b bd af 66 b1 be
       -0.059549257 -0.0769405 -0.06827676 -0.34648654
0002f0 9c 35 49 be 04 e9 9a bd 5d e4 cc bd 9f 6d 3b bd
       -0.19649357 -0.075639755 -0.10004494 -0.04575884
000300 64 d2 df bc b1 8f 5c bd 46 c7 c7 3c 63 5e ed bd
       -0.027322002 -0.053847972 0.024387013 -0.115902685
000310 c5 4a 42 be 8c ce 0f bd cd 61 f5 bc 9b 00 5b 3c
       -0.18973835 -0.035109088 -0.029953862 0.013366844
000320 ab b5 96 bb f5 51 41 be ac a6 1c 3e d2 9b 05 be
       -0.004599293 -0.1887892 0.15297955 -0.13047722
000330 d2 71 b4 bd 00 8a 9a bd 12 19 b6 3c 08 41 08 be
       -0.08810772 -0.07545853 0.022228751 -0.13306057
000340 12 48 bc bd b5 e1 6d 3d eb 85 c5 3c f8 4d a7 bd
       -0.09193434 0.05807658 0.024111709 -0.08169168
000350 60 df 21 bd 96 68 a5 3d a3 34 34 bd d3 31 4e bc
       -0.039519668 0.08076589 -0.04399551 -0.012585121
000360 fb 54 45 3e 22 19 40 3c eb 15 44 3d fa 8a da bc
       0.19270699 0.011724742 0.047872465 -0.026677597
000370 03 44 26 bd 4d d3 02 bd da 85 f2 bc 41 b5 f9 3b
       -0.040592205 -0.031939793 -0.029604841 0.007620484
000380 da fb 29 3a 91 7c f5 bd c7 72 9b be 32 5f 78 bd
       0.0006484367 -0.1198665 -0.30361006 -0.06063766
000390 20 c3 94 be 2d cc 61 bb 11 03 8a bd bb dd 4e 3b
       -0.2905512 -0.0034453974 -0.06738866 0.0031565267
0003a0 4e 22 70 3c 98 cc c0 3c 02 95 97 bd 22 9a d1 bc
       0.014656616 0.023535058 -0.07401468 -0.025586192
0003b0 77 f2 d7 bc 37 59 52 3c 6d a0 a7 bd 1a c2 70 bd
       -0.026360733 0.012838653 -0.08184896 -0.05877886
0003c0 34 8e 18 bd 23 7f b5 bb 50 f0 67 be 7d 70 3f bd
       -0.03724499 -0.0055388375 -0.22650266 -0.046738137
0003d0 06 6a d0 bc ba 58 c0 3d ab 91 03 be 40 74 82 bd
       -0.02544118 0.09391923 -0.12848537 -0.06369829
0003e0 85 34 a5 bd f3 95 31 bd 09 84 99 bd 0d 72 83 3d
       -0.08066658 -0.043355893 -0.07495887 0.06418238
0003f0 8d 5d 07 bd c9 71 16 bd 0c 2a c7 bd 9f 88 7e be
       -0.0330482 -0.036729608 -0.09724817 -0.24856804

_value.weight f4 [1, 256]
000000 e0 62 8d be 6c fb 20 bd 86 c8 15 bc 14 12 17 3d
       -0.27614498 -0.039302275 -0.009142047 0.036882475
000010 f4 88 c3 3d 86 c9 4b 3d b2 27 c7 bd c0 bf 3d 3c
       0.09547606 0.049752735 -0.09724368 0.011581361
000020 7d 8d 44 bc fb f5 49 3d 89 dc 11 3d 1d 6b ef 3e
       -0.011996624 0.04930685 0.03561071 0.46761408
000030 c2 75 c8 3b be 95 2d 3f 52 4c c0 3e 0b 35 80 3d
       0.0061175535 0.67806613 0.37558228 0.06260117
000040 12 93 ba ba f7 b3 98 3c 97 3d 97 3e f8 f4 bc 3d
       -0.0014234504 0.018640501 0.29539177 0.092264116
000050 a8 8d 42 3e cb f5 c8 3c cd 3d b3 bb ee d2 54 bc
       0.1899935 0.024531266 -0.0054700137 -0.012989743
000060 f4 71 c8 bd 98 f8 1b bd 17 0b 96 bc c8 e2 e5 3c
       -0.0978736 -0.038078874 -0.018315835 0.02806224
000070 1d 10 de 3c fe 5d 29 3f a5 11 c0 bd e8 0f 7c bd
       0.027107293 0.66159046 -0.093783654 -0.061538607
000080 89 32 4b bc 0e e4 c1 bc 50 7f ef 3e 28 4d 48 3f
       -0.012402185 -0.023668315 0.4677682 0.7824273
000090 2a 47 b1 bc 5f d5 a7 be 3d 46 bf 3e cb 5c a1 be
       -0.021640379 -0.32779977 0.37358275 -0.31516108
0000a0 19 cf 16 bf a1 6e d4 bd 19 f5 06 bf f0 a7 90 be
       -0.58909756 -0.10372663 -0.5271774 -0.28253126
0000b0 f1 e6 18 bf 86 13 1a 3f cf 80 22 bd 1f 91 5a bd
       -0.5972739 0.6018604 -0.039673623 -0.053361055
0000c0 5f e4 70 bd 5b de 01 3f c7 4c 98 bc c9 22 08 bf
       -0.05881154 0.5072991 -0.018591298 -0.5317808
0000d0 79 b0 9e be a1 2a f7 3c 2e ef 10 3f 08 e6 db bc
       -0.30994013 0.030171694 0.5661496 -0.026843086
0000e0 cd 2e d7 3d 91 db 71 3d ac 94 a8 be 2c 37 a5 3e
       0.105069734 0.059047285 -0.32925928 0.32268655
0000f0 b0 84 7e 3c e0 61 16 3d 10 11 58 bd 7d 0d e7 bd
       0.015534565 0.036714435 -0.052750647 -0.112818696
000100 55 99 77 3d 1d cb b0 bc 4e 3f a8 3c 83 5f 96 bd
       0.060448963 -0.021581227 0.020537999 -0.07342436
000110 3a bb 1f bf 04 e7 d5 bc 84 9a 25 ba be 44 08 be
       -0.6239506 -0.026111133 -0.0006317275 -0.13307473
000120 5b c6 88 be d9 e3 c6 3e 99 3b 39 bf 5a 53 40 bd
       -0.26713833 0.3884571 -0.72356564 -0.04695449
000130 3d e0 43 3e 13 3e c4 be b0 af 1c bf 5f e9 84 be
       0.19128509 -0.3832861 -0.6120558 -0.25959298
000140 8c d0 8f be 49 cc f5 bd f5 ee 23 3d de 03 e5 bd
       -0.28088796 -0.12001855 0.04002281 -0.11182378
000150 47 4e 1d bf b0 16 d6 be b6 74 c6 3e 1a b4 5d 3e
       -0.61447567 -0.41814184 0.38760918 0.21650735
000160 43 df 7c 3e e7 f9 05 bd e3 f6 b3 bb 60 ed c1 3d
       0.24694543 -0.03270903 -0.0054920777 0.09469104
000170 8f 3b 51 bd 92 54 98 3d f6 bf 27 be 27 bf 07 bf
       -0.05108219 0.074380055 -0.16381821 -0.5302605
000180 8f 3a 16 3c 69 4b 9c bc ce 49 cb bd b5 8e 2a 3e
       0.009169235 -0.019078927 -0.099261865 0.16656001
000190 a4 d2 4c bf c0 7b 7e be 09 29 11 be d6 d4 69 bd
       -0.8000891 -0.24851894 -0.1417581 -0.05708774
0001a0 ed 4b 9b 3b 83 e6 46 3e 8d 0c 2e bd 32 fa 44 bb
       0.0047392757 0.1942387 -0.042492438 -0.0030056355
0001b0 11 ee 4a be 8e 4a e3 3b 5e f6 9b 3c de e4 af 3e
       -0.19817378 0.006936378 0.019038375 0.343543
0001c0 0a 0e af 3c f0 3d 35 bb 3d af 59 bd b9 49 eb 3d
       0.021368999 -0.0027655326 -0.053145636 0.11488671
0001d0 22 c9 ac 3c 5e 5d 10 bd 16 8d ae be 70 e9 da 3e
       0.021092001 -0.035245292 -0.34092015 0.42756224
0001e0 ca f3 a6 3c f3 1b eb be 58 13 fd bb ae bd 3d 3c
       0.02037992 -0.4591976 -0.007723253 0.011580868
0001f0 b8 2f 05 3d 33 93 e1 bc fd 98 a9 be 5f 78 83 3d
       0.03251621 -0.02753601 -0.33124533 0.06419443
000200 bf df 49 3d 23 dc 5d 3c 73 d1 71 bf 7c 78 92 3e
       0.049285647 0.013541254 -0.9446022 0.28607547
000210 12 be 7d bf e0 cb c4 3e be e8 98 3e 94 09 8e 3a
       -0.9911815 0.38436794 0.29865068 0.0010836595
000220 7b 5c ae 3d 04 78 67 bf 0e 2d 33 3c 4f e9 68 3e
       0.08513733 -0.90417504 0.010936035 0.2274525
000230 2c 4b 1e be ac d0 dc 3b cb a7 40 bd ad 23 28 be
       -0.15458363 0.006738743 -0.04703502 -0.16419859
000240 78 9d 1a 3e ea 10 45 3f d2 44 b4 3e 8e 42 12 3d
       0.15099132 0.76978934 0.35208756 0.035708003
000250 ba 03 fc 3e 2c b0 bf 3e 10 a5 85 3e ca a5 e1 3d
       0.49221593 0.37439096 0.26102495 0.1101795
000260 79 ba ad be 07 f3 e7 3e e2 ab 84 bd 52 25 b4 be
       -0.3393133 0.45302603 -0.064780965 -0.35184723
000270 b1 df 96 bd e8 3e d1 3d 5d 19 1c bc cc dd 74 be
       -0.073668845 0.102170765 -0.009527531 -0.23912734
000280 62 87 b2 3d e1 c0 80 bd ca 15 1b bd bb 65 9c be
       0.087172285 -0.06286789 -0.037862577 -0.30546364
000290 86 b3 87 3f c0 c4 ee 3d 34 8a 22 be 73 43 65 3d
       1.0601661 0.11658621 -0.15873033 0.055972528
0002a0 53 74 86 be b7 10 74 3e 62 5e e5 be 06 ff 29 3e
       -0.26260623 0.23834501 -0.4479857 0.1660119
0002b0 93 8d 04 3d 98 fc 8d 3d 6d c2 1a 3c 39 07 aa bc
       0.03236158 0.06932944 0.009445769 -0.020755397
0002c0 2d fe 49 bc 56 07 af be 33 0b b1 bc 60 24 25 3c
       -0.012328667 -0.34185284 -0.021611786 0.010079473
0002d0 97 a7 e3 3e 72 e4 c3 bb ed 51 02 3c 7b f4 5e 3c
       0.44463798 -0.0059781605 0.007954103 0.013608093
0002e0 44 49 38 bd 75 54 ac bd cc 86 f7 3c b1 c4 4c be
       -0.044991747 -0.084145464 0.030215643 -0.19996907
0002f0 8c 22 80 bf bf 05 d8 bc 8b aa 23 bf f3 87 8f 3d
       -1.0010543 -0.026369927 -0.639321 0.07008352
000300 d8 2e 24 3e 6b 55 aa bd f8 20 0b 3f ba 30 3b 3e
       0.16033494 -0.083170734 0.5434718 0.18280306
000310 25 f8 c1 be b5 bd e5 bc ce 33 04 be dd eb 2f bb
       -0.37884632 -0.02804456 -0.12910387 -0.0026843466
000320 6f 99 19 bf 90 0b ae 3d df cf aa 3c 1a 9f 86 bf
       -0.59999746 0.08498299 0.020851074 -1.0517304
000330 8c 4d 1d bd 13 c3 85 3d 83 19 ff ba a6 bd 5a 3d
       -0.038404033 0.06531348 -0.0019462559 0.05340352
000340 ce 62 0e 3f d0 a2 3e 3e 9e 8d 03 3d 1a 89 12 3f
       0.55619514 0.18616796 0.03211748 0.5724045
000350 28 a0 72 be f0 5b 45 3d 38 96 d4 be 41 bb 0b 3d
       -0.23693907 0.04818338 -0.41520858 0.034114126
000360 95 bd b6 3d f3 d8 f5 bd c4 43 22 bc 3d b2 1a 3e
       0.08922879 -0.120042704 -0.009903852 0.15107055
000370 0c 80 d1 bb 73 c3 4a bd 46 80 29 bd b3 09 05 3e
       -0.006393438 -0.0495028 -0.041382097 0.12991981
000380 46 6d b6 be 71 46 88 3a eb 3c 43 3f bb ab d0 be
       -0.35630244 0.001039697 0.7626483 -0.4075602
000390 c1 e0 ba bc 28 e2 d9 bc f2 70 71 be 66 27 ed bd
       -0.02281225 -0.026597098 -0.23578241 -0.1157978
0003a0 46 1d 29 3d 11 9a c7 bd b2 82 a1 be f0 e8 4b bd
       0.041287683 -0.09746183 -0.31545025 -0.049782693
0003b0 9c 23 77 be b4 ac ee be 62 ab d7 3d 47 7b f3 bd
       -0.24134678 -0.46616137 0.105307356 -0.11888748
0003c0 85 36 05 3c e7 02 f6 bb c7 33 80 3e 24 25 9e 3c
       0.008130674 -0.00750767 0.25039503 0.01930482
0003d0 a1 a8 74 3c 38 1e 0e 3f e4 97 18 bf 03 7d 00 bd
       0.014932782 0.5551486 -0.59606767 -0.03136922
0003e0 89 52 3c be 5d 27 d3 bd 12 b5 0d 3e 5e bb 8f be
       -0.1839086 -0.10310242 0.13838604 -0.28072637
0003f0 2d 29 58 3c c4 6a b9 3d 10 44 09 3f 2e c7 d9 be
       0.013193411 0.09053567 0.5361948 -0.42534775

_advantage.weight f4 [3, 256]
000000 19 f8 e3 bd 12 4f 43 3d 20 a4 f7 3c 4d d1 b1 3d
       -0.11131305 0.04768283 0.030229628 0.08682499
000010 bf 23 74 3c 53 28 19 3c f4 79 8e 3e c7 f9 57 bc
       0.014901101 0.009347993 0.27827418 -0.01318211
000020 b6 17 c1 bc e5 50 ca 3b 3a 34 5c 3c a4 b5 8e 3d
       -0.023570877 0.006174194 0.013440186 0.06968239
000030 9b 03 21 3c d2 5e d4 3e c6 ef 8b 3e c9 29 ba 3d
       0.00982752 0.41478592 0.2733137 0.09090001
000040 be c9 2b 3d 04 7e a9 bb 1f 1f 07 3e ed 0b 9c 3c
       0.041940443 -0.005172493 0.13195466 0.019048655
000050 9e 61 1e 3c 2a f7 1b 3b 08 fa 3c bc 0e a9 98 bc
       0.009666828 0.0023798444 -0.0115342215 -0.018635299
000060 71 a2 9c 3c f6 85 2a 3d 7e 34 8b 3d 28 fb c8 3d
       0.019120427 0.04163166 0.067971215 0.09813529
000070 e5 72 4e 3c 61 44 aa 3e 16 2c fd bc 3a c4 25 bd
       0.012600635 0.33255294 -0.03090481 -0.04047034
000080 64 7f 99 bc 73 a4 2a 3d 84 73 26 3d f5 9a a4 3e
       -0.018737502 0.041660737 0.040637508 0.32149473
000090 e6 62 66 3d df d3 74 3d d3 d9 5b 3e 82 16 1e be
       0.05624666 0.05977237 0.21469812 -0.15438274
0000a0 64 a8 87 be f8 b8 3d bc 2f 33 2b bd df a3 ae bd
       -0.2649566 -0.0115797445 -0.04179686 -0.0852735
0000b0 30 b1 9b be 76 88 05 3f dc 18 c6 bd 39 8b 51 bd
       -0.3040862 0.5216135 -0.0967271 -0.051158164
0000c0 93 b0 b8 bc b1 bc 11 3e 07 5b 97 bd 24 58 73 be
       -0.022545135 0.14232136 -0.07390409 -0.23764092
0000d0 6a 33 f1 bd f2 84 85 3d 41 5e b2 3e 1e 4e d2 3d
       -0.117773846 0.06519498 0.34837535 0.10268806
0000e0 8e 38 24 3c da 1a f8 bc 18 cb c6 bd ca 35 6a 3e
       0.010023249 -0.030286241 -0.09706706 0.22872081
0000f0 5c 89 3e bd 63 00 f8 3d 92 e7 34 3c 33 79 e0 bc
       -0.046517715 0.12109449 0.011041539 -0.027401542
000100 3d dd 7e bb c8 c2 2e 3d f7 98 19 bd 74 93 00 bb
       -0.0038889193 0.042666227 -0.037499394 -0.001961914
000110 20 44 82 be 36 e0 25 bd b9 75 00 bd 63 6b 0d be
       -0.254426 -0.040497027 -0.03136227 -0.13810496
000120 f8 4f fa bd bc 2a f5 3e 18 a1 42 3d d6 42 d2 bb
       -0.12222284 0.47884166 0.047516912 -0.006416659
000130 05 7c 24 3e 4f 61 8a be 3e cb 6c be cd b1 e6 3d
       0.16062935 -0.27027366 -0.23124406 0.112643816
000140 8b ff 13 3e 1c fe 1f bd 6b b5 15 bc 19 a2 3c be
       0.1445295 -0.039060697 -0.009137492 -0.1842121
000150 87 db 89 be f5 15 76 be 70 7b 73 3e 1d f9 a8 bd
       -0.269253 -0.24031813 0.23777556 -0.082506396
000160 58 4b d0 3d cc 16 b0 bc 7e a3 ea bd 30 de 16 3e
       0.10170621 -0.021495245 -0.11456965 0.14733195
000170 23 a8 80 3c da 71 7f bc 07 a2 2c bd 3e 36 ba be
       0.015705174 -0.015591109 -0.04214671 -0.36369509
000180 b0 04 3b bc f6 16 4c 3d f2 47 8e 3e 06 a6 2d 3d
       -0.011414692 0.049826585 0.27789265 0.04239466
000190 0a 6b 76 be c1 4d 96 bd be 96 9c 3d b7 0d 13 bd
       -0.2406427 -0.07339049 0.07645939 -0.03590175
0001a0 52 f7 be 3b 1b b3 8a 3d 58 c4 26 3d 39 c9 8a bd
       0.0058278227 0.06772443 0.04071459 -0.067766614
0001b0 df 9f 81 bd 31 18 44 3d 48 e6 d4 3c 99 b0 49 be
       -0.06329321 0.047874633 0.025988713 -0.19696273
0001c0 89 83 2b 3d b9 50 3d 3c 3b bf eb bc 57 e3 90 3b
       0.04187349 0.01155489 -0.02877771 0.0044216323
0001d0 43 14 3a bd b2 38 e9 3c 0c 46 03 be ed bc 14 3d
       -0.04542948 0.028469417 -0.1281969 0.036312986
0001e0 a1 2e 1a 3d 5b bc d5 be d2 c0 82 3d 74 0e 83 bd
       0.037642125 -0.41745266 0.06384434 -0.06399241
0001f0 fb 2d 24 bb 10 92 3d bd b9 89 f6 3d b2 22 33 3d
       -0.002505182 -0.046281874 0.12037987 0.04373426
000200 3f 01 f6 3c 48 86 39 3d 6a 11 02 be 7a a5 db 3d
       0.030029891 0.045294076 -0.12701955 0.107249215
000210 c2 81 67 bf 1d 71 c9 3c 27 e9 17 3e c1 ef 2d bd
       -0.9043237 0.02459007 0.14835034 -0.042464975
000220 2d e0 6d 3d 54 fb 83 be fe cf f2 3c f9 b5 19 3e
       0.05807512 -0.25777686 0.029640194 0.15010823
000230 de 26 bb 3c bb 93 1f bc 12 35 2a bd 38 49 8b bd
       0.022845682 -0.0097398115 -0.041554518 -0.06801075
000240 05 89 e8 3d 00 29 95 3e d8 42 3a 3e 54 7a 33 3d
       0.113542594 0.29132843 0.18189561 0.043817833
000250 3c 54 9d 3e e3 4c 41 3e a6 68 07 3e 6d dd 20 3d
       0.30728328 0.18876986 0.13223514 0.039273668
000260 6f 45 2a 3f b4 34 26 3e de e7 93 bd 37 42 5b 3e
       0.665122 0.16231042 -0.072219595 0.21411978
000270 3b d4 0e bd cc 1c 0c 3e 97 d5 7d 3b 9d 2b f5 bd
       -0.034870367 0.1368286 0.0038732046 -0.11971209
000280 c3 14 19 3b ea 5d 96 bc 3d 70 04 3d 64 17 84 be
       0.0023358322 -0.018355329 0.0323336 -0.25799096
000290 cc cc ad 3e 8b 5d 88 3d 12 7f 98 bd ad ab 5c 3d
       0.3394531 0.06658467 -0.07446112 0.05387466
0002a0 dc 83 bc bd 45 f1 12 3e 0e b4 8c be e2 f4 ce 3d
       -0.09204838 0.1434985 -0.2748112 0.101053014
0002b0 03 69 2c bb f9 06 17 3c 3a 4c eb 3d d1 1d e4 3c
       -0.002630771 0.009217971 0.114891484 0.027846249
0002c0 5c ba 40 3d e0 a3 fc 3d 4d 4a 01 3c f9 d5 1a bd
       0.047052726 0.12335944 0.00789125 -0.037801716
0002d0 82 13 ad 3e 27 ae 93 bc 03 ec 12 bd a9 37 18 bc
       0.33803946 -0.018027378 -0.03586961 -0.009290614
0002e0 f0 ae 06 3d 50 95 c2 bd 53 7a 47 3c f0 9b 31 bc
       0.032881677 -0.09501135 0.01217516 -0.010840401
0002f0 58 d0 6b bd dc 40 33 bd 0f 39 88 be 04 c7 eb 3c
       -0.05757174 -0.043763027 -0.26606032 0.028781421
000300 8c 90 b0 3c 65 84 98 3c 3f 42 9e 3e e0 03 4b 3d
       0.0215533 0.018617818 0.30909917 0.049564242
000310 49 b5 3c be 1b df 1e 3d 87 b4 c4 bc a1 47 e4 3b
       -0.1842853 0.03878699 -0.024011863 0.0069665466
000320 cd 27 ad be c8 1c 29 3b b1 2c 5f 3b b7 b3 8c be
       -0.33819428 0.0025804508 0.0034053738 -0.27480862
000330 ad 3d 16 bd 3c 60 32 3c cd 21 dc 3b cf 3f 7c 3c
       -0.036679912 0.010887202 0.0067178966 0.0153960725
000340 71 e6 b9 3e 95 1b 6d 3d 6f 26 07 bb 9d 13 aa 3e
       0.36308625 0.057887632 -0.0020622273 0.3321809
000350 b6 7f b3 bc 58 69 8e 3c 26 af ad 3d 0f ef 24 bd
       -0.021911483 0.017384216 0.084806725 -0.040267047
000360 d5 98 93 3c 35 43 b5 bc dd 32 01 3d 31 65 2b 3e
       0.018017212 -0.022126773 0.031542648 0.1673782
000370 1d 94 45 3d bc 04 9e 3d 61 a2 41 3d 8c 1b c7 3c
       0.048236955 0.07715747 0.047273997 0.024305128
000380 69 d6 d4 be c9 90 24 3c d2 79 5a 3d 26 c6 5e be
       -0.41569832 0.010044285 0.053338833 -0.21755275
000390 c3 e2 16 bd 69 25 0b 3d 32 37 22 be 74 35 f8 bc
       -0.03683735 0.033971224 -0.15841368 -0.030298926
0003a0 4e 7d a1 3c 98 c5 13 3c 9d c0 e3 be c1 a9 fc bc
       0.01971307 0.009019278 -0.4448289 -0.030842664
0003b0 be 26 c5 3d 56 49 be be 00 d1 6e 3d 39 10 aa bd
       0.0962653 -0.37165326 0.058304787 -0.083038755
0003c0 94 29 ad 3c 6d 98 ea bb e9 15 d8 3d 9a a1 cc bc
       0.02113799 -0.007159284 0.10551054 -0.024979401
0003d0 8a 4c 1b 3d 46 43 01 3f 21 f8 87 be b9 d4 38 bc
       0.03791479 0.50493276 -0.26556495 -0.011281186
0003e0 1c 9b 15 3e f8 4e 27 3c b6 ef 58 3e d8 32 0a be
       0.14609951 0.010211699 0.21185192 -0.13495958
0003f0 e7 7c a3 bc d7 80 04 3d f3 d6 9f 3e 91 10 fb bd
       -0.019957019 0.032349434 0.3121868 -0.12259019

_advantage.bias f4 [3]
000000 49 c8 84 bc e7 fc 80 bc bb e1 7d bc
       -0.016208785 -0.015745593 -0.015495713

_out.weight f4 [3, 256]
000000 88 87 c1 bc 60 12 0c bd a4 d3 88 3c ac f4 92 3c
       -0.023624197 -0.03419721 0.01670248 0.017938934
000010 90 3d e4 3b f8 74 00 bc b6 5f 0b bd 74 c2 27 3d
       0.0069653466 -0.0078403875 -0.034026824 0.04095693
000020 00 0a 52 bc c4 84 db bc 80 78 0a 3b c2 b3 37 bd
       -0.012819767 -0.026796706 0.0021128953 -0.044849165
000030 50 4b 0c 3d 82 a9 0e bd ee d0 5a bd ba e6 7b bd
       0.03425151 -0.034829624 -0.053421907 -0.061499335
000040 9a 69 28 bd 38 99 7b 3c 00 06 05 3d e0 5e 4c 3b
       -0.041116334 0.015356354 0.032476425 0.003118448
000050 ce 76 38 3d d6 8a 65 bd 18 52 ae 3c aa a5 58 3d
       0.045035176 -0.056040607 0.02127938 0.052892365
000060 68 ce c0 bc 10 96 0d 3d 1c 44 73 bd 9c 50 5d 3d
       -0.023535922 0.03456694 -0.059391126 0.054031953
000070 e0 94 5f 3b 52 2a 71 bd 4c 60 c3 3c f8 8d 72 3c
       0.0034115836 -0.05887825 0.023849629 0.014804356
000080 40 8f 50 3c 08 21 d4 bc cc 98 ef 3c d0 ec 82 3b
       0.012729466 -0.025894657 0.029247664 0.0039955154
000090 40 90 6a 3d 24 9c 68 bd e0 ee ac bb 00 b9 4b bc
       0.057266474 -0.056789532 -0.0052774996 -0.012434244
0000a0 18 21 d0 bc e8 55 ca bc f4 e7 6e bd 2e cc 3a bd
       -0.025406405 -0.024699166 -0.058326676 -0.045604877
0000b0 58 70 6d bd 28 7d 31 bd 70 ea 6f bd 7c 4c 02 bd
       -0.057968467 -0.04333225 -0.058573186 -0.031811222
0000c0 cc 14 44 3d 5c 54 31 bd 60 1b 06 bc 34 aa 00 3d
       0.047871396 -0.043293342 -0.008185238 0.03141232
0000d0 9c 1a 3d bd 26 02 10 bd c0 c1 b4 ba f6 fc 0d bd
       -0.046167955 -0.0351583 -0.0013790652 -0.03466507
0000e0 c6 70 14 3d c8 c3 43 3d 80 d8 ed bb 40 31 70 3b
       0.03624036 0.047794133 -0.007258475 0.003665045
0000f0 e0 01 53 bd d0 2c 40 3d 58 df 0c 3c 38 6d 84 bc
       -0.05151546 0.046917737 0.008598171 -0.01616536
000100 a4 bf ac 3c e0 b6 84 3b 64 9e ea 3c f4 72 fd 3c
       0.021087475 0.0040501207 0.02863998 0.030938603
000110 ae 8d 14 bd de bf 16 bd 90 39 17 bc d0 f6 b7 3c
       -0.03626793 -0.036804073 -0.009230033 0.022456557
000120 58 21 54 3d 1e 6a 0a bd 80 78 ba bc 70 c2 c8 3c
       0.05178961 -0.033792607 -0.022762537 0.024506778
000130 ac ac 12 3d 0c b9 cd 3c 94 3a 3c 3d a2 03 0a bd
       0.035809204 0.025112651 0.045954302 -0.03369487
000140 d0 27 d8 3b 64 68 8c bc ca 80 21 bd 20 b6 30 3b
       0.006596543 -0.017139621 -0.039429463 0.0026964024
000150 b8 68 e7 3c 00 48 43 b8 da 6f 02 3d ce 55 74 3d
       0.028248176 -4.6558678e-05 0.03184495 0.059652142
000160 50 86 f3 bb ca c6 79 3d 34 49 a3 3c 60 52 3a 3b
       -0.007431783 0.060980596 0.019932367 0.0028430447
000170 80 db f2 bc 68 4d 7d bc 02 50 78 3d 9c 0d 8b 3c
       -0.029645681 -0.01546035 0.060623176 0.016974263
000180 3c 90 7e 3d c8 fb 59 3c 80 e3 c0 3a e8 17 50 3c
       0.06214927 0.013304658 0.0014716238 0.012701012
000190 62 89 61 3d 0c 3d fe 3c 80 fd 62 bd ea 05 36 3d
       0.05506266 0.031034969 -0.055417538 0.044439234
0001a0 80 b5 3e 3d 92 77 68 3d 78 1f 53 bd 20 50 db bc
       0.04655981 0.056754656 -0.051543683 -0.026771605
0001b0 d2 20 3c 3d ea 44 29 3d e0 97 20 bb 94 6d 0f bd
       0.045929737 0.041325487 -0.0024504587 -0.03501661
0001c0 68 19 4e bd 80 88 6e bd 80 59 b9 bc 70 36 39 bd
       -0.050317198 -0.058235645 -0.022625685 -0.04521793
0001d0 18 96 cd 3c f0 71 06 3d 88 23 a2 bc ba 66 63 bd
       0.025095984 0.032823503 -0.019792333 -0.05551789
0001e0 24 1e c7 bc 00 a8 25 b8 80 f8 67 ba ba 49 5e bd
       -0.024306364 -3.9495528e-05 -0.000884898 -0.05426953
0001f0 3a 80 20 3d 8c 8f 35 3d e8 a1 7c 3c ce 00 3c bd
       0.039184786 0.04432635 0.015419461 -0.045899205
000200 ca 2c 35 bd fe 8a 0f bd 40 5d 38 bb b6 ab 3c bd
       -0.044232167 -0.035044663 -0.0028131753 -0.046062194
000210 50 35 77 3c 08 6d 91 3c 88 56 61 bc ea cb 4f 3d
       0.015088394 0.017752185 -0.013753541 0.050731577
000220 80 f6 77 ba 20 d6 b9 3b e0 1c 5f bb c0 4a 4d 3d
       -0.00094590336 0.0056712776 -0.003404431 0.050120115
000230 bc 4e 00 bd c6 ab 0d 3d e0 b3 78 3c 76 00 7c 3d
       -0.031325087 0.034587644 0.015179604 0.061523877
000240 68 c2 e6 3c a4 5d 45 bd fc fd 91 3c 24 24 58 3d
       0.028168872 -0.048185006 0.017821305 0.05276884
000250 fa 07 3a bd 94 97 2b bd 0c 47 e7 bc 22 52 0a 3d
       -0.045417763 -0.041892603 -0.02823212 0.033769734
000260 fa ac 68 3d 40 9c d0 3b 38 c5 1d bd 3a 24 45 bd
       0.05680559 0.0063662827 -0.03851816 -0.04813025
000270 c2 0e 07 3d 38 9f 0a 3d c0 93 4d 3b 98 2a 5c bd
       0.03297306 0.03384325 0.0031368583 -0.053751558
000280 d2 83 2d 3d f8 42 59 3d 24 b8 72 3d c0 fa 82 3a
       0.04236204 0.053042382 0.05925764 0.0009992942
000290 9e 2a 6a 3d 18 ea 6b 3c e4 7e c1 3c da f1 63 3d
       0.05716955 0.014399074 0.023620076 0.05565057
0002a0 78 b4 f0 3c 8c 9b 70 bd 10 dc 79 3c 40 f9 60 bb
       0.02938293 -0.05874209 0.015250221 -0.0034328252
0002b0 00 93 b8 3b e0 ec 06 3b c8 e5 5d bc 80 75 c7 bc
       0.005632758 0.0020587966 -0.013543554 -0.02434802
0002c0 aa 5c 7f bd ea c0 66 bd c0 00 2f 3b 5c b5 a0 bc
       -0.06234423 -0.05633632 0.0026703328 -0.019617729
0002d0 16 b6 43 3d 64 ea ee bc a8 e0 5d bd 78 f8 01 3c
       0.047781073 -0.0291645 -0.054169327 0.007932775
0002e0 bc 76 27 3d 30 24 b5 bc 98 cf 0f bd d0 13 55 bc
       0.04088472 -0.022111982 -0.035110086 -0.013005212
0002f0 4a 7c 12 bd 48 26 49 3d 00 90 b3 3c dc 42 5d bd
       -0.035763063 0.049108773 0.02191925 -0.05401884
000300 78 39 56 bc 36 44 0c 3d dc cd 0e 3d 50 b0 5c 3d
       -0.013075225 0.03424474 0.03486429 0.053879082
000310 40 f9 16 bb bc 8c fe 3c c8 d3 38 3d 5c 1c 57 3d
       -0.0023036748 0.031072967 0.045123845 0.05251728
000320 20 fd 17 3d 70 fc f7 bb c6 ca 5b 3d 48 f2 7b bc
       0.037106633 -0.0075679347 0.053660177 -0.015377589
000330 e6 3d 6d bd 5a 26 41 3d a8 de 93 bc 60 46 63 bb
       -0.05792036 0.047155716 -0.018050507 -0.0034679398
000340 28 3d 06 bd 4a 72 16 bd 80 d7 ee 3a 0c a4 6c 3d
       -0.032773167 -0.03673009 0.0018222183 0.057773635
000350 34 73 f1 3c 2e 20 6c 3d 1e ff 3a 3d 4e 0a 31 bd
       0.029473878 0.057647876 0.045653455 -0.043222718
000360 ac 36 0f bd a6 3d 12 bd 94 5d aa bc d0 6a dc bc
       -0.03496425 -0.035703324 -0.020796575 -0.0269064
000370 a0 a7 39 3b 2c cf 79 bd 9c ef 12 bd 16 ed 60 bd
       0.0028328672 -0.06098859 -0.03587304 -0.054913603
000380 3e c6 5c bd 84 e5 9a 3c c0 7d 41 3c c0 f2 00 3d
       -0.053899996 0.01890827 0.011809766 0.031481504
000390 b6 50 2f bd da 89 66 3d 50 e0 de bb 44 13 ee bc
       -0.04280158 0.05628381 -0.0068016425 -0.029061921
0003a0 60 35 c2 bb 1c ae e0 3c 10 78 98 bc fc 79 d6 bc
       -0.005926773 0.027426772 -0.018611938 -0.026181214
0003b0 f8 b5 61 3d 00 e4 c0 bb e2 f0 53 bd 36 9f 66 3d
       0.05510518 -0.0058865547 -0.051743396 0.05630418
0003c0 06 ff 53 3d 14 3b 26 bd 28 9b 1e bd c6 cc 3d 3d
       0.05175688 -0.040583685 -0.038722187 0.046337865
0003d0 34 21 3d 3d 8c 8d eb 3c 0c 14 ed 3c 92 32 57 3d
       0.046174243 0.028754018 0.028940223 0.052538462
0003e0 10 02 4b 3c ae 76 7f 3d 38 a8 fa bc b8 6b 99 bc
       0.012390628 0.06236904 -0.030597791 -0.018728122
0003f0 fe bb 2f 3d 6e 1a 76 3d bc 4c a2 bc 72 5b 41 3d
       0.042903893 0.0600838 -0.01981198 0.04720635

_out.bias f4 [3]
000000 00 bd 57 bb 72 45 72 3d 70 37 a6 bb
       -0.003291905 0.05914826 -0.0050725266
