rl/models/self_play/old/pong_dueling_ddqn_sp_350.pth (torch, 286940 bytes, 9 tensors)

_fc1.weight f4 [256, 12]
00000000: 605e 603e 5882 58bd 32a4 25be 4866 bbbc
00000010: c2fc ff3d 8b6b 8e3e 2f18 6ebf 348e 553d
00000020: f4d7 1cbe 5652 33bf f888 61be acab 853e
00000030: 9d2c 5b3e 118b 8cbe aa8b e2bd 9d86 d93b
00000040: e7bc 36be 6eee c63c 060b 083e a6f7 c7bb
00000050: 1c34 49bf bc6e 4d3e 3b20 03bd 82b4 d7be
00000060: ca69 76bd 6323 23bb 882a 0d3e d894 963b
00000070: 444b 90bd e26c 28bf df34 f6bf 8f3c ecbb
00000080: db0a 383d d66a 323f e51a d6bd 9921 88bc
00000090: 3a0b a33d 6ccd 9fbc c653 e93e bc24 ad3a
000000a0: 07bb 03be a271 ee3e f003 8b3e 7982 4cbc
000000b0: faad 543e bf49 0abf b361 4d3d 0b09 813e
000000c0: 83af 583e 04e3 233e 330d 20bd ec10 063a
000000d0: a71d 95bc 41c7 e4be 6df9 8d3e c6de 37bd
000000e0: 429d 993e 21da ad3e 9109 173e 75a4 e23d
000000f0: 4ac3 aa3e 9aa2 063e 3be7 d9be 1f25 37bc
00000100: 8c46 cd3d da3e 38be 9c31 cbbd aa1a 57bc
00000110: e750 cb3e 581a 02be edb9 d53d 55c0 ddbe
00000120: 2591 183e 9b8c afbe c44d 52be a1a2 0bbc
00000130: 2af4 293e 0724 0dbe 9150 0bbf aebe d2bd
00000140: b9c5 a7bc b9cd 8b3d 69df 17bd 13b8 40be
00000150: 0bbf 9c3c f535 993d a4ea cfbd e93f c2ba
00000160: 37d4 4b3d 9ff7 92be cff5 10bf 95a5 c03d
00000170: 768e 373d 6833 febd bd40 303d b17b 36bd
00000180: daeb d43d 0418 c5bd 1123 823e 92fc 94b9
00000190: 2b13 82bd de4e 233e 34fc 68bd 9610 61bb
000001a0: ca8c 7f3e 3167 2fbe 964b 063e 3c2e c6be
000001b0: f7ac 593d 1fb6 a63d 5a94 cfbd 8e06 42bc
000001c0: 1954 eb3c 6333 623e ae93 99bd 9b78 82bc
000001d0: 9921 1abe 84bc 8ebe 1dea 68be b0b2 5fbf
000001e0: 8417 823e dfe7 a2bd 5c5a e3bd 7fe8 313d
000001f0: 43da f13b 9f5c 0c3f f57b 1cbd ea73 143d
00000200: 5d2f ffbc 7c51 5b3e 99cf 863e 8a44 163e
00000210: eb68 993e 8772 73bd 9209 e8bc cacc 8f3c
00000220: 59a1 b23d a5f2 363e 5f1c 153e 4109 7d3c
00000230: d4f0 30bd 6154 813e 0b86 7cbd acfa 453e
00000240: 5424 67bc d59a 733c 405e b6bd 0f20 e8bc
00000250: 2b44 f8bd ef0e 53be efff 173e 1535 03be
00000260: c526 99bc c5fd 143e 8ffe 26bc d728 133e
00000270: e7e4 e1bc 48f9 f13e 5356 89bd 4589 283c
00000280: 0171 19be 2075 013d 81a8 81bd e9b7 55bb
00000290: 8ee9 cabe 622a fbbe 017c c8be d469 093e
000002a0: 79c5 9fbd 1220 703d 328e a4be 2d36 23bc
000002b0: 20f1 15be 18ab 4fbd 79e9 1bbe 8145 34bc
000002c0: 81ef 6a3d a773 d83e 5f72 373c c9a5 373f
000002d0: 0c35 433e f81e 953e b632 3c3e 0432 5ebd
000002e0: 610b 04be 9222 1fbe b3f9 7ebe a0f6 383e
000002f0: ded4 3cbd 6e6d d8bd 0fe7 433e b72e c93e
00000300: 148a b13e 7c4c 353e ae86 96be 87e0 073d
00000310: f6d9 1a3c 49db c2bc 3277 a23d 1782 7dbc
00000320: 819d 6abe a6ff 47be 4048 16be 9e5f 9dbe
00000330: b081 9839 d29a 803c faf7 4dbd cdd1 27ba
00000340: d25d e03c 6402 be3e 5cd8 1e3e 96d6 e13c
00000350: 904a e4bd 4b72 bbbe df34 d33d 6822 45bf
00000360: 14e6 41bd 0afc 05bf a88e 223e 71a1 3f3c
00000370: 2ed8 423d 4826 3a3c ece4 a0be 6d66 b0bc
00000380: 3759 03be 8517 e43e 98c4 43be 7b11 90be
00000390: 9db0 973c 1fc1 59bd ce39 c13e a9cd 7dba
000003a0: 19cf 64be 360a 89bd e9f8 0bbe 6348 b63b
000003b0: c8f1 1abe 4a1a 913e c8d5 c6bd e3be 9c3f
000003c0: b916 39be deff 09bf 66c0 bb3d aaab ce3c
000003d0: 3cb5 f33d 58ab a0bd 4233 1b3e e5af 89bb
000003e0: bfa8 63bd d2dc 083f ecb6 11be 2926 fbbc
000003f0: e0cd 993d dda4 db3d cb32 ac3e e9e1 113c
0.21911001 -0.05285868 -0.16175917 -0.02287592 0.124993816 0.27816424 -0.9300565 0.05213757
-0.15316755 -0.7004751 -0.22024906 0.26107538 0.21403737 -0.2744985 -0.11061795 0.0066383616
-0.17845498 0.024283614 0.13285455 -0.00610252 -0.7859514 0.20061773 -0.03201316 -0.42129904
-0.060159482 -0.0024892918 0.13785756 0.0045953803 -0.07045606 -0.6579114 -1.9234885 -0.0072093676
0.044932228 0.6969427 -0.104543485 -0.016617583 0.07961126 -0.019507132 0.45571727 0.00132098
-0.12864314 0.4657107 0.27151442 -0.012482279 0.20769492 -0.5401878 0.050142 0.25202212
0.21160702 0.16004568 -0.039075088 0.0005114216 -0.018202616 -0.4468327 0.2772936 -0.044890188
0.3000279 0.33955482 0.14749743 0.11066524 0.3335212 0.13147965 -0.42559227 -0.011178284
0.100232214 -0.17992726 -0.099215716 -0.013128916 0.3971016 -0.12705362 0.10435853 -0.433108
0.14899118 -0.3428696 -0.20537478 -0.0085226605 0.16597047 -0.13783275 -0.5441981 -0.102902755
-0.020480024 0.06826348 -0.037078295 -0.18820219 0.019134065 0.074809946 -0.10152176 -0.0014820072
0.04976293 -0.28704545 -0.56625074 0.09406582 0.044813596 -0.12412149 0.04303049 -0.044551555
0.103965476 -0.09623721 0.2541738 -0.0002841694 -0.06351312 0.15948054 -0.056881145 -0.0034342161
0.2495605 -0.17129208 0.13114771 -0.3870715 0.053143468 0.081402056 -0.10135718 -0.011842383
0.028726624 0.22089915 -0.07498871 -0.01592665 -0.15051879 -0.278782 -0.22745557 -0.8738203
0.25408566 -0.07954382 -0.11101219 0.043434616 0.007380755 0.5482883 -0.038204152 0.036243357
-0.031150514 0.21417803 0.2633026 0.14674583 0.2996286 -0.059435394 -0.028324876 0.017553706
0.08722181 0.17865999 0.14561604 0.015444101 -0.04319842 0.25259688 -0.06165127 0.19333905
-0.014107782 0.014868458 -0.089046955 -0.0283356 -0.12122377 -0.20611165 0.14843725 -0.12813218
-0.018695245 0.1454993 -0.010192527 0.14371048 -0.02757497 0.472605 -0.06705918 0.010286634
-0.14984514 0.03160584 -0.06330968 -0.003261084 -0.39631313 -0.49055773 -0.39157107 0.13419276
-0.07801337 0.058624335 -0.32139736 -0.009961647 -0.14642763 -0.050700277 -0.15225782 -0.011002899
0.057357315 0.42275736 0.011196702 0.71737343 0.19063205 0.2912519 0.1837872 -0.054246917
-0.12894966 -0.15540531 -0.2489994 0.1806283 -0.046101443 -0.10567747 0.1913111 0.39293453
0.34675658 0.17704958 -0.29399627 0.03317311 0.00945138 -0.023786204 0.07932891 -0.01547291
-0.22911645 -0.19531116 -0.14675999 -0.30737013 0.00029088324 0.015698824 -0.050285317 -0.0006401807
0.027388487 0.371112 0.15512222 0.027568143 -0.11147034 -0.36610636 0.10312819 -0.77005625
-0.04733856 -0.52337706 0.15874732 0.0116962055 0.047569446 0.011361666 -0.31424654 -0.021533215
-0.12827002 0.44549194 -0.19117963 -0.28138337 0.018516833 -0.05316269 0.37739414 -0.000968183
-0.22344626 -0.06691401 -0.1366917 0.0055628284 -0.15131295 0.2834037 -0.09708744 1.2245754
-0.18075074 -0.5390605 0.091675565 0.02522834 0.11899802 -0.07845181 0.15156272 -0.0042018765
-0.05558085 0.53461945 -0.14229935 -0.030657845 0.07509971 0.107248046 0.33632502 0.008903959

_fc1.bias f4 [256]
00000000: 2531 a8be 6355 55be 25b1 b4bd 191f b93d
00000010: 8c28 e1bc 8d3d 9dbd 9e61 a0be 6fa2 7cbe
00000020: a7a2 d4bc e32c 81be 3631 30bd 151d 703d
00000030: fb04 6c3c 3788 143e 43bd 3fbe ae70 b4ba
00000040: 8dfc 023e 79f5 493e f98d 3bbe 12f6 6d3d
00000050: 3877 98be c684 12be 151b b03c 24b7 00be
00000060: 5429 74bd 967d 243d f5cf 74be e4bc 12be
00000070: 3601 f13d 81bd 603e d720 73be ddf3 12bd
00000080: b312 ef3d d7fe febd 9445 4fbe 08d1 aebd
00000090: 335d f9bd 0bd7 ae3d 7dae 0e3e 229b d2bd
000000a0: 3740 9e3d 20e5 303d 3bee 9dbd c1eb 1cbe
000000b0: de89 d5bd 1aea 1dbd 31f5 2ebe afa1 eebd
000000c0: e3a2 8bbe a12d 6dbc 6098 913c aa98 1c3e
000000d0: 8e0a 89bd ea5a 66be 3079 6f3d d919 a8bd
000000e0: dc35 e73d e399 7abe e159 cbbe dff7 83bd
000000f0: 32b1 153d 59e9 76be bdd5 d1bd 684b ef3b
00000100: aad1 16be 6fda 41be bb4d 87be 886b 3ebe
00000110: 2efa 97be 3406 14be ef05 1fbe 18b7 4e3d
00000120: cec1 c03d 9374 c2bd ba5b 77be dede be3c
00000130: 1e05 3abe 0e92 1fbe d696 013e 8833 ddbd
00000140: 0675 b53d 7749 ca3d 0e5c f83d b393 abbd
00000150: a657 a6be 49ba aabd dbd4 df3d 300d 21be
00000160: 89d5 6fbe cf9a aebe 62ba 6ebe a61e 593e
00000170: c6d1 37be 008d 63bc 94da 3dbe d3e4 8dbe
00000180: 7719 2a3e ca0b 9b3d 32c4 503d b4b0 cebd
00000190: 86d0 85bc fd7c 2cbe 91e0 5cbe 5d19 783e
000001a0: 960f 9ebe 3505 02be 9e56 8abe 5872 04be
000001b0: 5dcf b4be 3247 28be f9d5 033e 91ef 55be
000001c0: d206 aa3b d18e 32be be56 05bc 7727 073e
000001d0: 2b02 1e3e 02f5 edbd 1d87 debd 0675 b3be
000001e0: 122d fa3d 5eeb 2d3d 77f9 a5bd 5898 83bd
000001f0: bcce e5bb b814 7cbe a7a6 073b 3532 ec3d
00000200: a761 13be 2c93 c23d 3770 fd3c e9d1 063e
00000210: b4cd c03c f1a7 243d 74ac febb d994 19be
00000220: e02b 11bd a09d bebe 4270 f9bc cbb5 24be
00000230: 410c 533e 47f6 eebd a8ad 353c 6e88 19bd
00000240: b2eb f93d e6a5 863d c064 7ebe 6c8f 043e
00000250: a940 5dbe 17ce afbe 8c2b 68be 4332 fbbd
00000260: c49d 993d 8fad c6bd 05a1 67bd 985d 1a3e
00000270: 2582 dabd b4b8 6e3e 271f cd3b 9cd5 5bbe
00000280: 33ba 7cbd e969 7bbe 8da2 443d 09c5 483c
00000290: 4563 babd 5583 1c3e 9463 c8ba bd27 4fbe
000002a0: 775e 85be a207 ab3b cefe 7bbe 893a ce3d
000002b0: c381 b0bd 64ce 963d e728 b8bc f7b4 21be
000002c0: 5f60 96bd 81ec 6c3c b09d b53d 105b 88be
000002d0: ea0b 91be 891e 24be bc5d 8fbe 224e 0c3d
000002e0: 9254 17bd 08ec e23d 33f4 1dbe db9b 2bbd
000002f0: d35b c1bd c888 a1be 3239 db3d 4422 11be
00000300: b675 82be e9cc 8abe ca8b 84bd 2f79 a43c
00000310: d821 82be 11bb fcbd f38b b1be 2d02 80be
00000320: 6cb0 9bbe a2cb b4bd 42b3 00be 2a25 043e
00000330: 4d80 38be b6cb 803e 4d36 7cbc 94dd 9b3d
00000340: dce8 c8bc 3c01 dbbd 41d3 aebe 369e 40bd
00000350: 3c92 99be 1297 14be 4933 5b3d 7c1e 10bd
00000360: f10a ff3d b40c 933d aaff 403d 4527 d4bc
00000370: f472 b3be 92d7 93bc 5b3d ca3d ad75 38be
00000380: cdb8 5abe aa3b 9cbe ab6c 7abe a770 dabc
00000390: b1b7 6cbd 96e9 80be 00f4 30be bb7e e63c
000003a0: 404e 47be 041c 3dbe a051 303e 0353 48be
000003b0: b6b2 5dbe 0a3a 9cbd 2642 bfbc 832d 4fbe
000003c0: b3b0 8ebe 3a24 38be a770 6cbe 1392 3bbd
000003d0: 6f8c 34be 4d76 43be f83b bd3d 633e eebd
000003e0: 6515 1abe 9420 82be 6fd2 2f3e 1ee2 92be
000003f0: afa9 a23d 69bd 33be 74a3 44be f579 783e
-0.32849994 -0.20833354 -0.0882285 0.090391345 -0.027485155 -0.076777555 -0.31324476 -0.24671338
-0.025956465 -0.25229558 -0.04301568 0.058621485 0.014405484 0.14505087 -0.18724541 -0.0013766491
0.12791653 0.19722547 -0.18315877 0.058096 -0.29778457 -0.14308462 0.021497289 -0.12569863
-0.059609726 0.04015883 -0.23907454 -0.14329869 0.11767809 0.2194729 -0.23742996 -0.035877097
0.116734885 -0.124509506 -0.20241386 -0.08535963 -0.121759795 0.0853711 0.1393375 -0.102834955
0.07727092 0.04318726 -0.077114545 -0.15324308 -0.10426687 -0.038553335 -0.1708572 -0.116519324
-0.2727271 -0.014476211 0.017772853 0.15292612 -0.06691466 -0.22495618 0.058465183 -0.08208055
0.1128957 -0.24472766 -0.3971701 -0.06443762 0.03654594 -0.24112453 -0.102458455 0.0073026903
-0.14728418 -0.18930982 -0.2642649 -0.18595707 -0.2968306 -0.14455491 -0.15529607 0.05046758
0.09411965 -0.09494891 -0.24156085 0.02329963 -0.18166015 -0.15583059 0.12655196 -0.108008444
0.08860211 0.098772936 0.12126933 -0.08377781 -0.32488745 -0.08336312 0.10929271 -0.15727687
-0.23421301 -0.34102485 -0.23313287 0.21203098 -0.17951116 -0.0138885975 -0.18540412 -0.27713642
0.16611277 0.07570608 0.050968356 -0.10092297 -0.016334783 -0.16844554 -0.2157004 0.24228425
-0.30871266 -0.12697299 -0.2701921 -0.12934244 -0.35314456 -0.16433409 0.12874593 -0.20892169
0.0051888013 -0.17437293 -0.008138357 0.13198648 0.15430515 -0.11618997 -0.108656146 -0.3505022
0.12215628 0.04246079 -0.08104222 -0.06425542 -0.00701317 -0.24617279 0.0020698698 0.11533014
-0.1439272 0.09500727 0.030937297 0.13166012 0.023535587 0.040199224 -0.007772023 -0.14998187
-0.035442233 -0.37229633 -0.030449037 -0.16084974 0.20610143 -0.116680674 0.011088766 -0.037483625
0.122031584 0.06574611 -0.2484312 0.12945336 -0.21606697 -0.34336922 -0.22672862 -0.12265446
0.075007945 -0.097010724 -0.056550045 0.15074766 -0.10669354 0.23312646 0.006259817 -0.21468204
-0.06170101 -0.2455212 0.048006583 0.012254008 -0.091009654 0.15284474 -0.0015288466 -0.20230003
-0.26048633 0.0052194158 -0.24608919 0.100697584 -0.086185 0.07363585 -0.022480441 -0.15791689
-0.073426 0.014460684 0.08867967 -0.26631975 -0.28329402 -0.16027273 -0.280012 0.0342542
-0.036945887 0.11080176 -0.15425186 -0.041896682 -0.09441342 -0.31549668 0.107042685 -0.14173228
-0.2548043 -0.2710946 -0.06471975 0.020077316 -0.25416446 -0.123403676 -0.34677085 -0.2500166
-0.30408037 -0.088279024 -0.12568381 0.12904802 -0.18017693 0.2515542 -0.015393806 0.07610622
-0.024525099 -0.10693595 -0.3414555 -0.04702588 -0.2999438 -0.14510754 0.053515706 -0.035185322
0.12453259 0.07180157 0.04711882 -0.025897631 -0.3504864 -0.018047128 0.09874984 -0.1801364
-0.21359558 -0.3051427 -0.24455516 -0.026665045 -0.05779237 -0.25178212 -0.17280579 0.028136602
-0.19463444 -0.18467718 0.17218637 -0.19562916 -0.21650204 -0.076282576 -0.023346972 -0.20232205
-0.27869186 -0.1798257 -0.23089848 -0.045793604 -0.17631696 -0.19088097 0.09239954 -0.11632993
-0.15047224 -0.2541548 0.17170118 -0.2868814 0.07942521 -0.17552723 -0.19202977 0.24265273

_fc2.weight f4 [256, 256]
00000000: 015b 603e c3ec 113d 0ea0 01be ae77 9b3d
00000010: 29e9 f6be 14ad 123d 99c9 b63d f132 f6be
00000020: 7eb9 a8bd 2691 b53d 07d0 88be 6609 d23d
00000030: 834b 0d3d 134a 1cbd 0212 c4bd e6d4 4f3d
00000040: 1aa2 af3d 5d4a 8f3d d397 0a3e 739e 2bbe
00000050: 4974 033c 8293 38be 477d c83c 7dee 5fbf
00000060: 34de bbbd b86e 64be 3cc1 7f3d beb3 c4bd
00000070: 53f4 963d 9830 f43d 4801 a6bd 636a 743d
00000080: 5dfc bf3d 8f63 11bf dc71 b1bd 035f cabe
00000090: 3864 6e3e cab3 4ebe a1b1 29be ae2c 4e3e
000000a0: d599 6bbe b22e cdbe 0567 99be bbe8 213e
000000b0: d440 1cbd 4224 16bf 8a64 d93d b007 1bbf
000000c0: adc6 57be 164e 5dbc 08df 58bd 134b c83d
000000d0: 19ec b53c 4e9a 243d 31fe bdbc 6a55 923d
000000e0: 8937 e7bd b900 783d 3bf8 00be a6fb 883c
000000f0: bf1c 13be 4379 0cbf 9a26 1dbe 16b3 883d
00000100: 3b58 193e 3571 a03e 7253 a6be 791f 5d3c
00000110: 6f01 bcbc fea7 58be 9e71 3d3f d168 f83a
00000120: 87cc 253d 5718 423d 05b3 573d a87a b7be
00000130: ca94 843a 9dbf aabf 8184 25be dbaa d9bd
00000140: 85a1 a83c da40 83ba a8b7 b43d 7b9e 44bf
00000150: a403 8d3d a668 773e a633 0c3e 487c f4bd
00000160: dc97 c0bd e349 3abe e791 563d 61d7 833c
00000170: 4579 543b 6d8b af3d 2841 2d3d 9382 dc3a
00000180: 4f41 753d f07c dfbb ec50 37bf b509 093e
00000190: 88ed 5abe 4117 c3bd e9f5 fbbc d2e6 553d
000001a0: 593c 4cbd d61e 6a3d 04e4 1ebe 461e 63bd
000001b0: b12d aabe 5f6d 68bd ad77 1f3e d423 14bf
000001c0: bac1 02bd 5aa8 b7bd d02a bbbd 3a49 be3d
000001d0: f1f1 833d 9337 cf3c b758 e83d c474 7d3d
000001e0: 3164 babe e389 b8bd 0294 7abd 0b1e 23be
000001f0: 23e9 033d 9370 57bf 0183 683e f389 24be
00000200: e269 16bf 12bb 02be ff6b a53d d5e7 033c
00000210: 9b3e 9abd c40b f2bc 6684 bb3d 7616 0e3e
00000220: 46dd 7cbd be6b 913d ed3d b0be f2aa 9ebc
00000230: be44 083d 2988 02be 80a1 1c3e c2ae 2fbe
00000240: f36b 00be 32b5 24bd 5c5e 14be 600b e23d
00000250: 64f9 893d 540d 283d 6c59 a23d 6e3d 83bd
00000260: 48cb 00bf c867 2a39 7a70 e03c ccb9 6fbf
00000270: 6899 b13d b39d ecbc a1d0 273c 2c4c 2f3e
00000280: 2427 eb3d ddd2 c6bc 96d2 cebd 2957 493e
00000290: 2122 62bd b494 52be d4aa f73b e6a3 bdbd
000002a0: 8755 e33d d2de c2be caf7 f83d 1e44 b53d
000002b0: db1e e6bd 2798 0ebe 88a3 a53c 6c69 72be
000002c0: 3b89 183e 54c5 dfbd b94d 18be 9bad acbe
000002d0: bd8f 123e d238 a6bd 4d00 b0bd 7cda 7bbe
000002e0: fbb6 183e a1bf c93d 6224 f4be 2052 1a3e
000002f0: bf49 37be f39e 093d 19f6 c83d e33b 2fbd
00000300: a2e3 8d3c 4541 63be bc77 9cbd a87a c83d
00000310: 9fbe bebe 3638 13be 0bd6 4d3d bd24 04be
00000320: dbb6 4a3e a786 c6bf cfc8 883d b111 d3bb
00000330: afaf 943d 7b0a 67bb ec6d 283f 6438 983d
00000340: 5ad9 aa3d 74fe 743e 3e3a 873b 0f63 063e
00000350: 4c99 dc3d bee9 003e a466 573c cb90 02bc
00000360: d815 89bd 5609 e0be eafe 803d 20c4 ee3d
00000370: 10d3 203c 48d3 2dbe a3a3 833d 947c 7fbe
00000380: e384 75be 1128 efbd bbe2 fc3c 84c6 1bbe
00000390: c389 23be 58b2 633e 51fc 893d 4b59 86be
000003a0: ed8f 41be 7ef5 e03e 5279 4ebf e12c 59bb
000003b0: 6d0e 0abe 0c9a 383c b4c3 88bd 3339 e8be
000003c0: addd e2be 08a1 c33e d537 6e3c 052a 9abd
000003d0: 4fe4 51bd 639d 24bd e8b9 603d 1774 45be
000003e0: 0253 23bf f2e4 0a3e bc0d 95be f589 c7bd
000003f0: 9ccb f0be d93d 453e c703 1d3e 0c1f 713e
0.21909715 0.035626184 -0.12658712 0.075911865 -0.48224762 0.03580959 0.089251705 -0.4808574
-0.08238505 0.088655755 -0.26721212 0.10255699 0.03449584 -0.03815658 -0.09573747 0.050740145
0.0857584 0.069966055 0.13534479 -0.16759662 0.00802333 -0.1802502 0.0244738 -0.8747328
-0.09173241 -0.22307861 0.062440142 -0.096045956 0.0737082 0.11923331 -0.08105713 0.05967177
0.09374306 -0.5679254 -0.08664295 -0.39525613 0.23280418 -0.20185772 -0.16571666 0.20134231
-0.23007901 -0.40074688 -0.2996141 0.15811436 -0.038147762 -0.58649075 0.106148794 -0.60558605
-0.21071883 -0.013507387 -0.052947074 0.09779944 0.022207307 0.04018622 -0.023192497 0.07145198
-0.11289889 0.060547564 -0.12594692 0.016721558 -0.14366435 -0.5487253 -0.15346757 0.06674783
0.14975064 0.3133637 -0.3248554 0.013496273 -0.022949902 -0.21157834 0.7400149 0.0018952136
0.040478256 0.047386494 0.05266096 -0.35835767 0.0010115143 -1.3339726 -0.16163827 -0.10628291
0.020584831 -0.0010013834 0.08824092 -0.7680432 0.0688546 0.24161014 0.13691577 -0.11937767
-0.09403965 -0.18192248 0.052385237 0.016093912 0.0032420915 0.08571515 0.042298466 0.0016823582
0.059876736 -0.0068203136 -0.7160785 0.13382609 -0.21379673 -0.0952592 -0.030756908 0.05222208
-0.04986224 0.057158314 -0.15516669 -0.055448793 -0.33237985 -0.05674493 0.15572996 -0.5786717
-0.031923033 -0.089676574 -0.09139025 0.092913106 0.06442631 0.025295055 0.11345046 0.061878935
-0.36404565 -0.09010675 -0.061176307 -0.15929429 0.03220476 -0.8415615 0.22706224 -0.16068248
-0.58755314 -0.12766674 0.08077239 0.0080508785 -0.07531472 -0.029546626 0.091561124 0.13875756
-0.06173446 0.07100628 -0.34422246 -0.019368622 0.033268683 -0.12747253 0.15295982 -0.17156509
-0.1254118 -0.040211864 -0.1448912 0.11037326 0.067370206 0.041028336 0.07927212 -0.06408201
-0.5031018 0.00016251125 0.027397383 -0.9364288 0.08671838 -0.02888379 0.010242612 0.17118901
0.11482075 -0.02427047 -0.1009876 0.19662155 -0.05520833 -0.20564538 0.007558206 -0.09259777
0.111002974 -0.38060623 0.12156637 0.08850883 -0.11236354 -0.13925229 0.02021958 -0.23673028
0.148961 -0.10926309 -0.14873399 -0.337262 0.14312644 -0.08116306 -0.08593807 -0.24595064
0.14913552 0.098510034 -0.47684008 0.1507039 -0.17899226 0.03359885 0.098125644 -0.04278172
0.017320458 -0.22192867 -0.07640025 0.0978902 -0.37254807 -0.14376912 0.050252955 -0.1290464
0.19796316 -1.5509843 0.06678926 -0.006441318 0.072600715 -0.003525405 0.6579273 0.07432631
0.08342238 0.23925191 0.004126816 0.13123725 0.107714266 0.12589166 0.01314703 -0.007969092
-0.066936195 -0.43757123 0.06298621 0.116585016 0.009815946 -0.16975129 0.064276956 -0.24949867
-0.23976474 -0.11677564 0.030869832 -0.15212446 -0.1597052 0.22236001 0.06737579 -0.2624
-0.1890256 0.43937296 -0.8065387 -0.0033138322 -0.13482065 0.011267196 -0.066779524 -0.4535614
-0.4430975 0.38208795 0.014539679 -0.07527546 -0.051243123 -0.04018916 0.054864794 -0.19282566
-0.63798535 0.13563898 -0.2911204 -0.0974311 -0.47030342 0.19261874 0.15333472 0.23547

_fc2.bias f4 [256]
00000000: 4321 eb3d de01 363d e6f3 f3bd 91fb d1bd
00000010: 0f33 72bd 60e5 003c 6a92 183d 2eb3 283c
00000020: 1345 943c c6d7 843b 661a ffbd c50b 85bd
00000030: 6726 5bbd 49f6 90bc 3f62 86bd 4f57 c1bd
00000040: aaa5 8fbd f22c 39bc e679 f03c cf66 c3bd
00000050: 611b 173d 8db4 3a3d 22b2 b6bd d000 753c
00000060: 0ae8 12be 3ecc 423d e911 9cbd 7468 0dbe
00000070: c1c8 69bc 0726 70bc 6cfb 9fbd bb8a 62bd
00000080: 0690 26bd 5b5b ae3c aa41 533d 71a5 b13c
00000090: e40f a23d 85f7 4c3d 51d8 d2bc 4ed9 cf3c
000000a0: 29bd c1bc c9c9 5abd 4556 eb3b 7e08 80bc
000000b0: 8dd2 3abd f00b 0b3d 9135 a2bb 8556 82bd
000000c0: 8e15 ba3c e8b2 ebbc 32d9 bebd c293 2dbe
000000d0: a710 b6bb 0743 113d 4fc8 15bd 2a0c b8bc
000000e0: e5c2 87bd b7e1 12be 3e23 bfbc 4ccb 883c
000000f0: 67ae 2cbd 51da 2abd ac04 ec3b 0726 37bc
00000100: 2cd9 48bc 1719 d5bd b306 dd3c 3859 183d
00000110: 49d4 bcbd 0a92 babc a932 333d 55bb 303d
00000120: 0835 9cbd 472d 0dbe 26cd a8bd 0bc3 26be
00000130: b2c1 b23c 52be a93d f38d 31be de94 803d
00000140: a6ef 09be feef 87bc e303 1f3d 8703 1d3c
00000150: ff37 18bc ccef a8b9 529b c13c 2022 58bc
00000160: e405 18be f4d4 4fbd bdbc 05bd 791e c2bc
00000170: ffbf b4bd 8b01 353d f3f0 363c 6451 43be
00000180: b387 113d 4bc2 0cbe 67fd 2bbd adbd 5abd
00000190: 8441 58bd 4976 76bd 0c87 0ebd 5a8d 1cbe
000001a0: a3d2 6b3d 487e 40bd 73dc 3dbd 9ffa f8bd
000001b0: 9ef7 efbd 1ba6 2e3d ec96 17be f029 57bd
000001c0: e7eb 333d df61 ebbd ada8 cfbd caef 48bd
000001d0: 5dcb c5bc 9ffa c3bd 473d b23c c7d0 16be
000001e0: 6f30 973d b3fd 39bd 1481 efbd 30a4 39bd
000001f0: aec4 15bc ca6f b0bd 1c3e 27bd 7dc2 45bd
00000200: f2ef 07bd 47c2 16bd ffcc 9fbd a2dc 80bd
00000210: 15f5 5f3a 6259 16bc 8876 9a3d 75f1 bdbd
00000220: a228 3dbc 995e 41be 4203 47be 2d1d 063d
00000230: 27b2 28bd 12b5 92bc d7e3 75bd 4b07 2bbd
00000240: 6560 bcbd c821 e93c 4c12 0abc 85a8 2dbd
00000250: f000 fe39 44c7 afbd 8b2e dcbd 1b1c 91bd
00000260: 3d95 7dbc 0da6 a0bb e1ff cdbd ef5a 9abb
00000270: d9e8 ab3d 9fed f6bc 9b19 153d bbce dc3b
00000280: c594 b3bb ff0d a4bd d8c2 cbbd bfaa 20be
00000290: c239 6abd 1306 5bbd 21e8 4cbd be98 93ba
000002a0: d99e e83b 1619 983b 1c17 f6bd f062 9abd
000002b0: aedd ab3b 189a e23d ea08 6bbd e8f2 87bd
000002c0: 9235 15bd 81b3 05bc 317a 59be af6a cbbc
000002d0: dc9d 9fbd cc64 153c 6682 d6bd df5c 12be
000002e0: 78cf 323d e798 d93b dfbc 80bd dc39 06be
000002f0: 3c28 44bb bfac 173d 6324 c7bd 5340 d53c
00000300: 71e8 d1bc d7d2 9d3c 07be 3fbd 18dd 7ebd
00000310: 2db3 9bbd 841b 27bd 6d62 a33d 8ab6 c9bd
00000320: ae86 3ebd c7aa 93bd 425b b9bd afa4 d8bd
00000330: 14b6 69bd f4d7 f8bd 4e31 0bbd a042 99bd
00000340: bf19 22bb 0e7b d8bc c1fe 6dbd 74cb 463c
00000350: 10b3 26be b7a8 d1bb b7ae cebc e984 dfbd
00000360: 886a 0ebe 04cf 0b3d 93bc 6fbd ecd5 f7bb
00000370: 10c0 fbbd 6f4c dc3c 58a3 89bd 9572 fb3c
00000380: 8414 46bd 92ef a9bd 960f cabd aa14 833d
00000390: 4621 17bd 05a1 6dbd bafb 353c 707a b1bd
000003a0: be03 93bd bf33 ecbc b04c ae3b aafc 50bd
000003b0: 671e 0a3c 86be 03bd 74bd 1fbd cf4e adbd
000003c0: 9157 f9bc f155 46bd 1f33 a8bc 0e13 273d
000003d0: b00e 8ebc 4072 cfbc fd58 b03d 547a 07bd
000003e0: 8752 95bc c23e 58bd 2bd8 7cbd 4222 f2bd
000003f0: 663d fdbc a2f8 f5bd 34d7 22bd 8196 f93c
0.114809535 0.044435374 -0.11911754 -0.102530606 -0.059130725 0.007867187 0.037249006 0.010296626
0.018099343 0.0040540425 -0.12456207 -0.064963855 -0.05350342 -0.017695563 -0.06561708 -0.09440481
-0.0701402 -0.01130222 0.029355 -0.095410936 0.036891345 0.045582343 -0.08920695 0.014953807
-0.14346328 0.04755806 -0.076206036 -0.13809377 -0.014269055 -0.014657504 -0.07811627 -0.055308085
-0.040664695 0.021283796 0.051576294 0.021685334 0.07913187 0.05004074 -0.025737913 0.025372174
-0.023649769 -0.053415094 0.007181915 -0.01562905 -0.045610953 0.03394693 -0.0049502333 -0.063641585
0.022715356 -0.028771833 -0.093187705 -0.16950896 -0.0055561843 0.035464313 -0.036567982 -0.022466738
-0.0662897 -0.14343916 -0.023332234 0.016698502 -0.04215851 -0.04171211 0.0072027054 -0.0111785
-0.012258809 -0.10405176 0.026980733 0.03719446 -0.09220178 -0.022774715 0.043749485 0.043147404
-0.076273024 -0.13786803 -0.08242254 -0.1628534 0.021820877 0.08288254 -0.17339306 0.06278394
-0.13470325 -0.01659393 0.038822066 0.0095833605 -0.009290694 -0.0003222212 0.023633633 -0.01319173
-0.14845997 -0.050740197 -0.032650698 -0.023696171 -0.08825683 0.044190925 0.011165845 -0.19074017
0.035529803 -0.13745992 -0.04198971 -0.053403545 -0.052796856 -0.0601714 -0.03479676 -0.15288296
0.057573926 -0.04699543 -0.046352815 -0.12157177 -0.11717151 0.04263888 -0.14803666 -0.05253023
0.043926146 -0.11493277 -0.10139594 -0.049056806 -0.024144823 -0.095692866 0.021757735 -0.1472808
0.07382285 -0.045407962 -0.116945416 -0.045322597 -0.00914113 -0.08615072 -0.040830716 -0.04828118
-0.033187814 -0.03680637 -0.07802772 -0.06292082 0.0008543295 -0.009176584 0.07542139 -0.0927457
-0.011545332 -0.18883742 -0.19434837 0.032742668 -0.041185524 -0.017908607 -0.060031738 -0.041755002
-0.09198073 0.028458491 -0.008427214 -0.04239704 0.00048447354 -0.08582929 -0.10751065 -0.07085439
-0.015477476 -0.0049026073 -0.10058571 -0.004710547 0.083940215 -0.030142603 0.036401372 0.0067385114
-0.005480381 -0.08010482 -0.09949273 -0.15690134 -0.05718399 -0.05347259 -0.050026063 -0.0011260731
0.0070990142 0.0046416624 -0.120161265 -0.07538402 0.005244932 0.11064547 -0.057381548 -0.066381276
-0.03642804 -0.008160473 -0.21238019 -0.024831144 -0.07793781 0.00911827 -0.1047409 -0.1429324
0.04365489 0.006640542 -0.06286024 -0.13108009 -0.0029931208 0.037029978 -0.09723737 0.026031649
-0.025623532 0.019265575 -0.046812084 -0.06222257 -0.076025344 -0.040797725 0.079777576 -0.0984927
-0.04651516 -0.072103076 -0.09050609 -0.10578286 -0.05705841 -0.12150565 -0.033982567 -0.07483411
-0.0024734584 -0.026425865 -0.05810428 0.012133468 -0.16279244 -0.006398286 -0.025229795 -0.109140225
-0.13907826 0.034132972 -0.058529448 -0.0075633433 -0.122924924 0.026891915 -0.067206085 0.030694285
-0.04835941 -0.082976475 -0.09866254 0.06400426 -0.036896966 -0.05801489 0.01110738 -0.08665931
-0.07178448 -0.028833268 0.0053192005 -0.05102221 0.0084301 -0.03216412 -0.038999036 -0.08462297
-0.030437263 -0.048421804 -0.020532189 0.040789656 -0.017340988 -0.025323033 0.08610723 -0.033075646
-0.018227829 -0.052794226 -0.06172959 -0.118229404 -0.030913066 -0.120103136 -0.039756015 0.030467274

_value.weight f4 [1, 256]
00000000: 67ee c13d 0bdd 113e c0ca 6a3e 8ddb fe3c
00000010: 0f6b 653b 6d26 65bd 879c cdbc 74c1 c6bd
00000020: cd12 dabd 6b45 163d 8b40 be3e 2036 e1bd
00000030: c794 b83c f3ab 203e 9526 533d 36a9 fa3d
00000040: 6f0e e13c fa19 933c 62d5 bbbd 63fd 03be
00000050: 44db 073d 4f6f 923e ff60 113e b6a3 03bd
00000060: 8087 973c eafe 4ebc 42f6 b4b9 f959 823e
00000070: 6474 973d 1b59 b3bc b288 423e fa3b d93b
00000080: 0e6c 3c3c 426c c0bc 9cbc 8e3d 670f 583c
00000090: 4f2c 16be b809 9fbd 74ce dfbd e619 92be
000000a0: 6e2c 0ebd 9cfe 223d a011 983c c35a 8fbd
000000b0: 532d 563d 1e9d 4b3c 37fb 593d 464c 7cbc
000000c0: 69b0 953b 58c6 7abf 5499 103e 5c54 4e3d
000000d0: e079 b03e 1a1b 2b3e 230b 9cbb 16f0 0f3c
000000e0: 52bc 28bd 1300 12bf 9103 1e3f daff abbc
000000f0: 0a37 9b3e 6a1a b3be 1f65 b23e 5028 4b3d
00000100: 47d9 dabc 60d2 52be d429 5fbf b8e2 f8bd
00000110: 0e82 0fbf 10a9 29bc 1713 24bd 5e4f 173d
00000120: b6dc 183e 4da2 b0be e10a 5c3e d3e3 cc3e
00000130: 5708 d1bd 934d 783c ab01 07bf b8fa 5c3e
00000140: 9d15 a23e 8cb3 f9be ea17 da3c e443 a53b
00000150: 2a2b fb3c fb08 dc3c e331 2abd 5425 48bd
00000160: ec1f 68be 5f47 8c3d e520 f43d ad65 bfbc
00000170: 79ed a53e 2919 763d db02 3e3d 8f63 003d
00000180: a37b 38bd bdd5 863e 9af0 fcbd 3242 03be
00000190: 6f82 0e3e e2c4 ae3c 8b99 b93d 8490 fc3e
000001a0: 5f4e a23d b165 c9bd b319 3c3b 9435 87be
000001b0: 7a07 813d 4550 c8bd b763 9f3e a77e ab3e
000001c0: a793 89bb 9607 88bd 5e07 75bd 7804 e2be
000001d0: a634 433f b339 29bf 33a3 84bd 702e 26bd
000001e0: 62a3 22bd 0c75 9cbe c69b e53e b5d5 25be
000001f0: 4d99 283d 4afb 60be 42f7 c43d 50d2 893e
00000200: 5cb6 a33e c78b 2cbd c9f3 083e 500c 103d
00000210: 8d5e bebc d076 2b3f 7f24 8bbd a7d4 b63b
00000220: 979e 63bd 3689 253d 0f6e f23c 638e cfbd
00000230: 708c 313d 275a b43d 3b2f 6c3d a842 0abd
00000240: 7b02 61bd f02a 52bd fd74 213c 16c2 0a3f
00000250: c09d 87bd b3b3 72be 9d3c a1bd d8bd 5c3e
00000260: e3a4 e73d 6496 983c b9d7 d53e 8153 2bbb
00000270: 07cb 0fbd e80f a13e fa53 8cbd 754b 433e
00000280: 6677 a1bc 7a67 17bd 54b3 593c fb3c 793f
00000290: 7dee 553f 01c7 b9bd e8d0 34bd 4f71 9f3e
000002a0: 60d7 463d 5d5d 2bbe e222 e03e db05 bd3d
000002b0: f523 07bc 9693 a63b d63f 04bd 1b4b 083b
000002c0: 5168 dd3c dc37 4c3d 3571 dabe a36a 1fbd
000002d0: 75c7 88bd 75d0 6b3e cd86 763e 1d7e a83e
000002e0: 9e83 d03b c15d ebbd c1c8 5abd f4ba 44bd
000002f0: 54d4 eb3c 170e 8dbb beb1 4ebe 19c4 d73d
00000300: 4da2 033d 1862 8a3e 845d 09bd 9d58 f73c
00000310: 830a 183f a59a fc3d eeb9 863e 53e9 6fbe
00000320: e1dd 3d3e 7134 1f3d 9d82 5fbd 1609 38bd
00000330: a324 9e3d baf9 263e 96ed 82bc f408 193d
00000340: 887b 5fbb 1bee 86be f5db d3bc 3301 e3bc
00000350: 4ce0 853d e354 ebbd f91e b5be 84af b9be
00000360: ea73 f93e 3d5c f0be 2b1f 9ebe d570 043c
00000370: 8e1f 053e 2754 60bc f3e1 4cbd a742 b3bc
00000380: 1090 3bbe 6e39 cdbe 1ccb 20be 6d81 193f
00000390: 4efb 423d 5d67 6f3e ffc5 a1bc 0ceb 0dbf
000003a0: a837 4d3d bd66 603d 07ae f03a 6904 4f3d
000003b0: 8faf 8ebd 479c 993e e1da 9f3e bdf4 e93e
000003c0: 67ca acbc 5aff 3ebd e3ee babe 2566 99bd
000003d0: b863 2dbf 33f8 edbd 3063 28bd 9ce2 bb3e
000003e0: 1bc1 3e3d 3977 b73e 425f 40bc 34f8 61bf
000003f0: 8a8b 27be c239 283d 0c7e f33c da76 05bf
0.094693 0.14244477 0.22928905 0.03111055 0.003500644 -0.05594485 -0.025099052 -0.09704867
-0.10648117 0.036687296 0.37158617 -0.10996652 0.02253188 0.15690593 0.051550467 0.12239306
0.027472703 0.017956723 -0.09171559 -0.12889628 0.033168092 0.28600547 0.14197157 -0.03213855
0.018497229 -0.012634018 -0.00034515752 0.2545927 0.073952466 -0.021893075 0.18997458 0.006629464
0.011500372 -0.023489121 0.06969568 0.013187266 -0.1466534 -0.077655256 -0.1092805 -0.28535384
-0.03471034 0.039793596 0.018563092 -0.06999733 0.05228932 0.012427596 0.053218093 -0.015399044
0.004568149 -0.979589 0.1412099 0.05037342 0.34467983 0.16709557 -0.00476207 0.008785268
-0.04119522 -0.57031363 0.6172419 -0.020996023 0.3031543 -0.3498109 0.34842774 0.049598992
-0.026714934 -0.20588064 -0.871732 -0.12152618 -0.5605782 -0.010355249 -0.040057268 0.036940925
0.14927945 -0.34498826 0.21488525 0.40017566 -0.10206669 0.015155214 -0.5273692 0.21580017
0.31657115 -0.48769796 0.026622731 0.0050434936 0.03066023 0.026859751 -0.041551482 -0.048863724
-0.22668427 0.068495505 0.11920337 -0.023363912 0.3240774 0.06008259 0.046389442 0.031344946
-0.045039784 0.26334944 -0.123505786 -0.1281822 0.13916944 0.021334115 0.09062489 0.49329007
0.07925104 -0.09833849 0.0028701841 -0.26408064 0.06300254 -0.09780935 0.31130764 0.33495066
-0.0041985097 -0.06642072 -0.05982148 -0.44144034 0.7625221 -0.6610367 -0.0647644 -0.04057163
-0.039706595 -0.3055805 0.44845408 -0.16194804 0.041161824 -0.21970859 0.09617473 0.26918268
0.31975067 -0.04212549 0.13374247 0.035167992 -0.023238445 0.6697817 -0.067940705 0.0055795494
-0.055571165 0.040414058 0.029593496 -0.1013458 0.043346822 0.08806258 0.05766223 -0.033754975
-0.054934006 -0.05131048 0.009854552 0.542024 -0.06621885 -0.23701362 -0.07872889 0.21556795
0.113107465 0.0186264 0.41766146 -0.0026142302 -0.03510573 0.31457448 -0.06851955 0.19071753
-0.019710254 -0.036963917 0.013287384 0.97358674 0.8356703 -0.0907116 -0.04414454 0.31141135
0.04854524 -0.16734834 0.43776613 0.092296325 -0.008248319 0.0050835116 -0.03228744 0.002079672
0.027027281 0.04985796 -0.42664495 -0.038920056 -0.066786684 0.23028739 0.2407486 0.32908717
0.0063633462 -0.114924915 -0.05341411 -0.048029855 0.02878777 -0.004304658 -0.20184991 0.105354495
0.032137204 0.27027965 -0.03353645 0.030193621 0.5939104 0.123341836 0.26313728 -0.2342885
0.18541671 0.03886837 -0.054567922 -0.04493054 0.07721832 0.163062 -0.01598243 0.037362054
-0.003410073 -0.26353535 -0.02586172 -0.027710533 0.06536922 -0.114908 -0.35375193 -0.3626672
0.48721248 -0.46945372 -0.30883154 0.008083542 0.13000318 -0.0136919385 -0.05002017 -0.021882368
-0.18316674 -0.40082878 -0.1570248 0.59963113 0.047602944 0.23379274 -0.019747732 -0.5543678
0.050101906 0.05478548 0.0018362411 0.050541315 -0.06967079 0.30002043 0.3122168 0.45694533
-0.021092607 -0.04663024 -0.3651038 -0.07490186 -0.67730284 -0.11619606 -0.041110218 0.36696327
0.04657088 0.35833147 -0.011741461 -0.8826935 -0.16361824 0.041070707 0.02972319 -0.5213448

_advantage.weight f4 [3, 256]
00000000: 8cf5 8f3c 35f2 833d 83d8 803d d240 703d
00000010: 512c bd3a f1ad 14bd 272e cdbc 804d 7cbd
00000020: 87fa d3bd 75df 5fbc 51e2 be3e 3cf2 34bd
00000030: 7c46 373d d64d 4b3d b0eb 01bd bb2f ce3d
00000040: b47b 4abc 9815 1a3b 966c adbd 088b 40bd
00000050: 0bda 85bd 1ea7 033e 598c d4bc 044a 7abc
00000060: 999d 05bd e0f8 32bd 199d 923d 3a99 5d3e
00000070: 36ef 5c3d 2939 cd3d 67db b33d 69d8 cf3b
00000080: f34b c73c dc7f fcbc 8f48 f93c 63d6 d83c
00000090: a56f e0bd 0c05 c6bd 6173 59bd ed7a 2ebe
000000a0: ace5 5fbd bbd3 ddbc 1a7d 8fbc c58e fe3d
000000b0: 1e07 4d3d d9e5 1ebd ed07 013d 750f d8bc
000000c0: 50ac 88bd 25a5 f2be 6d86 b63c 4a4a 9d3d
000000d0: bf88 57bd f0a0 dfbc 795d e13c f872 bfbb
000000e0: b5f2 dbbc e8de b5be 7e8f 733e a1d8 dbbc
000000f0: cf2c 633e 5324 0bbe 2e2e f53d 8c26 053d
00000100: df44 453d 7f60 09be baaa 05bf ac18 67be
00000110: dbb0 c3be 95c3 d7bc db49 2ebd a9e9 393d
00000120: ef70 333d 3e8d 6cbe 0e57 4d3e 09b1 a03e
00000130: ee3e 8bbd 97d0 bdbd d18f 59be c767 9c3d
00000140: b4d2 c83d 6de9 94be da9c 3a3d c326 31bd
00000150: 1216 243c 78d6 4d3d de8d 77bc 1535 563c
00000160: 5d8c 7bbd 6224 873d d81f 8cbb 5910 073d
00000170: ed48 603e 32ce f33b 9ed5 9a3d d82b 983d
00000180: 4119 00bc 27b9 de3d 401b 0c3e 8ab0 70bd
00000190: 18d7 b03d cf3c 4dbd 8a89 2a3e 0157 ba3e
000001a0: b6d2 013d 1b5f 763d e875 37bc 2fec 9fbd
000001b0: 242d c93c acc8 673d 13df 273e f642 753e
000001c0: f1fa 5f3d 98c6 a63b 34d3 80bd 7e86 34be
000001d0: 6bb5 a73d e0c6 c9be ce4a 79bd 0e40 a2bc
000001e0: 1a33 b9bc 23dd 48bc 860d 643e df34 9a3d
000001f0: e936 cf3c 2448 f7bd d085 523c 885d 6e3e
00000200: 4cf5 4f3e 8875 463c 083b 903d 0e5c 203c
00000210: 06ea 5ebc 7610 9e3e 16b7 8abd 25e6 65bd
00000220: 8f50 a6bd ce53 e2bc 1bdb 733d 7bb9 41bd
00000230: 250c a23d 6482 353d 1be7 123d fbcd 803a
00000240: 895d 92bd 4f04 82bd 1b0e b43c da61 5c3e
00000250: fdb2 3fbc c8d6 ec3c d8dc 25bd e4f4 ab3d
00000260: 0414 cebb 5b90 813d 4ad1 6d3e 1492 103d
00000270: 3755 85bb a022 443e 8d84 10bc 8cfe 693d
00000280: 2050 1fbd 749f 643d b013 15bd ee0d be3e
00000290: 6c55 93be d2bc 3cbd c2f8 d93b 651e 6c3d
000002a0: aaa7 31bc 81d9 edbd 3777 3f3e 9fba 223d
000002b0: 0864 013d 31f3 f9bc 1a10 cfbc c233 e33c
000002c0: 0ed7 67bc ed22 833d 6b93 91be 4d5c 6cbd
000002d0: 2d6b 653d 6c10 093e 946e b43c f7ad 583e
000002e0: 55f3 81bd a563 8a3d a7f3 7bbd f542 9abd
000002f0: f862 553d 1db0 e0bc 3c40 b13c b3b9 4b3d
00000300: 95f4 efbc 2e38 8e3d 8f4a 25bd 42a0 583c
00000310: 3d1e a63e e963 a63d 31d5 213e 8f3b e6bd
00000320: 8681 5c3d 2870 943c 58f1 42bd c38c 8dbd
00000330: 946b f4bc 5290 943d 7fab e7ba 200c 043d
00000340: 40d7 21bc 25d7 17be 1bc1 d7bd 9465 f9bc
00000350: 880a 733d edba 0dbd 04d5 02be 0f12 74be
00000360: e51d 923e e25f a0be 0124 47be 2034 05bd
00000370: d094 ee3d 7e07 0d3d 840e 4fbc 6017 c6b9
00000380: 413a 5cbc 3611 4abe 6e42 78bd b7f7 c43d
00000390: 0d41 813b 5e6e 013e 660c d1bc b2c6 2bbd
000003a0: 83f5 5339 7721 493d 00d5 d33c f8ad d83c
000003b0: f7b5 84bd 5f1e 073e 8a87 4ebe 6c2e 963e
000003c0: df97 b3bb 40e8 9cbd b989 f9bd ad40 82bd
000003d0: 51d8 d1be 4ade babc 992e ebbc f8a1 953c
000003e0: c111 1b3d 3b0a 2a3e 49c2 96bc ce0f d3be
000003f0: 8ccb c0bd dfad 513b 0655 edbb e1ab c7bd
0.01757314 0.06442682 0.06291296 0.058655567 0.0014432763 -0.036298696 -0.025046421 -0.061597347
-0.10350519 -0.013664116 0.3728204 -0.044176325 0.044744954 0.049634777 -0.03171891 0.100676976
-0.012358595 0.0023511406 -0.08467977 -0.04700759 -0.06535729 0.12856719 -0.02594583 -0.015276436
-0.032621 -0.043694377 0.0715887 0.21640483 0.053939067 0.10020668 0.08782082 0.006342937
0.024328208 -0.030822687 0.030430106 0.026469415 -0.109587945 -0.09668931 -0.05308855 -0.1703908
-0.05466239 -0.0270785 -0.017515708 0.12429575 0.050055616 -0.03879342 0.0315017 -0.026374558
-0.06673491 -0.4739162 0.022280896 0.07680185 -0.052620646 -0.02729842 0.027510392 -0.0058425628
-0.02684913 -0.35521626 0.23785207 -0.026836695 0.22185062 -0.13588075 0.11971699 0.032507464
0.048161384 -0.13415717 -0.52213633 -0.22568005 -0.38220868 -0.026338378 -0.042550903 0.04538885
0.043808874 -0.23100755 0.2005274 0.31385067 -0.06799112 -0.09268301 -0.21246268 0.076369815
0.098058134 -0.2908434 0.04555974 -0.043249857 0.010015028 0.05025336 -0.015109507 0.013074179
-0.061413158 0.06598736 -0.004276257 0.032974575 0.21902819 0.007440352 0.075602755 0.074302375
-0.007818521 0.10875159 0.1368227 -0.05876211 0.08634776 -0.05010682 0.1665403 0.36394504
0.03169509 0.060149293 -0.011197545 -0.0780872 0.024557658 0.05658786 0.1639369 0.23951325
0.054682676 0.005089592 -0.06290284 -0.1762943 0.081888996 -0.39409542 -0.060862355 -0.019805934
-0.022607375 -0.012259754 0.22270784 0.075296156 0.025294738 -0.120743066 0.012849286 0.23277867
0.20308417 0.012112983 0.07042509 0.009787573 -0.0136056 0.30871934 -0.06773202 -0.056127686
-0.08120834 -0.027627852 0.059535127 -0.04729603 0.07912473 0.044313803 0.03586493 0.0009827012
-0.07146747 -0.06348478 0.021979382 0.21521702 -0.011700389 0.02891101 -0.040493816 0.083963186
-0.006289007 0.06326362 0.23224369 0.03529556 -0.0040689963 0.19153833 -0.008820665 0.05712752
-0.038894773 0.05581613 -0.03639573 0.37120003 -0.2877611 -0.04607851 0.0066519687 0.057646174
-0.010843197 -0.11613751 0.1869782 0.039728757 0.031589538 -0.03051147 -0.025276233 0.027734641
-0.014150394 0.06403146 -0.28432783 -0.057705212 0.056010414 0.1338517 0.022025384 0.21160112
-0.0634524 0.06757287 -0.06151166 -0.07532302 0.052096337 -0.027427727 0.021637075 0.049737643
-0.02929143 0.06944309 -0.040354308 0.013221802 0.32444945 0.08124525 0.15803982 -0.11241829
0.05383446 0.018119887 -0.047593445 -0.06911614 -0.029836453 0.072540894 -0.0017675011 0.032238126
-0.00987798 -0.14828165 -0.10534879 -0.030443944 0.059336215 -0.034602094 -0.12776572 -0.23835014
0.28538433 -0.31323153 -0.19447328 -0.032520413 0.116494775 0.034430973 -0.012637738 -0.0003778292
-0.013441623 -0.19733128 -0.060610227 0.0961756 0.0039445222 0.12639758 -0.025518607 -0.041937537
0.00020213988 0.04910418 0.025858402 0.026450142 -0.064800195 0.1319518 -0.20168892 0.29332292
-0.005480751 -0.07661486 -0.12184472 -0.06359992 -0.4098535 -0.022811074 -0.028708743 0.01826571
0.03785873 0.16605465 -0.01840319 -0.41222996 -0.094138235 0.0031994504 -0.0072428016 -0.0974958

_advantage.bias f4 [3]
00000000: d0a3 073c 4f29 223c f311 053c
0.008278802 0.009897544 0.008121955

_out.weight f4 [3, 256]
00000000: bc2f f43c 80d8 dbbc 3071 55bc d8d4 abbc
00000010: 58e1 9a3c 1084 633c ec17 44bd 982c f63c
00000020: 6c45 c4bc 1474 4b3d 28f4 57bc 38af 623c
00000030: 2450 54bd 5410 603d 8835 ba3c 20f5 613b
00000040: ece5 31bd 78eb fbbc b08d 113c 1880 e23c
00000050: 90d0 b5bc a834 333d f051 f93b e255 363d
00000060: bc79 5cbd c481 b8bc ec7b dc3c 6018 ff3b
00000070: 0096 b6bc 688f 6fbc 50ad be3c 38fc ae3c
00000080: 4091 83bb 2c5d 243d c084 803c 040a f33c
00000090: ced3 473d 566b 2fbd d80f 6fbd 70f9 98bc
000000a0: f848 413c 7c85 88bc aafe 253d 145b 9dbc
000000b0: c042 1dbc 20fe 943c 100e 483d 90bd 34bc
000000c0: 9a14 4abd e4c8 adbc 5845 51bc 98ba a63c
000000d0: 305f b0bb 30e9 abbc 76c0 623d 3093 463c
000000e0: 4e43 7f3d dc37 0ebd 1aba 2c3d ac92 1e3d
000000f0: 66bc 503d 920c 10bd b839 6abd f89d 1b3d
00000100: d087 993b 6892 97bc c623 00bd 1029 d53b
00000110: 0866 67bd a450 1b3d 5464 a8bc 383b 50bd
00000120: e038 43bb 80d8 57bc 4cfe ac3c 0417 5a3d
00000130: a22e 393d 1c31 1a3d fc1b 973c 080d cebc
00000140: a846 253c a4a5 d53c d605 2d3d e86e ffbc
00000150: 30e1 c73c c42f e33c 04ec 16bd 68f0 b5bc
00000160: 4e7a 063d 967b 043d 0046 39b9 c01b a4bb
00000170: 4cfa 183d b835 413d 40b4 1e3c 1ea9 12bd
00000180: e05e 263b 3852 a33c 8647 2cbd d09d 7a3d
00000190: 5acb 71bd 8613 1d3d 7008 8abc 5cde f23c
000001a0: a8d6 353c 9897 083d 0037 a23b b8d9 0b3c
000001b0: 18e2 003d 70ee 833b 202b cfbb fcb8 9a3c
000001c0: f004 0bbc c07d a4bc 68fd 753d c425 21bd
000001d0: be0b 11bd d0fe 9cbc 78c9 26bc 6217 383d
000001e0: b06a 00bc d4d0 843c 320f 1abd 0e6d 633d
000001f0: fc69 4fbd 20fd 53bc c00f 243d e836 66bd
00000200: 5046 f03b 02ea 5a3d f43d 273d 4cb2 e53c
00000210: fc9b b73c d840 e73c 8020 72bd d8e7 43bd
00000220: 2865 6fbc 00b1 35bb 0606 68bd f0af d7bc
00000230: 20f5 fa3b 88da 8ebc b0db 32bd c0c8 0f3b
00000240: 50f5 79bd 125c 67bd 320e 6e3d 683a 633d
00000250: 40d1 09bc 805e 013a acf8 8d3c 04dd ea3c
00000260: 58ed 643c 1422 633d bcf7 c6bc 0640 40bd
00000270: d4be 13bd ce31 0abd fc0f 4c3d f838 89bc
00000280: 1ee2 25bd d2bb 4c3d 8020 b7bc 0265 1c3d
00000290: 6895 f43c 0af3 3fbd 58f6 6bbc 5093 683c
000002a0: 2861 613c aac3 40bd 4ce8 82bc f06b babc
000002b0: 8897 15bd 24c6 4bbd 0029 e9b9 7a7a 7abd
000002c0: ac54 5bbd 6adf 11bd d05b b13c 00c2 d93c
000002d0: 1877 1fbc 82d5 51bd 6273 6ebd b819 7a3c
000002e0: 6888 d7bc e066 11bd 146c edbc e410 0dbd
000002f0: 42d8 30bd f8d3 853c e449 03bd f08a 5fbc
00000300: 0033 513d dab8 58bd fcef 28bd e21c 4abd
00000310: 1ad4 5dbd 00c7 a039 f6da 5dbd 42d1 6fbd
00000320: 086f c03c 5cb4 3dbd 6097 a6bb ec55 cc3c
00000330: ce35 3ebd 784d 4dbd 9053 6b3c f85f 4cbc
00000340: 60da 65bd 06df 4cbd 00f0 c13a 8ee2 693d
00000350: 7235 09bd 586e c33c 7ea3 373d 52ec 323d
00000360: ccb7 533d 8e16 123d 4c1e 013d 92ef 673d
00000370: 0af5 7e3d b8ed a53c 941a 60bd f075 6abd
00000380: 629a 47bd e2e3 16bd 5ccb a13c 008b 513d
00000390: 84fa 5d3d dce3 7e3d a85c 17bd 806e eb3b
000003a0: a0a6 f23c 50d2 7f3c 1412 2f3d e070 72bd
000003b0: fcb6 7fbd fc60 863c ac7d 723d fe42 19bd
000003c0: b890 143d 24c8 163d 12bf 64bd 241c 123d
000003d0: 008f f6ba 1056 2e3d 6e78 61bd a07c 4bbd
000003e0: 028f 6ebd 06bd 5abd e46f ccbc de96 5cbd
000003f0: 289a 753d b0c7 073c b402 49bd 287c 4abd
0.029807918 -0.026836634 -0.013027474 -0.020975515 0.01890628 0.013886467 -0.047874376 0.03005056
-0.023958884 0.049671248 -0.01318077 0.013835721 -0.05183424 0.05470307 0.022730604 0.0034478381
-0.04343216 -0.030751929 0.008883879 0.02764897 -0.022194177 0.04375139 0.0076086447 0.044515498
-0.053827032 -0.022522815 0.02691456 0.007784888 -0.022288322 -0.014621593 0.023276001 0.021360502
-0.004015118 0.040127918 0.0156883 0.029667862 0.048785977 -0.042826973 -0.05836472 -0.018673629
0.011797182 -0.016665213 0.04052607 -0.019208468 -0.009598434 0.018187582 0.048841536 -0.011031523
-0.049336053 -0.021213956 -0.0127728805 0.020352647 -0.005382441 -0.020985216 0.055359326 0.012120053
0.062320046 -0.03472124 0.042169668 0.038714096 0.05096092 -0.035168238 -0.05718395 0.037992448
0.0046853796 -0.01850243 -0.031284116 0.006505139 -0.05649379 0.0379187 -0.020555653 -0.050837725
-0.0029788539 -0.013174176 0.021117352 0.053244606 0.04521049 0.03764449 0.018445961 -0.025152698
0.010087647 0.02607996 0.042241894 -0.031180814 0.02439937 0.027732737 -0.036846176 -0.022209361
0.032831483 0.032344423 -0.00017669052 -0.005008191 0.037348077 0.04717037 0.00968653 -0.035805814
0.002538614 0.019936666 -0.042060398 0.061185658 -0.05903182 0.038348697 -0.016849726 0.029647045
0.011098541 0.033347696 0.004950404 0.008535795 0.03146562 0.0040262267 -0.0063222796 0.018887036
-0.008485064 -0.020079494 0.06005612 -0.039342657 -0.03541159 -0.019164473 -0.01017987 0.044944175
-0.007837936 0.016212858 -0.037612148 0.055523925 -0.050638184 -0.012938768 0.040054083 -0.056204706
0.0073326007 0.053445823 0.040830567 0.02803912 0.022413246 0.028229162 -0.059113026 -0.047828525
-0.01461152 -0.0027723908 -0.05664637 -0.02632901 0.0076586157 -0.017438188 -0.04366654 0.0021939725
-0.061024964 -0.05648429 0.058119006 0.055475622 -0.0084117055 0.0004935041 0.01733049 0.028669842
0.013972603 0.05545242 -0.02428805 -0.046936058 -0.03607066 -0.033738904 0.04981993 -0.016750798
-0.040498845 0.049983807 -0.022354364 0.038182266 0.029856399 -0.04686264 -0.014401995 0.014195278
0.013756074 -0.0470616 -0.015979908 -0.022756547 -0.036521465 -0.04974951 -0.0004447177 -0.06115196
-0.053547546 -0.035613455 0.021650225 0.026581764 -0.009732984 -0.051229008 -0.058215506 0.015264921
-0.02631016 -0.0354985 -0.0289822 -0.034439936 -0.04317499 0.016336426 -0.03205289 -0.013643965
0.051074028 -0.052910663 -0.041244492 -0.04934395 -0.054157354 0.00030665845 -0.054163896 -0.058549173
0.023490444 -0.046314582 -0.0050839633 0.024943314 -0.04643803 -0.050122708 0.014363185 -0.012474053
-0.05611646 -0.05001738 0.0014796257 0.057100825 -0.033498235 0.023856327 0.044833653 0.043682404
0.051688954 0.03566604 0.031523034 0.056624956 0.062245406 0.020254955 -0.054712847 -0.05724138
-0.048731215 -0.03683842 0.01975029 0.05115795 0.05419399 0.062229022 -0.0369536 0.0071848035
0.029620469 0.015614107 0.04274185 -0.059189677 -0.062430367 0.016403668 0.05920188 -0.037417404
0.036270827 0.036811963 -0.05584628 0.03567137 -0.0018810928 0.042562544 -0.05504649 -0.0496794
-0.05824185 -0.053402923 -0.024955697 -0.053854816 0.059961468 0.008287355 -0.049074844 -0.04943481

_out.bias f4 [3]
00000000: 00cd 803c 8020 bf3b 2420 003d
0.015722752 0.0058327317 0.03128065
