rl/models/self_play/old/pong_dueling_ddqn_sp_500.pth (torch, 287662 bytes, 9 tensors)

_fc1.weight f4 [256, 12]
00000000: f980 4c3e 19d2 a3bd e9d6 14be 7035 9e3c
00000010: ece8 133e 47b4 c93e 3e1a 8cbf f7ed acbb
00000020: 285f 94bd 401c 3abf bc1a b8be 1c1f 89be
00000030: b12f 003e b0f3 9bbe a3be 1dbe 7083 723c
00000040: 567d b7bd 1a05 1d3e 84da 073e b86f b0bb
00000050: 42b5 78bf ef68 413e 669a a0be d9c3 a3be
00000060: b2d2 b33c 5f35 a2bd 7249 693e 8386 ceba
00000070: db33 1cbe 6100 22bf c940 fdbf 0a7c b6bd
00000080: b209 a63d bf15 2b3f 2f46 b7be cb5c ca3e
00000090: c47d 163c a216 983d 4177 373f a6a6 c03b
000000a0: ef79 6ebd eb72 003f 7a37 273e 7c40 0a3d
000000b0: f40b 643e b977 ecbe 08a6 983e 9ed0 9f3d
000000c0: 7c9d 383e 6ca7 823e 958e 17be 54fa 643c
000000d0: 63b1 563c 3344 eabe e2cb e93e d03c a8bc
000000e0: 1a9a 363e 0d9b 9a3d 4e1d a53e a3ea ab3e
000000f0: 3941 d23e d07a 953e 7129 c5be 3e96 b33c
00000100: ba3b bd3c f0d5 7ebd a12d 763d 4a9b 3a3d
00000110: e005 273f 50af 96bd 8071 303e e8eb 88be
00000120: f103 373e 735b f7be 9264 94be b65f 9fbc
00000130: 587e 0b3e 040e 83be 6ff8 36bf 4c51 a5bd
00000140: 6160 813c 2bfa 983d 5fe8 af3d 8bcf c4be
00000150: f658 a03d 192a 3b3e 0101 38bd eaf8 b33b
00000160: e106 1abc c87c e8be b9f2 fcbe 7eca cabd
00000170: bac3 a73d f6d9 85bd a782 e23d 92d2 98be
00000180: 8ce4 c73d 7079 813c c5fc 523f 7439 6b3b
00000190: 3015 6abd d5a9 753d 2028 29be a34a b23d
000001a0: 1602 633e e0d3 68bd 5ddf a83e 89e0 b7be
000001b0: fdb6 d13d f5cb bc3e 91ad 66be a692 3ebd
000001c0: 6fe5 a7bc 94df 353d cf53 03be 5c03 fd3b
000001d0: 3bd7 98be f2c5 9abe ffb4 a4be 79e4 78bf
000001e0: 722c 883e f7e9 bebd c9ca 883b b641 b9bc
000001f0: f244 92bb 4f15 e43e cb5c 75bd 9c60 403d
00000200: 39a2 303d 730b 303e 7271 b63e c08c 1f3f
00000210: 3198 cf3e 9e9c 9d3d 2337 843d cb08 193c
00000220: 3f75 98bc 38ca 553e 6b1b 013e 8ea2 35bc
00000230: 6aa4 743d 1f3d e83e 17b5 44bc 9134 0a3f
00000240: 7d4e 8e3d d60b cc3d 39ab 70be 3163 923d
00000250: 73b4 51be df18 95bd ae53 a33e d0a9 6dbe
00000260: 0a46 06be 9b57 eabd 6df3 f4bd 9ef4 433e
00000270: 5441 94bd 9e8e 5a3e a3a3 87bd 2ed4 953b
00000280: 4023 d7bd cd84 073d a90d e03c 93ae dfbc
00000290: 1f35 b9be 9dc5 76be 4015 f3be 7ff9 f9ba
000002a0: 505a 4cbd 10ec b6bc f759 d1be 1989 823c
000002b0: a9c2 32be 11b0 24be f5c8 ccbd e435 c23d
000002c0: a6b3 2d3e cac3 793e 891c 473e 3074 5b3f
000002d0: 00c8 483e d9c4 7f3e a5db 043f 38dc 383c
000002e0: 65a1 09be 319b 08bf 96dc d9be 4f89 82bd
000002f0: 9daa 9abe 57d8 cfbe bb26 6b3e 6164 153e
00000300: 2d66 cf3e cdd8 b23e b8bc e1be e638 97bc
00000310: e514 48bd df73 373d c1aa a9bc 78c9 24bc
00000320: ae02 dbbe 8487 b0be c38d 24be 4294 fabe
00000330: 2f14 883d 20f9 14bd 4e30 30be bf5d afbb
00000340: 44c5 1ebd abb0 753e aeba 093e 8a01 b83a
00000350: e265 49be b440 4bbe f6b3 123e 83b7 78bf
00000360: f463 ebbd 80db 0bbf 8462 b13e d479 193c
00000370: 1ac9 eb3d 54f9 43bd 31bf aabe 4130 93bc
00000380: 9dca 93bd 982e ea3e 92db 98be dd9a 4f3d
00000390: d8bd 373c 0790 403c bda1 0d3f fef6 17bb
000003a0: 0953 5dbe 41c0 0f3c 6d96 febe 1860 ae3c
000003b0: a10c 16be 2608 743e 43d0 28bd f7d9 c13f
000003c0: 7fa9 59be a8d6 d6be dce8 363f 4adc 19bc
000003d0: 5664 1a3e 2083 42be af31 203e b89a e4bc
000003e0: 31b2 f0bd a5ab ed3e d1c6 94be 212d 083f
000003f0: 7463 f03d b98b e3bd cb37 073f b3eb 50bc
0.19971074 -0.07999057 -0.14535107 0.01931259 0.14444321 0.39395353 -1.0945508 -0.005277391
-0.07244712 -0.72699356 -0.35957897 -0.26781547 0.12518193 -0.30459356 -0.15404753 0.014801845
-0.08959453 0.15333977 0.13266951 -0.0053844117 -0.9715158 0.18887685 -0.31367797 -0.31985357
0.021951053 -0.07920336 0.22781923 -0.001575664 -0.15254156 -0.6328183 -1.9785396 -0.08910377
0.08107318 0.66830057 -0.35795733 0.3952392 0.009185258 0.07426192 0.7166634 0.005879241
-0.058221754 0.5017535 0.16329756 0.033752903 0.22270185 -0.4618509 0.29814172 0.078034624
0.18028826 0.25518358 -0.14800484 0.0139756985 0.013103816 -0.45755157 0.45663363 -0.02053681
0.17832223 0.07549105 0.3224892 0.3357745 0.41065386 0.2919526 -0.3850818 0.021922227
0.023099769 -0.062215745 0.06010211 0.04555825 0.6524334 -0.07357657 0.17230797 -0.26742482
0.17872597 -0.48311958 -0.2898298 -0.019454818 0.13622415 -0.2559663 -0.7147283 -0.08072147
0.015793027 0.07469591 0.08589243 -0.38439593 0.07829468 0.18277778 -0.044922832 0.0054923194
-0.009401054 -0.454077 -0.49403933 -0.099019036 0.08191629 -0.065357134 0.11060076 -0.29848152
0.09760389 0.015804976 0.82416946 0.00358924 -0.057149112 0.059976418 -0.16519213 0.08705642
0.22168764 -0.056842685 0.32982913 -0.35913494 0.1023998 0.36874357 -0.22527148 -0.046526574
-0.020495145 0.044402674 -0.12824939 0.0077213477 -0.29851708 -0.30229145 -0.3216934 -0.9722362
0.2659641 -0.09321969 0.0041745645 -0.022614341 -0.0044637853 0.44547507 -0.059902947 0.046967134
0.043123458 0.17191868 0.35633427 0.6232414 0.405458 0.07695888 0.06455829 0.009340475
-0.018610595 0.20877922 0.12608115 -0.011086119 0.05972711 0.45359132 -0.012006066 0.5398646
0.06948564 0.09963195 -0.23502816 0.071478255 -0.20478992 -0.072801344 0.3189978 -0.2320931
-0.13112655 -0.11442491 -0.11960492 0.19136283 -0.07239023 0.21343467 -0.06623008 0.004572413
-0.1050477 0.033085633 0.027350264 -0.027304923 -0.3617334 -0.24098821 -0.4747715 -0.0019071548
-0.049890816 -0.02232936 -0.4088895 0.015934514 -0.1745707 -0.16082789 -0.09999267 0.09482935
0.16963062 0.24391094 0.19444479 0.85724163 0.19607544 0.24977435 0.5189765 0.011282973
-0.13440473 -0.53361803 -0.42551106 -0.06373846 -0.30208293 -0.40594742 0.22963993 0.14589073
0.4050764 0.3493103 -0.44089293 -0.018459748 -0.04884805 0.044788238 -0.020711305 -0.0100577995
-0.42775482 -0.3447839 -0.16069703 -0.48941237 0.06644475 -0.036370397 -0.17205927 -0.0053517516
-0.038762346 0.23993175 0.13450119 0.0014038545 -0.19667771 -0.19848901 0.14326462 -0.97155017
-0.11493674 -0.54631805 0.34645474 0.009367425 0.115129665 -0.0478452 -0.33348992 -0.017967345
-0.0721638 0.45738673 -0.2985502 0.0506848 0.011214696 0.011753089 0.5532492 -0.002318799
-0.21613707 0.008773864 -0.4972414 0.021286055 -0.14653255 0.23831233 -0.04121424 1.5144643
-0.21256064 -0.41960645 0.71449065 -0.0093909 0.15077338 -0.18995333 0.15643953 -0.027905807
-0.11752737 0.46420017 -0.29057935 0.5319386 0.11737719 -0.11110634 0.5281951 -0.012751508

_fc1.bias f4 [256]
00000000: 163e 9ebe d5aa f4bd 4767 2ebe 51ab 243e
00000010: ab50 7a3b ae97 1dbe 6d9e afbe f79c 9cbe
00000020: b373 a0bc e65f 9abe 3cb9 60bd a65f 41bd
00000030: 6fb0 8dbd ea66 423e 258f 5cbe 7186 dfbb
00000040: 7199 8e3d e836 063e a3b3 ecbd 44f6 853d
00000050: ea2f 88be afce 3dbe 3190 3e3c e749 34be
00000060: 97cf e6bd c73f 943c f5cf 74be 34a6 38be
00000070: 6ae7 e33d f614 5c3e f671 5bbe 0aa2 0abe
00000080: 8fce af3d 5089 36be 548d 21be 5a98 e8bd
00000090: a1b4 1cbe 6ca9 c53d 8e22 163e 197b b7bd
000000a0: f860 813d c714 8d3b 7f06 c7bd 200b 2fbe
000000b0: eba6 0abe 0f82 cdbc 5ef0 72be 3c41 58bd
000000c0: 3f6d 0ebe 634f 88bd 9016 b4bc 6fe2 383e
000000d0: 7874 93bd 2e08 46be e22b 213e cced dabd
000000e0: 8c31 0c3e 1785 7fbe 334b c5be 375b 04bd
000000f0: ad76 0a3d 64d4 94be ccbf 13be 9e42 283d
00000100: 0bf5 6abe 3552 82be c7fd 86be 64b3 5abe
00000110: e83e b2be 80a2 31be a059 80bd cd1c 4b3d
00000120: 58ce ed3d 94e8 b0bd c7de abbe fea2 0a3d
00000130: 323a 41be bc96 21be 1228 923c 2ff3 02be
00000140: 5698 b33d ecd2 d63d a97b 153e 5a6e a6bd
00000150: e8a0 a0be 9b15 03be de64 5f3d b2ec 34bd
00000160: 8eb6 9dbe 7051 bebe f755 56be 339c 313e
00000170: 0552 5cbe dcb3 bbbd 5643 6ebe 20e5 b8be
00000180: af0a 4c3e 37a8 09bd 350c 81ba 3df8 b8bd
00000190: 94e5 38bc 1d9e bcbd 16e1 72be 5b15 823e
000001a0: 4ab9 82be 237f 6bbe 9e56 8abe 79ee 85bd
000001b0: 4ce7 adbe 22a5 32be 2153 af3d af77 60be
000001c0: 60e3 513d df93 96be 302e abbd d83e fc3d
000001d0: 1425 e73d 383f 11be 3035 1bbe ad83 b3be
000001e0: 5537 b83d 0adf 573c 61be d93b 5c83 aebd
000001f0: f800 a23d 0bdb 82be 0f65 51bd 1cb3 c83d
00000200: 76cd 5dbe ba5f db3d 0e8b 9a3d b893 d13d
00000210: 4cee 88bc 1b14 e03c 3897 03bb a586 3cbe
00000220: 3a06 8fbd e10c cbbe 2250 66bd fd6b f7bd
00000230: 3bed 223e 5ae2 07be bf0b 913d 4450 2abe
00000240: 2a8d 3a3e 76c7 1c3e ffc0 19be f1dd 153e
00000250: 401e 66be 12ca b8be ee63 90be af0e 56be
00000260: 27bb cc3d 35e8 afbd b686 a2bd c46d 0c3e
00000270: 2f28 0ebe abfd 543e b565 17bd f07d 94be
00000280: 781f e6bd a8c8 2dbe 9c0a 853d 2459 6dbd
00000290: e28f ccbd 8d86 143e ab74 cebd dc96 25be
000002a0: 46fb 45be fb3f 09bc 081e a8be 57ba 9f3d
000002b0: c5d4 75bd 5036 94bd 9e55 17bd b76f 03be
000002c0: 691b a4bd 6a93 b33c 87f0 013e 8c74 7cbe
000002d0: 8fba 8ebe 06d3 5fbe aff2 9ebe bbba 013e
000002e0: 1bae d7bd a654 e53d 83c3 43be cd03 c0bc
000002f0: 6246 40bd e205 a1be 01a9 063e d65a b7bd
00000300: 1a38 49be f7fa 7bbe bed3 043c 3495 e2bb
00000310: 8275 84be 98a8 2ebe 2df8 9fbe f205 a6be
00000320: ec8a acbe 2880 1fbe 0a45 77bd 033a 4b3d
00000330: 66e1 8cbe 11ba 883e adb2 513d 756d 413d
00000340: 844b 09be e196 a8bd 4815 20be c4c6 c93c
00000350: 803f 96be 7da5 eebd 7071 cf3d 016e 04bd
00000360: f88c bf3d 9c10 673e e626 30bc 7cab 40bd
00000370: fb5d bbbe 8dad 42bc f672 c6bc c967 25be
00000380: e628 0bbe c830 b4be 79bd 89be b886 d0bb
00000390: 9b1a afbd 545a 85be 5795 44be 9d5b d83c
000003a0: 8770 65be 97fd 70be 7d86 133e 98b4 91be
000003b0: f79b 6dbe 1cd4 23bd b799 53bd 1df3 49be
000003c0: 2dd0 72be b93f 39be 3ace a4be 3149 a23d
000003d0: 2fa6 9dbd 5c58 0cbe 5777 c93c 395f c2bd
000003e0: 66e6 88be a9e2 7fbe 5fe8 103e 3dd2 cbbe
000003f0: 4d29 893d 5871 52be 0d6e d5bd 48e5 8e3e
-0.30906743 -0.11946646 -0.17031585 0.16080977 0.0038195055 -0.15389892 -0.34300557 -0.30588505
-0.01958642 -0.3015129 -0.054864153 -0.047210358 -0.06918418 0.18984571 -0.2153898 -0.0068214466
0.069628604 0.13106883 -0.115577005 0.06541112 -0.26599056 -0.18535875 0.011631058 -0.17606317
-0.11270063 0.018096818 -0.23907454 -0.18032151 0.11128123 0.21492371 -0.21430191 -0.13538375
0.0858432 -0.17825818 -0.15776569 -0.11357184 -0.1530328 0.09651455 0.14661619 -0.08959026
0.063173234 0.0043054554 -0.09718036 -0.17094088 -0.13540237 -0.02508643 -0.23724505 -0.052796587
-0.13908862 -0.06655767 -0.021983415 0.18055128 -0.07199949 -0.19339058 0.15739396 -0.106898874
0.13690776 -0.24953113 -0.38533935 -0.03231355 0.033804584 -0.2906829 -0.14428633 0.041079156
-0.22945039 -0.25453344 -0.26365492 -0.21357495 -0.3481362 -0.17347145 -0.062670946 0.049588013
0.116116226 -0.08638111 -0.33568403 0.033846848 -0.18869856 -0.15780157 0.017841373 -0.1278808
0.0876929 0.10489449 0.14597954 -0.08126517 -0.31372762 -0.1280121 0.054539554 -0.044171043
-0.3080334 -0.37171507 -0.2093123 0.17344742 -0.21515663 -0.09165165 -0.23267874 -0.36112309
0.1992595 -0.033607688 -0.0009845557 -0.09031723 -0.011285204 -0.09209845 -0.23718676 0.25406918
-0.2553199 -0.22997718 -0.2701921 -0.06539626 -0.33965528 -0.17445806 0.085607775 -0.21920656
0.051242232 -0.29409692 -0.08358419 0.12316674 0.11286369 -0.14184272 -0.15157008 -0.35061398
0.08994929 0.013175735 0.0066450094 -0.085211486 0.07910341 -0.25557742 -0.051121768 0.097997874
-0.21660408 0.10711618 0.07546054 0.10233253 -0.016715191 0.027353337 -0.0020079147 -0.18410738
-0.069836095 -0.39658263 -0.056228764 -0.12081144 0.15910809 -0.1326994 0.070823185 -0.16632181
0.18217912 0.15310463 -0.15015028 0.14635445 -0.22472477 -0.36091667 -0.2820124 -0.20904039
0.09996634 -0.08589212 -0.0793585 0.13713747 -0.13882516 0.20799892 -0.03696223 -0.29002333
-0.11236471 -0.16971076 0.06496164 -0.05794634 -0.09988381 0.14504452 -0.100808464 -0.1617083
-0.19334134 -0.008377071 -0.32835412 0.077992134 -0.060017366 -0.07236922 -0.036946885 -0.12835585
-0.080130406 0.021920878 0.1268941 -0.24653834 -0.27876708 -0.21857843 -0.31044528 0.12668888
-0.10531255 0.11197786 -0.1911755 -0.023439312 -0.046942122 -0.314498 0.13150407 -0.089528725
-0.19650307 -0.24607454 0.008107124 -0.006914759 -0.258709 -0.17056501 -0.3124403 -0.3242641
-0.3369974 -0.15576231 -0.060368575 0.04961587 -0.27515715 0.26704457 0.05119579 0.047223527
-0.13407713 -0.08231903 -0.15633118 0.024630912 -0.29345322 -0.11652658 0.10129058 -0.03233147
0.093530595 0.2256493 -0.010751462 -0.04703854 -0.3659514 -0.011882198 -0.02422474 -0.16152872
-0.1358982 -0.35193467 -0.2690237 -0.006363716 -0.085499965 -0.26045477 -0.19197594 0.026410872
-0.22406207 -0.23534237 0.14406772 -0.28458095 -0.23204027 -0.039997205 -0.051660266 -0.19721647
-0.23712225 -0.18090715 -0.32188588 0.079241164 -0.07697713 -0.13705581 0.024593038 -0.094908185
-0.2673828 -0.24988808 0.14151143 -0.39808837 0.066973306 -0.2055105 -0.10421381 0.27909303

_fc2.weight f4 [256, 256]
00000000: a567 23bf 5cda 94bc bebc 29bf 2edc 063f
00000010: 439e 33bf 7201 fe3b 30a5 f53d 4473 94be
00000020: f792 1dbf 353a 54bd bf5b 0fbf 29c9 9c3c
00000030: cc96 b0bd eeb2 a2bd b929 193e a9ab 763e
00000040: b305 8c3e d5ae a43d bd8c 333d f565 3bbe
00000050: a3ac 3ebd 1024 00bf 4fd5 143e dc1b a8bf
00000060: 6fea 733e 46c8 2fbe 3cc1 7f3d fcb3 09bd
00000070: 603a 813d 6248 1a3d e8a4 1dbd 6bec d2bd
00000080: d5b0 2cbe 1c91 54bf a491 e1bd 3024 7abf
00000090: 6e47 493e 6b8f 01be 9fbb a6bd ba13 db3d
000000a0: 2f52 32bf 1b92 e7be 84e6 25be a639 2a3e
000000b0: 1686 35be 142d 2dbf fce0 2f3c f3f6 77bf
000000c0: c651 9ebe 2af2 ea3d c620 d5bd b42c 023c
000000d0: 1757 3ebe 6dff da3d 8de4 a3bd 5b03 1f3e
000000e0: 9456 c8bd 9e1e 2cbe 4f2a 8bbd 6dc2 fabd
000000f0: 5104 7abe 3ae0 ebbe 4712 cbbe 9de1 c13c
00000100: 5b84 843e a594 b33e d657 97be 9413 333d
00000110: a7c1 2e3e 0962 a5be 2437 cd3d 43b5 493b
00000120: 41d9 62bd d17c 27be 04f3 8e3e dcf0 2fbf
00000130: c596 76bf 7ca5 eabf d5e3 20be 2240 63be
00000140: 4c16 ddbe 87f3 6fbd 32e6 963d 505e dcbe
00000150: 2f90 c33e a84c 2c3e 8a0e 11bd 73bb 3cbe
00000160: 357f 15be 86ed 38be 5f40 f43d c15d 8abd
00000170: c8d1 27bf d844 2e3e b4b3 99be 5cc8 0c3d
00000180: d378 d83c f025 613d 04dd a2bf a278 5bbe
00000190: 9906 9fbe 37b9 153e b028 d1be a89b 31be
000001a0: b510 71be eed2 07be 04e4 1ebe 92ee 9e3d
000001b0: 83e0 5cbf 1835 2cbe d92e f23d 5df5 3abf
000001c0: fe5e 1bbb 9713 f43d 65fa 1dbe c4ac 1f3e
000001d0: 79b1 41bd 86b4 91bc ee41 293d 6a1b 1c3d
000001e0: d06a 8fbf e508 9fbe 0936 30be 6a4d 0dbf
000001f0: 89ce 23bd 15a1 46bf 567a 153c 10c1 943d
00000200: 261b 42bf b417 0ebe 2231 9b3e 085e 72be
00000210: 9a60 d0bd 2c06 24bc f346 133e f378 b63e
00000220: de26 6bbe 8458 a8be a571 2abf 3077 18be
00000230: c626 943d df16 bdbe 06fd 703e 3641 283e
00000240: a67e 0ebe 9126 a3be 54e6 123e cdbc c73e
00000250: 46d7 c83d ac97 2c3d a5c9 303c 9d3d f13c
00000260: 0af2 1fbf 721f 343e 08e4 dabb 5aff 74bf
00000270: bace ca3c 7488 95be 0350 a9be 6132 cf3e
00000280: 7938 693e 38aa 033c 12e0 82be 844b 463e
00000290: dfc0 2fbe 5ad4 51be a3db 49bd 5f01 f9be
000002a0: 6c98 df3d 1b19 cbbe dab6 75be afe5 bb3e
000002b0: b820 17be 6e66 9abd 4de6 103e 1de6 86be
000002c0: 2790 a63d 292c 95be 5864 423d a4d8 67be
000002d0: 9fff 07bb e90e ec3d 6314 05be f283 12bf
000002e0: ef58 36be ae8d 05be 823f 41bf 038d 043e
000002f0: 4663 2ebe 26f1 1e3e 5941 b93d 3a9f ed3c
00000300: 0d4f debc 21fc 35be 8db4 fe3c b5a5 1e3e
00000310: 2802 edbe 15f4 15bf 7e17 ccbc be08 dfbd
00000320: dbb6 4a3e fc7b cdbf dbda 343e e4e4 253d
00000330: bd14 a63e ccb0 153c e1f0 363f 7913 183d
00000340: 076e 5ebe 74c2 083f 63c0 00be 7b72 56bd
00000350: 53f5 cbbd f2fc dc3d 3e52 5cbd b0bc e0be
00000360: 4c67 89bd 26cb 05bf 3f1e 26bd cd85 673e
00000370: 496a eebd 04f6 333e ebe9 703e f50b dbbe
00000380: 046a 95be 9f8b 7f3d 0715 c3be 9df8 aebe
00000390: 6967 89be e5d1 833e 7b54 b1bd fd26 84be
000003a0: 507d 5abd 312f bd3e 5eb2 63bf ff92 24bd
000003b0: 30f7 b4be 7147 5f3e ac4e df3c 8d1d c1bd
000003c0: 60cb 51bf c968 883e 447d 07be 1ec2 8bbe
000003d0: b1aa 2fbe 7513 9abc 19df 5d3d a12f 2bbe
000003e0: 39ec 12bf 0840 6cbe ce1a 103c b719 4cbe
000003f0: f978 03bf b247 69bd 6e1d aaba f899 f23d
-0.63830024 -0.018170528 -0.6630362 0.5267972 -0.70163363 0.007751637 0.11994398 -0.2899419
-0.61552376 -0.051813323 -0.5599937 0.01913889 -0.08622512 -0.079442844 0.14957322 0.2408892
0.27348098 0.08041159 0.04383539 -0.18300612 -0.046551358 -0.50055027 0.14534496 -1.3133502
0.23819898 -0.17166242 0.062440142 -0.033618912 0.06309962 0.037666686 -0.038487345 -0.102989994
-0.16864331 -0.8303392 -0.11014107 -0.9771147 0.19656155 -0.12652366 -0.08141255 0.10697122
-0.6965665 -0.45228657 -0.16201216 0.16623554 -0.17726931 -0.6764691 0.010734793 -0.9686119
-0.30921763 0.114719704 -0.10406642 0.007945228 -0.1858791 0.1069325 -0.08002577 0.15528624
-0.097821385 -0.16808555 -0.06795179 -0.12244115 -0.24415709 -0.4606951 -0.39662382 0.023667151
0.2588223 0.35074344 -0.295592 0.043719843 0.1706606 -0.32301357 0.10020283 0.0030778206
-0.05538297 -0.16356207 0.2791978 -0.687269 -0.96323806 -1.8331752 -0.15711911 -0.22192433
-0.43181074 -0.058581855 0.07368125 -0.43040705 0.3819594 0.16826117 -0.035414256 -0.18430881
-0.14599307 -0.18059358 0.1192634 -0.067561634 -0.65554476 0.1701845 -0.30019915 0.034370765
0.026424801 0.05496782 -1.2723699 -0.21432737 -0.3105972 0.14621435 -0.40851355 -0.17344534
-0.2354153 -0.13264057 -0.15516669 0.077603474 -0.8628008 -0.16817129 0.11825342 -0.73030645
-0.0023707743 0.11917799 -0.15427549 0.15593249 -0.04728839 -0.017786276 0.04132264 0.03811208
-1.1204472 -0.31061473 -0.17208113 -0.5519625 -0.03999189 -0.7758954 0.009123405 0.07263386
-0.75822675 -0.1387623 0.30310923 -0.23668683 -0.10174675 -0.010011237 0.14382534 0.35639152
-0.22964045 -0.32880032 -0.6657966 -0.14889216 0.07233958 -0.36931512 0.23534021 0.16431126
-0.139155 -0.3186536 0.14345676 0.3901123 0.09806685 0.042136833 0.010790263 0.029448325
-0.624787 0.1759012 -0.0066800155 -0.95702136 0.024756778 -0.29205668 -0.33068857 0.40468124
0.22775449 0.008036189 -0.25561577 0.19364744 -0.17163418 -0.20491162 -0.049281728 -0.4863386
0.10917744 -0.3966759 -0.23995534 0.36698672 -0.14758575 -0.07539068 0.14150353 -0.26347438
0.08132964 -0.29135254 0.047458977 -0.22641236 -0.0020751727 0.115262814 -0.12996058 -0.5723258
-0.17807363 -0.13042328 -0.7548753 0.12944417 -0.17030057 0.15521678 0.09045667 0.02900659
-0.027137304 -0.17771961 0.031091953 0.154929 -0.46290708 -0.58575565 -0.024913546 -0.10890339
0.19796316 -1.6053462 0.17661612 0.04050149 0.32437697 0.00913639 0.714613 0.037127946
-0.2172166 0.5342171 -0.1257339 -0.05235527 -0.09958901 0.10790433 -0.05378937 -0.43893957
-0.067091554 -0.52263105 -0.04055619 0.22609635 -0.11641366 0.17574316 0.23526733 -0.4278256
-0.29182446 0.062389012 -0.3810198 -0.34174052 -0.26836708 0.25746074 -0.086586915 -0.25810996
-0.053342164 0.36950067 -0.8894404 -0.04017925 -0.3534484 0.21804596 0.027259193 -0.094294645
-0.8195095 0.26642445 -0.13231379 -0.27296537 -0.17154957 -0.018808106 0.05416784 -0.16717388
-0.573917 -0.23071301 0.008795453 -0.19931684 -0.51356465 -0.05695314 -0.0012978741 0.118457735

_fc2.bias f4 [256]
00000000: b600 953d d906 f03d 0734 7fbd 16eb 9ebd
00000010: 0f33 72bd 8c29 8bbd b17b 9fbc a348 813d
00000020: b6f0 f8bc c6d7 843b 8c81 23be 301b c03c
00000030: 0425 68bd c9a2 2dbb 82e3 8bbd 1a85 a4bd
00000040: aaa5 8fbd 7762 843c f4c5 a7bc 4ec1 5dbc
00000050: 899d 413b d346 0a3e 22b2 b6bd 8f17 c53c
00000060: 9bf4 c9bd d053 0bbd d8ef 3dbe e6bf 45be
00000070: 02ce c33c 250b ebbd cde7 823d 00cf b1bd
00000080: e770 44bd 8f96 9f3c e937 64ba b776 74bd
00000090: 1410 033e 817b 633d eecf a8b9 c5f1 97bb
000000a0: ef7a 1abe c9c9 5abd 13f4 ebbc 7783 603d
000000b0: b1d3 03bd c694 843d 08b2 70bc a670 8abd
000000c0: 67a6 82bd c968 963d 83c4 ecbc bf0a 36be
000000d0: a710 b6bb 2d33 123d 4fc8 15bd 2a0c b8bc
000000e0: 12fa 92bd b4a9 23be e762 10bd b591 583c
000000f0: a03f ba3c a1cc 753c 5812 843b e159 033d
00000100: 2cd9 48bc 143e 34be 294a dbbc 2557 0b3d
00000110: 494b 02be 7700 4abd 5b17 3c3e 6b03 e7bc
00000120: fff6 38be 6edf 06be c24a afbd 4071 0dbe
00000130: 81b2 80bd e271 fb3d e0dd 0ebe 85c5 873c
00000140: 8f62 c3bd 0b83 37bd d5bc 0c3d 8703 1d3c
00000150: 203e 43bc 88e0 38bc 5a7f e9bd cc6d cfbc
00000160: 1f9b 2fbe 2075 5dbd 184b af3d 791e c2bc
00000170: edef adbd 08ba b13c 25e5 1cbc d16a 62be
00000180: 3742 f93d 9676 03be 67fd 2bbd 074d 02be
00000190: 0a35 e4bd 1f16 cfbd 42fa 15be 98fc f0bd
000001a0: ce23 393e 1a4c 11bd 0d1a 48bd e207 85bd
000001b0: b5a8 b8be 4ca0 433d fc56 27be 6422 d53c
000001c0: 630e c6bd 6407 29bd c595 8cbd abb7 17bd
000001d0: 6d8f 16bd 588c 21be 1b9a 9dbb 8e5d 80be
000001e0: 3794 cf3d e76e 91bd f7d8 55be 2c7a 0dbe
000001f0: 7f1e 8bbd 1eab 0fbd 7a39 f3bd 5990 79bd
00000200: d1aa b5bd 639e 3cbd ade5 4cbd f8c6 e4bd
00000210: d32f 0c3d 6c3b 10bd 90e3 993d b8c5 05be
00000220: a6c9 06be 7506 76be b47c fabd 4db0 7dbd
00000230: 42d6 20bc 0ebf 17bc 7324 cabd dda9 3dbd
00000240: 079a 1cbe c821 e93c 4306 12bd b1ef 7abd
00000250: 2b4a 5e3c 4c6b d53c f2fa 27be ee22 c7bd
00000260: 7ea6 57bd 3e8a d2bd 5f2d 04bd 1fad afbd
00000270: 0b3c 903d cd52 fabd 80cc edba bbce dc3b
00000280: c594 b3bb 108c aabd bbce 2dbe 7419 65be
00000290: aaf3 233b c272 67bd 21e8 4cbd be98 93ba
000002a0: 94b8 133d bb2c 823d 2d13 83be 1d9e abbd
000002b0: 6a17 89bd d552 bfbd 5599 ddbd e8f2 87bd
000002c0: 6e5e a5bd 0732 97bd 2da5 74be af6a cbbc
000002d0: dc9d 9fbd ce18 0cbd 6227 98bd 6e2f 30be
000002e0: e2a5 4a3d da02 2abd a94e adbd 0fda 2cbe
000002f0: 2df1 4f3d 8987 803d 6324 c7bd a669 123e
00000300: 2bfa f1bc cd67 a03c da6c 4cbd f41f 83bd
00000310: 62e1 02bd 887d 40bd a8f8 e2bb ce38 1bbe
00000320: c2f4 a7bd ba28 9abd 9538 3dbe 63e9 febd
00000330: fd66 02bc 4c79 13be 4e31 0bbd a637 96bd
00000340: bf19 22bb 38f8 433d dd16 98ba dd2f 3d3d
00000350: 7160 42be b4bd 8ebd 06d4 18bd 41e4 07be
00000360: 88c5 43be 04cf 0b3d b22f 0cbc aa94 2fbd
00000370: cc31 3dbe 6b0a c33c 6c22 90bd 2feb fa3c
00000380: 06cc e4bd 3233 1fbd 56b4 523b 8379 f53c
00000390: 7e7e b1bd 1aff 74bc 3918 b0bc 5769 61bd
000003a0: 4ae0 96bd 8404 88bd 82a9 183e adbb 91bd
000003b0: 1a36 08be ac2b 3bbc 472e 82bc 89a8 82bd
000003c0: 082f eabc efff 86bd c27c ebbc ffd0 093c
000003d0: a088 e5bd 4ea3 8dbd b199 bc3d 6f77 4abd
000003e0: 1b37 09bc f2e6 8dbd ae6b e5bd 8db0 35be
000003f0: 4c86 a43a dc21 d1bd 2303 2dbd 84d2 bb3c
0.07275526 0.11720056 -0.062305477 -0.07759683 -0.059130725 -0.06795034 -0.01946816 0.063126825
-0.030388217 0.0040540425 -0.15967387 0.023450464 -0.056675926 -0.0026494733 -0.06830503 -0.080331996
-0.0701402 0.016160233 -0.020480134 -0.013534857 0.002954336 0.1350358 -0.08920695 0.024059085
-0.09861108 -0.034015477 -0.18548524 -0.19311485 0.023901943 -0.11476735 0.06391869 -0.0868206
-0.047959235 0.019480972 -0.0008705841 -0.059683528 0.12799102 0.055537704 -0.00032198377 -0.0046369755
-0.15085958 -0.053415094 -0.028802907 0.054812875 -0.032184307 0.06473689 -0.014690883 -0.06759767
-0.06379395 0.07344205 -0.028902298 -0.17777537 -0.0055561843 0.035693336 -0.036567982 -0.022466738
-0.071766034 -0.15982705 -0.03525057 0.013218333 0.022735417 0.015002401 0.004030507 0.032068137
-0.012258809 -0.17601806 -0.02676876 0.034018654 -0.12724032 -0.04931685 0.18368284 -0.028199872
-0.18062972 -0.13171169 -0.08559181 -0.13812733 -0.06284047 0.12277581 -0.13951826 0.016573677
-0.09540283 -0.044802707 0.03435977 0.0095833605 -0.011916667 -0.011284001 -0.114012435 -0.02532091
-0.17149018 -0.054066777 0.08559245 -0.023696171 -0.08493028 0.021695152 -0.009576117 -0.2211106
0.121708326 -0.12838206 -0.04198971 -0.12724696 -0.11142929 -0.10111641 -0.14646247 -0.117669284
0.18080065 -0.035472967 -0.04885297 -0.06495644 -0.36066213 0.047760293 -0.16341776 0.026017375
-0.09670713 -0.041266814 -0.06864504 -0.037040394 -0.036757875 -0.15776193 -0.0048096306 -0.25071377
0.101356916 -0.07101231 -0.20883547 -0.13816136 -0.06792926 -0.0350753 -0.11876197 -0.060928676
-0.08870471 -0.046049487 -0.050023723 -0.11170763 0.034225296 -0.03521292 0.07514107 -0.13063705
-0.1316286 -0.240259 -0.122308165 -0.06193571 -0.009816708 -0.00926186 -0.098702334 -0.046304572
-0.15293132 0.028458491 -0.035650503 -0.061263744 0.013567488 0.02605214 -0.16404322 -0.09723459
-0.052649014 -0.10280274 -0.03226983 -0.08577942 0.07042702 -0.12222824 -0.0018142611 0.0067385114
-0.005480381 -0.08327496 -0.16973393 -0.22372991 0.0025017061 -0.056505926 -0.050026063 -0.0011260731
0.0360647 0.06356188 -0.25600567 -0.08379767 -0.06693919 -0.09341971 -0.108202614 -0.066381276
-0.08074652 -0.07382589 -0.23891135 -0.024831144 -0.07793781 -0.034203343 -0.07429387 -0.17205593
0.049474604 -0.041506626 -0.08462269 -0.16880058 0.050767113 0.06275851 -0.09723737 0.14298114
-0.029538235 0.019580746 -0.049908496 -0.06402579 -0.031953223 -0.046994716 -0.006926615 -0.15158388
-0.08200981 -0.07527299 -0.18478616 -0.12446859 -0.007959125 -0.1440174 -0.033982567 -0.07334833
-0.0024734584 0.04784414 -0.0011603493 0.046188224 -0.18982102 -0.06969777 -0.037311576 -0.13270666
-0.19118321 0.034132972 -0.008556293 -0.042866386 -0.18476027 0.023808679 -0.070378155 0.030629722
-0.11171727 -0.038867183 0.0032150946 0.029965168 -0.086667046 -0.014953399 -0.021495925 -0.0550321
-0.073669985 -0.06641486 0.14908412 -0.071158744 -0.13301888 -0.011423986 -0.015891207 -0.06379802
-0.02858688 -0.06591784 -0.028746013 0.008411645 -0.112077 -0.069159135 0.09209002 -0.049430307
-0.008374955 -0.06928815 -0.11202179 -0.1774313 0.0012552231 -0.10211536 -0.04223932 0.02292753

_value.weight f4 [1, 256]
00000000: fc74 c13e 15b2 f83d 2fa5 a73d 1d5c 87bc
00000010: 0f6b 653b 8b25 42be 9ff6 c2bd 1bda 32be
00000020: 8009 d5bd 6b45 163d a90b b03e 645e 59bd
00000030: 20ea 9e3c c1d3 353f dda8 533d eec4 4f3d
00000040: 6f0e e13c 2063 263e 4b19 80be d989 2dbd
00000050: 9041 873e 4ae7 4d3f ff60 113e 2138 25bd
00000060: ecd6 a03e b92c 4bbe 8437 b23d 1102 b5bd
00000070: 3829 383d a193 e73d d463 303d c69b f93c
00000080: 1df3 143c d330 abbc 6fd3 f93d 6211 863c
00000090: 059c 53be e7ed a0be 5d5d c2bc 8523 a4be
000000a0: 3f86 7cbd 9cfe 223d 67d2 013f 1dd1 8ebe
000000b0: 63e9 dd3d f97c 263d 17d7 493e e1b9 8dbc
000000c0: 8bea 29bd dbf4 6abf 8da1 733e 60e8 743d
000000d0: e079 b03e 40c2 fa3e 230b 9cbb 16f0 0f3c
000000e0: 5c02 1fbd 8164 aebe aaf8 083f 1baa 9abc
000000f0: 0fbc 2c3e cd6c 28bf a412 b13e 785c 103d
00000100: 47d9 dabc db17 ddbe 459d 14bf 9d69 f2bd
00000110: 1e63 03bf 47a2 363a f832 87bd 672b dd3d
00000120: b5cc 2b3f e9d7 b2be ef07 593e b4a0 183f
00000130: 4d89 a2bd 5b41 febd bb0d 82be e768 e23e
00000140: d637 2b3e 8234 d0be 4a3f cb3d e443 a53b
00000150: a878 f43c 29fe 1b3d efa8 9b3d 94a8 733e
00000160: 4452 20be 62f7 8a3e 60d2 8a3d ad65 bfbc
00000170: 9989 a83e 6751 ad3e 0889 2b3f 2d31 06bd
00000180: 8434 cbbc 9267 cf3e 9af0 fcbd 368e fbbd
00000190: 3f4a 2d3e 632c 16be a384 a03e 6f62 003f
000001a0: 6fd8 733d 50da d0bd 2816 af3b 6156 cfbd
000001b0: 80f7 323e 46c1 913e f0db 913e 76fc 943e
000001c0: a20b 573e 38da bebd f5c0 bd3d be48 bbbe
000001d0: a656 403f c040 48bf 9b0a 31bd 588e 77bd
000001e0: 48b2 cbbb 16ab a4be 00e2 3f3f 06dc b7be
000001f0: 59ef 833d 8aae 15be 5b40 e93e 33c5 833e
00000200: 1e4c a23e ba0d 16bd bf1f 0a3e 86b7 323e
00000210: 98e0 db39 9fad 243f adb1 bcbe b329 bebd
00000220: e5cb c6be 71db a53e e41e 03bd 215a d9be
00000230: d76c c33c 0aff b43e d6eb bf3e 19dd 02bd
00000240: 7f07 28bd f02a 52bd 8538 863e 1c8c 123f
00000250: 5d5a 23be 6dc4 babd 6dc7 09be f98c 893e
00000260: c74d 023e b23f 1a3e 5467 e13d a015 2e3e
00000270: cc61 113e 09a2 af3e 7f57 10be 754b 433e
00000280: 6677 a1bc 8a73 0abd 2b95 023c 671b 2a3f
00000290: b2ea 8f3f 9d4d bfbd e8d0 34bd 4f71 9f3e
000002a0: 31c4 403d 00c6 7ebd d604 9a3e aad0 9a3e
000002b0: 0067 fd3d 565a 3fbe 830c 7bbd 1b4b 083b
000002c0: db20 04bd c067 a93c 00f3 59be a36a 1fbd
000002d0: 75c7 88bd 0f01 c43e a50b 933d f963 0e3e
000002e0: 9fd4 9bbe dfd0 4bbe 46ba 42be e993 29bd
000002f0: b147 9e3d cba6 693d beb1 4ebe ae28 1b3d
00000300: 6822 f73c 5d4c 0a3e 256e 00bd cf9c 053d
00000310: 5b77 033f 7cec a43e a42f aa3e e22e b5be
00000320: 5ea7 913e e2a3 123d 0b3d 37be 8b6a 4bbd
00000330: 623b dc3e eadb 6c3e 96ed 82bc a576 d43e
00000340: 887b 5fbb 8cbb 19be 11e8 a2bd 5c3a aabd
00000350: b76c 4d3d 0565 96be 3ff3 a5bd ddbc 88be
00000360: 5119 033f 3d5c f0be 209a 48be db4a 12be
00000370: 809c 8b3e 5bf4 74bc 28f4 40bd b91e b4bc
00000380: 69b0 debe eb6e 23be 2ff7 23bd 2cb6 2b3f
00000390: 9577 a93d be58 7d3e f887 c1bd c45f a6bf
000003a0: e1e7 da3d 6203 4d3e fe50 663d c780 683e
000003b0: aee6 7bbe be54 863e ce1e 8b3e a85f 8a3e
000003c0: 8c57 26bd a6c8 8ebd 426c b8be bf58 88be
000003d0: 35b5 5ebf da17 92be b2d3 59be 0fa6 ab3e
000003e0: 64d7 6c3f 2b09 b03e b57f 43be 998c 7bbf
000003f0: 1f60 a2bd 4afa b23e f906 c43c e4fa b3be
0.37784564 0.121433415 0.08185803 -0.016523415 0.003500644 -0.18959634 -0.095196955 -0.17466013
-0.104022026 0.036687296 0.34383896 -0.053068534 0.019398749 0.71026236 0.051674712 0.050724916
0.027472703 0.1624875 -0.25019297 -0.04236779 0.26417208 0.80431044 0.14197157 -0.04033673
0.31413972 -0.19841279 0.08701995 -0.08838285 0.044961184 0.11307455 0.043063954 0.030469786
0.009091166 -0.020897305 0.12198531 0.01636571 -0.20664985 -0.31431505 -0.02372616 -0.3205835
-0.061651465 0.039793596 0.50711673 -0.27893916 0.108355306 0.040646527 0.19710957 -0.017300548
-0.041483443 -0.9177987 0.23792095 0.059791923 0.34467983 0.48976326 -0.00476207 0.008785268
-0.03882061 -0.34061053 0.5350443 -0.01887994 0.16868614 -0.65791017 0.34584534 0.035244435
-0.026714934 -0.43182263 -0.58052474 -0.118365504 -0.51323116 0.000696693 -0.066015184 0.10799294
0.67109233 -0.3493035 0.21194433 0.59620214 -0.07936344 -0.12414809 -0.254011 0.4422066
0.16720518 -0.4066506 0.09924181 0.0050434936 0.02984269 0.038084183 0.07600581 0.23794776
-0.15656382 0.27141863 0.06778407 -0.023363912 0.3291748 0.33851168 0.6700597 -0.03276174
-0.024805315 0.40508705 -0.123505786 -0.12282984 0.16922854 -0.1466537 0.31351194 0.501502
0.05953258 -0.1019789 0.0053432174 -0.10123897 0.17477226 0.28467768 0.28488111 0.29098862
0.21000531 -0.09318966 0.09265319 -0.36578935 0.75132215 -0.782238 -0.043223005 -0.060438484
-0.006216321 -0.32161778 0.74954224 -0.35910052 0.06442136 -0.14617363 0.45556912 0.2573639
0.31698698 -0.036634184 0.13488673 0.17452821 0.0004193827 0.64327425 -0.36854306 -0.09285297
-0.38827434 0.32393983 -0.03201188 -0.42451575 0.02385561 0.3535083 0.37484616 -0.031949136
-0.041022774 -0.05131048 0.26214996 0.5724504 -0.1595244 -0.091194965 -0.13454981 0.26865366
0.12724982 0.1506336 0.110060364 0.17000437 0.14197463 0.3430331 -0.14095877 0.19071753
-0.019710254 -0.033801593 0.007970135 0.6644806 1.1243498 -0.093409754 -0.04414454 0.31141135
0.047062103 -0.062200546 0.30081815 0.30237323 0.12373161 -0.18686804 -0.06129123 0.002079672
-0.032257896 0.020679355 -0.21284103 -0.038920056 -0.066786684 0.38282058 0.071799554 0.13905324
-0.30435655 -0.19903897 -0.1901637 -0.041400824 0.07728518 0.05704383 -0.20184991 0.037880592
0.030167773 0.13505693 -0.031355042 0.032620247 0.51353997 0.32211673 0.33239472 -0.3538733
0.28448004 0.035800822 -0.1789438 -0.049662154 0.43014055 0.23130766 -0.01598243 0.4149677
-0.003410073 -0.1501295 -0.079544194 -0.083119124 0.050152507 -0.29373947 -0.08103036 -0.2670659
0.51210505 -0.46945372 -0.19590044 -0.14286368 0.27267838 -0.014950837 -0.047107846 -0.021987306
-0.43493965 -0.1596028 -0.040030655 0.6707485 0.082747616 0.24740884 -0.09449762 -1.2997975
0.10688759 0.20020822 0.056229584 0.22705375 -0.24599716 0.26236528 0.2717194 0.27026105
-0.040610835 -0.069718644 -0.36020094 -0.26630208 -0.8699525 -0.28533822 -0.21272162 0.3352513
0.9251616 0.34381995 -0.19091685 -0.9826141 -0.0792849 0.3495658 0.023929106 -0.35152352

_advantage.weight f4 [3, 256]
00000000: 1ba8 843e d145 06bc 5eaa dbbc f010 813d
00000010: 512c bd3a 963d 8abd 00da 28bd d7b5 5ebc
00000020: 1fea 3dbe 75df 5fbc 868b 943e 9487 a7bc
00000030: d16d 3b3d 6749 bb3d 83dd 01bd 9de2 7d3c
00000040: b47b 4abc 66c3 d03d e5c0 d2bd c645 69bc
00000050: cf17 663e ea93 073e 598c d4bc ed2a cbbc
00000060: 4958 5c3e 0750 37bd 70bb 6f3e 2e16 b4bd
00000070: 081e 1b3d 07df 3a3d 993f 9d3c 6f48 113d
00000080: f19c 8a3c fa28 dcbc 4418 8f3d 584c 5a3b
00000090: 0154 ffbd cd44 53be 68db 20bd 054f b23c
000000a0: 7d4e 30bd bbd3 ddbc 8a1a 5e3e 5b39 2bbd
000000b0: 787a 54bc 7a55 2b3d 2dc6 323e 0c5a e5bc
000000c0: fe38 c8bd 17c7 e4bd 7470 693d 175b 863d
000000d0: bf88 57bd 0edb 883e 795d e13c f872 bfbb
000000e0: 132b d2bc 72a7 25be 610d a03d 6ac8 e0bc
000000f0: faea cb3d e09c fabd a00c f53d 177f 783c
00000100: df44 453d ec90 73be 3756 c6be a793 68be
00000110: 5cfc 97bd 985e 0abd 2d2d cfba b71c 9a3d
00000120: 6cd6 2ebd dca6 36be f4b2 4e3e d862 d73e
00000130: fda7 3cbc 54ac 50be 9eda d6bd e1d1 50be
00000140: 74c2 733b f8f0 73be f7d3 003a c326 31bd
00000150: 3eb0 243c bf88 d33c 4d75 9b3d e524 d43e
00000160: fb11 d43a 47a6 a53d 6cdc 92bc 5910 073d
00000170: 3738 763e 2c22 913e 1578 ec3e 4c3d 62bc
00000180: 701c f4bc c626 413e 401b 0c3e 3395 b6bc
00000190: 2048 21bd 3e68 bbbd f9d2 893e 4ae6 cc3e
000001a0: b369 85bc 2909 453b 2749 15bc c8fc 173d
000001b0: e70a 6fbc 4f8f 8c3e b25c 8b3e 0b13 6e3e
000001c0: 8411 213e cc75 2cbd 1761 e9bb f023 afbd
000001d0: da3c b73d 09de bdbe 43ef f3bc 5b79 55bd
000001e0: c709 debc f544 a63d aba4 a83e 92f6 3f3e
000001f0: 6e7b 193d 66eb 78bc 2e8c 683d db32 703e
00000200: 0d70 193e dabe c83b b031 bd3d 48a1 8fbc
00000210: 1d92 10bd 3f73 9a3e 6d65 6abd a099 15be
00000220: 6bff 6cbe 5429 c93d 6a41 5439 022c 57be
00000230: 7cea ef3c e193 933e 3905 efbd 37e3 4cb9
00000240: 914f 393b 4f04 82bd 7cf1 543e c439 333e
00000250: 21b7 03bd 800a 8a3d 6a9d 99bc 383a 443e
00000260: 8ca1 ca3c 7706 4e3d 2bfd cf3c 7382 1b3e
00000270: 003e 153e 95e7 383e 51d4 8ebd 8cfe 693d
00000280: 2050 1fbd 7546 5c3d 1add 27bd 7ed8 a53e
00000290: b378 efbb ac72 3ebd c2f8 d93b 651e 6c3d
000002a0: af11 883c e019 c7bd 8a48 ff3d af29 ff3c
000002b0: 2fdf a33d 6472 22be a35a 83bc c233 e33c
000002c0: 52ba 16bd f68a 063e f4fb 06be 4d5c 6cbd
000002d0: 2d6b 653d a719 bd3d 5840 8fbc 8420 353d
000002e0: fdaf b43b b6f1 823d 1fbc 67bd af4c 45bd
000002f0: 9a49 843d 66b7 873c 3c40 b13c 0b4a 9f3c
00000300: 46ec dfbc 3b3c f13c 89b5 26bd 513e 593c
00000310: 690c 853c 6749 3f3e 4966 8f3e 111c 01be
00000320: 6929 8d3d 394c 973c 0510 073c 4222 c6bc
00000330: d870 3c3e ce66 8b3d 7fab e7ba 8fb8 643e
00000340: 40d7 21bc 02d2 43bd c055 813c 563c 5b3b
00000350: fd58 e63d 86ea 4ebe dc64 a93d ada3 e4bd
00000360: 5c68 6c3e e25f a0be e0fa 54be 9acc 7fbd
00000370: a3ea 553e 23cd 0c3d 4b68 1fbc 4385 b53b
00000380: 7eb5 a0bd 2d0c 31be da0b 183c 795b 863e
00000390: 7ebb e03c fba6 1a3d 511f 6ebd 9633 093d
000003a0: 6316 a73c 6623 133e 8c4c 953c 255d 8f3d
000003b0: da60 adbb 66d0 9e3d 95c2 b93d de89 343e
000003c0: 5226 62bd db07 eebd 3195 00be 2d6a fcbd
000003d0: 011f 00bf 1ad6 04be ffe3 02be 2d51 33bc
000003e0: 5e9e ee3e ad02 103e 48ff 85bd a3ad 00bf
000003f0: d770 47bd 133a 303e b21c 1dbc a1c5 3ebe
0.25909504 -0.0081953565 -0.026814636 0.06302059 0.0014432763 -0.06750028 -0.041223526 -0.013593159
-0.18546341 -0.013664116 0.29012698 -0.02045039 0.045759026 0.0914486 -0.03170539 0.015495923
-0.012358595 0.10193519 -0.10290698 -0.014237827 0.2247002 0.13240018 -0.02594583 -0.024800742
0.21518053 -0.044754054 0.23411345 -0.08793293 0.037870437 0.04562285 0.019195365 0.03546947
0.016920539 -0.026875008 0.0698705 0.0033309665 -0.12467194 -0.20631714 -0.039271742 0.021766195
-0.043043602 -0.0270785 0.21689811 -0.041802745 -0.012968652 0.041829564 0.1745841 -0.02799704
-0.097764954 -0.11170786 0.05699201 0.06560343 -0.052620646 0.26729625 0.027510392 -0.0058425628
-0.025655305 -0.16177157 0.07815052 -0.027439315 0.099569276 -0.12236953 0.11965299 0.015167019
0.048161384 -0.23785752 -0.38737652 -0.22712575 -0.074211806 -0.033781618 -0.001580631 0.07525008
-0.042684957 -0.1783709 0.20185453 0.420676 -0.011514661 -0.20378238 -0.10490917 -0.20392562
0.003719476 -0.23822391 0.0004914398 -0.043249857 0.010051785 0.025822042 0.07590733 0.41434398
0.0016179675 0.080883555 -0.017927371 0.032974575 0.24044882 0.28346384 0.46185365 -0.01380856
-0.029798716 0.18862447 0.1368227 -0.02228794 -0.039375424 -0.09150742 0.26918772 0.40019447
-0.016285753 0.0030065274 -0.009111679 0.037106305 -0.014590002 0.27453086 0.27219158 0.23249452
0.15729338 -0.042104527 -0.0071221697 -0.085517764 0.089471534 -0.37083462 -0.029777175 -0.052117687
-0.027104272 0.08118621 0.32938132 0.18746403 0.037471227 -0.015192842 0.05677431 0.234569
0.1498415 0.006126267 0.09237993 -0.01753296 -0.035295594 0.3016605 -0.057225633 -0.14609385
-0.23144309 0.09822336 0.00020242264 -0.21012881 0.029286616 0.2882376 -0.11670918 -0.000195396
0.0028276185 -0.06348478 0.20795244 0.17502505 -0.032157067 0.06740284 -0.018751819 0.19162834
0.024735235 0.050299134 0.025389275 0.15186481 0.14574432 0.18057092 -0.0697409 0.05712752
-0.038894773 0.05377813 -0.040982343 0.32391733 -0.0073080896 -0.04649608 0.0066519687 0.057646174
0.016609995 -0.09721732 0.124650076 0.031147806 0.08001553 -0.15863949 -0.01603443 0.027734641
-0.036798783 0.13138947 -0.1318205 -0.057705212 0.056010414 0.092334084 -0.017486736 0.044220462
0.0055141435 0.06393759 -0.05657589 -0.048168834 0.06459351 0.016566943 0.021637075 0.019444486
-0.027334344 0.029447665 -0.04070047 0.013259486 0.01624127 0.18680345 0.28007725 -0.12608363
0.06892664 0.018468963 0.008243565 -0.024186257 0.18402421 0.06806718 -0.0017675011 0.22336029
-0.00987798 -0.0478077 0.01578796 0.003345271 0.11247442 -0.20206651 0.082711905 -0.11164031
0.23086685 -0.31323153 -0.20798826 -0.062450983 0.20890288 0.03437532 -0.009729455 0.0055395677
-0.07847117 -0.17289801 0.009280169 0.26241663 0.027433153 0.0377569 -0.058135334 0.03349646
0.020396417 0.14368972 0.018224977 0.07000188 -0.0052910866 0.077545926 0.09070317 0.17630717
-0.055212326 -0.11622592 -0.12556912 -0.12324939 -0.5004731 -0.12972298 -0.12782286 -0.010944647
0.466052 0.1406352 -0.06542832 -0.5026495 -0.048691597 0.17209654 -0.009589361 -0.18630077

_advantage.bias f4 [3]
00000000: 0e6c 013c 0144 f83b 0ea9 033c
0.007899297 0.007576466 0.008035911

_out.weight f4 [3, 256]
00000000: bc2f f43c 80d8 dbbc 3071 55bc d8d4 abbc
00000010: 58e1 9a3c 1084 633c ec17 44bd 982c f63c
00000020: 6c45 c4bc 1474 4b3d 28f4 57bc 38af 623c
00000030: 2450 54bd 5410 603d 8835 ba3c 20f5 613b
00000040: ece5 31bd 78eb fbbc b08d 113c 1880 e23c
00000050: 90d0 b5bc a834 333d f051 f93b e255 363d
00000060: bc79 5cbd c481 b8bc ec7b dc3c 6018 ff3b
00000070: 0096 b6bc 688f 6fbc 50ad be3c 38fc ae3c
00000080: 4091 83bb 2c5d 243d c084 803c 040a f33c
00000090: ced3 473d 566b 2fbd d80f 6fbd 70f9 98bc
000000a0: f848 413c 7c85 88bc aafe 253d 145b 9dbc
000000b0: c042 1dbc 20fe 943c 100e 483d 90bd 34bc
000000c0: 9a14 4abd e4c8 adbc 5845 51bc 98ba a63c
000000d0: 305f b0bb 30e9 abbc 76c0 623d 3093 463c
000000e0: 4e43 7f3d dc37 0ebd 1aba 2c3d ac92 1e3d
000000f0: 66bc 503d 920c 10bd b839 6abd f89d 1b3d
00000100: d087 993b 6892 97bc c623 00bd 1029 d53b
00000110: 0866 67bd a450 1b3d 5464 a8bc 383b 50bd
00000120: e038 43bb 80d8 57bc 4cfe ac3c 0417 5a3d
00000130: a22e 393d 1c31 1a3d fc1b 973c 080d cebc
00000140: a846 253c a4a5 d53c d605 2d3d e86e ffbc
00000150: 30e1 c73c c42f e33c 04ec 16bd 68f0 b5bc
00000160: 4e7a 063d 967b 043d 0046 39b9 c01b a4bb
00000170: 4cfa 183d b835 413d 40b4 1e3c 1ea9 12bd
00000180: e05e 263b 3852 a33c 8647 2cbd d09d 7a3d
00000190: 5acb 71bd 8613 1d3d 7008 8abc 5cde f23c
000001a0: a8d6 353c 9897 083d 0037 a23b b8d9 0b3c
000001b0: 18e2 003d 70ee 833b 202b cfbb fcb8 9a3c
000001c0: f004 0bbc c07d a4bc 68fd 753d c425 21bd
000001d0: be0b 11bd d0fe 9cbc 78c9 26bc 6217 383d
000001e0: b06a 00bc d4d0 843c 320f 1abd 0e6d 633d
000001f0: fc69 4fbd 20fd 53bc c00f 243d e836 66bd
00000200: 5046 f03b 02ea 5a3d f43d 273d 4cb2 e53c
00000210: fc9b b73c d840 e73c 8020 72bd d8e7 43bd
00000220: 2865 6fbc 00b1 35bb 0606 68bd f0af d7bc
00000230: 20f5 fa3b 88da 8ebc b0db 32bd c0c8 0f3b
00000240: 50f5 79bd 125c 67bd 320e 6e3d 683a 633d
00000250: 40d1 09bc 805e 013a acf8 8d3c 04dd ea3c
00000260: 58ed 643c 1422 633d bcf7 c6bc 0640 40bd
00000270: d4be 13bd ce31 0abd fc0f 4c3d f838 89bc
00000280: 1ee2 25bd d2bb 4c3d 8020 b7bc 0265 1c3d
00000290: 6895 f43c 0af3 3fbd 58f6 6bbc 5093 683c
000002a0: 2861 613c aac3 40bd 4ce8 82bc f06b babc
000002b0: 8897 15bd 24c6 4bbd 0029 e9b9 7a7a 7abd
000002c0: ac54 5bbd 6adf 11bd d05b b13c 00c2 d93c
000002d0: 1877 1fbc 82d5 51bd 6273 6ebd b819 7a3c
000002e0: 6888 d7bc e066 11bd 146c edbc e410 0dbd
000002f0: 42d8 30bd f8d3 853c e449 03bd f08a 5fbc
00000300: 0033 513d dab8 58bd fcef 28bd e21c 4abd
00000310: 1ad4 5dbd 00c7 a039 f6da 5dbd 42d1 6fbd
00000320: 086f c03c 5cb4 3dbd 6097 a6bb ec55 cc3c
00000330: ce35 3ebd 784d 4dbd 9053 6b3c f85f 4cbc
00000340: 60da 65bd 06df 4cbd 00f0 c13a 8ee2 693d
00000350: 7235 09bd 586e c33c 7ea3 373d 52ec 323d
00000360: ccb7 533d 8e16 123d 4c1e 013d 92ef 673d
00000370: 0af5 7e3d b8ed a53c 941a 60bd f075 6abd
00000380: 629a 47bd e2e3 16bd 5ccb a13c 008b 513d
00000390: 84fa 5d3d dce3 7e3d a85c 17bd 806e eb3b
000003a0: a0a6 f23c 50d2 7f3c 1412 2f3d e070 72bd
000003b0: fcb6 7fbd fc60 863c ac7d 723d fe42 19bd
000003c0: b890 143d 24c8 163d 12bf 64bd 241c 123d
000003d0: 008f f6ba 1056 2e3d 6e78 61bd a07c 4bbd
000003e0: 028f 6ebd 06bd 5abd e46f ccbc de96 5cbd
000003f0: 289a 753d b0c7 073c b402 49bd 287c 4abd
0.029807918 -0.026836634 -0.013027474 -0.020975515 0.01890628 0.013886467 -0.047874376 0.03005056
-0.023958884 0.049671248 -0.01318077 0.013835721 -0.05183424 0.05470307 0.022730604 0.0034478381
-0.04343216 -0.030751929 0.008883879 0.02764897 -0.022194177 0.04375139 0.0076086447 0.044515498
-0.053827032 -0.022522815 0.02691456 0.007784888 -0.022288322 -0.014621593 0.023276001 0.021360502
-0.004015118 0.040127918 0.0156883 0.029667862 0.048785977 -0.042826973 -0.05836472 -0.018673629
0.011797182 -0.016665213 0.04052607 -0.019208468 -0.009598434 0.018187582 0.048841536 -0.011031523
-0.049336053 -0.021213956 -0.0127728805 0.020352647 -0.005382441 -0.020985216 0.055359326 0.012120053
0.062320046 -0.03472124 0.042169668 0.038714096 0.05096092 -0.035168238 -0.05718395 0.037992448
0.0046853796 -0.01850243 -0.031284116 0.006505139 -0.05649379 0.0379187 -0.020555653 -0.050837725
-0.0029788539 -0.013174176 0.021117352 0.053244606 0.04521049 0.03764449 0.018445961 -0.025152698
0.010087647 0.02607996 0.042241894 -0.031180814 0.02439937 0.027732737 -0.036846176 -0.022209361
0.032831483 0.032344423 -0.00017669052 -0.005008191 0.037348077 0.04717037 0.00968653 -0.035805814
0.002538614 0.019936666 -0.042060398 0.061185658 -0.05903182 0.038348697 -0.016849726 0.029647045
0.011098541 0.033347696 0.004950404 0.008535795 0.03146562 0.0040262267 -0.0063222796 0.018887036
-0.008485064 -0.020079494 0.06005612 -0.039342657 -0.03541159 -0.019164473 -0.01017987 0.044944175
-0.007837936 0.016212858 -0.037612148 0.055523925 -0.050638184 -0.012938768 0.040054083 -0.056204706
0.0073326007 0.053445823 0.040830567 0.02803912 0.022413246 0.028229162 -0.059113026 -0.047828525
-0.01461152 -0.0027723908 -0.05664637 -0.02632901 0.0076586157 -0.017438188 -0.04366654 0.0021939725
-0.061024964 -0.05648429 0.058119006 0.055475622 -0.0084117055 0.0004935041 0.01733049 0.028669842
0.013972603 0.05545242 -0.02428805 -0.046936058 -0.03607066 -0.033738904 0.04981993 -0.016750798
-0.040498845 0.049983807 -0.022354364 0.038182266 0.029856399 -0.04686264 -0.014401995 0.014195278
0.013756074 -0.0470616 -0.015979908 -0.022756547 -0.036521465 -0.04974951 -0.0004447177 -0.06115196
-0.053547546 -0.035613455 0.021650225 0.026581764 -0.009732984 -0.051229008 -0.058215506 0.015264921
-0.02631016 -0.0354985 -0.0289822 -0.034439936 -0.04317499 0.016336426 -0.03205289 -0.013643965
0.051074028 -0.052910663 -0.041244492 -0.04934395 -0.054157354 0.00030665845 -0.054163896 -0.058549173
0.023490444 -0.046314582 -0.0050839633 0.024943314 -0.04643803 -0.050122708 0.014363185 -0.012474053
-0.05611646 -0.05001738 0.0014796257 0.057100825 -0.033498235 0.023856327 0.044833653 0.043682404
0.051688954 0.03566604 0.031523034 0.056624956 0.062245406 0.020254955 -0.054712847 -0.05724138
-0.048731215 -0.03683842 0.01975029 0.05115795 0.05419399 0.062229022 -0.0369536 0.0071848035
0.029620469 0.015614107 0.04274185 -0.059189677 -0.062430367 0.016403668 0.05920188 -0.037417404
0.036270827 0.036811963 -0.05584628 0.03567137 -0.0018810928 0.042562544 -0.05504649 -0.0496794
-0.05824185 -0.053402923 -0.024955697 -0.053854816 0.059961468 0.008287355 -0.049074844 -0.04943481

_out.bias f4 [3]
00000000: 00cd 803c 8020 bf3b 2420 003d
0.015722752 0.0058327317 0.03128065
