rl/models/v.s. Bot/pong_dueling_ddqnnn.pth (torch, 286940 bytes, 9 tensors)

_fc1.weight f4 [256, 12]
0	0x3e6d2ee3	0.23162417
1	0xbc70e33a	-0.0147026125
2	0xbe340aaa	-0.17582193
3	0x3a579e90	0.0008225227
4	0x3e416213	0.18885069
5	0x3e58613a	0.21130839
6	0xbe3b1819	-0.18270911
7	0xbe343aa8	-0.176005
8	0x3b039e04	0.0020083198
9	0xbeb9829d	-0.36232463
10	0xbd3ea31c	-0.046542272
11	0x3f0d2b90	0.55144596
12	0xbe159dbe	-0.14610955
13	0xbde5d230	-0.11221731
14	0xbe322722	-0.1739774
15	0xbced8897	-0.028995795
16	0x3e2a346a	0.16621557
17	0x3e90f816	0.28314275
18	0x3ce28842	0.027652863
19	0x3db9c637	0.090710096
20	0x3e36cccf	0.17851566
21	0xbd6233f7	-0.05522534
22	0x3e0146ab	0.12624614
23	0x3e9fbda0	0.3119936
24	0x3e767d73	0.24071293
25	0xbe8c1a63	-0.2736388
26	0xbbb0c79b	-0.0053948886
27	0x3c36b71a	0.011152053
28	0xbeaa2027	-0.33227655
29	0x3df9a843	0.121902965
30	0x3c9c2305	0.019059667
31	0x3c02fbf0	0.007994637
32	0xbf03cbcb	-0.5148284
33	0x3e98d0e2	0.29846865
34	0xbdd12b1f	-0.10213303
35	0xbea90dcb	-0.33018336
36	0x3e1b8424	0.15187126
37	0x3cba97cc	0.02277746
38	0x3eb002e1	0.34377196
39	0xbc7fb7f7	-0.0156078255
40	0x3d5240d3	0.051331352
41	0xbe7d3aad	-0.24729414
42	0xbe9f31c9	-0.3109267
43	0xbcbfb3a1	-0.023401083
44	0x3dd6477e	0.10462855
45	0x3ea7c8e5	0.32770458
46	0x3db5848f	0.08863174
47	0xbe8da6db	-0.27666363
48	0xbd5e30bc	-0.054245695
49	0xbe16566a	-0.14681402
50	0xbcacde26	-0.021102022
51	0x3ac752a2	0.0015207122
52	0xbd9852d8	-0.07437676
53	0x3da52577	0.080637865
54	0xbe499e90	-0.19689393
55	0x3d51cd9b	0.05122147
56	0x3dc881a1	0.0979035
57	0x3ca0f3a8	0.019647434
58	0x3d15a81a	0.036537267
59	0xbf3c48ca	-0.7354857
60	0x3cd00e91	0.02539757
61	0x3d41b3c5	0.047290582
62	0x3ddbb4ae	0.10727821
63	0x3cc46d7b	0.023977986
64	0xbe4877f0	-0.19577003
65	0x3e5243ec	0.20533723
66	0x3dc61d26	0.096735284
67	0x3e1f45fe	0.15554044
68	0x3cbf033a	0.023316968
69	0x3d8dc6a4	0.06922653
70	0x3e881b0c	0.26583135
71	0x3f5c3f7c	0.8603437
72	0xbe127659	-0.14302959
73	0x3eca2a32	0.39485317
74	0xbe770a74	-0.24125081
75	0x3b8e8148	0.0043489076
76	0xbe500773	-0.20315342
77	0xbdc90c42	-0.09816791
78	0xbe344804	-0.17605597
79	0xbdc0af55	-0.09408442
80	0xbebc70b4	-0.36804736
81	0xbec6fc69	-0.3886445
82	0xbabcf95e	-0.0014417579
83	0xbed27eff	-0.41112515
84	0x3db39a88	0.08769709
85	0x3d859550	0.0652262
86	0x3c425c13	0.0118627725
87	0xbc0a727a	-0.008450145
88	0xbe2ad0b6	-0.1668118
89	0x3e924d46	0.2857458
90	0x3c850607	0.016238226
91	0x3c8cbb95	0.01717929
92	0xbedf53c5	-0.436186
93	0x3df01032	0.11721839
94	0xbe133c69	-0.14378513
95	0xbef92587	-0.48661444
96	0xbe016740	-0.12637043
97	0x3f128ab0	0.5724287
98	0x3e94203c	0.28930843
99	0xbbdd2d60	-0.006749794
100	0xbe5b1077	-0.21393
101	0x3cfa9cf7	0.030592425
102	0xbf3a60a8	-0.72803736
103	0x3aeb199a	0.0017936707
104	0xbe5a8206	-0.21338663
105	0xbf14da52	-0.5814563
106	0xbea3fc66	-0.32028502
107	0x3e88c393	0.2671171
108	0xbe6628a8	-0.22476447
109	0x3d54c44f	0.051945027
110	0x3d71efc9	0.059066568
111	0x350fcd41	5.3570335e-07
112	0x3d96fd08	0.07372481
113	0x3eb23243	0.34803972
114	0xbeb1d9f7	-0.34736606
115	0x3cff786b	0.03118535
116	0x3e40a7ba	0.18813983
117	0xbe8dead3	-0.2771822
118	0x3e0319e1	0.12802841
119	0xbf20b977	-0.62782997
120	0x3e2ae8c7	0.1669036
121	0x3e942eb8	0.28941894
122	0x3e148599	0.14504088
123	0xbbd9933c	-0.006639866
124	0xbc0d112d	-0.008610052
125	0x3c4bc342	0.01243669
126	0xbe2cc5d5	-0.16872342
127	0x3e185896	0.14877543
128	0xbe40157d	-0.18758197
129	0xbee48488	-0.44632363
130	0xbcfd98c1	-0.030956628
131	0x3de8516d	0.11343656
132	0x3cac6424	0.021043845
133	0xbe36c618	-0.17849004
134	0x3d31b306	0.04338362
135	0xbce5c40f	-0.02804759
136	0x3d6bd62f	0.05757731
137	0xbe914e8a	-0.28380233
138	0xbe865e18	-0.26243663
139	0x3dae16c0	0.08500433
140	0x3e7cff13	0.24706678
141	0x3ea8f6c4	0.33000767
142	0x3d673aae	0.056452446
143	0x3efc1f1c	0.49242485
144	0xbde6a482	-0.11261846
145	0x3ce108a0	0.027469933
146	0xbe4bfdd2	-0.19921044
147	0x3af4a19a	0.0018663884
148	0xbe296552	-0.16542557
149	0x3d56e05e	0.052460067
150	0xbe5f6349	-0.21815218
151	0x3d563fc7	0.052306917
152	0xbf0981d1	-0.5371371
153	0x3cf480fd	0.029846663
154	0xbcb8f223	-0.022576397
155	0xbeb0fc35	-0.3456742
156	0x3dc6f8de	0.097154364
157	0x3e85ff41	0.26171306
158	0xbde86d05	-0.11348919
159	0x36dac142	6.5194045e-06
160	0xbdfcd809	-0.12345893
161	0xbe58d4aa	-0.21174875
162	0xbe049945	-0.12949093
163	0x3dccc21f	0.09997963
164	0xbe28065c	-0.16408676
165	0xbe58eabf	-0.21183299
166	0xbde843bc	-0.11341044
167	0xbe33b07e	-0.17547795
168	0x3ea8fa5d	0.33003512
169	0x3e457b2b	0.19285266
170	0x3d476011	0.0486756
171	0xbc585952	-0.013204889
172	0xbdb6d0ad	-0.089265205
173	0x3e2b0be8	0.1670376
174	0xbe3a0e7c	-0.18169588
175	0x3e0762fb	0.13221352
176	0xbe7b043f	-0.24513339
177	0xbea3a468	-0.3196137
178	0xbd946507	-0.07245832
179	0xbe5bc0a6	-0.21460208
180	0x3e24fbd3	0.16111688
181	0x3db635a6	0.088969514
182	0x3e1d51cb	0.15363233
183	0x3b477414	0.0030434178
184	0x3e6b04c3	0.22951035
185	0xbe86096d	-0.26179066
186	0x3d250f22	0.040297635
187	0x3d037bbc	0.032100424
188	0x3e5eadc0	0.21745968
189	0x3e8e4dd2	0.27793747
190	0x3ec86895	0.3914229
191	0x3f73603b	0.9506871
192	0x3d205358	0.039141983
193	0xbe223d2b	-0.15843646
194	0xbe2a5a36	-0.16635975
195	0x3b70df56	0.0036754212
196	0xbcff3f4b	-0.03115811
197	0x3dbbddf3	0.09173193
198	0x3dbba2e6	0.0916193
199	0xbc8f5584	-0.017496832
200	0xbed9da69	-0.42549446
201	0x3e0dd572	0.13850954
202	0x3d8904e5	0.06690387
203	0xbe146bbd	-0.14494224
204	0x3da9b345	0.08286146
205	0x3d7db2a1	0.061937932
206	0xbe1dec4b	-0.1542217
207	0x3b8e560e	0.0043437546
208	0x3d9e1064	0.0771797
209	0x3d5569d9	0.052102897
210	0x3d0066c2	0.031347997
211	0xbc9a0c64	-0.018804736
212	0x3eaf827b	0.34279236
213	0x3ebf3ad7	0.3734958
214	0x3d428712	0.047492094
215	0x3e89c32d	0.2690672
216	0xbd201e99	-0.03909168
217	0x3e407e18	0.18798101
218	0xbd8d7865	-0.06907729
219	0x3c1cbaa8	0.009565987
220	0x3d385383	0.045001518
221	0x3e7c0c59	0.24614085
222	0xbe26115f	-0.16217564
223	0x3cc6748d	0.024225498
224	0x3d5f82a8	0.054567963
225	0xbe42e8a2	-0.19034055
226	0xbc9451de	-0.018105444
227	0x3d95e60a	0.07319267
228	0x3d86e0c2	0.06585838
229	0xbe4b9bcf	-0.19883655
230	0x3db1d4f1	0.086831935
231	0x3b2a6dad	0.0026005313
232	0xbb919597	-0.0044428813
233	0x3e040781	0.12893488
234	0xbbc67552	-0.006056466
235	0x3d2cf7a5	0.04222836
236	0xbd344c54	-0.044018105
237	0xbde81d44	-0.11333707
238	0x3d8204ce	0.06348573
239	0xbe0ebb70	-0.13938689
240	0xbe13b307	-0.14423762
241	0xbc46aa3a	-0.012125546
242	0x3d946d56	0.07247417
243	0x3b7eb525	0.0038865295
244	0xbe580532	-0.21095732
245	0xbe45df38	-0.19323432
246	0xbef8f0a0	-0.48621082
247	0x3d37715e	0.04478585
248	0xbdee51ea	-0.116367176
249	0x3e0d89b6	0.13822064
250	0xbe648a57	-0.22318397
251	0xbe790028	-0.24316466
252	0x3e8c114e	0.27356952
253	0xbdf6eeca	-0.12057264
254	0x3e2c17f9	0.1680602
255	0xbb13537a	-0.0022480176

_fc1.bias f4 [256]
0	0x3c3a84c3	0.011384192
1	0x3c76651f	0.015038758
2	0xbc6aae32	-0.014323758
3	0x3ccee568	0.025255874
4	0xbe1555f2	-0.14583567
5	0x3d0c41b3	0.034242343
6	0xbea1cb48	-0.31600404
7	0xbe013c2a	-0.12620607
8	0xbe819dd4	-0.25315726
9	0xbe8631d3	-0.26209888
10	0xbcc5b77d	-0.024135346
11	0x3d97a1a2	0.07403876
12	0xbe95cfaf	-0.29260013
13	0xbcb4675b	-0.02202194
14	0x3e072a91	0.13199832
15	0xbdf532c9	-0.11972577
16	0xbe85a062	-0.26098925
17	0xbb7a090e	-0.003815237
18	0xbe564b24	-0.20927101
19	0xbc572321	-0.013130934
20	0x3d5e1255	0.0542167
21	0xbe338c9b	-0.17534105
22	0x3c813e78	0.015776858
23	0xbd107eff	-0.035277363
24	0xbe59ea9d	-0.21280904
25	0x3e5a6bf8	0.2133025
26	0x3d83aae5	0.0642908
27	0xbe3b254b	-0.18275945
28	0xbcd6232f	-0.026139824
29	0xbe7689b1	-0.24075963
30	0xbdc591c6	-0.09646945
31	0xbe79d4dc	-0.24397606
32	0x3cbe8c9b	0.023260405
33	0xbe43df34	-0.19128114
34	0x3bffcd67	0.0078064683
35	0xbe44ed7d	-0.1923122
36	0x3e28f5c3	0.165
37	0x3da766b0	0.08173883
38	0xbe09b53f	-0.13448046
39	0x3ca7dacd	0.020490075
40	0xbeb666fb	-0.35625443
41	0x3dc6ef45	0.09713606
42	0xbd60bcfa	-0.054867722
43	0xbe917710	-0.2841115
44	0x3e077305	0.1322747
45	0x3e123004	0.14276129
46	0xbccf616c	-0.025315009
47	0xbd6c7c92	-0.057735987
48	0x3e13084f	0.14358638
49	0xbe2c3576	-0.16817269
50	0xbd5950c5	-0.053055543
51	0xbe16b3d4	-0.14717036
52	0xbd45cb58	-0.048289627
53	0x3d77c7e1	0.060493354
54	0x3daa2432	0.08307685
55	0xbd0d9ee0	-0.034575343
56	0x3d9e0123	0.077150606
57	0xbcce1962	-0.025158588
58	0x3ac33951	0.0014894401
59	0xbe8fdb45	-0.28096977
60	0xbc987e20	-0.018614829
61	0x3e55ba9d	0.20871969
62	0x3c72eb1c	0.014826562
63	0x3e1c341b	0.15254252
64	0xbe075ba2	-0.13218549
65	0x3d1fb2ea	0.038988985
66	0x3e2ab76f	0.16671537
67	0xbe9312bb	-0.28725228
68	0xbe84f15b	-0.2596539
69	0x3dd29ef9	0.10284228
70	0xbe59accb	-0.21257322
71	0xbcd12704	-0.0255313
72	0xbc55707e	-0.0130273085
73	0xbdd299fc	-0.102832764
74	0xbe18463a	-0.1487054
75	0xbe32ac19	-0.17448463
76	0x3dc6c79b	0.097060405
77	0xbe6beb01	-0.23038866
78	0x3e3aabd0	0.18229604
79	0xbe483fbb	-0.19555561
80	0xbd860ec5	-0.06545786
81	0xbde02e3b	-0.10946318
82	0xbdf0e44b	-0.117622934
83	0xbdd47fd8	-0.10375947
84	0xbe3a56d9	-0.18197192
85	0xbe835fc6	-0.25659007
86	0xbe14fc2c	-0.14549321
87	0xbdeaec52	-0.11470856
88	0xbb4dca72	-0.0031401184
89	0xbe531ac8	-0.20615685
90	0xbe795adf	-0.24351071
91	0xbd5fb0b1	-0.054611865
92	0xbe6ed7d9	-0.23324527
93	0xbebe7bec	-0.3720392
94	0x3d4f9a9e	0.050684564
95	0xbe8c8a80	-0.27449417
96	0x3dd46bd1	0.10372127
97	0xbe607f47	-0.21923552
98	0x3d8bc2c4	0.06824258
99	0xbd127946	-0.035760187
100	0xbe820497	-0.25394127
101	0xbe22406f	-0.15844892
102	0xbd81a71f	-0.06330704
103	0xbc8af09c	-0.016960435
104	0xbd816aa3	-0.063191675
105	0xbd9c3e7d	-0.07629106
106	0xbdb02591	-0.08600915
107	0x3bdc5969	0.0067245257
108	0xbe311889	-0.17294516
109	0xbe1e5067	-0.15460359
110	0x3e536a19	0.20645942
111	0xbe4d431d	-0.20045133
112	0xbe383e72	-0.17992571
113	0xbd8eba26	-0.06969099
114	0x3d3dc093	0.04632623
115	0x3e0da6ce	0.13833162
116	0xbe72d99b	-0.23715822
117	0x3e86b04d	0.26306382
118	0xbc344aa2	-0.011004122
119	0xbd99f7df	-0.07517981
120	0x3cfc3660	0.030787647
121	0xbbc94ca9	-0.006143172
122	0xbe6492fb	-0.22321694
123	0x3e2a4b34	0.1663025
124	0xbe2e45e6	-0.17018852
125	0x3e495326	0.19660625
126	0x3dc6d9cf	0.097095124
127	0xbdd069ab	-0.101764046
128	0x3de9c9e6	0.11415462
129	0xbe3533aa	-0.1769549
130	0xbe955dca	-0.29173118
131	0xbde3ef19	-0.11129589
132	0xbde71334	-0.112829596
133	0x3c601f60	0.013679355
134	0x3d97b56b	0.074076496
135	0xbc4c0fa2	-0.012454899
136	0xbdd1e441	-0.10248614
137	0xbe7284f8	-0.23683536
138	0xbe9ba324	-0.30397904
139	0xbe4c7a1d	-0.19968458
140	0x3e07ca6a	0.13260809
141	0xbea0858a	-0.31351882
142	0x3d98cb0b	0.074606024
143	0x3e0ea37e	0.13929555
144	0x3e395f77	0.18102823
145	0x3c3d9520	0.011571199
146	0xbe10ecdf	-0.14152859
147	0xbd3656ec	-0.04451649
148	0xbe42986f	-0.19003461
149	0xbd7f443e	-0.06232094
150	0xba74a8ed	-0.0009333033
151	0x3e57742e	0.21040413
152	0xbdb59b97	-0.08867567
153	0xbe91c2da	-0.28468972
154	0x3db82694	0.08991733
155	0xbe062b07	-0.13102351
156	0x3e0390ae	0.1284816
157	0xbe375163	-0.1790214
158	0x3da72c07	0.081626944
159	0xbdb5d96f	-0.08879363
160	0x3be54901	0.006997228
161	0x3d8e4d6d	0.069483615
162	0xbdf84f03	-0.12124445
163	0xbe3a6ec2	-0.18206313
164	0x3d316e06	0.043317817
165	0xbc5b33fa	-0.013379091
166	0x3ddfebcb	0.10933646
167	0xbea1493d	-0.3150119
168	0x3de91b45	0.113821544
169	0x3d9f8d8a	0.07790668
170	0xbd8cf712	-0.068830624
171	0xbe9df590	-0.30851412
172	0xbe10d701	-0.14144517
173	0x3de7d352	0.11319603
174	0xbe93b8d1	-0.2885194
175	0xbc92c0be	-0.017914172
176	0xbdbed971	-0.093188174
177	0xbe0fe799	-0.14053191
178	0x3df1318c	0.117770284
179	0xbe5f16a4	-0.2178598
180	0x3d33e096	0.043915354
181	0xbe8b0cf9	-0.27158335
182	0x3d1753a5	0.036945004
183	0x3d6bbeb6	0.057554923
184	0xbe440040	-0.1914072
185	0x3e3a4aa0	0.1819253
186	0xbe1d11f6	-0.15338883
187	0xbe49bf13	-0.19701795
188	0xbd285064	-0.04109229
189	0x3c668205	0.014069085
190	0x3d06cb21	0.032908563
191	0xbdc320f8	-0.09527773
192	0xbe32a3d3	-0.17445306
193	0x3dd865b2	0.10566272
194	0xbe68b140	-0.22723866
195	0xbd0a1ce0	-0.033718944
196	0xbe3c624b	-0.18396871
197	0xbd64d9d9	-0.05587182
198	0xbe2ad2ff	-0.16682051
199	0x3e82027c	0.2539252
200	0xbc3e9fd4	-0.011634786
201	0xbd714f59	-0.058913562
202	0x3bea4751	0.007149615
203	0xbe071dc2	-0.13194945
204	0xbe05df7a	-0.13073531
205	0xbe351757	-0.17684685
206	0xbe05c0f6	-0.1306189
207	0xbe009b4e	-0.12559244
208	0xbe5b4c50	-0.2141583
209	0xbea58a5c	-0.32332122
210	0x3d7aea84	0.061258808
211	0xbe0b556c	-0.13606805
212	0xbea3ccc0	-0.3199215
213	0xbec50595	-0.3848082
214	0xbe3d6e49	-0.18499102
215	0x3e49dd7c	0.19713396
216	0x3defc569	0.11707575
217	0x3d9a2ce5	0.07528094
218	0xbdfc4cac	-0.123193115
219	0xbe5d3925	-0.2160383
220	0x3d17e31b	0.03708182
221	0xbe8f9ced	-0.28049412
222	0x3e486e6a	0.1957337
223	0x3d23794b	0.039910596
224	0xbe2d7a08	-0.16941082
225	0xbe9f49b9	-0.31110933
226	0x3e2f07ec	0.17092866
227	0x3da42b28	0.08016044
228	0xbe13964a	-0.144128
229	0x3df6f41e	0.120582804
230	0xbd0cb6bf	-0.034353968
231	0xbc729082	-0.014804961
232	0x3e087ccc	0.13328856
233	0xbae08bb9	-0.0017131484
234	0x3d6fabe1	0.058513526
235	0xbde8f6ab	-0.11375173
236	0xbe9d0cf0	-0.30673933
237	0xbe1bf53b	-0.15230267
238	0x3cc0c34e	0.023530629
239	0xbd0aa3a5	-0.03384747
240	0x3e0a4f98	0.13506925
241	0x3dbfd628	0.09367019
242	0x3d6d1199	0.05787811
243	0xbe2777c4	-0.1635428
244	0x37ccea46	2.4427787e-05
245	0xbe94d1d6	-0.29066342
246	0x3d5c204a	0.05374173
247	0xbdfa7735	-0.12229768
248	0xbdb5841c	-0.088630885
249	0x3e3771ce	0.17914507
250	0x3d39984b	0.045311254
251	0xbd36b7c5	-0.04460885
252	0xbd3b9a5c	-0.045801505
253	0xbcfeb2d2	-0.031091128
254	0x3c1dfea1	0.009643228
255	0xbdc60e81	-0.09670735

_fc2.weight f4 [256, 256]
0	0x3de63f5e	0.11242555
1	0x3babc8bb	0.005242435
2	0x3dc73f69	0.097288914
3	0x3e0e1d28	0.1387831
4	0x3c7f938a	0.015599141
5	0x3dd8a489	0.105782576
6	0xbd865e7f	-0.065609924
7	0x3c7ecf42	0.015552344
8	0x3cea4075	0.028595189
9	0x3d2e3168	0.042527586
10	0x3bade164	0.0053064097
11	0xbe605aa4	-0.21909577
12	0x3d571855	0.05251344
13	0xbdca6d8d	-0.098841764
14	0x3d6b0631	0.05737895
15	0xbe0eaeeb	-0.13933913
16	0x3e20601f	0.15661667
17	0x3e4646ea	0.19362989
18	0xbda02854	-0.07820192
19	0x3cd896a5	0.02643902
20	0x3c5a2deb	0.013316612
21	0xbd579ab0	-0.052637756
22	0x3e22fa38	0.15915763
23	0x3e34137c	0.17585558
24	0x3daaeccd	0.083459474
25	0xbe84fa24	-0.25972092
26	0x3da9c642	0.08289768
27	0x3defbb18	0.11705607
28	0x3d7a590c	0.061120078
29	0x3e184db3	0.1487339
30	0x3e14b828	0.14523375
31	0xbe19d193	-0.15021352
32	0x3bb91243	0.005647929
33	0x3dc930ce	0.09823762
34	0x3cc90095	0.02453641
35	0x39bb2a09	0.00035698738
36	0x3e53a1af	0.20667146
37	0x3c9c7a21	0.019101204
38	0x3d2af7b5	0.041740138
39	0xbe0c35d5	-0.1369241
40	0x3e1a775e	0.15084597
41	0xbb87506a	-0.004129459
42	0x3e1001f2	0.14063242
43	0xbdd9ae89	-0.10628993
44	0xbe3ba878	-0.18325984
45	0xbe4f9e49	-0.20275225
46	0x3e241812	0.16024807
47	0xbc5a9dd2	-0.013343291
48	0x3d84c97f	0.06483745
49	0xbcbc3213	-0.022973096
50	0x3c013b9e	0.007887749
51	0x3deb05b0	0.11475694
52	0x3dfb3281	0.12265492
53	0xbd587cdb	-0.052853446
54	0x3b4a436b	0.0030862938
55	0xbe374b9e	-0.1789994
56	0xbc4ea765	-0.012613152
57	0x3e020ee4	0.12700993
58	0xbce3cedf	-0.027808605
59	0xbd92479d	-0.071425654
60	0xbe427606	-0.18990335
61	0x3d883b7b	0.0665197
62	0xbe07fc7b	-0.13279907
63	0xbe044399	-0.12916411
64	0xbd826d7c	-0.06368539
65	0xbe0d2b43	-0.13786034
66	0xbe55b715	-0.20870622
67	0x3e25088e	0.16116545
68	0x3cd2feec	0.025756322
69	0x3d73049a	0.05933056
70	0xbe12e885	-0.14346512
71	0x3dbdb75a	0.09263487
72	0xbe86a83a	-0.26300222
73	0x3c9f54d3	0.019449627
74	0xbd69eb5d	-0.057109226
75	0x3d525275	0.05134817
76	0x3cf15c80	0.029463053
77	0xbdc8be38	-0.09801906
78	0x3e93375f	0.28753182
79	0xbcffe48d	-0.031236911
80	0xbd8eded4	-0.06976095
81	0x3dc17d4f	0.09447729
82	0xbd24c83e	-0.04023003
83	0xbc69bc30	-0.014266059
84	0x3a2bc551	0.0006552535
85	0xb985582a	-0.00025433424
86	0xbe018cbe	-0.12651345
87	0x3dc693d5	0.096961655
88	0xbd891639	-0.06693692
89	0x3dac5bbc	0.084159344
90	0x3c632323	0.013863358
91	0xbd4ce47b	-0.050022583
92	0x3c73031b	0.014832283
93	0x3d9aa255	0.07550494
94	0x3d11629a	0.035494424
95	0x3cc54f04	0.02408553
96	0x3db7edcf	0.08980905
97	0xbd2d6d1a	-0.042340375
98	0x3d732f0f	0.05937105
99	0xbc054cfc	-0.00813603
100	0x3cccf898	0.025020882
101	0xbd605bdd	-0.054775108
102	0xbdf75a08	-0.12077719
103	0xbcceee28	-0.025260046
104	0x3d711287	0.05885556
105	0x3dcee33c	0.10101935
106	0x3e1cc917	0.15311085
107	0xbdf26889	-0.11836345
108	0xbdf2883a	-0.118423894
109	0xbeae8410	-0.3408513
110	0x3d2d190e	0.042260222
111	0xbd88fffa	-0.06689449
112	0xbdb975fe	-0.09055708
113	0xbcf8b4a4	-0.030359574
114	0xbce834d5	-0.028345505
115	0x3d9442e2	0.072393194
116	0x3d2c8afe	0.04212474
117	0xbdbd9afa	-0.09258075
118	0xbd8de33a	-0.06928106
119	0x3ca850ce	0.020546343
120	0x3d66f75c	0.056388244
121	0x3e10d515	0.14143784
122	0xbd0d1907	-0.034447696
123	0x3d8b5139	0.06802601
124	0xbd37a843	-0.0448382
125	0x3cf3970f	0.029735116
126	0x3da81f88	0.08209139
127	0xbc850aa5	-0.016240427
128	0xbcd380fe	-0.025818344
129	0xbc0e48c1	-0.008684338
130	0x3d8a73bd	0.067603566
131	0xbdee0745	-0.1162248
132	0xbdf06d65	-0.11739615
133	0xbe1bb670	-0.15206313
134	0xbd4d915c	-0.050187454
135	0x3d4585ba	0.048223235
136	0x3cfb8298	0.03070192
137	0x3de545b9	0.11194939
138	0xbdc12ce0	-0.09432387
139	0xbd859b1d	-0.06523726
140	0x3d7b13d1	0.061298195
141	0x3d1da5ff	0.038488384
142	0xbdcfde33	-0.10149803
143	0x3e403b9f	0.18772744
144	0xbba7b9bb	-0.0051185763
145	0xbeb94c59	-0.3619106
146	0xbd578088	-0.05261281
147	0x3cc846bd	0.024447793
148	0x3db6f957	0.089342766
149	0x3c50dbd7	0.012747726
150	0xbdc84b99	-0.09780044
151	0xbd6a58a3	-0.057213437
152	0xbba7ef10	-0.005124934
153	0xbe27f086	-0.16400346
154	0x3d5666d0	0.052344143
155	0xbda681ef	-0.081302516
156	0x3dec0654	0.115246445
157	0x3d026611	0.03183562
158	0xbd0de6ba	-0.034643866
159	0x3dd7f2a8	0.1054433
160	0xbe5854f1	-0.21126153
161	0xbe813c0a	-0.2524112
162	0x3c86ea87	0.016469253
163	0xbc48b4d2	-0.012250142
164	0xbebe3220	-0.37147617
165	0xbd067636	-0.03282758
166	0x3cc49a42	0.023999337
167	0x3d904f5a	0.07046385
168	0x3cb63c14	0.022245444
169	0xbd1f5ed1	-0.038908783
170	0xbdb081f6	-0.08618538
171	0x3d93d4d6	0.072183296
172	0x3cb8311b	0.022484353
173	0x3e3c7471	0.18403794
174	0xbd939a07	-0.07207113
175	0xbd5aa061	-0.053375605
176	0xbdd500a4	-0.10400513
177	0xbd0bb49b	-0.034107786
178	0xbdc1fe01	-0.094722755
179	0x3d6ac74d	0.057318974
180	0x3e103678	0.14083278
181	0xbeadd5ce	-0.33952183
182	0xbe6a8c03	-0.22904973
183	0xbd80a6ce	-0.062818155
184	0xbe1238d8	-0.14279497
185	0xbe1ba852	-0.15200928
186	0xbd0d6104	-0.03451635
187	0xbd969ce6	-0.07354145
188	0x3d532d8d	0.051557112
189	0xbdde3985	-0.10850815
190	0x3e05f446	0.13081464
191	0xbe42f9c7	-0.19040595
192	0xbd480fdc	-0.04884325
193	0x3d8cc9aa	0.06874402
194	0xbe16cc99	-0.14726485
195	0xbe288f17	-0.16460834
196	0x3e5f4c4d	0.2180645
197	0x3d469f35	0.048491675
198	0xbe33bf0d	-0.17553349
199	0xbbcf2b1b	-0.0063222772
200	0xbe9bcb14	-0.30428374
201	0xbdee9b6c	-0.11650738
202	0xbda40b9a	-0.08010025
203	0x3d8fe5f3	0.07026281
204	0x3db614bf	0.08890676
205	0xbd0d56ab	-0.03450648
206	0x3ddba684	0.1072512
207	0x3cb2c9a4	0.021824665
208	0xbe321767	-0.1739174
209	0x3dfc37df	0.12315344
210	0xbe3831c7	-0.17987739
211	0xbcdfaa42	-0.027302865
212	0xbd022385	-0.031772155
213	0xbda0791c	-0.078356
214	0xbd9e69c4	-0.07735017
215	0xbdb7cf00	-0.08975029
216	0xbe71990a	-0.23593536
217	0xbe0166fa	-0.12636939
218	0xbdf4fda6	-0.11962442
219	0x3d73ce53	0.059522938
220	0xbe64cf5e	-0.2234473
221	0x3d02f25c	0.031969413
222	0xbedf698e	-0.4363522
223	0xbddea90c	-0.10872087
224	0xbd84fa70	-0.0649308
225	0x3d372c46	0.044719957
226	0xbd9bbae4	-0.07604006
227	0xbbb95968	-0.00565641
228	0x3dad7871	0.08470238
229	0xbc44f79b	-0.012021924
230	0xbc8ebad8	-0.017423078
231	0x3e9b3c4f	0.3031945
232	0x3c91464e	0.01773372
233	0xbe43bdd8	-0.19115388
234	0x3da7f717	0.082014255
235	0xbc9aecb9	-0.018911706
236	0xbd064b8b	-0.032786887
237	0x3d1be2bd	0.03805803
238	0x3d556404	0.052097335
239	0xbcf15a09	-0.029461877
240	0x3dbaf43b	0.091286145
241	0x3d356c2a	0.044292606
242	0xbe25d561	-0.16194679
243	0x3d533d98	0.051572412
244	0xbd7c26c3	-0.061560404
245	0xbe9952b8	-0.29945922
246	0xbd9b93c4	-0.075965434
247	0xbebd0ffd	-0.3692626
248	0x3e16927e	0.1470432
249	0xbd0ccd18	-0.03437528
250	0x3cee3511	0.029078038
251	0x3dbc0a3f	0.09181642
252	0x3d917df7	0.07104104
253	0x3c748a16	0.0149255
254	0xbe75c5e1	-0.24001266
255	0xbd927b76	-0.071524546

_fc2.bias f4 [256]
0	0xbcd08c94	-0.025457658
1	0xba8b5493	-0.0010630063
2	0xbc937aa7	-0.018002821
3	0x3d2f13b4	0.0427434
4	0xbca41337	-0.020028694
5	0xbe0bd295	-0.1365455
6	0xbc4f8b06	-0.012667423
7	0xbd7db7f9	-0.061943028
8	0xbca2568b	-0.019816658
9	0x3cbdf4bc	0.023187988
10	0x3d1b67e1	0.037940864
11	0x3c1e686f	0.009668454
12	0x3c23634d	0.009972406
13	0xbdf608d4	-0.120134026
14	0x3dfad9c4	0.12248567
15	0xbd63e8fa	-0.055642106
16	0xbcce1986	-0.025158655
17	0xbd1c296f	-0.03812545
18	0x3cedfe14	0.029051818
19	0xbc5d5cbe	-0.013510881
20	0xbd069959	-0.032861087
21	0xbd6b1d11	-0.057400767
22	0x3d53242d	0.05154817
23	0x3d1cc4ed	0.03827374
24	0xbdfcffa1	-0.12353445
25	0x3d1b5d02	0.037930496
26	0x3c1a2045	0.009407108
27	0x3c6f9417	0.01462271
28	0x3ce05ada	0.027387071
29	0x3c632ac6	0.013865178
30	0xbc3239a0	-0.010877997
31	0xbd968de7	-0.073512845
32	0xbd106d75	-0.035260636
33	0xbd854a70	-0.065083385
34	0x3cdb6555	0.026781717
35	0xbd221552	-0.039571114
36	0xbb28fc83	-0.0025785274
37	0xbe21acb5	-0.15788539
38	0xbd9bc01b	-0.076050006
39	0xbcf978b6	-0.030453067
40	0x3cc3688e	0.023853566
41	0xbcaf46dd	-0.021396095
42	0xbd3d13ad	-0.046161342
43	0xbd20603b	-0.039154273
44	0x3c505b74	0.012717117
45	0xbdba95c0	-0.09110594
46	0xbd4af2c5	-0.04954793
47	0x3d1a024d	0.03759985
48	0xbd3c0a9c	-0.045908555
49	0x3bf96166	0.0076104878
50	0x3d168014	0.03674324
51	0xbd074d50	-0.033032715
52	0xbc064d6a	-0.008197168
53	0xbd4ee565	-0.050511736
54	0xbd9115ea	-0.07084258
55	0xbca41423	-0.020029133
56	0xbce9b5cb	-0.028529068
57	0x3c5fb6ff	0.0136544695
58	0xbd2e666f	-0.042578157
59	0xbddd99d5	-0.10820357
60	0xbd776fa0	-0.06040919
61	0x3caaae79	0.020835148
62	0xbdd02ef9	-0.10165209
63	0xbe02d0d0	-0.12774968
64	0xbd1f1319	-0.038836572
65	0xbda891be	-0.08230923
66	0xbcf4bca9	-0.029875116
67	0xbe1bef62	-0.15228036
68	0xbb104521	-0.002201386
69	0x3d920878	0.071305215
70	0x3c9f2cea	0.019430596
71	0xbd2f8720	-0.042853475
72	0xbd0cacc8	-0.034344465
73	0x3c782795	0.015146156
74	0xbce7297a	-0.02821802
75	0xbd414c65	-0.047191996
76	0xbb052d4e	-0.0020321193
77	0x3c9dd024	0.019264288
78	0xbd7d75f0	-0.061880052
79	0xbd8cdf6c	-0.06878552
80	0xbd867a01	-0.06566239
81	0xbcfebeef	-0.031096904
82	0xbb617dd6	-0.003440728
83	0x3cf6fc73	0.030149674
84	0xbd72c2ec	-0.059267923
85	0xbce28cef	-0.027655093
86	0x3d89a861	0.06721569
87	0x3cdf33ab	0.027246317
88	0xbd09f6e5	-0.033682723
89	0xbd9869dc	-0.07442066
90	0xbb8f3d86	-0.004371348
91	0x3d34425e	0.044008605
92	0xbd51fe12	-0.05126769
93	0xbcab77f5	-0.020931223
94	0x3da95d14	0.08269706
95	0xbde1e063	-0.110291265
96	0xbd57cfb9	-0.052688334
97	0xbd7a1f96	-0.06106528
98	0xbce42fc5	-0.02785481
99	0xbe03c63a	-0.12868586
100	0xbc52b6b8	-0.012860946
101	0xbaa85470	-0.0012842547
102	0xbcd470c6	-0.02593268
103	0xbd0077d7	-0.03136429
104	0x3c848d5f	0.016180692
105	0x3cb7e41c	0.022447638
106	0xbdadaa38	-0.08479732
107	0xbc958187	-0.01825024
108	0xbd8cdffe	-0.068786606
109	0xbd9ced6f	-0.07662474
110	0xbddee4d9	-0.10883493
111	0x3c5fe7a0	0.013666064
112	0x3c7af938	0.015318207
113	0x3c514180	0.012771964
114	0xbd8e2562	-0.06940724
115	0x3c32d696	0.010915419
116	0xbd587215	-0.052843172
117	0x3c735284	0.014851216
118	0x3be05a21	0.0068466817
119	0xbd09d23d	-0.033647764
120	0xbdd05cc7	-0.10173946
121	0xbe33a614	-0.17543823
122	0xbd8b3a34	-0.06798211
123	0xbd92b509	-0.07163436
124	0xbc31bbfa	-0.01084804
125	0xbd3cca9f	-0.046091672
126	0xbdce85db	-0.10084125
127	0xbdd83c3d	-0.105583645
128	0x3d375289	0.044756446
129	0xbd9bac98	-0.07601279
130	0xbd312907	-0.043252017
131	0x3c5ce780	0.013482928
132	0xbd478438	-0.048710078
133	0x3cf6e8e1	0.030140342
134	0xbd5b1e35	-0.053495605
135	0xbd0b4012	-0.03399665
136	0x3d05819a	0.0325943
137	0x3af681cb	0.0018806992
138	0x3dc2f21d	0.09518836
139	0xbdc5d7ba	-0.09660287
140	0xbd99fcc5	-0.07518915
141	0xbd330612	-0.04370696
142	0xbe0219da	-0.12705174
143	0xbdc91d22	-0.0982001
144	0xbd072bdc	-0.033000812
145	0xbc8ad8c5	-0.016949067
146	0xbc87c621	-0.016573967
147	0xbb729b4a	-0.003701883
148	0x3d2fd4bf	0.0429275
149	0xbbc300c8	-0.005951021
150	0xbcafbedb	-0.021453312
151	0xbe0f18c4	-0.13974291
152	0xbd95a595	-0.07306973
153	0xbb8c4cfd	-0.0042816387
154	0xbde0b5bf	-0.10972165
155	0x3d372794	0.04471548
156	0x3d8eb4d9	0.06968088
157	0xbc9315f6	-0.017954808
158	0xbd573aa3	-0.052546155
159	0xbd9cec92	-0.0766231
160	0x3ce91c58	0.028455898
161	0x3c715bd4	0.014731366
162	0xbd49653c	-0.04916881
163	0xbd23b20f	-0.03996473
164	0xbc617dab	-0.013762872
165	0xbdc26972	-0.09492768
166	0xbd583874	-0.052788213
167	0xbce853c5	-0.028360257
168	0xbd02b776	-0.031913243
169	0x3cb4bde3	0.022063201
170	0xbc538cc2	-0.012911977
171	0xbc502cb0	-0.012705967
172	0xbd247a4f	-0.040155705
173	0xbd28c35a	-0.041201927
174	0xbd6059c0	-0.054773092
175	0xbdc3e1c3	-0.09564545
176	0xbc1c4bef	-0.009539588
177	0x3c2dedcb	0.010615776
178	0x3d2d3c88	0.042294055
179	0xbc18d9bc	-0.009329256
180	0xbb2a98ea	-0.0026031085
181	0x3d174abd	0.03693651
182	0x3d356664	0.0442871
183	0xbb1fbf58	-0.0024375524
184	0x3d186a1c	0.03721057
185	0x3c15e839	0.0091496045
186	0xbd34512a	-0.044022717
187	0xbd427e13	-0.047483515
188	0xbd2ed412	-0.042682715
189	0xbd817f5e	-0.063231215
190	0x3cb71ced	0.02235266
191	0xbd6d59ea	-0.057947077
192	0xbd714c87	-0.058910873
193	0x3cf3cacd	0.029759789
194	0xbbb69606	-0.0055720834
195	0x3c60cc0c	0.013720524
196	0xbdf5b341	-0.119970806
197	0x3d0477bd	0.032340754
198	0x3be07e86	0.0068510203
199	0xbe1bbef8	-0.15209568
200	0xbcd57b07	-0.02605964
201	0x3c3c1a8e	0.0114809405
202	0x3d76f28d	0.06028991
203	0xbca6cfa2	-0.020362679
204	0xbd57083a	-0.05249808
205	0xbd05951a	-0.032612897
206	0x3bc3b19e	0.0059721014
207	0xbd06eccb	-0.032940667
208	0xbd29996e	-0.041406088
209	0xbd8e1f8f	-0.06939613
210	0xbaddee6c	-0.0016932017
211	0x3b000d80	0.0019539297
212	0xbc80f82b	-0.015743336
213	0xbbe7a99b	-0.007069779
214	0xbda333ec	-0.07968888
215	0xbd234651	-0.03986198
216	0xbc838d5f	-0.016058622
217	0x3cb52e17	0.022116704
218	0x3c5790f2	0.013157116
219	0x3cd0b891	0.025478633
220	0x3d7632c1	0.060106996
221	0xbd37fd04	-0.04491903
222	0x3ce18cb3	0.02753291
223	0xbd2c9c59	-0.042141292
224	0xbd48554a	-0.048909463
225	0x3a6dbbb0	0.00090688
226	0xbd9c52ec	-0.076330036
227	0xbd9181d0	-0.07104838
228	0x3b7192ac	0.0036861105
229	0xbd66f502	-0.056386
230	0x3a33f183	0.0006864296
231	0x3d626d4c	0.055280015
232	0xbd10679d	-0.035255063
233	0x3a083907	0.0005196486
234	0xbbc76ad2	-0.006085732
235	0x3b8e4919	0.00434221
236	0x3d891645	0.06693701
237	0x3e0b5280	0.1360569
238	0xbdd66e05	-0.10470203
239	0x3d9ea845	0.077469386
240	0xbe00647e	-0.12538335
241	0x3dcf9d03	0.101373695
242	0xbd3c2f58	-0.045943588
243	0x3db817bd	0.08988903
244	0x3d38777e	0.04503583
245	0xbd3bf15f	-0.045884486
246	0x3d0802c9	0.03320578
247	0x3d859367	0.065222554
248	0xbd41f4ed	-0.04735272
249	0xbd59d9a2	-0.053186066
250	0x3b2d32be	0.002642795
251	0xbd5eee1e	-0.054426305
252	0xbd2a169c	-0.04152547
253	0xbcee0442	-0.029054765
254	0xba589dcf	-0.00082632614
255	0xbe031bac	-0.12803525

_value.weight f4 [1, 256]
0	0xbe1dbab6	-0.15403256
1	0x3e1de93f	0.15421008
2	0xbbeaeaf1	-0.0071691205
3	0x3d85ad9f	0.06527256
4	0x3da24b62	0.079245344
5	0xbdf1bdb5	-0.11803762
6	0xbe7e391f	-0.24826477
7	0xbdd914cb	-0.10599669
8	0xbf0e6330	-0.556201
9	0x3d27935b	0.040912014
10	0xbf679ff3	-0.9047844
11	0xbe090deb	-0.13384216
12	0x3d9b3f67	0.075804524
13	0xbc09b0ba	-0.008403951
14	0x3dcdf04f	0.10055601
15	0x3d90de29	0.07073624
16	0xbd1ac2df	-0.0377835
17	0xbf3d0fcd	-0.73852235
18	0x3e1990b4	0.14996606
19	0x3dfb825e	0.12280725
20	0x3d40555a	0.046956398
21	0xbdd6c93d	-0.10487602
22	0x3dcf6937	0.1012749
23	0xbe780564	-0.24220806
24	0x3f9747ad	1.1818749
25	0x3ebbed19	0.3670433
26	0x3c96c518	0.018404528
27	0x3c306b3f	0.010767757
28	0x3d164f9b	0.03669701
29	0x3cb471d8	0.022026941
30	0xbd0660a3	-0.032807004
31	0xbe64872f	-0.22317193
32	0x3d88b7ac	0.06675658
33	0x3ccc2402	0.024919514
34	0x3c6e49b1	0.014543937
35	0xbad86541	-0.0016509668
36	0x3eb474d1	0.35245374
37	0x3ee15584	0.44010556
38	0x3e2662ce	0.16248628
39	0x3f00375c	0.5008447
40	0xbefd040c	-0.4941715
41	0x3f83095a	1.0237229
42	0x3d67dfc9	0.056609903
43	0xbdd9fb3a	-0.10643621
44	0xbe326e57	-0.17424904
45	0x3dbb7164	0.09152487
46	0x3e090a9d	0.13382955
47	0x3e0a3f26	0.13500652
48	0x3e52926a	0.20563665
49	0x3d15e566	0.036595725
50	0xbd2ab76c	-0.04167883
51	0x3cc26be8	0.023733094
52	0x3d58726f	0.052843507
53	0xbb37136a	-0.0027935156
54	0x3b022252	0.0019856882
55	0x3d9289db	0.071552
56	0x3d84d44c	0.06485805
57	0x3e1bdfa0	0.15222025
58	0xbec0bdd2	-0.3764482
59	0xbf137631	-0.5760222
60	0x3ccfb3cc	0.025354289
61	0xbf1299a6	-0.572657
62	0xbd9d5e62	-0.07684018
63	0xbe1352aa	-0.14387003
64	0xbd79f7d0	-0.061027348
65	0xbe176b6c	-0.14787072
66	0xbe00ddaf	-0.12584566
67	0xbf251c37	-0.6449618
68	0xbd7019b3	-0.05861826
69	0x3d24ffb2	0.040282913
70	0x3eb1cfbc	0.347288
71	0xbd019055	-0.031631786
72	0xbe3cc885	-0.18435867
73	0x3f26955b	0.6507165
74	0x3b3998fc	0.0028319946
75	0xbbeb5f99	-0.007183027
76	0xbe8eb3b9	-0.27871493
77	0xbc5ca966	-0.013468122
78	0x3e42ff8b	0.19042794
79	0xbeea865d	-0.45805636
80	0x3c69b9b5	0.014265467
81	0x3eca5026	0.39514273
82	0x3e4d87fc	0.20071405
83	0x3e403740	0.18771076
84	0x3d1c957f	0.038228508
85	0x3c29b585	0.010358219
86	0xbe840b12	-0.25789696
87	0x3cfce9f7	0.030873282
88	0x3c1119ff	0.008856296
89	0xbe8858f5	-0.2663037
90	0x3ddb4c2f	0.1070789
91	0xbcc7a852	-0.024372254
92	0xbdcfbdf5	-0.10143653
93	0xbe868c63	-0.26278982
94	0x3d85ccc4	0.065331966
95	0x3ee9a804	0.45635998
96	0xbd030ec5	-0.031996507
97	0x3e5c7537	0.21529089
98	0xbd78e478	-0.06076476
99	0x3eea61e9	0.45777825
100	0x3daf6222	0.08563639
101	0x3f0e77c0	0.55651474
102	0xbe42927e	-0.19001195
103	0x3e87dc6b	0.26535353
104	0xbd45450a	-0.048161544
105	0x3d8c8929	0.06862099
106	0xbdc13876	-0.09434597
107	0xbe17b1ce	-0.14813921
108	0x3bbb1405	0.0057091736
109	0x3e8ad1a9	0.27113083
110	0x3e9c5b2a	0.30538303
111	0xbda48773	-0.080336474
112	0x3c52c405	0.0128641175
113	0xbd1f8144	-0.038941637
114	0xbdaa80e0	-0.08325362
115	0xbd85b3c6	-0.0652843
116	0x3bf32e35	0.00742128
117	0xbe9ad1d4	-0.3023821
118	0xbbb148ec	-0.0054103043
119	0xbca1f1cb	-0.019768616
120	0x3f1e7e27	0.61911243
121	0x3dce6e55	0.10079638
122	0x3bbf782d	0.0058431835
123	0x3ec42082	0.38306051
124	0xbc31f0f4	-0.01086067
125	0x3ce9d471	0.028543683
126	0x3d8a1dc3	0.06743958
127	0x3ee0b992	0.4389158
128	0xbe17d147	-0.14825927
129	0xbe182ef9	-0.14861669
130	0x3d0e2cbf	0.034710642
131	0xbd3e989f	-0.04653227
132	0x3e625788	0.22103703
133	0xbd6859d2	-0.056726284
134	0x3ef79692	0.48357064
135	0xbd1828dd	-0.037148345
136	0x3d26f523	0.040761124
137	0xbd42d5dd	-0.047567237
138	0x3d445b45	0.047938604
139	0xbf0af57a	-0.5428082
140	0xbb13dc1c	-0.0022561615
141	0xbc46f97d	-0.012144444
142	0x3df37fc5	0.118896045
143	0xbdd200f0	-0.10254085
144	0xbd69cd4c	-0.057080552
145	0x3f17afe3	0.59252757
146	0x3d037ab3	0.032099437
147	0x3d4b542f	0.04964083
148	0x3e47d86a	0.19516149
149	0xbc06c89a	-0.008226538
150	0x3eadac20	0.33920383
151	0xbeacf6b8	-0.3378198
152	0xbd0ae370	-0.033908308
153	0xbeeeea99	-0.4666336
154	0x3e6a9494	0.2290824
155	0xbd8a25a0	-0.06745458
156	0x3f4614e2	0.77375615
157	0x3d592089	0.053009544
158	0x3c7b46da	0.015336717
159	0x3d65c4b4	0.056095794
160	0xbdfa00ab	-0.12207159
161	0xbe414c04	-0.18876654
162	0xbdd15a53	-0.10222306
163	0x3c22c71f	0.0099351695
164	0xbcaa38ee	-0.0207791
165	0xbc44a899	-0.012003087
166	0xbc5e93a8	-0.013585009
167	0x3d592781	0.05301619
168	0x3cdaf8be	0.026729938
169	0x3d6f3365	0.058398623
170	0xbd2ac9db	-0.04169641
171	0x3d8bfb9c	0.068351
172	0x3c8685e0	0.016421258
173	0x3e20b257	0.15693031
174	0x3c5b5322	0.01338652
175	0x3e351875	0.17685111
176	0xbd27b9d6	-0.04094871
177	0x3d3bba2d	0.045831848
178	0x3ef84bb9	0.48495272
179	0xbcd6b64e	-0.026209977
180	0x3c1ca517	0.009560845
181	0x3a7d53f7	0.0009663696
182	0x3d021adf	0.031763908
183	0x3a507090	0.00079513434
184	0x3d684d11	0.05671412
185	0xbc38bec0	-0.011275947
186	0xbc340670	-0.010987863
187	0xbf224424	-0.63385224
188	0x3b83e511	0.0040251096
189	0x3dd65e41	0.10467196
190	0x3cb80f55	0.022468248
191	0x3cdcfd97	0.02697639
192	0xbe86c95b	-0.26325497
193	0xbcda927d	-0.02668118
194	0xbdac100e	-0.084015
195	0x3c6f11ef	0.014591678
196	0xbe0bbf67	-0.13647233
197	0xbe1c0328	-0.15235579
198	0xbb7e75dd	-0.0038827576
199	0xbe9a7f64	-0.30175316
200	0xbdaf2167	-0.08551293
201	0x3e9a7463	0.3016692
202	0xbdec5af0	-0.115407825
203	0x3e9aff40	0.30272865
204	0xbe1c4a43	-0.15262704
205	0x3e15e798	0.14639127
206	0xbc26caa9	-0.010180154
207	0xbc5b10f3	-0.01337074
208	0x3e1c2251	0.15247466
209	0xbe8fad05	-0.2806169
210	0xbe075ce5	-0.1321903
211	0xbedb84bb	-0.42874703
212	0x3c3e5886	0.011617785
213	0x3cac1750	0.02100721
214	0xbeb95122	-0.36194712
215	0x3d2360fa	0.039887406
216	0xbf1fbda1	-0.62398726
217	0xbe3b389f	-0.18283318
218	0xbd7da0bb	-0.061920863
219	0xbc6f775e	-0.014615862
220	0xbd8a80c8	-0.06762844
221	0x3e274fb7	0.16339003
222	0x3cabe3ea	0.020982701
223	0xbcfcb387	-0.030847324
224	0x3e6094ad	0.21931715
225	0xbb1fc31b	-0.0024377767
226	0xbd313082	-0.04325915
227	0xbda1cd58	-0.07900494
228	0xbb071f53	-0.0020618036
229	0xbe46927d	-0.19391818
230	0xbcd5221b	-0.02601724
231	0x3ddc9621	0.10770822
232	0x3d7e1711	0.062033717
233	0xbe0d6728	-0.13808882
234	0xbd30e8bd	-0.043190707
235	0x3db66ffc	0.08908078
236	0xbd0548f1	-0.032540265
237	0x3dc8891c	0.097917765
238	0x3f1f13f7	0.6213984
239	0xbacbf836	-0.0015561644
240	0xbe0f15af	-0.13973115
241	0x3dc9748b	0.09836682
242	0xba87c614	-0.0010358714
243	0xbca46ccd	-0.020071412
244	0xbdf8df74	-0.12151995
245	0xbed59872	-0.4171787
246	0xbf19f2d7	-0.6013617
247	0x3d893f21	0.06701494
248	0x3eae5d7e	0.34055704
249	0x3b0f39f0	0.0021854602
250	0x3c78c4a0	0.015183598
251	0xbc913cfb	-0.017729273
252	0x3e6056f7	0.21908174
253	0x3cc5bd5b	0.024138143
254	0x3d451f7d	0.048125733
255	0x3dee0b5b	0.1162326

_advantage.weight f4 [3, 256]
0	0xbd8449fe	-0.064594254
1	0x3cee3fc9	0.02908315
2	0x3cbc4177	0.022980435
3	0x3d8cd7ad	0.068770744
4	0x3e0c05cd	0.13674088
5	0xbd3faa7e	-0.046793453
6	0xbd2a151d	-0.04152404
7	0xbc94c961	-0.018162431
8	0xbe98ea80	-0.2986641
9	0xba945ec1	-0.0011319743
10	0xbee6196c	-0.4494127
11	0xbdab2812	-0.08357252
12	0x3d25a463	0.040439975
13	0xbd6ac72c	-0.05731885
14	0x3d383d10	0.04498011
15	0xbe2611bc	-0.16217703
16	0x3d41308f	0.04716545
17	0xbf2a52b5	-0.6653245
18	0x3e53cd14	0.206837
19	0x3c9e7cd9	0.019346641
20	0x3cfdb706	0.030971061
21	0xba5acc0d	-0.0008346446
22	0x3bbe1873	0.0058012544
23	0xbddf89fd	-0.10914991
24	0x3f249aa5	0.6429847
25	0x3e5f974b	0.21835057
26	0x3cda0c55	0.026617208
27	0x3cb5353b	0.022120109
28	0xbd6c7c53	-0.057735752
29	0xbcaff066	-0.021476936
30	0xbd419310	-0.04725939
31	0x3ef18571	0.4717212
32	0x3d834838	0.06410259
33	0x3bf043c5	0.0073322975
34	0xbcbabe90	-0.022795945
35	0x3c18d642	0.009328427
36	0x3e8251e0	0.2545309
37	0x3eb0f371	0.3456073
38	0x3d293c4c	0.04131727
39	0x3e641245	0.22272594
40	0xbe32d832	-0.17465284
41	0x3f1464fa	0.5796658
42	0xbd180513	-0.037114214
43	0xbd856650	-0.06513655
44	0xbe14ccaf	-0.14531206
45	0x3cdcd072	0.026954863
46	0x3e0d0663	0.13771968
47	0x3d4d6e30	0.05015391
48	0x3d991342	0.07474376
49	0x3d00850b	0.03137688
50	0x3db6401a	0.08898945
51	0xbd5a6aba	-0.05332444
52	0x3d387343	0.045031797
53	0xbd9d7c24	-0.076896936
54	0x3e50cbc3	0.20390229
55	0x3d02fb7a	0.031978108
56	0x3d80737a	0.062720254
57	0x3e6b3282	0.22968486
58	0xbe5928f0	-0.21207023
59	0xbea1ccdb	-0.31601605
60	0x3d263ceb	0.04058544
61	0xbe9dc64a	-0.30815345
62	0x3c6bb5eb	0.014386634
63	0xbdae7fe0	-0.08520484
64	0xbd4798cf	-0.048729714
65	0xbdd88a84	-0.10573295
66	0xbd787467	-0.060657885
67	0xbed51e69	-0.41624764
68	0xbcb260c7	-0.021774663
69	0x3d888be4	0.06667307
70	0x3e1b7948	0.15182984
71	0xbb80f05b	-0.0039349026
72	0xbe0864cf	-0.13319705
73	0x3ec2833c	0.3799075
74	0xbc182f73	-0.0092886565
75	0xbd7b4535	-0.061345298
76	0xbd25129e	-0.040300958
77	0xbc43ea30	-0.01195769
78	0x3e27a4af	0.16371416
79	0xbe955213	-0.2916418
80	0x3d0be3bf	0.034152742
81	0x3e8e3e1e	0.27781767
82	0x3e045643	0.12923531
83	0x3d894937	0.06703418
84	0x3ce4a2b7	0.02790962
85	0x3c523d8e	0.012832059
86	0xbc186811	-0.009302155
87	0xbe141dd4	-0.14464504
88	0xbcfbce9c	-0.030738167
89	0xbdd61430	-0.10453069
90	0xbe86e7fa	-0.2634886
91	0xbc0a5a4a	-0.008444378
92	0xbdc83bcc	-0.0977703
93	0xbe18398c	-0.14865702
94	0x3d9bec46	0.07613425
95	0x3e8ef09e	0.2791795
96	0xbd219a4e	-0.039453797
97	0x3d0c584b	0.03426389
98	0xbd0af37d	-0.033923615
99	0x3d3c8b1b	0.0460311
100	0x3df8d53b	0.121500455
101	0x3e881eb6	0.2658593
102	0xbe4b086c	-0.19827431
103	0x3db7cff3	0.0897521
104	0xbd15aeda	-0.036543705
105	0x3da883ae	0.08228241
106	0xbdb3f92f	-0.087877624
107	0xbd8e6e81	-0.06954671
108	0xbe2546c2	-0.16140273
109	0x3e63a5c7	0.22231208
110	0x3e0a0a03	0.13480382
111	0xbdaee53f	-0.08539819
112	0x3bfaf74c	0.0076588746
113	0x3c5a8918	0.01333835
114	0xbd4f5228	-0.05061546
115	0xbd547bb2	-0.051875778
116	0x3d1b2ac3	0.037882578
117	0xbe394000	-0.1809082
118	0x3d32d25f	0.043657657
119	0x3c3aaa0c	0.011393081
120	0x3ec37060	0.38171673
121	0x3dd95079	0.10611052
122	0x3d24bc14	0.040218428
123	0x3e220528	0.1582228
124	0x3d069818	0.03285989
125	0x3bedf6f8	0.007262107
126	0xbc13027b	-0.008972759
127	0x3e872920	0.26398563
128	0xbdbb6277	-0.0914964
129	0xbd394350	-0.04523021
130	0xbd00f608	-0.031484634
131	0xbd29bcc5	-0.04143979
132	0x3e03dd05	0.12877281
133	0xbca6e36b	-0.020372113
134	0x3eae0791	0.33990148
135	0x3d1428c1	0.03617168
136	0x3d0829da	0.033243038
137	0xbc1397cf	-0.009008362
138	0x3d859815	0.06523148
139	0xbe8875c1	-0.2665234
140	0x3c22e4b5	0.009942223
141	0xbd84ba9d	-0.06480906
142	0x3e9497d3	0.29022083
143	0xbcc87fad	-0.024474943
144	0x3d4254a5	0.047444005
145	0x3ef07e77	0.46971485
146	0xbcc45044	-0.023964055
147	0x3e022693	0.12710027
148	0x3e02e609	0.12783064
149	0xba89c249	-0.0010510172
150	0x3e2c4ad1	0.16825415
151	0xbe5375e4	-0.2065044
152	0xbcfc604e	-0.03080764
153	0xbeba13b4	-0.36343157
154	0x3c0cd625	0.008595978
155	0xbda18116	-0.07885949
156	0x3f4509b9	0.7696796
157	0x3cf2900d	0.029609704
158	0x3cf1d929	0.029522495
159	0xbb1526f0	-0.0022758804
160	0xbd5b4836	-0.053535663
161	0xbdaddba2	-0.08489157
162	0xbd8453bb	-0.06461283
163	0xbc8e1d01	-0.017347815
164	0xbd6195f6	-0.055074655
165	0xbdaeb98b	-0.08531483
166	0x3d8e76c5	0.06956247
167	0x3d9016aa	0.07035573
168	0x3d40d75a	0.047080375
169	0x3c69bdcf	0.014266445
170	0xbc27b5c1	-0.010236205
171	0x3bb86078	0.0056267343
172	0xbc9bbfab	-0.019012293
173	0x3de69751	0.1125933
174	0xbd6f6069	-0.058441553
175	0x3dfb8762	0.122816816
176	0xbc76c652	-0.015061932
177	0x3d7216a7	0.059103634
178	0x3e812ad1	0.2522798
179	0xb8927e56	-6.9853544e-05
180	0xbd037503	-0.032094013
181	0xbd18263c	-0.03714584
182	0x3d537f44	0.05163504
183	0xbd307f70	-0.043090284
184	0x3d90f5a3	0.070781015
185	0xbd176859	-0.036964748
186	0x3cac3c36	0.021024805
187	0xbe7557c3	-0.2395926
188	0xbda95686	-0.08268456
189	0x3d7e98fe	0.062157623
190	0x3d376f22	0.04478372
191	0x3b62cffe	0.0034608836
192	0xbe040310	-0.12891793
193	0xbdd44f9c	-0.10366747
194	0xbce0b3b0	-0.027429432
195	0xbc1b9485	-0.009495859
196	0xbcd2dbc0	-0.02573955
197	0x3d838ab9	0.064229436
198	0x3cd13829	0.025539475
199	0x3ded17fa	0.11576839
200	0xbd9dbbf3	-0.07701864
201	0x3e5eec7a	0.21769896
202	0xbcf242f0	-0.029572934
203	0x3e8dd651	0.27702573
204	0xbdbc5814	-0.09196487
205	0x3e0d1a94	0.1377967
206	0xbcb40146	-0.021973263
207	0xbd7eb9f6	-0.062189065
208	0x3e1997fb	0.14999382
209	0xbe134889	-0.14383139
210	0xbc815f4a	-0.015792508
211	0xbe985e2f	-0.29759356
212	0xbc691463	-0.014226052
213	0xbd24cd39	-0.040234778
214	0xbe688642	-0.22707465
215	0x3ca831dd	0.02053159
216	0xbecdaae7	-0.4016945
217	0xbd30e61e	-0.043188207
218	0x3d6a9f89	0.05728105
219	0x3e13d407	0.14436351
220	0x3c4205fb	0.011842246
221	0x3de0d2aa	0.10977681
222	0xbcc57f6f	-0.024108617
223	0xbcfe5035	-0.031044105
224	0x3d82d210	0.063877225
225	0x3b1cdbad	0.0023934648
226	0xbd0de910	-0.034646094
227	0xbda2d4e3	-0.07950761
228	0xbcaf83a4	-0.021425076
229	0xbe09e7db	-0.13467352
230	0x3cdec81e	0.027195033
231	0x3d8ce63f	0.068798535
232	0x3d43f997	0.04784545
233	0xbdaf7a2b	-0.085682236
234	0x3da7f7f9	0.08201594
235	0xba529930	-0.0008033691
236	0xbcdc9785	-0.026927719
237	0x3cb98e0a	0.022650737
238	0x3ecfa6f9	0.40557078
239	0xbd2e931f	-0.042620774
240	0xbd8153ae	-0.06314789
241	0x3cc965a2	0.024584595
242	0xbcb0f94a	-0.021603245
243	0xbdea6feb	-0.11447128
244	0xbbbcb4c6	-0.0057588546
245	0xbe23dfb4	-0.16003305
246	0xbeb4aa9a	-0.3528641
247	0x3d1a7c3e	0.037716143
248	0x3de88d0e	0.11355029
249	0x3c8087e7	0.015689803
250	0xbda044c3	-0.07825615
251	0xbd9f4cfd	-0.07778356
252	0x3de96cee	0.1139773
253	0x3c3e4fb4	0.011615682
254	0x3d8a24bc	0.06745288
255	0x3d3b1ff8	0.045684785

_advantage.bias f4 [3]
0	0x3bce8c42	0.006303341
1	0x3bade9aa	0.005307396
2	0x3c0a6b2d	0.008448404

_out.weight f4 [3, 256]
0	0xbcd8c21c	-0.026459746
1	0xbcf8817c	-0.03033518
2	0xbd726b20	-0.059184194
3	0xbd20905c	-0.03920017
4	0x3d4e5aa2	0.050379403
5	0x3c819f44	0.015823014
6	0x3d4635a8	0.048391014
7	0xbcaf7454	-0.021417774
8	0x3d598630	0.053106487
9	0x3d000a3e	0.031259768
10	0x3ccd88b4	0.0250896
11	0xbbb88f90	-0.0056323484
12	0x3d505240	0.05085969
13	0x3bb3ae30	0.0054834113
14	0xbd2ff694	-0.042959765
15	0x3c8cba70	0.017178744
16	0x3ccc2028	0.024917677
17	0xbd005816	-0.031334005
18	0xbd3c9cbc	-0.04604791
19	0xbd0b34be	-0.033985846
20	0xbc620f70	-0.013797626
21	0x3b6aec40	0.0035846382
22	0x3d6311f2	0.055437036
23	0x3a4b6c00	0.00077599287
24	0x3d401da8	0.046903282
25	0xbd43a0ac	-0.04776065
26	0x3cd4199c	0.025891118
27	0x3cc2441c	0.023714118
28	0xbd36c170	-0.04461807
29	0xbc3c6a38	-0.011499934
30	0x3beb60c0	0.0071831644
31	0xbd4871be	-0.048936598
32	0xbd1c0eea	-0.03810016
33	0x3c98df94	0.018661298
34	0xbc83e530	-0.016100496
35	0x3ce58dec	0.028021775
36	0xbd5112c0	-0.051043272
37	0xbd042fb8	-0.03227207
38	0xbd67c5ee	-0.056585245
39	0xbd15a2e4	-0.036532298
40	0x3c9c65b8	0.019091472
41	0x3d5cc0ec	0.053894922
42	0x3ba300b0	0.004974447
43	0xbcd457d4	-0.025920786
44	0x3d67e7cc	0.056617543
45	0xbd697bd8	-0.057002872
46	0x3ce797f8	0.028270707
47	0x3bdd8b40	0.0067609847
48	0xbcad267c	-0.021136515
49	0x3c4b6158	0.012413345
50	0x3d3c44de	0.045964114
51	0x3a853cc0	0.00101652
52	0x3ca33d18	0.019926593
53	0x3d56df10	0.052458823
54	0xbd4a65b2	-0.04941339
55	0x3c42b6e8	0.011884429
56	0x3cc21634	0.023692228
57	0xbcaddf64	-0.021224685
58	0xbd17b9ce	-0.03704243
59	0xbd51bc8a	-0.051205195
60	0xbd2fa7c6	-0.04288461
61	0xbd67241c	-0.05643092
62	0xbcff2208	-0.031144157
63	0x3d0800c2	0.033203848
64	0xbc2f3a10	-0.0106949955
65	0x3d7d6a64	0.06186904
66	0xbc855d10	-0.016279727
67	0x3d762c94	0.060101107
68	0x3cdcc968	0.026951507
69	0xbd07db6e	-0.03316825
70	0x3c552108	0.013008364
71	0x3c4e56b0	0.01259391
72	0x3d2fd314	0.04292591
73	0x3cf441f0	0.029816598
74	0xbd7c1bc6	-0.061549924
75	0x3ac47b40	0.0014990345
76	0x3a746500	0.00093229115
77	0x3b394b00	0.0028273463
78	0xbbb0f150	-0.0053998604
79	0x3d60a438	0.05484411
80	0xbd2e9cb0	-0.042629898
81	0xbd37a8b6	-0.04483863
82	0x3ce34338	0.027742013
83	0xbd4d66f6	-0.05014702
84	0xbcc15840	-0.023601651
85	0x3bff0a80	0.007783234
86	0x3b92d040	0.0044803917
87	0x3d431b66	0.04763355
88	0xbc1f2708	-0.009713896
89	0xbc974750	-0.018466622
90	0xbc142a20	-0.0090432465
91	0x3d6943b2	0.056949325
92	0xbd711fc0	-0.05886817
93	0xbc38b658	-0.011273943
94	0x3d4a6c76	0.049419843
95	0xbd0899c8	-0.033349782
96	0xbc7f7a78	-0.015593164
97	0xbb0784e0	-0.0020678565
98	0xbc71b1b8	-0.014751844
99	0xbd759e60	-0.05996549
100	0x3cea67c8	0.02861394
101	0x3d382b80	0.04496336
102	0x3d3ef1a4	0.046617165
103	0xbc63d8a8	-0.013906635
104	0xbc002a18	-0.007822536
105	0x3c3469c8	0.011011548
106	0xbbf81a20	-0.0075714737
107	0xbd678892	-0.056526728
108	0x3d2b2212	0.04178054
109	0x3d2322b4	0.039828017
110	0xbc99e88c	-0.018787645
111	0x3d3459ea	0.04403106
112	0xbc8f1874	-0.017467715
113	0x3b76ab20	0.003763862
114	0x3bdef4c0	0.006804079
115	0xbc06f408	-0.0082368925
116	0xbb7ecdc0	-0.003887996
117	0xbd4b123a	-0.04957793
118	0x3c6b1b68	0.014349796
119	0xbd403660	-0.046926856
120	0xbca5c87c	-0.0202372
121	0xbd0c0aaa	-0.034189858
122	0x3d5346f0	0.051581323
123	0xbc664330	-0.014054105
124	0x3cb15948	0.021649018
125	0xbd205e46	-0.039152406
126	0xbd7c1a88	-0.06154874
127	0x3c2714d0	0.010197833
128	0xbbb1fdd0	-0.005431868
129	0x3d677088	0.056503803
130	0xbd0d3a60	-0.0344795
131	0xbd265246	-0.040605806
132	0x3c092f38	0.008373074
133	0x3d211d88	0.039334804
134	0xbc55fe08	-0.013061054
135	0xba92ad40	-0.0011190549
136	0x3d2c13d2	0.04201109
137	0x3c00d5c0	0.007863462
138	0x3c5cf6e8	0.013486601
139	0xbce5c2b8	-0.02804695
140	0x3cf6387c	0.03005623
141	0xbc98b72c	-0.01864203
142	0xbc050568	-0.008118965
143	0x3d1cfd7c	0.03832768
144	0xbd005dd6	-0.03133949
145	0x3c0c5e90	0.008567467
146	0xbb76d1e0	-0.0037661716
147	0xbd0f204a	-0.034942903
148	0xbd3b45fc	-0.04572104
149	0x3d1ee41c	0.03879176
150	0x3cc83a00	0.024441719
151	0x3d656994	0.05600889
152	0xbd280a42	-0.041025408
153	0xbd7d5d06	-0.061856292
154	0x3d742daa	0.05961386
155	0xbc28b620	-0.010297328
156	0xbd0ee94e	-0.034890465
157	0xbc931864	-0.017955966
158	0xbd2c1f0c	-0.042021796
159	0xbb558240	-0.0032578856
160	0x3d502286	0.050814174
161	0x3d447554	0.047963455
162	0x3d6a9f66	0.05728092
163	0xbc97d804	-0.018535621
164	0xbc869740	-0.016429543
165	0xbd569590	-0.052388728
166	0xbc04b260	-0.008099169
167	0xbcd3fc68	-0.025877193
168	0xbd0c7d54	-0.03429921
169	0xbc3e0478	-0.011597745
170	0xbb0aba60	-0.0021168217
171	0xbcad1718	-0.021129176
172	0x3c8ef654	0.017451443
173	0xbd19b88c	-0.037529513
174	0xbd43b41c	-0.047779188
175	0xbd3e2318	-0.046420187
176	0xbd0855ec	-0.033285066
177	0xbd4734ee	-0.048634462
178	0xbceebf68	-0.029144004
179	0xbd45f47e	-0.04832887
180	0x3c0e2d78	0.008677833
181	0x3d2d5818	0.04232034
182	0x3d63fdc4	0.05566193
183	0x3d72ce0c	0.059278533
184	0xbd0cfdd8	-0.03442177
185	0xbc64cee8	-0.013965346
186	0x3d6f9f7a	0.058501698
187	0xbcd0ab00	-0.025472164
188	0x3bae44b0	0.005318247
189	0xbcf1c098	-0.029510781
190	0xbc80e09c	-0.015732102
191	0xbc9cbb2c	-0.01913222
192	0xbd66bf46	-0.056334756
193	0xbd14a8f8	-0.036293954
194	0x3b171ba0	0.0023057237
195	0x3d72b76a	0.05925695
196	0x3d59db1e	0.053187482
197	0xbbb7b400	-0.0056061745
198	0xbd6bcb2e	-0.057566814
199	0x3d4c75e0	0.0499171
200	0xbcd21444	-0.025644429
201	0xbd31cb82	-0.04340697
202	0xbb3f7c40	-0.0029218346
203	0xbd47d36e	-0.04878562
204	0x3d31bcc6	0.04339292
205	0xbd4244bc	-0.04742883
206	0xbc1b1a70	-0.009466752
207	0xbd18ce40	-0.03730607
208	0x3d6d05e2	0.05786694
209	0x3c0cfaf0	0.00860475
210	0x3d742850	0.059608757
211	0xbd231e24	-0.039823666
212	0x3a844900	0.0010092556
213	0x3a099d00	0.000524953
214	0xbd55c70c	-0.05219178
215	0x3d73d89e	0.059532754
216	0x3cf3cbbc	0.029760234
217	0x3d0d23bc	0.034457907
218	0x3d4442a0	0.0479151
219	0x3d1dc2da	0.038515903
220	0x3cc0afb0	0.023521274
221	0xbd200640	-0.03906846
222	0x3c87bb00	0.01656866
223	0x3d66c1e8	0.056337267
224	0x3c8f8f68	0.017524436
225	0xbb9f35c0	-0.0048587024
226	0xbce2f708	-0.027705684
227	0x3c2f6640	0.010705531
228	0x3d0347aa	0.032050766
229	0xbc58afc0	-0.013225496
230	0x3d5b9604	0.053609863
231	0xbc5eff58	-0.013610683
232	0x3d5b0618	0.05347261
233	0x3d22cd14	0.03974636
234	0x3d01870c	0.03162293
235	0xbd14c31e	-0.03631889
236	0x3d13c412	0.03607566
237	0xba423780	-0.0007408783
238	0x3d64ecd4	0.05588992
239	0x3d49bf5a	0.049254753
240	0x3d38086a	0.0449299
241	0x3c2764d0	0.010216907
242	0xbd5d8ad4	-0.054087475
243	0xbd2eccb2	-0.04267568
244	0xbd7f6e26	-0.062360905
245	0x3bda3490	0.006659098
246	0x3bf08e30	0.007341169
247	0x3c52be30	0.012862727
248	0x3d00c70e	0.031439833
249	0xbce159c4	-0.027508624
250	0x3c9a54b4	0.018839218
251	0xbc37d818	-0.011220954
252	0xbbcc1570	-0.0062281415
253	0x3d342804	0.043983474
254	0x3cac9490	0.021066934
255	0x39ef6000	0.00045657158

_out.bias f4 [3]
0	0xbc3deac0	-0.011591613
1	0xbcc82738	-0.024432763
2	0x3d40bcb2	0.047054954
