rl/models/v.s. Bot/pong_dueling_ddqnm.pth (torch, 286940 bytes, 9 tensors)

_fc1.weight f4 [256, 12]
000000 98 cd 51 bc 0f d1 02 be 57 d0 0e 3e ba 6b f4 ba
       -0.012805365 -0.12775062 0.13946663 -0.0018647828
000010 c8 ad 8f be 59 20 25 3e f4 61 9d 3d e2 c2 98 3c
       -0.28062272 0.16125621 0.07684699 0.018647615
000020 be be 6d 3e 33 0d 99 be e8 32 7e bc 75 2d a0 be
       0.23217294 -0.29892883 -0.015515067 -0.3128468
000030 c0 78 7b 3e bf e8 9b be 19 d8 78 3d 04 6c 57 bc
       0.24557781 -0.3045101 0.06075296 -0.0131483115
000040 34 11 6d 3d 2f d9 f9 3c 9c fd f5 3d 27 24 c3 3d
       0.057877734 0.030499069 0.12011263 0.0952838
000050 94 16 ad 3c 41 37 db be e1 bc 31 3d c8 27 8c 3e
       0.02112893 -0.42815593 0.04339302 0.273741
000060 41 28 42 3e 47 c7 0b 3e 06 ec d2 be a9 5a 4a 3a
       0.18960668 0.13650237 -0.41195697 0.0007719198
000070 8c 04 32 3b 2c 34 ad 3d 07 29 35 bd a1 0c 8c bb
       0.0027163355 0.084572166 -0.04422858 -0.0042739664
000080 56 60 34 3e 2b 83 99 be 51 e0 81 3e 94 33 12 bf
       0.17614874 -0.29982886 0.25366452 -0.5710995
000090 aa 94 42 bd 86 9e d8 bd 90 d5 e9 bc 1a ba 8d b9
       -0.04750506 -0.10577111 -0.028544217 -0.00027032272
0000a0 9d 2e 4c be eb bd 17 be 11 d3 26 3e c4 0d e8 3c
       -0.19939657 -0.14818542 0.16291453 0.028326876
0000b0 62 ae 26 3e 8c b7 4b 3e d1 54 8e 3e 96 62 fa 3e
       0.1627746 0.19894236 0.27799085 0.4890334
0000c0 27 ed 3a 3e 3e 2f dc 3d 8c 8b 09 be f7 d6 94 bb
       0.18254529 0.10751198 -0.13432139 -0.0045422274
0000d0 bf fd f2 bd 34 78 15 be 35 02 b9 bd 69 f9 6c be
       -0.118648045 -0.14596635 -0.09033624 -0.23142017
0000e0 5d b3 90 be 49 21 cc be 19 fc 77 bd 45 57 60 3e
       -0.28261843 -0.39869145 -0.060543153 0.2190829
0000f0 17 64 56 be 54 5c 9a bc 63 c6 10 be 13 3e 20 bc
       -0.20936619 -0.018842854 -0.14138179 -0.009780425
000100 38 57 ba be 3c 3e 96 be ad 15 22 bf bb 14 a4 be
       -0.36394668 -0.29344356 -0.63314325 -0.32047066
000110 f8 00 d7 bd e9 ce d8 3e 81 38 c1 3d 9b b3 4d 3d
       -0.10498232 0.4234536 0.094346054 0.050220113
000120 e9 78 99 3e 39 f1 07 3e 95 3f d0 3e f7 65 f0 3d
       0.2997506 0.13275613 0.4067351 0.11738198
000130 1e 4e 0c bd 61 92 98 3d af 0f 4c 3e fe b8 1a bd
       -0.034254186 0.074497946 0.19927858 -0.03777408
000140 27 09 23 be a1 5f f6 3d 9f 16 71 3e e3 5f f6 be
       -0.1592146 0.120299585 0.23543786 -0.4812003
000150 d1 d9 0d be 18 b4 b9 3e 50 47 be 3c fd 91 08 3c
       -0.13852622 0.36270213 0.023227364 0.008335588
000160 ac 7d b2 bd 82 61 1d 3e be ad 0b bd e0 d4 da bb
       -0.08715376 0.15369228 -0.03410124 -0.0066782087
000170 cc ed fb 3e de 31 96 3e 4e 90 7d 3e a9 d8 05 3f
       0.49204862 0.2933492 0.24762079 0.5228372
000180 ac b8 2f be b6 0c bd 3d 9d f5 ee bd 67 71 72 3c
       -0.1716029 0.0923094 -0.11667941 0.014797545
000190 e3 09 20 3d 5d 72 9b be 38 0d ed bc d4 34 2f bc
       0.03907193 -0.3036069 -0.028936967 -0.010693748
0001a0 3c e5 38 3e a5 82 95 3e 82 cb ed 3c 0c 5d 29 3e
       0.18056196 0.29201236 0.029027704 0.16539401
0001b0 aa 2d 01 3d bf 62 04 be fc 90 9e be 28 7d 9b bc
       0.03153769 -0.12928294 -0.3096999 -0.018980578
0001c0 95 b3 00 bd 52 74 72 3e 64 a1 e8 bd 20 1d 5a bd
       -0.031421263 0.23677185 -0.11358908 -0.053250432
0001d0 9c 52 dc be e9 52 0e be 0b ef 34 3e 5e 69 1a 3e
       -0.43031776 -0.13898815 0.17669313 0.15079257
0001e0 9d 92 81 3e 48 c5 03 3e a6 32 f9 3e b8 f3 00 3c
       0.2530717 0.12868226 0.48671454 0.007870607
0001f0 46 b0 61 3e 33 40 b3 be 8d f6 26 be 1c c7 42 bb
       0.22039899 -0.35009918 -0.16304989 -0.002972073
000200 2f 77 30 3d df b7 79 3e 2d d0 91 bb 1f 4e 1e bd
       0.043082412 0.24386548 -0.0044498653 -0.03864872
000210 ce 79 85 3e 73 de 5b 3e 58 1e a2 bd 0c 3b 5e bd
       0.26069492 0.21471576 -0.07915944 -0.05425553
000220 3b 83 d8 3d 14 d9 5c be cf 3e 69 bd dd ee ac bc
       0.10571905 -0.21567184 -0.056944665 -0.021109993
000230 70 9f ab bc 44 21 03 3e 4b 76 86 3d 77 3c 0c 3e
       -0.02095005 0.12805659 0.06565531 0.1369494
000240 7b 25 26 be ae aa 32 3e eb c9 6a be b4 9e e0 3b
       -0.16225235 0.17447922 -0.22928588 0.0068548564
000250 98 5b 43 bd d2 e1 ae bc 3a a2 9b 3d 99 49 48 be
       -0.047694772 -0.021347914 0.07599302 -0.19559325
000260 d0 d6 c2 3d 76 d5 78 be 52 36 8a bc f4 b0 04 3d
       0.095136285 -0.24300179 -0.016871605 0.03239532
000270 9a b3 8c 3e f7 ac 7e be 9d 9b 75 bd df 9f 9e bb
       0.27480775 -0.24870668 -0.059962858 -0.0048408355
000280 1b ec 23 3e b0 79 51 be 57 9e 59 be 2e cb 46 bd
       0.16008036 -0.20456576 -0.21251808 -0.04853361
000290 95 22 60 be 66 96 e5 3e 6b 62 85 3e 39 6c 01 be
       -0.21888192 0.44841307 0.2605165 -0.1263894
0002a0 f4 c2 83 3e 28 c1 ca 3d cb 39 03 3d fd 5a 01 3b
       0.25734675 0.09900123 0.032037538 0.001973807
0002b0 bb bd 0f bd f7 7a 48 3e 61 16 83 bd 53 e5 10 bc
       -0.03509305 0.19578157 -0.06400753 -0.008843738
0002c0 c8 86 15 be 59 1d 4c 3e 35 00 30 be de ab 30 3f
       -0.14602196 0.1993307 -0.17187579 0.6901225
0002d0 c5 9c 71 3d 1e e3 bb 3d d6 9e 2b be d7 4b e8 bb
       0.058987398 0.091741785 -0.1675981 -0.007089119
0002e0 85 cc 87 be e1 77 98 3e d6 01 b8 bd 9c e6 f1 3d
       -0.26523224 0.2977896 -0.08984725 0.118115634
0002f0 b1 c3 d4 3d 04 36 27 be eb bb 3d 3e 8a 1e 1c 3f
       0.10388888 -0.16329199 0.18528716 0.609841
000300 64 0b 4a be 30 be c2 be e6 c7 69 3d d8 d7 42 bb
       -0.19730908 -0.38035727 0.057075404 -0.0029730704
000310 b6 0c 4e be 93 bb a0 3d ca 64 a2 be 26 75 9f bb
       -0.20122036 0.07848277 -0.3171752 -0.00486626
000320 21 a7 d4 3e 4a ef c4 be b6 5c 21 3e 89 e6 42 bf
       0.4153376 -0.38463813 0.15758023 -0.7613302
000330 1b 87 cf 3d 46 be 5a be 3a 22 2a be fe ff f1 bb
       0.10133191 -0.21361646 -0.16614619 -0.007385253
000340 1b 8f 97 bb 5d 87 49 3e fd d2 74 3e 5e a5 0d bd
       -0.004625214 0.19680543 0.2390861 -0.034581535
000350 52 19 26 bd 15 d9 00 bf 61 39 40 3e 04 3a d4 3d
       -0.04055149 -0.5033124 0.18771888 0.10362628
000360 4d 28 26 be da 68 ae 3e e8 91 05 3e c0 27 b3 3b
       -0.16226311 0.3406437 0.1304394 0.005467385
000370 f9 05 d6 bd b5 d8 e8 be ed c7 8f be be 8b ed bd
       -0.10450358 -0.45477834 -0.2808222 -0.11598919
000380 f2 bb a4 3d d4 b6 99 bd b0 95 be 3d d8 a5 ac be
       0.0804366 -0.07505575 0.093058944 -0.3372028
000390 aa 98 a9 bd fe 86 89 be fb a0 89 bd e7 34 5c bd
       -0.082810715 -0.26860803 -0.06720158 -0.05376139
0003a0 5c 3a f0 3d f0 65 f9 bd 76 ae 7a be e2 da 1f be
       0.11729881 -0.12177646 -0.24480614 -0.15610841
0003b0 eb a1 c2 bb 81 d5 bf 3e 84 65 6b 3e 12 3f a1 3e
       -0.0059397123 0.37467578 0.22987944 0.3149343
0003c0 24 d5 02 bd 3a 75 8a 3c cd 34 c5 3e df ff 64 3a
       -0.031941548 0.016901601 0.38516846 0.00087356375
0003d0 b7 f1 2b 3d 30 7a ab 3e 6c 8a 07 3e a8 65 5f bd
       0.041978564 0.3349166 0.13236398 -0.054540306
0003e0 10 86 21 bc 3a c8 e1 be 7c 2a 98 bd f8 a0 01 bf
       -0.009858623 -0.44098073 -0.07429978 -0.50636244
0003f0 23 ec 7e 3b b1 d0 01 bd d6 6d a6 bc 0e a6 80 b9
       0.0038898073 -0.031693164 -0.020316046 -0.00024537783

_fc1.bias f4 [256]
000000 d5 9d 43 3e 96 69 84 be e7 d6 81 3d a1 f1 4c 3e
       0.19103177 -0.25861806 0.063398175 0.20014049
000010 5a b4 98 bd 86 94 2f 3d 9f ec a5 bd ff a3 38 be
       -0.07456274 0.042866252 -0.081017725 -0.1803131
000020 d8 80 4b be e8 9f 42 bd 93 96 96 3d 51 58 4a 3d
       -0.19873369 -0.04751578 0.073529385 0.04940063
000030 fc 39 dc bc ec 0d 41 3e ee 7d 9f bb 7e ef 8b 3e
       -0.026883118 0.18852967 -0.004867307 0.27331156
000040 d1 cd 85 be 6e dd 98 bc 95 c5 0f be aa a0 d2 3c
       -0.26133588 -0.018660273 -0.14040215 0.025711376
000050 98 f5 44 be b8 87 65 3d ca e0 28 bd 7d 1b b7 be
       -0.19234312 0.056037635 -0.04123 -0.3576316
000060 78 cf e5 bd b7 cd 3c 3e ea 2a 38 3e d4 56 dc bd
       -0.11221212 0.18437849 0.1798512 -0.10758749
000070 02 ba 81 be 65 af 88 3d e5 39 a5 3d 9b cd ac bd
       -0.25337225 0.06674079 0.08067683 -0.08437654
000080 cb e6 95 be 2a b0 76 be 87 40 4f be 35 c5 0f 3e
       -0.29277644 -0.24090639 -0.20239459 0.14040072
000090 87 57 97 3d 12 3b 08 3d f6 b3 1b 3e 71 33 7e 3e
       0.073897414 0.03325946 0.15205368 0.24824311
0000a0 a6 db e9 3d 97 c0 de bc 44 7b 2a 3e a1 9a dd bd
       0.11418848 -0.027191443 0.16648585 -0.10820509
0000b0 5e be ea 3c 6f ce 42 bd 16 07 c6 bc e7 04 4a be
       0.028655227 -0.04756015 -0.0241733 -0.19728433
0000c0 bf 48 c5 ba b5 bd 64 be a9 4c a3 be c2 62 3c 3e
       -0.0015051587 -0.22337992 -0.31894425 0.18397048
0000d0 58 90 89 bd b8 1d 15 3e 63 19 83 3d 6e 7c 7e be
       -0.067169845 0.14562118 0.064013265 -0.24852154
0000e0 dd 99 0c bd 22 82 c5 be 98 90 87 be c5 ea 1e bc
       -0.034326423 -0.38575846 -0.26477504 -0.009699528
0000f0 36 43 1c 3e cf af f8 3d f2 70 6a bd af d3 b3 bb
       0.15260014 0.12142908 -0.05723662 -0.005487881
000100 9a d9 06 be aa 18 1b be 0b 40 43 be da 53 ad be
       -0.13168946 -0.15146127 -0.19067399 -0.33853036
000110 6c 2a 97 be be d4 90 3d 68 92 6f 3d 1b f7 df bd
       -0.29524553 0.07071827 0.058489233 -0.109358035
000120 48 3a 25 be 0b 0f c1 be 07 de 8e 3d 9a 9d bd bc
       -0.16135514 -0.3770679 0.06975942 -0.02314644
000130 1b af f9 3b 29 61 db 3d 91 ed 4e 3e 24 39 45 be
       0.007619751 0.10711891 0.20207812 -0.19260079
000140 4d 43 33 3e ea e0 32 bc d2 37 3b be 6c 6e 4f be
       0.17506142 -0.0109178815 -0.18283013 -0.20256966
000150 ed 3c 72 be a2 cb 93 be ac 6d e9 bd ae 4a 21 be
       -0.23656054 -0.28866297 -0.113978714 -0.15751144
000160 42 d6 33 be 2a 15 38 be 98 3a 68 bd 42 75 67 be
       -0.17562202 -0.17976823 -0.056696504 -0.22603324
000170 d5 45 8a be 43 74 fe bd 56 59 49 3e 29 04 8d be
       -0.27006403 -0.12424519 0.19662985 -0.27542236
000180 80 06 f4 3d d4 9a f7 bd b0 16 3f be 62 a9 0d be
       0.11915302 -0.12090078 -0.18660998 -0.13834146
000190 1b 99 36 3d c0 3a 49 bd 7e 59 25 be 69 a7 46 be
       0.044579607 -0.049128294 -0.1614742 -0.193998
0001a0 ed 12 fc bd 01 3e a1 be 77 d7 63 be ab 9e 6b bd
       -0.12308297 -0.31492618 -0.22250162 -0.057524364
0001b0 85 88 f1 3c e3 35 bd bd f1 d3 17 3e c3 ea a6 3d
       0.029484043 -0.09238794 0.14826943 0.08150246
0001c0 a0 da b2 3d 4b 0a 08 3e ac 44 a6 3d 17 c4 87 be
       0.08733106 0.13285176 0.08118567 -0.26516792
0001d0 9b 3f 5f be 77 ca 8e be c1 c5 e4 bc 09 13 50 3d
       -0.21801607 -0.27888843 -0.027926328 0.050799403
0001e0 31 7b 55 3d 7a d5 cc 3c 91 46 c9 3d 1b 95 04 3e
       0.052119438 0.025004137 0.098279126 0.12947504
0001f0 e3 1b aa bd 8c 5d 86 3d 32 23 81 be bb 7e 40 3e
       -0.083061 0.065608114 -0.25222164 0.18798344
000200 c0 dd 3c be 4d 69 76 be 4f 25 b1 bd 63 f5 23 3e
       -0.18443966 -0.24063607 -0.08649694 0.16011576
000210 39 dd ca 3c df 0b 5b 3e 0d 52 4f 3e ee 03 6b be
       0.02476369 0.21391247 0.20246144 -0.22950718
000220 ce 70 59 3d f8 9e a7 3d ba 00 c3 bd 29 f6 f2 bd
       0.053086095 0.08184618 -0.09521623 -0.118633576
000230 1a 6e 46 3e 7b 6d 3d bd 1c 8a 48 be 29 40 98 3d
       0.19377938 -0.046246987 -0.19583935 0.074341126
000240 1d 07 d3 bd 53 9b b7 3c 8d 02 18 3e 10 15 a0 3d
       -0.10304091 0.022412932 0.14844723 0.07816517
000250 2b ba 88 be 36 65 44 3e 06 a1 96 be b7 9b 8a be
       -0.26704535 0.19179234 -0.29419726 -0.27071926
000260 09 95 d8 bd 49 01 69 be 41 f9 60 be 08 10 53 be
       -0.10575301 -0.22754396 -0.21970083 -0.20611584
000270 20 36 81 be 4d 87 ef bd f7 b8 ab 3d 17 06 8d be
       -0.25236607 -0.116957285 0.083848886 -0.2754371
000280 e3 f8 86 be 56 07 b0 bd de 88 c1 bc c2 e3 3e bd
       -0.2636176 -0.08595149 -0.023624834 -0.046603926
000290 ee d7 51 be 5e 06 e1 3d e5 03 96 3c f3 0c e0 bd
       -0.20492527 0.109875426 0.018312404 -0.1093997
0002a0 0b cd 02 be 23 e6 ba 3d 27 70 b3 3c 72 9c 2a bd
       -0.1277353 0.09125926 0.021904064 -0.041653104
0002b0 42 54 89 3d f8 8b 29 3d 2e 53 76 be 91 98 23 3e
       0.06705524 0.04139325 -0.24055168 0.15976168
0002c0 5e 7a 97 bd d1 d0 0e 3c aa 8e 0d bd 34 25 0d be
       -0.073963866 0.008716778 -0.034559883 -0.13783723
0002d0 c3 ff 6d 3c 2f 8d 53 3e e3 cb e1 3d b5 9b f4 3c
       0.01452631 0.20659326 0.110252164 0.029859403
0002e0 09 03 52 be b1 7a ed bd b5 de 1f be 3b 81 a1 be
       -0.2050897 -0.11595667 -0.156123 -0.31543908
0002f0 5c f8 26 3e 6e 61 5d 3e 88 48 0b be d3 92 9c 3d
       0.16305679 0.21619198 -0.13601887 0.07645192
000300 4d 3c 49 3e 95 22 a9 bd 89 87 8e bd 6d 4e 0c bd
       0.19651909 -0.08258549 -0.06959445 -0.03425448
000310 7b 34 e7 bd e2 60 c5 3c 60 c4 71 3d f3 08 ba bc
       -0.11289307 0.024094049 0.05902517 -0.022709345
000320 8e ad e5 bd 5c f0 c3 3d 79 f8 83 be c4 56 6f 3d
       -0.112147436 0.09567329 -0.25775507 0.058432356
000330 aa 79 4c be 61 05 85 be ee 1a 8c 3e 48 a3 13 3e
       -0.19968286 -0.25980666 0.27364296 0.14417756
000340 92 29 7f 3e 3b cb 8f be 6e c3 29 3e b2 b1 81 3d
       0.24918202 -0.2808474 0.16578457 0.06332721
000350 91 61 e1 3d d5 ca 45 bd 05 2e 4f 3d cd 1c 51 3e
       0.110049374 -0.04828914 0.050580997 0.20421143
000360 61 88 0a bd e2 08 12 be c1 92 40 3c 4c 73 47 be
       -0.033821467 -0.14261201 0.011753739 -0.19477576
000370 af 41 d7 bb 1f f7 f4 bd 93 e2 57 3e b4 4e 25 be
       -0.0065691094 -0.11961197 0.21082525 -0.16143304
000380 5d 16 96 be 11 50 49 be 33 ff 30 3d 83 a8 37 be
       -0.29313937 -0.19659449 0.043212127 -0.17935376
000390 e9 af 7f 3e ad 14 68 be 80 ce d3 bd 9e a6 c3 bd
       0.24969448 -0.22664137 -0.10342121 -0.09553264
0003a0 19 d1 1c 3e 59 c3 0d 3e 73 f5 63 3e 6b 4b 01 be
       0.1531414 0.1384405 0.222616 -0.12626426
0003b0 27 b8 1d be c4 73 94 ba b1 3b 5f be ad 98 bd 3d
       -0.1540228 -0.0011326005 -0.21800114 0.09257636
0003c0 21 3a 7b be 17 a6 31 be fb 5e 32 be cd 81 a7 3d
       -0.24533893 -0.17348514 -0.17419045 0.081790544
0003d0 d0 bf 85 bc 73 f1 ca bc 0c 7f 98 be 86 d7 95 3d
       -0.016326815 -0.024773335 -0.2978443 0.073164985
0003e0 a9 45 13 be 40 56 fd 3d cf 0b 2e bc cc b6 16 3e
       -0.14382042 0.123699665 -0.010622933 0.14718169
0003f0 a7 51 9e 3c ef 5c ae 3d b3 9e 03 be c3 b8 86 be
       0.019326044 0.085138194 -0.12853508 -0.26312837

_fc2.weight f4 [256, 256]
000000 8d 3c dd 39 c9 dd da 3c c1 cb 49 3d e2 08 92 bc
       0.0004219752 0.026717084 0.04926658 -0.017826501
000010 3f fa fb 3d 09 a9 ab bd 1e 6c 73 3d bf 20 bd bc
       0.1230359 -0.0838185 0.05942928 -0.023086904
000020 82 ba c3 bd cd b5 c3 bd 06 cd 14 be 59 e1 26 bc
       -0.09557058 -0.0955616 -0.14531335 -0.010185563
000030 a3 f3 66 3c d0 51 8a 3d 8c 6a 70 be d6 4f 89 be
       0.014096173 0.06753886 -0.23478144 -0.26818722
000040 54 7b 51 3d 42 93 b8 3c d6 44 c5 3d 4e a7 9b bc
       0.051143005 0.022531155 0.0963227 -0.019000676
000050 d7 42 e9 3d cb d1 56 3d 10 be 94 be e3 ef 4c 3e
       0.11389702 0.052446168 -0.29051256 0.20013385
000060 a7 16 5a bd 85 cf 8b 3d dc 6d c0 bd 5b 74 79 bc
       -0.05324426 0.068266906 -0.09395954 -0.015225495
000070 d5 21 0c 3d 04 a4 16 3d c3 26 0f 3e 8c c5 df 3d
       0.034211952 0.03677751 0.1397963 0.10926351
000080 8e a4 8f be 14 2d 5f be 0c 72 06 be fe 8f 18 3c
       -0.28055233 -0.2179454 -0.13129443 0.009311674
000090 1d 92 4e 3d e4 1a 32 be 61 8a e1 be 1e 02 3e be
       0.050432313 -0.1739307 -0.44050887 -0.18555495
0000a0 1f 0b 95 3c 30 cf a9 3c 49 f7 87 bd 76 05 5d 3d
       0.01819378 0.020728678 -0.06638963 0.053960286
0000b0 26 f0 be 3d e0 46 45 3e eb a8 eb bd 49 40 10 3e
       0.093231484 0.19265318 -0.11506828 0.14087023
0000c0 3b df 03 bf 17 c2 5d be 92 cb 09 be 47 1b cd bd
       -0.515125 -0.2165607 -0.13456562 -0.10014968
0000d0 97 72 13 bd a7 0a a2 3b 42 47 0b bd 99 62 9a be
       -0.035997953 0.0049451175 -0.034003504 -0.3015335
0000e0 44 c6 76 bd d5 1b ac bd 4c 69 8e 3e b8 73 8d 3c
       -0.060247675 -0.08403746 0.2781471 0.017267093
0000f0 81 b2 15 3e 4e cb a0 bc 5c 90 da 3b 9d d0 b0 3d
       0.14618875 -0.019628193 0.006670041 0.0863354
000100 91 57 26 be ec ae 13 be 57 b6 2d 3e 92 45 62 3e
       -0.16244341 -0.14422196 0.16964088 0.22096851
000110 b7 df 20 3e bd 54 ad 3d 62 d8 54 bb 5b 51 bb 3d
       0.1571034 0.08463428 -0.0032477607 0.09146377
000120 92 d0 97 bd d9 05 57 bd fe 54 14 3d 32 0c 4f 3d
       -0.074128285 -0.05249581 0.036213867 0.05054874
000130 0e ad 1f 3d f7 7f 5f bd 48 5f 48 bd 8d 1b 68 be
       0.038983397 -0.054565396 -0.048918992 -0.2266676
000140 8f f3 d7 bc 13 fd 75 bd 3d f9 34 3e 15 8a 62 be
       -0.026361255 -0.060055804 0.17673202 -0.22122987
000150 95 92 16 bc 0a 69 1d bf 6e 16 47 bd 26 42 6e 3d
       -0.009190221 -0.614884 -0.048605375 0.058168553
000160 77 fd 19 3e 89 77 d4 be 8a 01 27 3d 55 d8 5c 3d
       0.15038095 -0.41497448 0.040772952 0.053917248
000170 8b 3b 4a be e0 a0 92 be d1 ed 29 3d 43 5d c1 be
       -0.19749276 -0.28638363 0.041486565 -0.37766466
000180 87 19 a9 be fe 51 d5 3d 11 93 95 bd 6c 0d 61 be
       -0.33027288 0.104160294 -0.07303441 -0.21977776
000190 11 65 29 bf 39 c5 af 3d 1e 35 17 3d 7b f1 b1 3d
       -0.6616984 0.08582539 0.03691589 0.08688637
0001a0 06 60 90 bd c5 2c ef 3d 5a e6 ff 3d c6 4d ea 3d
       -0.07049565 0.11678461 0.12495108 0.11440615
0001b0 46 cd 7f 3d 0d 31 0c be 0a b7 98 3d a1 43 02 bd
       0.062451623 -0.13690586 0.07456787 -0.031802777
0001c0 67 38 c4 3d 18 75 16 be 14 eb 80 3c 63 14 9a 3c
       0.095810704 -0.14693105 0.015737094 0.01880855
0001d0 73 9e bc 3c 68 a7 0c 3c 55 7c 32 bd 2d a1 50 bd
       0.023024773 0.008584835 -0.043575604 -0.05093496
0001e0 89 77 86 bd 29 ff 05 bd 88 d8 17 bd e7 a5 66 3d
       -0.06565768 -0.032714043 -0.037071735 0.05631056
0001f0 2b fd 69 3d ac dc 0b be f5 ba 62 3d f7 31 b3 bd
       0.057126205 -0.13658398 0.055354077 -0.087497644
000200 05 78 c4 3d f9 f1 90 bd b1 87 a9 bd 85 04 56 bd
       0.095932044 -0.070774026 -0.08277834 -0.052250404
000210 31 eb 31 3d 7c a7 0e 3d 74 47 00 3d be 80 85 3b
       0.043437187 0.034827694 0.031318143 0.004074185
000220 7e 51 f8 3c 6a d2 fa 3c c8 45 4f 3e f4 8b 72 bd
       0.030312296 0.030617911 0.20241463 -0.0592155
000230 ff 05 21 3c 19 82 ef 3c f2 41 69 3c d1 12 69 be
       0.00982809 0.02923684 0.014236914 -0.22761084
000240 89 b3 3b bd 81 26 8c 3c 17 4c a3 bd 74 2a b7 3c
       -0.045825515 0.017108204 -0.07973497 0.02235911
000250 d7 70 70 3e 2f 8c 1b bd f5 40 48 bd e4 78 ef bd
       0.23480545 -0.037975486 -0.048890073 -0.1169298
000260 21 54 0b 3e ef 69 10 3e 89 3e 18 bc 98 d4 01 be
       0.13606311 0.1410291 -0.009292253 -0.12678754
000270 73 1a 9d 3d be db 8b 3d 58 b5 f1 3c b1 8a 18 be
       0.076710604 0.06829022 0.029505417 -0.14896657
000280 06 50 86 3d d4 2a ed 3b 93 d6 99 3d c2 1e d2 bd
       0.06558232 0.0072377715 0.0751163 -0.10259773
000290 c6 56 81 3d 4d 79 85 3d 21 46 6f 3d ee c0 0f 3e
       0.06315379 0.06517277 0.05841649 0.1403844
0002a0 ac 0e b2 bd 7f 41 b7 3d 77 42 e9 bd cb c2 20 39
       -0.08694205 0.08948039 -0.1138963 0.00015331355
0002b0 c9 48 34 3c 9c 80 74 3c 99 1b 9c 3d 72 00 d9 3d
       0.011003681 0.014923241 0.07622451 0.10595788
0002c0 19 c2 51 bd a6 3d db 3c 63 83 ee bb be a7 49 3d
       -0.051210497 0.026762795 -0.007278846 0.049232237
0002d0 0f 51 6d be 30 aa 56 bd af 11 4d 3e 60 6f 17 3d
       -0.23175453 -0.052408397 0.20026277 0.03697145
0002e0 5e 33 af 3d b2 a6 52 3d 68 ac e2 3d 64 83 01 be
       0.085547194 0.051428504 0.1106804 -0.12647778
0002f0 98 3c de bd 8f 4d 54 bd db e9 f7 3d 57 7b a1 3d
       -0.10851401 -0.05183178 0.12105151 0.07884853
000300 57 a2 0b be 96 4f 9d 3d 82 ee ad bd b5 5f cb bd
       -0.13636146 0.076811954 -0.084927574 -0.09930364
000310 11 57 b8 bc ab ce 41 bd 3b 44 31 3e f5 60 d1 bd
       -0.022502454 -0.047316235 0.17311184 -0.10223571
000320 ee 0b 4f be 88 b2 91 3e c2 53 5a bd 7d 00 1a 3e
       -0.20219395 0.2845652 -0.053302534 0.15039249
000330 e4 05 95 3d 24 0d 7d 3d 53 c5 98 3d f3 7c 35 3e
       0.07276514 0.06178011 0.074595116 0.17723446
000340 a9 d3 6f be 43 73 06 3e 9c 19 22 3c 18 82 d1 3c
       -0.23420586 0.13129906 0.009893801 0.025574729
000350 7f f9 8c 3e 5d 28 d7 be a6 27 65 3d 60 83 37 3e
       0.275341 -0.42022982 0.055946015 0.1792121
000360 28 a3 94 bd ac 31 97 3e 6d 04 8b be 3d 87 a8 3c
       -0.07257682 0.29530084 -0.27151814 0.0205723
000370 5c ce 90 3d 90 8d 8e 3d 0a 38 6d 3c ad a7 6e bb
       0.0707061 0.06960595 0.014478693 -0.003641586
000380 04 78 48 3d a8 b3 0e bc 69 64 85 bd 74 07 1f be
       0.04894258 -0.008709826 -0.06513292 -0.15530187
000390 8f ab ff bc 47 2a c2 3d 55 bf 91 bd b8 b7 c1 be
       -0.031209735 0.0948072 -0.07116572 -0.3783548
0003a0 8a 70 63 3e 55 51 32 bd 20 2a de 3b 1d 1b 50 3d
       0.22210899 -0.043534596 0.006779924 0.050807107
0003b0 b2 2c c9 3c 17 ab 72 3d 17 58 46 3e 9f 91 51 3d
       0.024557445 0.059245195 0.19369541 0.051164266
0003c0 30 5b 2d 3e 51 58 ab bd 06 2e 04 3e fa c5 a8 bd
       0.16929317 -0.083664544 0.12908182 -0.08240886
0003d0 bc 26 b7 3d 56 28 2c be 1b da c6 be df cd 0a bb
       0.08942935 -0.16812262 -0.38838276 -0.0021179838
0003e0 5e 48 e0 3b 4f 08 e6 bc 00 32 cd bc 0b c3 25 be
       0.0068445643 -0.028080134 -0.025048256 -0.16187684
0003f0 29 7d 16 3d 46 6a 37 3c 4e 18 b2 bd e3 ca 79 3e
       0.036740456 0.011194771 -0.08696042 0.24393801

_fc2.bias f4 [256]
000000 2c f4 ec bd 96 aa 01 be 75 40 6d bd 74 09 bf bc
       -0.115700096 -0.1266273 -0.0579228 -0.023319937
000010 67 de d9 bc 72 41 3d bd a9 d8 3c bc 6a 4b 4a bd
       -0.026595308 -0.04620499 -0.011526265 -0.049388327
000020 f3 33 ff 3c fd 62 91 3c f2 c4 52 bc 83 3d ac bd
       0.031152701 0.017747397 -0.012864338 -0.0841017
000030 64 f7 37 bc ca ec 8f 3b 87 2f 02 bd 14 d1 ae bd
       -0.011228416 0.004392241 -0.031783607 -0.08535972
000040 eb b3 8b bd 54 0e d5 bd ab ed 60 bd 76 41 94 bc
       -0.06821426 -0.104031235 -0.054914158 -0.01809762
000050 aa 91 27 bd 34 89 e3 bc 53 22 f7 3a b9 13 0a 3c
       -0.0409104 -0.027775384 0.0018854834 0.008427554
000060 fd 97 92 3d 06 84 09 bd a8 24 0c 3d d2 4f a6 bd
       0.07157896 -0.033573173 0.034214646 -0.08120693
000070 d2 5d a5 b9 a0 cd a2 3c 9e 07 25 bc f7 ff 31 bb
       -0.00031541154 0.01987344 -0.010072617 -0.0027160624
000080 db 07 df bc 01 fb e4 bc d1 a0 1a bd ab 4f 6a 3c
       -0.027225425 -0.02795172 -0.037751023 0.014301221
000090 96 e1 e1 3c 70 1f fb 3c ca 2d 7d ba 85 2d 08 bd
       0.027573388 0.030654639 -0.0009658007 -0.033246536
0000a0 0a f2 9d bb e8 3c e0 3d ba a1 00 3c 37 32 38 bd
       -0.004820113 0.10949117 0.007851059 -0.044969764
0000b0 55 59 ab bc 87 8b 73 bd 46 54 64 bd 66 40 40 bc
       -0.02091662 -0.059459236 -0.055744432 -0.011734104
0000c0 70 b0 ba bc d6 12 5e bb be 0b 39 3b 65 af d3 bb
       -0.02278921 -0.0033885739 0.0028235759 -0.0064601176
0000d0 cf 14 85 bd b9 03 f0 bd b1 3b 39 3c 90 eb 92 3c
       -0.064981095 -0.1171946 0.011305735 0.01793459
0000e0 f6 3a 61 3d 2d f7 8b bd d2 f6 b5 ba 65 fc b2 bd
       0.05498787 -0.068342544 -0.0013882762 -0.08739547
0000f0 5d 7c d4 3b 00 97 4a 39 2b f2 0a bd 0d 5c bc bc
       0.006484552 0.00019320473 -0.033922356 -0.022993112
000100 de e1 2d bd 5f 00 53 3b e0 13 6f bc 50 8e a8 bd
       -0.04245173 0.0032196266 -0.014592141 -0.08230269
000110 37 98 3c bc f8 f1 17 3b d2 34 bc bc 51 22 7a 3b
       -0.0115109 0.0023184996 -0.022974405 0.0038167427
000120 ef a2 06 bd 17 ba f9 3c d7 62 3f bd 52 7a f5 3c
       -0.03287023 0.030484242 -0.04672512 0.029965553
000130 b7 e1 ce bd 5d 69 c5 bd aa 28 aa bc 65 9d 23 bd
       -0.101016454 -0.09639237 -0.020771343 -0.039945025
000140 a7 2f 7d 3c 5f a7 bf 3d 8a 72 bd 3c 65 ee 2f bd
       0.015453256 0.093580954 0.023125906 -0.04295196
000150 ef 2b ea 3b 78 a3 8e bd 58 7a 5c bd c3 e7 80 bd
       0.0071463506 -0.06964773 -0.053827614 -0.06294205
000160 d1 32 14 bd 02 95 a8 bc 8c c4 c7 3d b6 b0 0e 3d
       -0.036181275 -0.020578865 0.09754285 0.034836493
000170 59 95 9e 3d a3 e6 4d bd 3d df 87 bd 27 10 63 bd
       0.077433296 -0.05026878 -0.06634376 -0.055435326
000180 41 0b 89 bd d7 c6 7d bd aa 86 8c 3c 1c 04 03 bd
       -0.066916 -0.061957207 0.017154057 -0.03198634
000190 c8 f6 17 bd b4 cd a4 3c 3c 79 96 3c 60 ba 2f 3d
       -0.037100583 0.020117618 0.018368356 0.04290235
0001a0 16 d8 d0 3b d7 11 8e bc 42 aa 88 bc d9 11 65 3d
       0.0063734157 -0.017342491 -0.016682748 0.055925224
0001b0 0c e1 21 bd 73 9c b2 3d b6 79 b8 bd e0 d3 dc bc
       -0.039521262 0.087212466 -0.090075895 -0.026956499
0001c0 bf f8 8f 3d 62 18 37 bc 04 e4 ee bd a0 08 69 bc
       0.070298664 -0.011175247 -0.11664584 -0.014223248
0001d0 53 56 8b bd 46 7e 15 bc 1a d1 06 bc 68 b7 57 3c
       -0.068035744 -0.009124344 -0.008228565 0.013166286
0001e0 8e 91 1d bd e1 c6 ac 3c f2 76 09 be 86 60 f5 bc
       -0.03846889 0.021090927 -0.1342428 -0.029953253
0001f0 57 48 95 bd 78 b8 98 3c 8e 5b 96 bb 7c 02 88 bc
       -0.07289188 0.018642649 -0.004588551 -0.016602747
000200 2a 00 2a 3d 12 de 7a bd 0d 1e 93 bd ef 1e ae bc
       0.041504063 -0.06124694 -0.07183466 -0.021254985
000210 d8 4b 0a bb 06 e9 7d bc 28 9b 08 bc ef 34 8a 3c
       -0.0021102335 -0.015497452 -0.008337773 0.016870944
000220 54 7e 30 3d ec 2b f5 bc dd 1f 32 bd c2 39 69 bc
       0.043089226 -0.02992817 -0.04348742 -0.014234962
000230 82 eb 95 3b c0 c7 a0 3c 9b f4 15 bd a9 6a 1a bd
       0.004575194 0.019626498 -0.036610227 -0.037699375
000240 3a 99 e2 3c a0 14 1a 3d 4a 51 b5 bd de f5 e6 b9
       0.027660955 0.037617326 -0.08853395 -0.00044052204
000250 9e 81 89 bd 4c b0 09 bd 19 a0 f5 bd c7 dd 6f bb
       -0.06714176 -0.033615395 -0.11993427 -0.0036600695
000260 16 44 78 3c 8a 34 44 bd e9 1b 38 bd 87 98 12 bd
       0.015152952 -0.047901668 -0.044948492 -0.035789993
000270 2d 86 5f bc 9b bb 84 3c 12 fc bc bc 0d cf 03 bc
       -0.01364283 0.016202739 -0.023069415 -0.00804497
000280 82 29 aa bc 46 2e fb 3c 9a cf 6b 3c b7 97 27 3c
       -0.020771746 0.030661713 0.014392758 0.010229043
000290 8b 63 1a be d0 77 67 3c 30 60 8b bd cb de c5 bb
       -0.15077035 0.014127687 -0.06805456 -0.006038522
0002a0 d3 35 8e bd d4 8b a6 bd d9 79 97 3c e2 00 b0 bd
       -0.0694386 -0.08132139 0.018490719 -0.085939184
0002b0 ef 5c aa bc fb 76 1c 3d a6 75 92 3c c2 51 37 bd
       -0.020796267 0.038199406 0.017878365 -0.044755705
0002c0 6f f7 07 bd 62 af 6a bd 7a 82 81 bd 59 e6 5f bd
       -0.033194955 -0.057296164 -0.063237146 -0.054663036
0002d0 aa 8f 5a bd 1d 7a c2 bd c2 85 87 3c 3e 54 ed 3c
       -0.053359665 -0.094959475 0.016543273 0.028970834
0002e0 c9 eb 94 bd 93 e0 97 bc 64 5c 99 3c b2 16 36 3c
       -0.07271535 -0.018539703 0.018720813 0.011113809
0002f0 ec b1 9d bd f8 b7 af bc 40 21 01 3d e5 11 9a bc
       -0.076999515 -0.021450028 0.03152585 -0.01880736
000300 fa 57 c8 3c fd 60 71 bd 4a b8 fa bc 1f 2b 1e bd
       0.024456013 -0.058930386 -0.030605454 -0.038615342
000310 08 44 bb 3c 9f 94 3e bd f0 d1 5c bc 47 9a 93 bc
       0.022859588 -0.046528455 -0.013477787 -0.018017901
000320 64 ce 83 bd d0 9a 6c 3c f3 0f f5 bc 21 a0 07 bd
       -0.0643585 0.014441207 -0.029914832 -0.033111695
000330 b5 4e b5 bb 7a 64 9e 3d 99 cd 4c bd de d5 06 bd
       -0.0055330642 0.07734008 -0.05000076 -0.032918803
000340 43 4e d7 3c 06 33 a7 bc e3 ce 82 bd 91 da 87 bd
       0.026282435 -0.020410072 -0.06387117 -0.06633485
000350 8f 9a d4 bd dd 21 87 ba 34 f4 a1 bd 08 34 81 bc
       -0.10381042 -0.0010309775 -0.07907906 -0.01577188
000360 b1 69 98 bc 7f 6c 60 3d 3c 29 ce 3b ad d0 2c 3d
       -0.018605085 0.05479097 0.0062915366 0.042191196
000370 96 ad 34 3d b4 a5 d1 bc 2b b7 09 bc 9e 19 b7 bd
       0.044110857 -0.025591709 -0.008405487 -0.08940433
000380 05 74 8c bd 40 ec 7c bd 78 76 24 bd 9e 34 cd bd
       -0.068580665 -0.061748743 -0.040152043 -0.100198016
000390 e2 d7 b6 bc 3b 37 4d bc 25 33 00 3e 10 c6 89 3b
       -0.022319738 -0.012525375 0.1251951 0.004204519
0003a0 be 49 44 bc 91 65 b6 bd 50 ec af bc b8 4c e2 3c
       -0.011980472 -0.08906091 -0.021474987 0.027624473
0003b0 2c 2f 0f 3e 18 7b d0 bd 3e 68 b4 3c 28 b6 2a 3c
       0.13982838 -0.10179728 0.022022363 0.010419406
0003c0 36 12 90 3c 07 98 2f bd d9 18 f3 bd 5d 8a 0d 3d
       0.017586809 -0.042869594 -0.11869974 0.03455578
0003d0 c5 13 08 bd 70 b6 e5 bc 84 6c 83 bc 1b ea 19 bd
       -0.03322198 -0.028041095 -0.016042955 -0.037576776
0003e0 f1 4c 48 bc 69 b5 4c bd 7c 09 77 3b 49 3a 76 bd
       -0.0122253755 -0.049977694 0.0037694862 -0.06011418
0003f0 8d f8 50 bd 26 c5 23 bc fa 03 3d bd fd 2a 0b bc
       -0.051018286 -0.009995734 -0.04614637 -0.008494136

_value.weight f4 [1, 256]
000000 3c 9f 79 3d 1f a7 14 be 3b a0 e3 3c 4c 89 56 3d
       0.060942873 -0.14516877 0.027786365 0.05237703
000010 e3 34 1e bd dd 33 83 ba 7d 8a 01 3e c6 8c c2 be
       -0.038624655 -0.0010009963 0.12650485 -0.37998027
000020 61 42 f2 3d 31 7e 3c bc 72 b1 95 3d b0 b8 ae 3e
       0.11829067 -0.011504696 0.07309236 0.3412528
000030 6a c8 3f bd 12 cb 89 3c 03 32 ed 3c 59 2e 30 bf
       -0.04682199 0.016820464 0.028954512 -0.6882072
000040 07 ac 00 be 13 48 b2 be bf 86 8a 3d 97 3c 3e be
       -0.12565623 -0.34820613 0.06763982 -0.185778
000050 9c 43 08 bd 2c 73 28 3e 01 6c 21 3e 60 c2 04 bd
       -0.033267602 0.16450185 0.15763856 -0.032411933
000060 64 bc 25 be 7f 83 01 3d 44 31 24 bd d0 aa ff 3e
       -0.16185147 0.031619545 -0.040086046 0.49935007
000070 f9 90 03 3d 64 e8 68 3c ba 0b a7 bd 42 b8 04 be
       0.03212068 0.0142155625 -0.081565335 -0.12960914
000080 0c 27 fc be 50 7e 5e bd d7 2c 6f be 48 9c 01 3e
       -0.4924854 -0.05431968 -0.23356949 0.12657273
000090 0a b7 03 bc 81 20 d8 bd 6a 16 91 bd fe a4 18 bd
       -0.008039245 -0.10553075 -0.07084353 -0.037266724
0000a0 37 18 84 3c 83 a7 eb 3d 44 1c 87 3d 52 d8 b6 bd
       0.016124828 0.1150656 0.06597188 -0.089279786
0000b0 3b bf 0d 3e d6 7c 3b bd bf 29 fb bb 34 d1 95 3d
       0.1384248 -0.04577335 -0.0076648886 0.07315293
0000c0 ce 1c 50 bf 75 17 a2 bd fd f6 7f 3d a9 6f 88 be
       -0.8129395 -0.0791463 0.062491406 -0.2664769
0000d0 c1 77 03 be df f4 74 be d1 f7 3f 3c 95 83 f7 be
       -0.12838651 -0.23921536 0.011716799 -0.48342577
0000e0 e6 ae d0 3c a6 9f 47 bc fd a2 f5 3d 9b 6f 41 be
       0.025474023 -0.012184059 0.11993978 -0.1889023
0000f0 cb 3a b3 3e 97 b5 86 3c fb 46 36 bf 88 d6 9d 3e
       0.35005793 0.01644401 -0.7120206 0.30827737
000100 60 cd b4 be f6 5d 3d bd 68 6f 33 3d b6 01 2f 3e
       -0.3531294 -0.046232186 0.043807417 0.17090496
000110 65 80 03 bf d4 39 5d be d9 bd 85 3e b5 e3 03 3e
       -0.5136779 -0.21604091 0.26121405 0.12879832
000120 65 5b 88 3e 85 7d db b9 c9 bd c0 be 34 82 a4 3e
       0.26632228 -0.00041864454 -0.37644795 0.32130587
000130 26 bb 5c 3d bb 9c 28 bc c8 15 71 be 33 87 39 bb
       0.053889416 -0.010291274 -0.23543465 -0.0028309345
000140 a9 fa 3d bb a1 f1 03 3e f7 b7 6c bd ae b1 33 bc
       -0.0028988516 0.12885143 -0.05779263 -0.010967655
000150 3a f8 a8 3d 61 cc 25 bc 3b 09 29 bf d1 fe c4 bc
       0.082504705 -0.0101195285 -0.6602971 -0.024047287
000160 1a 0e ef bd 4a 25 f0 bb 0d 2d 5e 3e 91 d4 3f 3e
       -0.116726115 -0.007328664 0.21696873 0.18733431
000170 e8 bc e7 3d f3 fd 26 bc 67 2d a8 be 8c ed 9a 3d
       0.11315328 -0.010192382 -0.3284714 0.0756484
000180 29 1c af bb 17 a9 9b 3a cb 12 d5 bc 03 99 12 bd
       -0.005343933 0.0011875954 -0.026009938 -0.035790455
000190 cd 5e aa 3c d8 49 38 bd 6a 51 b5 3e 1d 5e cf 3d
       0.020797158 -0.044992298 0.35413677 0.101253726
0001a0 8d 78 3f bd 0e 90 3b 3d 06 0e e2 bc 2e f4 33 3e
       -0.046745826 0.045791678 -0.027594578 0.17573616
0001b0 d0 e8 7a 3d ab 48 71 3d 26 1a ad 3e c5 75 2d 3e
       0.061257184 0.058907192 0.33809012 0.16939457
0001c0 b0 e8 98 3d a2 95 d0 bb 48 1f 14 3e 0e 93 3a bf
       0.074662566 -0.006365494 0.14465058 -0.7288064
0001d0 95 fd 56 be 8b 7d 70 bd f4 80 fd 3c 51 4c a0 bc
       -0.20995171 -0.058713477 0.030945279 -0.01956764
0001e0 54 77 3b bf af be 97 3a 34 96 03 3f 8f 41 8a 3e
       -0.73228955 0.0011577214 0.51401067 0.27003142
0001f0 a4 cc 39 3d f7 49 af 3b 64 75 f6 bb 83 06 d3 bc
       0.045361176 0.0053493935 -0.0075213183 -0.025759941
000200 1c 7a f3 3e 4a 47 e5 bc 14 6f 39 bd 48 6e 37 3c
       0.475541 -0.027988095 -0.045271948 0.011195727
000210 40 6b 54 3e 3a ef 8a be 8e 50 76 be ab fe b7 bd
       0.20744038 -0.2713564 -0.24054167 -0.08984121
000220 76 8e bd bc a2 ba 3f 3e ec ac 2a bd f5 a0 19 bf
       -0.02313922 0.18723539 -0.041668817 -0.60011226
000230 e2 62 d9 bd 1c b5 2f 3e b5 77 78 be c1 b0 bc 3c
       -0.106145635 0.17158931 -0.24264415 0.023033502
000240 ef 94 d3 3c 7f 20 53 bd a1 11 5a bf d4 ce 14 bf
       0.025827853 -0.051544663 -0.8518315 -0.58128095
000250 47 07 7a 3d af ae 02 3c 74 22 37 3e 59 a4 fa bb
       0.061042096 0.007976218 0.17884237 -0.0076489863
000260 ee a7 98 3e 30 af 1c bd a5 30 7d be 6e d1 80 3e
       0.2981562 -0.03825301 -0.24725588 0.25159782
000270 a3 15 1e 3e 80 f7 b4 be 86 2b c8 3e 1d 6e 76 3e
       0.15437941 -0.35345078 0.39095706 0.24065442
000280 3f 4f 08 bd 99 74 66 3e 82 b2 e8 be 97 19 5b 3e
       -0.0332787 0.22505416 -0.4544869 0.2139648
000290 b1 84 0a 3f b5 2f fe 3d f2 c5 50 bd 47 2f 45 bd
       0.5410872 0.12411443 -0.050970025 -0.04814079
0002a0 4a b2 19 3d 89 81 a1 be 15 8f 51 3d d9 46 9e be
       0.037523545 -0.3154414 0.051161844 -0.30913427
0002b0 d2 95 60 3d d2 b8 30 3e 46 41 c8 3b bc ba f1 3d
       0.05483038 0.17258003 0.006111297 0.11803195
0002c0 66 0a 6b be 74 a7 e9 3c 2e 31 a5 3c 5d d8 9b bc
       -0.22953185 0.02852223 0.020165052 -0.019024068
0002d0 57 5b f9 be 88 7d 7a 3e 0b 48 b6 bc 64 a9 73 be
       -0.487025 0.24461949 -0.02225115 -0.23795086
0002e0 b9 b7 31 3d d4 45 8d bc 3d 99 07 be 2a 6e 40 3d
       0.043388102 -0.01724521 -0.1324205 0.04698006
0002f0 93 89 b0 bc 8e ff 31 bd bd 82 6e bc c7 67 76 be
       -0.021549975 -0.043456607 -0.014557538 -0.24063025
000300 3e 16 76 bd 8f ae fa be 46 c0 d6 be f7 1e 55 3b
       -0.060079806 -0.48961303 -0.41943568 0.0032519677
000310 b5 7e b1 bb b2 31 ee bd 03 6f 3b bf 16 7a 0f bc
       -0.005416716 -0.116305724 -0.73216265 -0.008757135
000320 cc 4c b9 3e 20 31 90 3e 23 85 84 bc 70 f1 86 3e
       0.36191404 0.2816248 -0.016176766 0.26356077
000330 58 c1 96 bc 87 9d 28 3e e2 0f fa be fa 9a bc bd
       -0.01840274 0.16466342 -0.48840243 -0.09209247
000340 c4 85 c6 ba 96 b3 be 3c 04 26 e2 be 13 ba de bc
       -0.0015146066 0.023278993 -0.4416963 -0.027188336
000350 42 fd 10 3f 37 7c 4c bc 21 6c 8c 3d 78 49 53 bd
       0.5663644 -0.012480787 0.068565615 -0.051583737
000360 9f bb b6 be 93 7d 1f bf 4f 82 99 be 53 4d 87 be
       -0.3569002 -0.62300986 -0.2998223 -0.2642618
000370 57 3e 90 3e d6 72 26 bd 09 04 f3 bc 6e bf 38 be
       0.28172562 -0.04063686 -0.02966501 -0.18041775
000380 7f ea 85 bd 13 7e 42 3c 8d 83 03 3f ad 6c 15 3f
       -0.06538867 0.011870879 0.51372606 0.5836895
000390 75 8b 3a bc 41 a8 13 bd 5e 85 e3 3d 33 44 b7 bd
       -0.011385788 -0.03604913 0.11109422 -0.08948555
0003a0 26 13 88 3d 63 59 cc bd 36 94 14 bd 27 81 33 bd
       0.06644277 -0.09977987 -0.036274157 -0.04382434
0003b0 23 6b 01 3e e7 c6 78 3e 3d 1b d6 bd ef 5d ae bd
       0.12638526 0.24294625 -0.10454414 -0.0851401
0003c0 4d da ee be 76 82 9a 3e d3 cf 71 bd 58 a0 9d 3d
       -0.46650925 0.3017766 -0.059036087 0.07696599
0003d0 0a b9 4d bc 65 9d 8e 3c 88 61 d1 bd 3c 91 1c be
       -0.012556324 0.017409036 -0.10223681 -0.15289778
0003e0 fb 72 84 3d 1f 38 1a 3f 42 52 aa 3e c0 df 94 bc
       0.06467243 0.60241884 0.33265883 -0.018173099
0003f0 4b 14 6d bb 7e eb a4 bd b5 51 1e be 10 2a a4 3d
       -0.0036175426 -0.08052729 -0.15460856 0.08015835

_advantage.weight f4 [3, 256]
000000 47 b7 5a 3d 04 e9 7f bd 1c 36 2b bd 62 d8 fb 3c
       0.053397443 -0.06247808 -0.04179965 0.030742828
000010 39 97 72 bd ee 8d e7 bc 8d 16 30 3d b3 0a de 3d
       -0.05922625 -0.02826592 0.042990256 0.108418845
000020 72 90 31 3d 29 00 00 3d 5e aa da 3c c4 96 26 3e
       0.043350644 0.031250153 0.026692566 0.1626845
000030 fc f8 86 bd fd 81 fb bc 7a 31 29 3d 38 f8 18 3c
       -0.06590459 -0.030701632 0.04130695 0.009336524
000040 1d 45 1d bd 79 4d 4b be e9 9a a8 3c 23 f0 f7 bd
       -0.03839599 -0.19853772 0.02058168 -0.12106349
000050 0a 24 08 bd e4 ce dd 3c e2 33 c5 3d cc ff 3a 3d
       -0.033237495 0.027076192 0.096290365 0.045654103
000060 8f 38 2b bc 7a 16 65 3a d2 dd 85 bd a5 a0 89 3e
       -0.010450496 0.0008739006 -0.065364495 0.26880375
000070 32 d6 a9 bb df a5 3d 3d b9 88 cb bd b8 de 01 be
       -0.005183005 0.046300765 -0.09938187 -0.12682617
000080 70 d9 81 be 4d c2 86 bd 70 52 21 be 18 89 9a 3d
       -0.25361204 -0.06580029 -0.15754104 0.0754568
000090 f2 4a 58 bd 5c 3e ba bc 84 4b c3 bc 3d f6 0c bd
       -0.05280585 -0.022734813 -0.02383972 -0.03441452
0000a0 99 d0 4c bd 28 43 4d 3d 99 0a 97 3d 6d 69 36 bd
       -0.05000362 0.050112873 0.07375068 -0.044534136
0000b0 cc a8 64 3d 7e 59 4e bd c2 73 2f 3d 24 26 86 3d
       0.05582504 -0.050378315 0.042835005 0.065502435
0000c0 31 df 01 bf 4a fb 70 bd ba 5b b3 bc 36 5b de bd
       -0.5073119 -0.058833398 -0.021894325 -0.10857241
0000d0 50 20 44 bd 2a 9d 13 be 98 72 df 3c 1e db 77 be
       -0.047882378 -0.14415422 0.027276322 -0.2420468
0000e0 73 d6 08 3d 2a c9 05 3d 65 ee 73 3d 43 63 0d be
       0.03340764 0.032662548 0.059553523 -0.13807397
0000f0 13 51 88 3e 73 c9 ec 3c e9 ec 0f bf 06 3f f1 3d
       0.26624355 0.028904652 -0.5622087 0.11779599
000100 f7 fd 0e be 8f 4b a9 bd 88 eb 8d bc 4d 31 92 3d
       -0.13964067 -0.08266365 -0.017324224 0.0713831
000110 7c 06 3b be a8 87 f4 bd 87 b5 c3 3d e4 c7 e6 3d
       -0.18264192 -0.11939937 0.09556108 0.11268595
000120 87 39 24 3e 1f 07 41 bd 1e 3c 04 be f7 13 7c 3e
       0.1603757 -0.04712593 -0.12913558 0.24616991
000130 48 a5 5f 3d e2 2e a5 bd 17 23 99 bd 24 27 0a 3d
       0.054600984 -0.08065583 -0.07477396 0.033728734
000140 1e b2 4b bc 8e 04 67 3d 87 d8 c1 3b 42 25 09 3c
       -0.012432603 0.056400828 0.0059157046 0.008370699
000150 22 a9 04 3e a5 0f 26 3d 62 6a c6 be 5d 0d a4 bc
       0.12955144 0.040542264 -0.3875304 -0.020025903
000160 96 9d d3 bd 32 3b 0f 3d 0b fd 87 3d e4 e6 d2 3d
       -0.103327915 0.034968562 0.06640061 0.10297945
000170 16 50 50 3d 88 e9 06 bd 02 58 8e be 7c 94 51 3d
       0.050857626 -0.032937557 -0.2780152 0.051166996
000180 0a eb d2 bb f1 d8 2e 3c bd 4e c4 bc ab ae 11 bd
       -0.0064367102 0.01067184 -0.023963327 -0.035566967
000190 42 23 62 3d ed 0a 42 3c 07 d6 23 3e 6a 9b 13 3e
       0.055209406 0.011843425 0.15999614 0.14414755
0001a0 8a d9 0f 3d c2 b1 7f 3d 2f 4c 4d 3d 94 be 5a 3d
       0.03511957 0.062425382 0.050121482 0.053404406
0001b0 d8 ef 21 bd 7f 39 c4 3c 8d cc 48 3e 62 01 73 bc
       -0.039535373 0.023953198 0.1960928 -0.014831873
0001c0 cd 01 16 3d 25 ee 96 bc 4e 71 97 3d e7 11 c1 be
       0.03662281 -0.018424103 0.07394658 -0.3770897
0001d0 7e a3 5d 3e d7 a5 aa 3c a7 79 0d 3c 83 44 52 3d
       0.21644399 0.020831032 0.008634961 0.05133487
0001e0 8d be 85 be 95 4a ca 3a 12 11 88 3e 82 9f 8e 3e
       -0.2612194 0.0015433604 0.26575524 0.2785607
0001f0 4a fb 66 3d e4 14 ed bc 58 7e c3 3c e2 7c 2a bd
       0.05639199 -0.028940625 0.023863956 -0.041623004
000200 a1 d3 84 3d 59 66 b7 bd 3f f7 30 bd 1a 45 4c bd
       0.064856775 -0.08955068 -0.043204542 -0.049870588
000210 c9 04 34 3e ba 6e 3a be c1 f1 1f be 31 e5 48 bb
       0.1757995 -0.18206301 -0.15619566 -0.0030654187
000220 ef ba 04 bd 01 0d aa 3d d0 b6 65 3d 36 06 9c be
       -0.032404836 0.083032615 0.056082547 -0.3047349
000230 47 0f 0a bd d1 95 c1 3d cd 9b 40 be b9 94 5e bd
       -0.033705976 0.09452403 -0.18809433 -0.05434105
000240 d8 c7 f2 bd ce 40 4b bd f0 21 d0 be fb 8a a4 be
       -0.118545234 -0.04962235 -0.40650892 -0.32137284
000250 1c 99 39 3d cb 4a cb bc c7 cb 33 3d 8c e1 de bc
       0.045312032 -0.024815938 0.04389551 -0.027207159
000260 b4 6c 1a 3e 7c 78 ec 3c 52 56 64 3b b1 00 10 3e
       0.1508053 0.028866045 0.003484149 0.14062764
000270 36 f4 93 3c 00 34 6c be 04 d1 51 3e 57 16 09 3e
       0.018060785 -0.23066711 0.2048989 0.13387428
000280 6e a9 81 bd 68 72 cc 3d d2 c4 12 be 76 ed d5 3d
       -0.06331144 0.09982759 -0.14332893 0.10445683
000290 27 e6 cd 3e e1 8b 4f 3d 57 36 cc 3b e0 d7 e6 bd
       0.40214655 0.05067051 0.0062320638 -0.11271644
0002a0 eb d8 29 bd 69 87 6c bd bb 1f 6b be 32 fe 5e be
       -0.041466635 -0.057746325 -0.22961323 -0.21776655
0002b0 db 00 fe bc 95 e0 2f be 69 b8 63 bd 3b b1 69 3d
       -0.031006267 -0.17175515 -0.05559579 0.057053786
0002c0 2d 4c 64 bd ed 48 e4 3c f2 f6 ea 3b c9 3f 71 bc
       -0.05573671 0.027866805 0.0071705515 -0.01472468
0002d0 e5 57 68 be 37 2a 02 3e 32 2b 78 3c ec 40 77 be
       -0.22689779 0.12711416 0.015147017 -0.2414586
0002e0 00 88 20 be 1d 10 98 3c 7d 53 20 be c2 8c a8 3b
       -0.1567688 0.01856237 -0.15656848 0.0051437328
0002f0 68 42 26 bd c0 cc 88 bc e6 c3 0f 3d f8 52 11 3e
       -0.040590674 -0.016699195 0.035098933 0.14191806
000300 6a 1f 56 3d cc eb 33 be 3e 76 c1 bd 51 9b 8d 3a
       0.052276053 -0.17570418 -0.09446381 0.0010803734
000310 23 43 31 3c fe c2 9f 3c 40 6d be be 47 32 98 3c
       0.010819229 0.01950216 -0.37192726 0.018578662
000320 a8 9e 5f 3e 62 e3 15 be 28 55 15 3d ba 5f 11 3e
       0.21837866 -0.14637521 0.036458164 0.14196673
000330 b2 54 ef 3b c2 f5 38 3d 73 39 09 bf 85 70 c5 bd
       0.0073037976 0.045156248 -0.53603286 -0.09640602
000340 11 6b 99 bd 3a 76 5f bd 8d c8 21 be ff 48 bc bc
       -0.074911244 -0.05455611 -0.1579916 -0.022984026
000350 a2 85 9d 3e fd 9c 2b bd a2 4b a7 3d 2b bc 83 3c
       0.30766016 -0.041897763 0.08168723 0.016080936
000360 89 b6 f2 bd 8a d1 12 bf e1 e6 48 be 27 b9 17 be
       -0.11851222 -0.5735098 -0.19619323 -0.14816724
000370 b8 36 0a 3e 54 36 2b 3c d1 d9 e9 3b ad b3 d2 bd
       0.13497436 0.010449965 0.0071365614 -0.10288177
000380 dd 5f 49 bd 67 dc 5a 3d 49 06 08 3e 73 ad ac 3e
       -0.049163688 0.05343285 0.13283648 0.3372608
000390 55 0c a6 3c af 69 6b bd 99 b6 8e 3d 25 c2 d0 bd
       0.020269552 -0.057473835 0.069684215 -0.1019328
0003a0 2a 1e a7 3c 25 d5 39 3d f6 b0 90 3b d7 a3 b5 bd
       0.020400126 0.045369286 0.0044156266 -0.088691406
0003b0 a2 91 65 3d 6e 0d 58 3e 9d c4 12 bd 4d 8c 00 be
       0.05604709 0.21098873 -0.035832036 -0.1255352
0003c0 97 59 4e be 0d bb f0 3d 74 66 f2 bc 2f cd 04 3d
       -0.20151363 0.11754427 -0.02958987 0.03242224
0003d0 ca be 60 3d b3 6b 89 bc ca d9 57 bd 2b 11 37 bc
       0.05486945 -0.016774988 -0.052697934 -0.011173527
0003e0 56 01 fc 3b 59 60 ae 3e 25 95 37 3e b5 2b a8 39
       0.007690589 0.34057882 0.17927988 0.0003207602
0003f0 42 fb ee bb 7f 2b 78 bd 8c 3b db bd 53 f5 80 3d
       -0.007293136 -0.060588356 -0.10704717 0.06296792

_advantage.bias f4 [3]
000000 29 2a a3 3b ec 37 94 3b e0 67 9b 3b
       0.004979391 0.004523268 0.0047426075

_out.weight f4 [3, 256]
000000 3a 63 5e 3d 04 6a 29 3d 44 94 2d 3d 76 0c 48 3d
       0.05429385 0.04136087 0.042377725 0.04884001
000010 3c 8c 6f 3d 48 f8 ba 3c 7a e7 3f bd 64 94 5b 3d
       0.058483347 0.022823468 -0.046851613 0.053608313
000020 90 b8 87 3c 10 c0 12 3d b8 eb 20 3c d6 9f 58 bd
       0.016567498 0.035827696 0.009821825 -0.052886806
000030 60 e9 01 bd 90 18 c5 3b c0 d4 47 bc fe 0d 33 bd
       -0.031716704 0.006014891 -0.01219672 -0.043714516
000040 34 c4 04 bd 1a fd 3b 3d a2 3e 12 3d e0 83 73 3b
       -0.032413676 0.045895673 0.035704263 0.003715746
000050 20 c3 2d 3d 38 fd 60 bd be f8 24 3d 94 43 ee 3c
       0.042422414 -0.05492899 0.04027628 0.029084958
000060 da c8 20 bd a6 e1 57 3d 58 c1 03 3c 84 86 2d 3d
       -0.039254047 0.05270543 0.008041702 0.042364612
000070 fe 0f 63 bd 64 b7 f7 3c 68 c0 03 bc 9c 05 df 3c
       -0.055435173 0.030238815 -0.008041479 0.027224354
000080 70 45 e0 bc d8 fd 50 bd fe 68 2f 3d a8 9d 69 3c
       -0.02737686 -0.051023334 0.042824738 0.01425878
000090 80 ff 5f ba aa 54 6a bd 98 3d d4 bc 58 31 b3 bc
       -0.00085448474 -0.05720965 -0.025908276 -0.021874115
0000a0 f8 a8 67 bd 1e 5c 38 3d 48 c8 0f bc b4 d5 34 3d
       -0.056557626 0.045009725 -0.008775778 0.044149116
0000b0 a0 4b d9 bb c4 f8 94 3c 72 17 63 bd 28 06 72 3c
       -0.0066313297 0.018185027 -0.05544228 0.014771976
0000c0 cc 62 c8 3c d8 88 98 3c f0 d6 cf bb b0 a4 d9 bb
       0.024461173 0.01861994 -0.006342761 -0.0066419467
0000d0 94 7b 0d 3d 6a 47 2b 3d c0 78 a3 3b f8 c2 dc bc
       0.03454168 0.041816153 0.0049887598 -0.026948437
0000e0 50 49 d7 bc d8 c8 15 bc 20 eb 82 bb 36 32 36 bd
       -0.026280075 -0.009142123 -0.0039953142 -0.04448148
0000f0 70 e9 b8 3b 90 10 8e 3c 40 49 bf 3a 52 2b 2a bd
       0.0056430623 0.017341882 0.0014593974 -0.04154522
000100 be 8d 54 bd a8 e8 07 bc a8 38 62 bc 60 40 6b 3d
       -0.05189299 -0.008295216 -0.013807453 0.05743444
000110 9c c7 2e 3d b4 4f 4c bd 2a 9c 7b bd b0 e5 8c 3c
       0.04267083 -0.0498807 -0.061428227 0.017199367
000120 c0 97 9b 3c 84 66 9b bc 18 4a 9b bc 4a cf 16 3d
       0.018993258 -0.018969782 -0.01895623 0.03681878
000130 90 d0 29 bd 14 ae b5 3c 84 4f 16 bd 20 73 23 bb
       -0.041458666 0.022177733 -0.036696926 -0.0024940446
000140 d8 a7 46 bd 66 a4 2d bd 20 48 72 bb b8 5f 8d bc
       -0.048499912 -0.04239311 -0.003696926 -0.017257556
000150 f8 10 89 3c 02 e0 42 bd 08 ab 33 bc 80 f1 6d 3c
       0.016731724 -0.04757691 -0.01096607 0.01452291
000160 44 58 07 bd b0 d0 50 3c 88 fd 79 3c 60 08 7f bb
       -0.03304316 0.0127450675 0.0152582005 -0.0038914904
000170 d6 05 6d 3d e0 5b bf 3c 9c bd 76 3d 00 1f ad 3c
       0.057866894 0.02335924 0.06023942 0.021132946
000180 74 9f ff bc 1a 52 75 3d e0 c7 13 bb 58 37 07 3c
       -0.031203963 0.05989275 -0.0022549555 0.008252941
000190 f2 1a 6a 3d f8 94 87 bc 42 b5 22 3d e0 e8 b9 bc
       0.057154603 -0.016550526 0.039723642 -0.022694051
0001a0 60 b8 30 3d 46 a2 08 bd 98 1a 4b 3c 00 21 07 3b
       0.043144584 -0.03335788 0.012396477 0.0020619035
0001b0 d8 53 57 3c 14 b2 be 3c 66 f3 3b 3d d8 cb 13 3d
       0.0131425485 0.023278274 0.04588642 0.036083072
0001c0 b4 d5 e5 3c e4 70 9c bc 04 09 b7 bc f4 45 5a 3d
       0.028056003 -0.0190968 -0.022343166 0.05328937
0001d0 48 75 86 3c 64 e4 c6 bc a4 9b f4 3c 34 c4 d9 bc
       0.016413346 -0.024278827 0.029859371 -0.026582815
0001e0 0c 8e da bc b0 46 6b 3c 88 d6 72 3d da 45 7b bd
       -0.026679061 0.014360115 0.059286624 -0.061345913
0001f0 70 f5 ca 3b e8 fa fe bc 48 25 f6 bc 70 dd 89 3c
       0.006193809 -0.0311255 -0.030047074 0.016829222
000200 88 31 49 bd 40 9d eb 3a 00 62 d0 ba 00 ca bc ba
       -0.049119502 0.0017975941 -0.0015898347 -0.0014403462
000210 20 98 be bb d2 d1 19 3d fc f2 2f 3d 40 ad 7a 3c
       -0.0058164746 0.037553616 0.042956337 0.015300095
000220 ac 3c cd 3c 30 41 ad 3b b8 9b 2c bd a2 53 7a bd
       0.025053345 0.005287312 -0.042140692 -0.061114915
000230 7c 50 b5 bc b4 f8 16 bd ac 89 51 bd a8 4f b9 bc
       -0.022133105 -0.036858276 -0.051156685 -0.02262099
000240 10 0b ed bc 70 7d c6 3c d0 bc 36 3d 74 3e fc 3c
       -0.02893594 0.024229735 0.04461366 0.030791499
000250 40 90 93 3b 78 dc b7 bc 20 d4 5d 3d 86 3d 49 3d
       0.00450328 -0.022443995 0.054157376 0.04913094
000260 88 43 81 3c 70 9f dd 3c 44 24 1d bd 80 fb 26 3b
       0.015779272 0.027053565 -0.038364664 0.0025479496
000270 e8 bb fb bc 2e 1d 48 bd c0 bf 87 3a 18 dd 01 3c
       -0.03072925 -0.048855953 0.0010356829 0.007926248
000280 4e 74 6f 3d 90 9d 2b 3d b6 2f 69 bd f8 a9 da bc
       0.058460526 0.04189831 -0.056930266 -0.026692376
000290 c8 7b 4d 3c 86 2a 54 3d e2 8f 1f 3d 0e 08 56 bd
       0.012541719 0.051798366 0.038955577 -0.052253775
0002a0 50 d4 81 3b e0 41 e9 bb a0 3f f8 3c b8 05 a8 3c
       0.003962077 -0.0071184486 0.030303776 0.02051054
0002b0 1e 07 6c 3d 3c c5 e0 3c c0 e8 1a 3d f4 77 b8 3c
       0.057623975 0.027437799 0.037819624 0.022518136
0002c0 10 95 31 3c c8 cf 36 bd b0 ae c0 3b b0 95 5d bc
       0.010838762 -0.04463175 0.0058801994 -0.013524458
0002d0 a0 df 69 bb 10 dc 3d 3d e0 aa 5f 3b d8 69 07 3d
       -0.003568627 0.046352446 0.003412895 0.033059925
0002e0 a6 9f 0d bd f8 af 44 3d 70 03 0b bd e0 42 47 bb
       -0.03457608 0.04801938 -0.033938825 -0.003040485
0002f0 20 09 65 bd 38 c9 33 bc 00 81 53 3b 22 98 07 3d
       -0.055916905 -0.010973267 0.0032272935 0.03310407
000300 68 a0 17 bd cc 9a 00 bd 14 ad 97 bc 00 5c 3c ba
       -0.03701821 -0.031397626 -0.018515147 -0.000718534
000310 04 cc 4b bd 9e 3e 0e bd 80 18 bb 3b f4 d5 ca bc
       -0.04975511 -0.034727685 0.0057097077 -0.024760224
000320 ce df 52 bd 14 f7 69 bd 68 8a 4e bc 20 c8 5e 3c
       -0.051482968 -0.057120398 -0.012606241 0.013597518
000330 54 2e 5c 3d a0 a9 31 bc b8 7a f3 bc f0 47 2d 3c
       0.05375512 -0.010843664 -0.029721603 0.010576233
000340 72 83 49 3d f4 ee bd bc 48 fb bb 3c d0 7a 5e bc
       0.04919762 -0.02318523 0.022946969 -0.0135790855
000350 30 27 5f bc f4 3f 4e bd 68 90 6c 3c 36 50 74 3d
       -0.013620183 -0.05035396 0.014438726 0.059646808
000360 b0 d1 59 3c 62 bf 13 3d 14 55 9e bc 60 d1 72 bb
       0.013294622 0.03607119 -0.019327678 -0.0037051067
000370 cc 6f 11 3d 86 d5 63 3d 34 83 71 3d 76 85 11 bd
       0.03550701 0.055623554 0.058963016 -0.03552767
000380 b0 3b f9 bb 10 f3 d7 bb b2 61 26 3d 96 0d 26 3d
       -0.0076059923 -0.0065902546 0.040620513 0.0405403
000390 60 61 4c 3d 30 12 c6 3b 50 4b 1f bc 70 0b 3a 3c
       0.04989755 0.0060446486 -0.009722546 0.011355266
0003a0 c8 95 3b 3c aa 1b 67 bd 80 97 11 bb 88 00 b2 bc
       0.011449285 -0.056422867 -0.0022215545 -0.021728769
0003b0 20 96 62 bb d4 9b aa bc 90 13 eb 3c a6 4e 28 3d
       -0.0034574345 -0.020826258 0.028695852 0.04109063
0003c0 f2 11 63 3d 5c 5e 32 bd be 68 34 3d 0e 30 73 bd
       0.055437036 -0.04354702 0.044045202 -0.059372
0003d0 08 8c cf bc f8 a0 6c bd 94 55 ee bc 14 d1 58 3d
       -0.025335327 -0.0577707 -0.029093541 0.052933767
0003e0 e8 10 a5 3c 06 55 1e 3d b2 44 57 bd c0 24 57 bb
       0.020149663 0.038655303 -0.052555747 -0.0032828301
0003f0 60 44 eb 3c 3c 3b 52 3d 28 32 2a bc 54 fb 11 bd
       0.028719127 0.05132602 -0.010387935 -0.035640076

_out.bias f4 [3]
000000 e2 11 33 3d f8 0a 7c bd 50 f9 75 3c
       0.043718226 -0.061533898 0.015013054
