rl/models/v.s. Bot/pong_dueling_ddqn.pth (torch, 286940 bytes, 9 tensors)

_fc1.weight f4 [256, 12]
000000 c8 f0 98 3c c7 56 09 be ed 07 aa 3e 15 f6 a9 3b
       0.018669501 -0.13412009 0.33209172 0.005186806
000010 84 b0 b2 bd 90 d3 3a 3e b8 97 04 3f 9e 3c 7a 3e
       -0.08725074 0.18244767 0.51794004 0.24437186
000020 3f 5c 02 3e 07 a2 f9 be 2b 02 90 3e af 92 48 bf
       0.12730502 -0.4875643 0.28126654 -0.7834882
000030 2a 7d 61 3e 10 07 79 3e 19 35 93 be df 1d 3b 3b
       0.22020403 0.243191 -0.28751448 0.002855174
000040 90 98 11 3e b7 ed b9 3d 3f e4 fa ba 4b d2 46 3e
       0.14218354 0.09078544 -0.0019141509 0.19416158
000050 4c f5 26 3e 4a 00 bf bd c0 1b 25 3e 05 9a 45 3e
       0.16304511 -0.09326227 0.16123867 0.19297035
000060 73 24 b0 3c 15 02 3e 3e f2 2b 0a 3c 8f 74 45 3d
       0.021501755 0.18555482 0.008433329 0.048206862
000070 58 e0 a0 bd 7a 73 32 be 16 1f b2 3e b5 4f 40 bc
       -0.0785529 -0.17426863 0.34789342 -0.011737754
000080 75 a2 90 3d ca 1a c1 bb ec d8 b5 3e 03 97 45 3e
       0.07062236 -0.005893086 0.3551706 0.19295888
000090 42 7b 0b 3c 89 6e bb 3e bc 1a 1d be 73 6c 0f 3e
       0.008513274 0.3660777 -0.1534223 0.14006214
0000a0 eb 07 11 3e 20 a5 a4 3d c5 05 f3 bc 7a c7 95 3d
       0.14163177 0.080393076 -0.029665837 0.07313438
0000b0 85 98 19 bd ff 00 bb be b5 4b e5 3a f4 d1 f1 be
       -0.03749897 -0.36524197 0.0017493876 -0.47230494
0000c0 4d ba 90 3e d1 3e 0b bf dc 93 5a be 14 df 41 3a
       0.28267136 -0.54392725 -0.21345466 0.0007395607
0000d0 e6 af 09 3e 38 7f 1f 3e 46 96 28 bf 7d 0c f7 bd
       0.13446006 0.15575874 -0.658543 -0.12062929
0000e0 9a 60 04 be d5 80 df 3e 8d f3 dd bc e4 6e 01 3e
       -0.12927476 0.4365298 -0.027093673 0.12639958
0000f0 14 a2 16 be bf 9f ee be 6d 6e 7e 3d 01 0e 0e 3c
       -0.14710265 -0.46606252 0.06211703 0.008670331
000100 6c dd 47 be 5e 9a 2f 3e 1a c3 23 bf bd 61 2c bd
       -0.1951806 0.1714873 -0.63969576 -0.042085398
000110 f2 de 86 be df 66 cd 3e 96 5f 96 be c8 32 23 be
       -0.2634197 0.40117547 -0.293698 -0.1593734
000120 b1 db 05 bd 83 61 f9 bb f7 48 d9 bd 38 4c 5d b9
       -0.032680217 -0.0076105013 -0.1060962 -0.00021104596
000130 bf b7 5b 3b cd bc f4 be 8c 30 61 bc 79 50 8c bc
       0.003352627 -0.47800294 -0.013744485 -0.017128216
000140 60 8b c6 3d 18 9f 16 3f 62 1c 8f bc 86 01 83 3d
       0.096945524 0.5883651 -0.017469589 0.06396775
000150 d8 6c 85 bd 42 27 1c bd e4 bc f5 3d be d2 0a bb
       -0.06514901 -0.038123377 0.11998919 -0.002118274
000160 bf e2 a4 bb f4 03 23 3f 54 48 35 bf b5 18 9a 3d
       -0.005031913 0.63677907 -0.7081349 0.07524244
000170 95 61 76 3c 89 00 02 bf d9 05 12 3e 22 51 da be
       0.015037914 -0.50782067 0.14260043 -0.42640024
000180 07 6f d0 3e 14 1e 31 3d 28 ba 87 3d 7c d5 e1 b8
       0.40709707 0.043241575 0.06627303 -0.000107686006
000190 30 36 b0 3d 40 cc 61 be 1d 70 bd 3d 41 bd 82 be
       0.086040854 -0.22050571 0.092498995 -0.25535014
0001a0 f5 d8 c2 be 82 f2 e0 be 09 42 4c bc b6 fa fb be
       -0.3805615 -0.4393502 -0.012466916 -0.49214715
0001b0 01 b9 16 be d4 3d 5a 3d b7 82 13 3e 0b 86 40 3c
       -0.14719011 0.05328162 0.14405333 0.011750708
0001c0 f4 c6 e4 bc 20 7d b9 3d 1e 13 1e bd 0a d6 be 3b
       -0.0279269 0.09057069 -0.03859245 0.0058238553
0001d0 ad 6c 61 be 54 0d 5b 3d d5 04 7c 3e 47 2b 88 3d
       -0.22014113 0.053479508 0.24611218 0.066488795
0001e0 9b c1 42 3c 74 de ee 3e ad b3 60 3d 0b c9 03 bc
       0.011886979 0.46654093 0.054858852 -0.008043538
0001f0 5f 41 46 be 11 fb af bc 7b 8e a2 be fd 30 a0 bc
       -0.19360875 -0.021482022 -0.3174933 -0.01955461
000200 85 c6 0b bf 46 cd ef be 75 53 62 bd e8 32 73 bc
       -0.5459979 -0.468363 -0.055255372 -0.01484368
000210 47 7d 15 be 82 52 a4 3e 59 83 c9 3d 1e 23 8f 3c
       -0.14598571 0.32094198 0.09839506 0.0174728
000220 45 a9 8b be eb 29 20 3e 0d 88 05 3f 2e bd 45 3e
       -0.2727758 0.1564099 0.5216072 0.19310448
000230 9d 2d c9 bd 95 51 f5 be e9 43 82 bd 2c 61 ad be
       -0.09823153 -0.47913805 -0.06360609 -0.338632
000240 77 ea cc bd 47 24 56 3e ff a4 ca be 80 c8 71 bc
       -0.10005658 0.20912276 -0.39579007 -0.014757276
000250 b2 9b 6e 3c b7 b4 2e bf 23 a0 0e 3f c3 97 03 bb
       0.014563488 -0.682445 0.557131 -0.002007947
000260 c5 fd 58 bd 62 5b d7 3e eb c7 b0 3d c8 e3 9c bd
       -0.05297639 0.42061907 0.08631881 -0.07660633
000270 85 ee c7 bd ff f1 0d 3f 68 a9 0e 3e a8 ae 88 3c
       -0.09762291 0.5544738 0.13931811 0.016684845
000280 ac 04 86 be 0d 9f 53 3e dd a8 29 bf a7 7d ae 3b
       -0.2617544 0.20666142 -0.6627329 0.0053250375
000290 40 51 14 be 87 9b 00 bf 19 df 3f be 13 ad d2 3d
       -0.1448412 -0.50237316 -0.18737449 0.102869175
0002a0 b7 af 56 3d 94 dd 5f 3e 26 d5 fd 3e c8 c7 1e bc
       0.05241367 0.21861869 0.49576682 -0.009691186
0002b0 79 ea c8 3d 76 04 89 bd 6a b5 a8 3e d3 52 6a 3d
       0.09810347 -0.06690304 0.32950908 0.057207894
0002c0 0a bf 2f 3e 61 ca a8 3e 67 2a 5e 3e 89 85 a5 3e
       0.1716272 0.32966903 0.21695863 0.32328442
0002d0 82 35 6b 3e e0 45 59 3e e1 6e 99 bd 8f 1c 00 3b
       0.2296963 0.21218061 -0.074918516 0.0019548272
0002e0 b1 52 18 3e 3d a1 1c 3d 63 8f 4e be e5 72 17 bd
       0.14875294 0.038239706 -0.20171885 -0.036974806
0002f0 89 38 c7 be 3f a3 12 bf f5 39 db bd ab 13 e4 be
       -0.3891032 -0.57280344 -0.10704414 -0.44546255
000300 f1 ce c7 3b c7 a6 9e 3d 82 01 af be c5 f1 61 3b
       0.0060976674 0.07746654 -0.34180838 0.0034476381
000310 ac 12 51 be e6 a4 8e bd 40 1d 00 3f 02 2e f6 39
       -0.20417279 -0.06965046 0.5004463 0.00046955055
000320 23 c3 f2 3d 48 35 a2 be ed f1 1d 3e 2f 01 63 be
       0.118536256 -0.31681275 0.15424319 -0.2216842
000330 df 48 c0 bc 03 0c a1 bd 92 63 e0 3e 41 1d 3c bb
       -0.023472248 -0.07863619 0.43825966 -0.002870396
000340 41 fa 8b bd 66 dc a1 be 8e e9 07 be 40 ec 89 3d
       -0.068348415 -0.31613463 -0.13272688 0.06734514
000350 12 cd 18 3e 89 5f b5 3d c7 b5 37 3e 99 a1 ef be
       0.14921978 0.088561125 0.17940436 -0.46802977
000360 9b b1 20 3e bf 49 13 3e 16 06 41 3e 23 98 2a 3d
       0.15692751 0.143836 0.18849978 0.041648995
000370 cd df 79 b7 bf 3a bc 3e b4 27 63 be 56 35 11 bc
       -1.4893664e-05 0.3676357 -0.22183114 -0.008862814
000380 fe 3a 87 be e4 ba 49 be bb 1c d7 bd 24 ff b6 3e
       -0.26412195 -0.197002 -0.10503527 0.35741532
000390 12 f8 45 bc fe b3 18 3e f0 fd 83 bb d7 6c 05 bb
       -0.01208307 0.14912412 -0.0040280744 -0.0020359063
0003a0 34 54 d1 bd 13 da 8e 3e ac e2 98 3e 4e a6 24 bd
       -0.102211386 0.27900752 0.29860437 -0.040197663
0003b0 d1 db b3 bd 52 f7 07 bf 38 37 55 3e ba ae c0 3e
       -0.08782161 -0.53111756 0.20821846 0.37633306
0003c0 91 3e 11 be 13 50 88 3e 2b 91 0a 3e eb b8 32 3b
       -0.14184023 0.26623592 0.1353194 0.0027270864
0003d0 bc e4 9a bd c2 7a 46 3e 8b 5d ed 3e 53 b9 af bc
       -0.07563159 0.19382766 0.4636043 -0.021450674
0003e0 c8 12 74 3e f4 82 5c 3d 3c 1b 8c 3e cb fd 6a 3f
       0.2383529 0.053835824 0.27364528 0.9179351
0003f0 f6 96 da 3a 2c 8b 08 3f 6a aa 58 be 45 fc 07 bc
       0.001667707 0.5333736 -0.21158758 -0.008299892

_fc1.bias f4 [256]
000000 a7 33 89 bc f2 20 7f bd ca 88 38 be db e1 9d bd
       -0.016748263 -0.06228728 -0.18020931 -0.07709094
000010 49 3d c4 3b 48 b0 85 be d4 12 9f 3d 59 84 14 be
       0.005988751 -0.26111054 0.07767263 -0.14503612
000020 93 76 a0 be c8 70 40 3e f3 7f 8a be 49 32 8c bc
       -0.31340465 0.18793023 -0.27050743 -0.017113822
000030 21 45 1d be f5 64 d4 3d 5e a1 28 be 39 8b aa be
       -0.15358402 0.103708185 -0.16467807 -0.33309343
000040 ae ae ed bc 2b cd ba bd 21 af d3 be 7b 05 1d be
       -0.029013958 -0.09121164 -0.4134455 -0.15334122
000050 b2 10 2c be dd ae 4c be 31 26 45 be 21 cc 6b 3e
       -0.16803244 -0.1998858 -0.1925285 0.23027088
000060 5e 4d 9f be f0 cb 40 be 54 fe c2 bd 1f b5 2c be
       -0.31113714 -0.18827796 -0.095211655 -0.16865967
000070 24 43 89 bd 82 ec 21 3e 24 70 5a be 06 09 e2 bd
       -0.06702259 0.15812877 -0.21331841 -0.11036877
000080 34 a8 58 be 23 66 76 be 3d e0 2f be f1 68 d7 bc
       -0.21157914 -0.240624 -0.17175384 -0.026295157
000090 bb 39 b1 bc c9 aa f9 bc 27 fd 5c be e7 e6 a1 bd
       -0.021633973 -0.030476945 -0.21580945 -0.07905369
0000a0 3f 7b 70 be 27 0b a9 3d 02 8a 56 3d e2 3b 46 be
       -0.23484515 0.0825408 0.05237771 -0.19358781
0000b0 5b b7 61 3e f6 d8 ae 3d 04 8b 68 be 7f 85 89 bc
       0.22042601 0.08537476 -0.2270928 -0.016787289
0000c0 9e 76 76 3e c2 e9 8c 3e 0c 38 10 be 69 6a 5e be
       0.24068686 0.27522093 -0.1408388 -0.2172028
0000d0 29 aa ca bd 09 c3 6b 3c c1 01 a7 3c 1c 5a b6 bd
       -0.09895737 0.014389762 0.020386579 -0.08903906
0000e0 8c c1 cf be 82 15 55 be f8 78 9a be 0f 4f b9 be
       -0.40577352 -0.20808986 -0.30170417 -0.3619313
0000f0 de fd 3c bd 11 4a 69 bd 63 80 bc 3c 54 b6 8b 3e
       -0.046140544 -0.0569554 0.023010438 0.27287543
000100 50 94 2d be 0a 53 28 be 4e b7 79 be 54 ce 38 3e
       -0.16951108 -0.16437927 -0.24386331 0.18047458
000110 86 c6 65 be d1 a0 6a bd f4 f0 38 3e 74 c8 cb 3c
       -0.22439012 -0.057282273 0.18060666 0.024875857
000120 80 ae 53 3e c0 0c 04 be 49 ab 30 bd dc 55 60 bc
       0.20672035 -0.12895489 -0.0431321 -0.0136923455
000130 6e 13 af 3d 86 03 08 be 2e 4a 5a be 38 a9 7f 3d
       0.08548628 -0.13282594 -0.2131736 0.06241724
000140 d6 93 b6 bd f2 1c b3 be 90 ff 69 3d b9 8f a6 3d
       -0.08914916 -0.3498302 0.05712849 0.08132882
000150 01 50 fd bc 5e 45 09 3e be 35 4c 3e a7 04 47 bc
       -0.030921938 0.13405368 0.19942376 -0.012147105
000160 1d 8f a1 3d b8 ec 75 be 16 3a 0a bd 9c b7 86 be
       0.07888625 -0.24016082 -0.0337468 -0.26311958
000170 74 8a 28 be a5 67 43 be fd 48 23 39 d8 d0 18 3d
       -0.16459066 -0.19082506 0.00015572082 0.037308544
000180 9c ef 83 be 4f 18 13 be c5 9c 0e 3e d8 c2 fe 3d
       -0.25768745 -0.14364742 0.1392699 0.12439507
000190 6a 16 b0 bd 21 88 36 3d 49 24 07 be 70 e3 f0 bd
       -0.08598025 0.044563416 -0.13197435 -0.1176213
0001a0 16 0a 95 bd a6 57 0b be 3a 33 f0 3d 46 6d 4d 3c
       -0.07277314 -0.13607654 0.11728521 0.01253826
0001b0 04 7c 01 3e 0c 06 bb bc 34 e8 9e bd 1a 3a c9 ba
       0.12644964 -0.022830032 -0.07759133 -0.0015352399
0001c0 16 a3 71 be 23 19 c6 bd 5c 55 02 be 3b e9 3d 3d
       -0.23597369 -0.09672763 -0.12727875 0.046365004
0001d0 cf 5e b2 3c c8 62 2c 3e 9f 94 b4 bd cc 58 51 be
       0.021773724 0.16834557 -0.0881741 -0.2044403
0001e0 ed 75 fe bb f2 35 47 be f3 2f 32 bd 5c 49 3c 3e
       -0.0077655227 -0.19454172 -0.04350276 0.1838736
0001f0 af d8 3e be 29 75 86 be cb 49 db bd e1 12 61 be
       -0.18637346 -0.2626126 -0.10707434 -0.21979858
000200 2d 18 1b be e4 59 8b bc 33 6e a2 be ca 08 76 bc
       -0.15145941 -0.017010637 -0.317247 -0.015016744
000210 0d 73 84 be 2e 5c 94 3d a9 8b 5e be f7 62 24 3d
       -0.25869027 0.072441444 -0.21732964 0.040133443
000220 91 2d 2f be 22 de 44 3e f1 33 87 be fa fa 88 be
       -0.17107226 0.19225362 -0.26406816 -0.2675398
000230 99 f0 30 be 02 de 13 3e b7 aa 37 3e 17 b6 82 3d
       -0.1727928 0.14440158 0.17936216 0.06382387
000240 00 d5 2c 3c 7f d6 82 bd 56 37 37 be 77 67 70 be
       0.01054883 -0.06388568 -0.17892203 -0.23476969
000250 78 19 8d be 20 1d 82 bd 42 5a 84 be c2 aa a3 bd
       -0.27558494 -0.063532114 -0.2585011 -0.07991554
000260 48 c5 65 be f5 e3 17 be 8c b7 5a be 73 b2 69 be
       -0.22438538 -0.14833052 -0.2135908 -0.22821979
000270 47 3b 23 3d 6e b6 93 3d 98 00 8a 3d ab 87 33 bb
       0.039851453 0.0721253 0.067383945 -0.0027394097
000280 c7 91 c2 bd e8 ed ac be 6c e9 8b be 89 d7 24 be
       -0.09500461 -0.33775258 -0.27326524 -0.16097845
000290 35 d5 76 bd a8 1d 70 be 42 56 96 bd fc 40 94 be
       -0.060261924 -0.23448813 -0.07340671 -0.2895583
0002a0 6c 9c 61 be 25 54 39 be a3 df 54 3d 03 91 22 be
       -0.22032326 -0.18098505 0.05197109 -0.1587563
0002b0 f8 7c 75 be 55 4d 82 bd 16 1f ad bd 00 47 8a be
       -0.23973453 -0.06362406 -0.08453195 -0.27007294
0002c0 ba 12 15 be d0 33 84 bd 2a f3 b7 3d 37 be 57 be
       -0.14557925 -0.06455195 0.08981927 -0.21068655
0002d0 05 15 a1 3c 90 ac 83 be 05 59 85 3d 2e 86 ae 3c
       0.019663343 -0.25717592 0.0651112 0.021304216
0002e0 f0 0d 3d be af 09 b0 3c 66 96 2f 3c 90 d2 9c bd
       -0.18462348 0.021488992 0.01071701 -0.07657349
0002f0 09 49 1f bd 12 11 a0 be bc 74 7b be 4a c8 32 be
       -0.03888801 -0.31263024 -0.2455625 -0.17459217
000300 a4 9b f9 3d df 16 87 bd b5 6e 44 bd 86 d4 60 bd
       0.12187889 -0.06596159 -0.04795714 -0.05489018
000310 54 82 81 3d 5a 41 0d 3d a1 e9 ad be 82 9b 9d be
       0.06323686 0.034486152 -0.33967307 -0.30782706
000320 fb 5a 2f 3d f3 05 ab 3c b7 a4 93 bd cf c2 19 be
       0.042811375 0.02087686 -0.07209151 -0.1501572
000330 b7 e4 4f bd 0e c5 3a 3e b1 ca 0b be ae c8 c4 bd
       -0.05075523 0.18239233 -0.1365154 -0.09608589
000340 02 d1 0d bd e7 a7 7b be 9e 01 c8 bd 9d ea d3 bd
       -0.034623154 -0.24575768 -0.097659335 -0.10347483
000350 c1 85 b8 3d eb 93 79 3c 8f 1c 06 3d 1b 82 04 be
       0.090098865 0.01523302 0.03274208 -0.12940256
000360 fb ba 73 be e6 6e 9a 3d 7e b9 20 be 97 bc 5f 3e
       -0.23801796 0.075406834 -0.1569576 0.21849285
000370 0b 27 e2 3d 53 d0 77 be ba 42 c0 bd 9a aa 67 be
       0.11042603 -0.24200563 -0.09387727 -0.22623673
000380 fb 36 5c 3d c1 59 c5 bd 16 cc 15 3d e9 e2 4f 3d
       0.05376337 -0.0963626 0.036571585 0.050753508
000390 01 1e 44 be db b4 22 3d a0 16 51 be ee 74 74 bd
       -0.1915207 0.03972326 -0.20418787 -0.059681825
0003a0 ad ee 25 bd d7 7b 20 bb e0 4d bf 3d d6 21 6f be
       -0.040510822 -0.0024487877 0.09341025 -0.23352751
0003b0 33 77 07 be 07 ef e5 3d 7a d3 72 be 2f 07 5f bd
       -0.13229065 0.112272315 -0.23713484 -0.05445021
0003c0 9a 50 b0 be 5a 46 b0 bd e1 f1 21 be a6 ca 0a 3e
       -0.34436494 -0.086071685 -0.15814926 0.13553867
0003d0 b6 a3 c2 be c0 a5 99 be 6b 84 51 bd 0e 6d 09 be
       -0.38015527 -0.3000927 -0.051151674 -0.13420507
0003e0 7b c3 6d 3e 89 1b 07 be d4 44 e9 ba fb 64 50 be
       0.23219101 -0.13194098 -0.0017797002 -0.20351021
0003f0 6f f0 19 3e d9 be 12 3e 8a 0a 02 be c4 ee 9e 3d
       0.15033124 0.14330615 -0.12699333 0.07760385

_fc2.weight f4 [256, 256]
000000 1c 8a 02 3d b7 59 78 bd 1f 40 52 bd 25 a5 8b bd
       0.031869993 -0.060632434 -0.051330682 -0.06818608
000010 9f 98 30 bd 59 d0 b1 bc 4d 3c c4 bb 88 9d 72 bc
       -0.0431143 -0.021705793 -0.0059886337 -0.014808066
000020 97 ca 00 bd 21 45 7b bc 33 dc d1 bc 5b 3a 3c 3d
       -0.031443205 -0.015336306 -0.025617694 0.04595409
000030 68 99 d7 bc 56 40 c3 bc e5 a8 81 bd fc ee e6 3b
       -0.026318267 -0.023834389 -0.06331042 0.007047532
000040 c4 cc 1d 3d dc 88 db 3b 4b 6d df bc 95 90 8f bc
       0.038525358 0.0066996645 -0.027273795 -0.017524997
000050 cb 75 5f 3d 2b b3 cc 3c c0 df 70 3d e6 30 56 3d
       0.054555696 0.024987778 0.058807135 0.052292727
000060 65 f3 42 bd af 15 ea 3c 1c f5 1e 3d ac dd bd bc
       -0.0475954 0.028574793 0.038807973 -0.02317699
000070 28 3e 3f bd 8a 78 6c bd 15 5a 81 bd 6f 9f 1e bd
       -0.046690136 -0.057732143 -0.0631601 -0.038726266
000080 7f 15 79 bd 09 0f 4c bc e7 c7 44 bc 50 c8 8a bd
       -0.060811516 -0.012454757 -0.012010551 -0.06776488
000090 42 26 77 bc 5d 2b 22 bd b6 ba b8 bc eb 0b 3b bd
       -0.015084805 -0.039592136 -0.022549968 -0.045665663
0000a0 c1 f5 81 3c f7 78 cc bc 22 0d 30 3b b8 f7 85 3d
       0.015864255 -0.024960024 0.0026863297 0.06541389
0000b0 5a d2 3c 3d c1 18 ad bc 32 7c ec bc 12 d3 92 3c
       0.046099044 -0.021129968 -0.028867815 0.017922912
0000c0 70 44 76 bd 65 40 87 bc 5c 07 06 3d bb b6 2b 3d
       -0.06012386 -0.016510198 0.032721862 0.041922312
0000d0 c7 52 45 bd 14 11 47 bc 82 ab f7 3c 48 3f 78 bd
       -0.048174646 -0.012150068 0.030233148 -0.060607225
0000e0 a4 2a 21 bd 5f 58 cd 3c ac a0 c0 3c 15 e6 9d bd
       -0.039347306 0.025066553 0.023514114 -0.077099
0000f0 42 57 cb bc 9f f1 46 bd 99 ce 3f 3d ba 3e 22 bd
       -0.024821881 -0.04857027 0.046827886 -0.039610602
000100 7f 7a 31 3c c3 9d 93 bd 85 fd 02 bd 66 40 61 bd
       0.010832428 -0.07207825 -0.031980056 -0.054993056
000110 35 89 14 3c 92 86 4a bd 6e 6c 4a bd fa 1c 64 3c
       0.009065916 -0.049444743 -0.049419813 0.013922924
000120 8b d0 ac 3d 46 d6 9b bc 9e d0 60 bd 49 06 39 3d
       0.08438214 -0.019023072 -0.054886453 0.04517201
000130 93 ce 77 bd cb 74 31 3c ad fb 4f bd 09 19 dc 3c
       -0.06049974 0.010831068 -0.050777126 0.026867406
000140 c0 b6 79 bd 63 12 43 bb 02 63 25 3c 0f 21 9d bd
       -0.0609653 -0.0029765598 0.010094406 -0.07672321
000150 64 23 30 3d b2 d7 05 3d 6f ad f1 3c f2 44 7c 3b
       0.0430025 0.032676406 0.029501645 0.0038493243
000160 68 58 1b bc 1e 72 a7 bc a3 8b 64 bd 31 e6 78 3b
       -0.009481527 -0.020440158 -0.05579723 0.0037979002
000170 4e 56 21 bd 19 c6 00 3d 4a e7 34 bd e6 40 91 bd
       -0.039388947 0.03143892 -0.044165887 -0.070924565
000180 a6 4e d3 3c 71 b1 2d bd 35 bc 9b 3d fa 22 88 3c
       0.025794338 -0.04240555 0.07604257 0.01661824
000190 ba 7b 46 bd 41 d1 94 bd 90 22 e9 bb 4f 15 6a bd
       -0.04845784 -0.072664745 -0.007114716 -0.057149228
0001a0 7b c5 8d bd 1b e5 8f bc a2 ce 40 3d ab 25 2c bd
       -0.06922432 -0.0175653 0.04707206 -0.04202811
0001b0 7c 27 09 3b 98 39 6d 3d f2 2b 63 bd 7d 70 a2 3c
       0.0020928076 0.057916254 -0.05546183 0.01982903
0001c0 2a 8f b6 bc ac 83 16 3d 28 cd 5d bc 5c b4 34 bd
       -0.022285063 0.036746666 -0.013537683 -0.044117317
0001d0 4d 56 93 3c fc 24 f2 bb 9d d8 59 bc 07 07 01 bd
       0.017985487 -0.007389663 -0.013296274 -0.031500842
0001e0 d7 fc 3f bd a7 e7 b7 3c 58 dc 19 bc 02 36 1a bd
       -0.046871986 0.022449328 -0.009390913 -0.037649162
0001f0 5b 1a 03 3b 3f d0 84 3c 39 1b d3 3b 22 a2 33 3d
       0.0020004723 0.01621258 0.006442454 0.043855794
000200 6c 61 b3 3a 67 60 21 bc b1 a8 2a bd 01 9d 87 bc
       0.001368565 -0.009849644 -0.041664783 -0.016554357
000210 5b b1 09 bd 11 28 27 bd 1d 20 d5 3c f0 08 78 3c
       -0.033616405 -0.040809695 0.02601629 0.01513885
000220 25 0b b9 bc 31 7f c7 3b 47 b3 7e bd 23 a5 1e 3c
       -0.022588322 0.0060881604 -0.06218269 0.009682926
000230 51 99 c0 3c c3 76 6c bd f5 7b 8b bc 31 ad 25 bc
       0.023510607 -0.057730448 -0.01702688 -0.010112093
000240 69 2c ef bc 12 8d 35 bd 98 63 5f bd 88 cc 10 bd
       -0.029195981 -0.04432399 -0.05453834 -0.035351306
000250 9a 7a ae bc f9 c4 73 3d 58 d4 64 bd 6b 66 0c bd
       -0.021298695 0.05951402 -0.05586657 -0.03427736
000260 85 56 2a 3c dc 1d 25 3c 0c c5 21 3d 1d 8a 64 bd
       0.010396604 0.01007792 0.03949456 -0.055795778
000270 e0 38 19 3d 68 aa 6e bd e9 cb f1 3c 79 ec 37 3b
       0.037407756 -0.05826798 0.029516177 0.0028064533
000280 3d 5f c9 bc c0 f2 89 3b 0a d6 d7 3c 64 76 80 bd
       -0.024581546 0.0042098463 0.026347179 -0.06272581
000290 7c 52 c6 bc 2a 6e a8 3c 16 01 e4 bc 29 e9 82 3d
       -0.024209253 0.020560343 -0.027832549 0.06392128
0002a0 7a 17 60 bc bb 03 bb bc e2 7c 98 bd ef 44 24 bd
       -0.013677472 -0.022828927 -0.074456945 -0.040104803
0002b0 08 95 d3 3c 0a e0 73 bb f0 1e cc bc 27 c8 4c 3c
       0.0258279 -0.0037212395 -0.024917096 0.012498892
0002c0 a9 66 e4 bc 05 73 5e 3d 11 aa 29 bd 13 52 e4 3c
       -0.027880983 0.05430891 -0.041421954 0.027871167
0002d0 19 6b 62 bd a5 2b 18 bd 49 e0 a8 3c 74 4c 7d bd
       -0.055277918 -0.037150998 0.02061476 -0.06184049
0002e0 ff 3b a0 bd cf f8 b3 bd fb 09 da 3b be 2a 93 bd
       -0.07823943 -0.08787691 0.006654022 -0.07185887
0002f0 ed 1c 44 bd 43 c9 a2 3c 30 1d f4 bb cd 1a f6 bb
       -0.04787915 0.01987136 -0.0074497685 -0.007510519
000300 04 cc b7 bc 31 37 82 bd 1d 69 2a 3c bc 0b 42 bd
       -0.02243615 -0.06358183 0.0104010375 -0.047374472
000310 32 3c f3 bc 05 4f bc 3b 48 af 41 bd 98 0b a4 3c
       -0.02969179 0.0057467245 -0.0472863 0.02002506
000320 08 9a af bc 09 c9 49 bd 98 e9 9c 3c 80 71 40 3c
       -0.021435753 -0.049263988 0.019154355 0.0117458105
000330 ea 7b 81 bd 66 c0 f9 3c 64 b8 c4 bc 7b 2e be 3c
       -0.06322463 0.03048725 -0.024013706 0.023215523
000340 c3 58 44 bd eb e2 96 bc a5 1c 0c 3d e1 24 9f bd
       -0.047936212 -0.01841875 0.034207005 -0.07770706
000350 1e ae af bc b9 10 3a 3d 86 00 13 3d 09 be 53 3d
       -0.02144533 0.045426104 0.03588917 0.051694904
000360 2a e6 70 3d 78 b1 a5 3b bc 1c 5f 3c 37 83 2c 3d
       0.05881325 0.0050565563 0.013617691 0.042117324
000370 4f 8d 17 bc d4 35 03 3c 6f 44 c7 3b 70 4f 9c bc
       -0.009249999 0.008008439 0.006081156 -0.019080848
000380 c7 00 e4 bc ca fa bc 3a d5 65 16 bd 04 eb a7 3c
       -0.027832402 0.0014418003 -0.03671821 0.020497806
000390 5d 4f c3 3c 8d 3c 2a 3d 5e 2a 16 bd 65 96 0b 3c
       0.023841554 0.041561652 -0.0366615 0.008519744
0003a0 c5 59 44 3c e0 1a 4a bd 44 c1 62 bc e2 30 b1 bc
       0.011984293 -0.049342036 -0.013840023 -0.021629754
0003b0 d4 51 04 3d e3 d6 7a bd be ec 7c bd 4a 32 75 bd
       0.0323046 -0.06124009 -0.061749212 -0.059862413
0003c0 22 38 7a 3d a0 c6 62 3c 95 0e ca 3b 50 30 f7 3c
       0.06108869 0.013841301 0.006166289 0.030174404
0003d0 ad f2 81 3d 23 5c f8 bc 0d 3c 8c bb 62 ef 69 3b
       0.06345115 -0.030317372 -0.0042796195 0.0035695662
0003e0 9d d3 92 bd 04 e4 a6 bd f5 7d d7 3b 79 f4 d6 3c
       -0.07169268 -0.08148959 0.0065762945 0.02623962
0003f0 46 c8 93 3c ce 02 3a 3d 1c c0 3a bd 0c 28 e7 3a
       0.018039834 0.04541283 -0.045593366 0.0017635836

_fc2.bias f4 [256]
000000 a4 87 75 bd 98 15 72 be 97 33 59 3d 58 46 3d bd
       -0.05994381 -0.2364105 0.053027716 -0.046209663
000010 b0 c2 08 3c ba 3c 85 bd f8 2e e7 3d 53 ae c6 bc
       0.008347198 -0.06505723 0.112882555 -0.024253046
000020 34 42 1d bc d4 9e 8c bd 5b 6b 81 bd 06 06 12 be
       -0.009598304 -0.068662316 -0.063193046 -0.1426011
000030 e5 f2 2f be c5 b5 ae bd f7 d3 f0 3c be 02 bf bc
       -0.171825 -0.085307635 0.029397948 -0.023316737
000040 7e d3 5e bd a6 5f 13 bd 73 e5 c2 bd 7d df 16 3a
       -0.054400913 -0.03597989 -0.0951642 0.0005755348
000050 2f 9a 9a bd f8 9d fc 3d 8f 2a f0 bd 00 1d 68 bd
       -0.075489394 0.12334818 -0.117268674 -0.05666828
000060 c4 09 ed bd 86 3d 78 3c 97 74 df bd e0 60 2d bd
       -0.11574128 0.015151387 -0.109109096 -0.042328715
000070 45 c4 2d bc ce 7e 75 bd a0 ba 31 3e 11 5a fe bd
       -0.010605876 -0.059935383 0.17356348 -0.124195226
000080 fa 0a 09 3d 98 16 af bc 90 19 18 be 4c 5a 54 bd
       0.033457734 -0.021373078 -0.14853501 -0.051843926
000090 0c da d2 bd 76 40 19 3d 6e b5 c9 3c b6 6a 92 bc
       -0.102954954 0.03741499 0.024622645 -0.01787315
0000a0 af 4b 89 bd b7 92 1c bc 72 98 4d bb e6 a9 d7 bc
       -0.067038886 -0.009556464 -0.0031371382 -0.026326131
0000b0 7a ec 8d bd 80 f2 90 3c 5f 90 19 be 1c 6b a6 bb
       -0.0692987 0.017693758 -0.1499648 -0.0050786864
0000c0 fb 77 c4 bc 41 3f a3 3c 27 55 ab bd 39 12 8b bc
       -0.023982992 0.019927623 -0.08365851 -0.016976463
0000d0 73 5f 13 bd 8d 40 c3 bd cb 83 af bd 41 6b 0c be
       -0.0359797 -0.095337965 -0.085700594 -0.13712789
0000e0 75 d6 36 bb 7e 86 73 bd 25 71 14 bd 01 30 a5 bc
       -0.0027898822 -0.059454434 -0.036240716 -0.020164492
0000f0 80 d4 34 3c 4b 69 2a bd e8 8c e2 3c 74 a9 18 3d
       0.011036992 -0.04160432 0.02765508 0.037270978
000100 2f a4 bd 3c 4e 87 c0 bc 32 e4 95 3d f5 44 65 3c
       0.023149578 -0.023502018 0.073189154 0.013993491
000110 5a c2 08 bc b1 58 01 3d 93 ab ec bd da c8 d8 3c
       -0.008347118 0.031578723 -0.11556163 0.026462961
000120 45 2a 85 bb 65 b9 45 3e cb 63 12 3d b7 04 8a bd
       -0.004063877 0.19309004 0.0357397 -0.067391805
000130 8a 5a 5e bd 3c b9 7f 3d 04 fe 30 be ab 97 07 bd
       -0.054285564 0.062432513 -0.172844 -0.033103626
000140 5f 25 d6 bd e6 50 fe bc 87 af 93 bd c4 dd d9 bb
       -0.10456347 -0.031044435 -0.072112136 -0.006648751
000150 4c a1 b2 bb 72 e4 d7 bd 31 c6 8e bc 7f ef 98 bd
       -0.005451357 -0.10541619 -0.01742849 -0.07467555
000160 0d 8d dc 3c 9c d9 64 bc 95 7f a4 3c d4 e0 ac bd
       0.026922727 -0.013967898 0.020080367 -0.0844132
000170 89 fa 2c be f9 bc 8a bd c6 07 54 3e ff 7c 52 bc
       -0.16892447 -0.06774325 0.2070609 -0.012847184
000180 ec ce 99 bd a0 43 76 bd 98 3e bb 3b 0b b0 38 bd
       -0.0751017 -0.060123086 0.005714249 -0.045089763
000190 ac d9 10 3d fd 8d b3 bd 3f 13 00 bc 54 d8 bf bd
       0.035363838 -0.087673165 -0.007817089 -0.09367433
0001a0 96 a5 6c bb a9 e9 5c 3c ea 34 07 be 68 6e dc bd
       -0.003610944 0.013483443 -0.13203779 -0.10763246
0001b0 4b 74 8c bd e4 b5 27 bc fd c1 fd bb 9c 29 34 bd
       -0.068581186 -0.010236237 -0.0077440725 -0.043984994
0001c0 1c 4f ff bc 51 e3 31 be 09 de 21 be c4 27 bd bd
       -0.031165652 -0.1737187 -0.15807356 -0.092361
0001d0 9a dd 4d bd 0f 89 57 bd 2e 16 9e bd 20 c3 a9 bc
       -0.050260164 -0.052620944 -0.07719074 -0.020722926
0001e0 34 ff 18 be cc f5 49 bd 10 87 f5 bd 52 c3 f6 bb
       -0.14941102 -0.049306676 -0.11988652 -0.007530608
0001f0 c1 57 03 3d fb a8 93 3d 2e ba e1 bd 2b eb 6c 3d
       0.03206611 0.07209965 -0.11021839 0.05784146
000200 a6 87 5e bc f6 97 8b bc f1 0f 0c be c4 36 ff bc
       -0.013582146 -0.017040234 -0.13677956 -0.031154044
000210 ec c6 92 bd 13 e5 09 3d df bd 11 be 3f be 89 bc
       -0.071668476 0.033665728 -0.14232586 -0.01681435
000220 1a 55 2d bd e6 87 af bd b9 be 63 be 77 6f d2 bb
       -0.042317487 -0.085708424 -0.22240724 -0.006421979
000230 a3 5f 8f 3c 38 d7 07 be 11 e7 75 bd 60 35 0a 3d
       0.017501658 -0.13265693 -0.060034815 0.03374231
000240 0e 58 1a be 80 f9 ef bc a2 88 3f bd d8 fb 2e be
       -0.15072653 -0.029293776 -0.046761163 -0.17088258
000250 87 6c 9e bd 23 88 1a bd ec 5d e8 bc 96 39 4d 3d
       -0.07735544 -0.037727486 -0.028365098 0.050103746
000260 e4 bb 06 be a1 45 d6 3b 2a 89 f2 3c 70 68 12 3d
       -0.13157612 0.006539062 0.02960642 0.03574413
000270 a2 dc 4d be 44 9b cc bc 9a 78 b5 3c fe 31 91 bd
       -0.20103696 -0.02497638 0.022152234 -0.070896134
000280 5a d2 42 bc af 56 8e bd 12 2c c4 bd 0a 63 89 bc
       -0.011890972 -0.06950127 -0.09578718 -0.016770858
000290 99 ca c3 bd 5e 8d e1 bd 9a 45 0e be 0b f3 4a be
       -0.09560127 -0.11013292 -0.13893738 -0.19819276
0002a0 54 bc 8b bd fa cc 1b bd 02 aa 6f 3c 62 7b 71 bd
       -0.0682303 -0.038037278 0.014627935 -0.058955558
0002b0 a2 3b 75 3c 1f 79 c7 bd 6e 9a 9e bd ca 1e a3 bd
       0.014967831 -0.09739899 -0.07744299 -0.07964857
0002c0 da 1a ef bc 1f a9 5f bd 54 74 20 3d c9 ea 94 bd
       -0.029187609 -0.054604646 0.03917344 -0.07271344
0002d0 34 04 13 be 64 c1 ba bd e1 13 28 bd 98 05 53 bd
       -0.14357072 -0.091189176 -0.041034583 -0.051519006
0002e0 20 5d 66 bd e5 22 93 bd a8 9d 9b bc 5a e7 40 bd
       -0.056241155 -0.0718439 -0.018996075 -0.047095634
0002f0 36 88 ed bc ea 49 8f bd fa 23 db bd 6d 38 01 be
       -0.028995614 -0.0699652 -0.10700221 -0.12619181
000300 a5 13 17 bd 61 c6 1d be 00 8a 60 be fe ce 6b bd
       -0.03688397 -0.15407707 -0.21927643 -0.05757045
000310 36 54 95 bd dd f6 7f bd fc 59 83 bd b7 b0 d7 bb
       -0.072914526 -0.062491287 -0.064136475 -0.0065823453
000320 8b d1 ba 3c e5 1c 00 3d c0 95 cf bd 3e 1b c3 bd
       0.022804996 0.031277556 -0.101359844 -0.095266804
000330 5e 48 b5 bc ea da 1c bd a0 92 66 bd 43 1b 1c bd
       -0.022129234 -0.03829471 -0.056292176 -0.038111936
000340 84 dc 7e 3d 25 bd d5 bd 62 5d 41 bd f9 f6 91 bd
       0.06222202 -0.10436467 -0.047208197 -0.071271844
000350 fc 85 b9 bc 5d 73 4d bd 5a b5 39 bd 38 ec 9c bd
       -0.022646897 -0.050158847 -0.045338966 -0.07662243
000360 77 8d b5 3b d9 5e de bd cb e1 0f bd 38 76 a0 bd
       0.0055405456 -0.108579345 -0.035127442 -0.078350484
000370 2d 31 b5 bc 5a a3 98 bc 06 27 45 bd 5f 6a 8a bc
       -0.022118175 -0.01863258 -0.04813292 -0.016896425
000380 07 01 d3 bb 47 eb eb bc c7 db 86 bd 88 11 fe bd
       -0.0064393315 -0.028798712 -0.06584888 -0.124056876
000390 26 eb 04 be b2 f9 27 3a 92 cc 96 bd aa c5 67 3c
       -0.12980327 0.0006407752 -0.073632374 0.014146248
0003a0 12 e3 0b 3d 89 d0 97 bd ac f1 79 bd 94 40 d6 bd
       0.034152098 -0.07412822 -0.061021492 -0.10461536
0003b0 99 f5 9d bd fe 23 7b bd 75 f4 8f bc c5 5a 94 3d
       -0.0771286 -0.06131362 -0.01757262 0.072438754
0003c0 5e b3 fd bc 6f e4 17 3d 81 83 83 bd 97 03 27 bd
       -0.030969318 0.037083086 -0.06421567 -0.040774908
0003d0 11 9b 39 3e 8f cc a8 bd 69 17 8f bd 1e 09 24 be
       0.1812556 -0.082421415 -0.06986887 -0.16019103
0003e0 82 c0 ca 3d 2c a3 10 3e 1c 22 06 bd ab b7 3c be
       0.09899999 0.14124745 -0.032747373 -0.18429439
0003f0 01 08 cf bd 75 cf 4a bd 14 d0 57 3e fc 45 4f bd
       -0.101089485 -0.049514253 0.2107547 -0.05060385

_value.weight f4 [1, 256]
000000 0d 16 e0 ba ac 76 32 3e e5 30 c8 3d dc 8e 53 3c
       -0.0017096415 0.17428082 0.09774951 0.012912478
000010 f5 92 ae be 61 0d 24 bf 36 0e 5f 3d 78 f0 86 be
       -0.34096494 -0.64082915 0.054456912 -0.26355338
000020 4f e9 fb 3c 88 f2 cf 3c 50 3f 80 bc 91 0d ad be
       0.030750899 0.025384203 -0.01565519 -0.33799413
000030 e1 b3 46 3e 1c fa 19 3e 21 b4 96 be 4b 0d b5 3c
       0.19404556 0.15036815 -0.29434302 0.022101065
000040 a4 67 7f bd e1 e5 1e 3c b2 d6 65 3d 11 46 f3 3d
       -0.0623547 0.009698362 0.056112953 0.118785985
000050 f5 14 4e be e3 92 90 be 18 55 a9 3e d6 a0 23 bd
       -0.20125182 -0.28237066 0.33072734 -0.039948307
000060 56 e0 c3 3e c4 e4 01 3c 62 4b cd be 4a 88 13 bd
       0.38257092 0.007928077 -0.40096575 -0.036018647
000070 d6 11 ff 3c 3b 97 74 be 2a f0 10 3e 95 c7 3c be
       0.031136435 -0.23885815 0.14154115 -0.1843551
000080 0e 7b 5d ba d6 6a 41 be 6d 80 4b 3e 9a 2a e0 be
       -0.00084488175 -0.18888411 0.1987321 -0.43782502
000090 b1 0d 3b bf e4 c1 04 3d ec bc b4 bb 3d 8d e0 bd
       -0.73067766 0.03241147 -0.0055156853 -0.10964439
0000a0 35 4a 36 bf 25 6e df bb 2e ce 1f 3e 76 ae b3 3d
       -0.7120698 -0.00681855 0.15605995 0.0877351
0000b0 6c 6e 0d 3d e5 aa 70 be 26 0a cf 3d 7d a7 13 3f
       0.034529135 -0.23502691 0.101093575 0.5767744
0000c0 66 55 bc 3e 10 60 2e be 7f e4 e9 3c 99 45 9d 3b
       0.36783904 -0.17028832 0.028551338 0.0047995565
0000d0 19 03 cd bd 32 15 10 bf 01 39 10 be e1 0a 93 3e
       -0.100103565 -0.5628234 -0.14084245 0.28719237
0000e0 ed 75 a8 3c 28 bc 5e 3c a5 f4 a9 bd a9 74 4f 3e
       0.020564044 0.013594665 -0.08298615 0.20259346
0000f0 66 6a d1 bb cf 8a 58 3d 90 72 c2 39 ec 39 86 3d
       -0.0063908575 0.052866753 0.0003708792 0.065540165
000100 44 04 83 bd 73 f4 00 3f 6f 92 2b 3c 13 4b 09 3e
       -0.06397298 0.50373 0.010471924 0.13407545
000110 d0 87 11 3c bf 57 1d 3c b3 6e c7 3e 7c a2 bb bc
       0.008882478 0.00960344 0.38951644 -0.022904627
000120 5e 22 c0 bd 25 7a c8 3d 51 ad 80 bf 08 7c 83 3b
       -0.09381555 0.09788922 -1.0052892 0.0040125884
000130 bf f2 58 be df cf 01 be 50 21 e9 3e 62 ce 49 bb
       -0.2118635 -0.12676953 0.45533228 -0.003079318
000140 da 50 5f 3d e2 e6 0b bc 6c 45 dc be a1 0c b5 3b
       0.054520465 -0.0085389335 -0.43021715 0.005525187
000150 00 a8 76 be aa 63 10 bf 0b ba f5 be 21 8c 94 3d
       -0.24087524 -0.56402075 -0.47993502 0.0725329
000160 d2 3b ad bd 2c 19 35 bc 83 8b 9b 3d e9 87 e7 3e
       -0.084586754 -0.011053365 0.07594969 0.4522088
000170 91 f7 ad 3e d5 8a 66 3e 6f c0 c7 3d 72 e2 0e 3d
       0.3397794 0.22513898 0.09753501 0.034883924
000180 90 19 78 bd c6 18 5a bc 83 09 54 3d e4 0f d4 3b
       -0.060571253 -0.0133115705 0.051766884 0.006471621
000190 08 20 22 bd d4 b3 52 3e c4 9d 8c bc bd e9 d6 be
       -0.03958133 0.20576411 -0.017165072 -0.41975203
0001a0 cc bc e6 3e 49 07 11 bd 67 bc c6 3e af bd f8 3c
       0.45065916 -0.03540734 0.38815615 0.030363886
0001b0 9a 1d da bc 00 bf 81 bd 47 fd 08 bd 7f cd 79 bc
       -0.026625443 -0.063352585 -0.03344467 -0.015246748
0001c0 54 b1 aa bb 2d b3 aa bd d4 6e bb 3e cf 59 54 bb
       -0.0052091274 -0.08334956 0.36607993 -0.0032402163
0001d0 e9 d9 4d bf 04 1f b9 bc 08 5d 16 be ca b0 af be
       -0.8041063 -0.022597797 -0.14683926 -0.34314567
0001e0 fa 06 f8 3e 14 04 96 bd 26 b1 13 bf 07 f3 02 3d
       0.48442823 -0.073249966 -0.5769218 0.03197005
0001f0 62 34 01 3a 8e 15 19 3f 81 13 80 be 4b a7 42 be
       0.0004928765 0.59798515 -0.2501488 -0.1900913
000200 5a 9a 46 3c 83 aa 13 3d 39 cc c2 be b8 97 bf bc
       0.012121761 0.036051285 -0.38046435 -0.023387775
000210 86 66 cc 3c cb 76 0d 3d a8 15 ed be c9 2f 9f bd
       0.02495123 0.034537118 -0.46305585 -0.07772786
000220 35 fb 06 3e 5c 92 78 be df b9 d0 3d e8 30 01 bf
       0.13181765 -0.24274582 0.10191702 -0.5046525
000230 87 ad ad 3d 87 45 bf be 32 2d 1f 3e 31 77 bf 38
       0.08480363 -0.37357733 0.15544584 9.129791e-05
000240 e4 f5 12 3f d6 7a af 3c 10 86 aa 3e e2 0c 1e 3f
       0.5740645 0.021420877 0.33305407 0.6173841
000250 f7 e3 f9 3e c9 8d 2d be 87 4b a6 be e6 b1 6d bd
       0.48806736 -0.16948618 -0.32479498 -0.058030985
000260 81 0c 1f 3e b7 40 fb 3c 1d c3 80 be 6b d1 c8 3d
       0.15532114 0.030670507 -0.2514886 0.09805568
000270 34 fb f6 bd 22 73 ed bc 56 ee 02 bc f5 d4 98 3c
       -0.12059632 -0.028985564 -0.007991394 0.018656233
000280 e0 33 da 3d 45 25 56 bf e7 72 fd be 86 ed 17 bc
       0.106544256 -0.8365062 -0.49501726 -0.009272939
000290 40 5c 44 be df 1e df 3e bb 95 e1 be 23 98 e5 3e
       -0.19175816 0.4357824 -0.44059548 0.44842634
0002a0 43 1b d2 3c 15 9d 17 bd 91 af ab bc ae 61 07 bd
       0.025647765 -0.03701504 -0.02095774 -0.03305214
0002b0 e3 06 28 bd 92 79 c5 bd 59 d4 50 bd 56 79 08 be
       -0.041022193 -0.09642328 -0.05098376 -0.13327536
0002c0 8f 04 0e 3c 9f c0 98 be ab 71 d4 3a 7e b8 05 be
       0.008668079 -0.29834458 0.0016208192 -0.1305866
0002d0 47 a9 32 bf f6 39 21 be ec 9e 24 3d 8f 96 1b 3d
       -0.69789547 -0.15744767 0.040190622 0.03798538
0002e0 4a 90 8d be 2f 44 2c bc b8 4b 08 bb 94 20 13 3f
       -0.27649146 -0.010514303 -0.0020797085 0.57471585
0002f0 19 3c d2 3e b6 e8 83 3e 78 ec 59 3e 05 b2 0a 3f
       0.41061476 0.25763482 0.21281612 0.54177886
000300 bf cf 07 3d f4 fe 11 3d 30 4a 6a 3e a7 92 47 3e
       0.033157106 0.035643533 0.22879863 0.19489537
000310 2a 58 16 be 51 f3 9c bc d9 6c f7 bd 58 e7 be bc
       -0.1468207 -0.019158991 -0.12081308 -0.023303673
000320 fd 7a 8d ba f4 7f 00 bd ae 87 b8 be ba 09 3c 3f
       -0.00107941 -0.031372026 -0.36041015 0.7345234
000330 c9 a9 cc bc a0 30 0c bd d6 06 26 bd 3d 40 24 3d
       -0.024983304 -0.03422606 -0.040533863 0.040100325
000340 cb 8d 99 3d 35 9f e3 3b ac 6d 3f bf b1 3f 75 3f
       0.07497748 0.006946469 -0.7477672 0.9580031
000350 77 e9 10 3d 9f 93 4e bb c4 63 cb be 10 2e f0 3e
       0.0353789 -0.0031521094 -0.39724553 0.46910143
000360 bf 66 57 3c 02 3c 30 be 51 92 cd bc 9e c9 14 3e
       0.013147055 -0.17210391 -0.025094183 0.14530036
000370 c3 67 60 3b 8e e9 96 bc da 7a 7e bb 6e 8f 4e 3d
       0.0034241534 -0.018421914 -0.003883055 0.050429754
000380 bd ed e8 bd 60 bd 36 bc 39 a2 c0 bc 9b 3c 68 be
       -0.1137347 -0.011153549 -0.023514854 -0.22679369
000390 ae bd 03 3f 2b 4c fc 3d 0f 15 1f bd cc 91 d4 bc
       0.51461303 0.123192154 -0.038838442 -0.025948428
0003a0 63 2c f8 be 0d 63 80 3e fa db ff 3e 16 e0 77 be
       -0.48471364 0.2507557 0.49972516 -0.24206576
0003b0 98 44 37 be 53 1f 4b bd 4e fd 34 bd 0b 1d 8d bd
       -0.1789726 -0.04959042 -0.044186883 -0.06890305
0003c0 b7 cf 6f be d8 26 ab bd 36 93 7f 3c 56 d5 e3 bc
       -0.2341908 -0.08357018 0.015599063 -0.027811687
0003d0 38 17 09 3e 73 98 35 be 0e da bd be 4f 41 45 3d
       0.13387764 -0.17733936 -0.37080425 0.048157986
0003e0 6f 43 9b 3e 2a ce cc 3d 54 3d 5a 3c f0 ec 07 be
       0.30324885 0.1000026 0.013320286 -0.13273978
0003f0 ed b1 46 be 90 13 2d 3d 64 69 b2 3d 08 23 2e bd
       -0.19403811 0.042254984 0.08711508 -0.042513877

_advantage.weight f4 [3, 256]
000000 13 ba 1c 3d db 4e a4 3c 37 59 3b 3d fd 62 33 3d
       0.03826339 0.020057132 0.04573938 0.043795574
000010 87 21 6c be 80 3c 86 be c8 53 f2 3b 0e c9 ae bd
       -0.23059665 -0.26218033 0.0073952414 -0.08534442
000020 5c 0c bc 3b 63 ce eb 3b 30 da 92 3c bf 00 3e 3e
       0.005738778 0.007196234 0.017926306 0.18554972
000030 0a 0a 85 3d 9a aa 6b 3e b9 42 d2 3d 35 2c 93 3d
       0.064960554 0.23014298 0.102666326 0.07186166
000040 48 43 ca bb 66 5d f1 bc 88 f9 7c bd 92 53 bf 3d
       -0.0061725713 -0.029463481 -0.06176141 0.09342112
000050 91 ff cd 3c 92 86 27 be 17 ed 85 3e ee 15 34 3d
       0.025146278 -0.16359928 0.26157448 0.043966226
000060 d1 fb cc 3d a2 48 13 be d7 f1 61 be e6 85 c2 bc
       0.10008968 -0.14383176 -0.22064911 -0.023745488
000070 ef 94 df bc e2 a3 c3 be 75 3b b5 bc 40 9c 95 3b
       -0.027292697 -0.3821097 -0.022123078 0.0045657456
000080 ac 99 dd bd cc 96 de bd a4 1f 7e 3d 37 9c 48 be
       -0.10820326 -0.10868606 0.062041894 -0.19590841
000090 34 be ec be 33 f2 4b 3c ca cb 3c 3e 2d 6f 2e 3c
       -0.46238863 0.0124478815 0.18437114 0.010646624
0000a0 e6 58 92 be 6a f6 b9 bc f1 6b 46 3e 2e a6 f3 3b
       -0.2858345 -0.022700507 0.19377114 0.0074355816
0000b0 91 38 49 3d 80 fd c1 bd 64 42 d9 3c a7 7a 39 3e
       0.04912621 -0.094721794 0.026520915 0.18113194
0000c0 17 47 84 3e ca dc 15 bc 75 e4 5a bc 86 fd ba 3d
       0.25835487 -0.0091468785 -0.013360132 0.09130387
0000d0 47 05 84 bd 67 fd 2b be d7 41 e2 bd e7 bf 03 3e
       -0.06446319 -0.16795884 -0.11047714 0.12866174
0000e0 e9 09 e3 3c de 90 9b bd 6f 51 ac bc 6d a4 0c 3e
       0.027714686 -0.075959906 -0.021034924 0.13734598
0000f0 46 53 58 3c 8f d9 7f bd cb 75 bb 3d 9f 2d 9e 3d
       0.013203448 -0.06246334 0.091533266 0.07723545
000100 6a b6 ad 3c dc ae 1b 3c ba e8 9e 3d f1 3e 87 3e
       0.021205146 0.009502139 0.07759233 0.26415208
000110 bf 90 e7 3d bf 30 b1 3c cc fd 51 3e a3 92 08 bd
       0.11306905 0.02162969 0.20506972 -0.03334297
000120 5d 75 06 bd 9c 74 0d bc 2c c0 d1 be 9c 93 94 3c
       -0.03282677 -0.008633759 -0.40966928 0.018136792
000130 a5 9c 28 3d 86 5a 93 3e 77 31 4a 3e b0 e2 ad 3d
       0.041165013 0.2878 0.19745432 0.08490503
000140 aa 1e c6 3d 18 48 29 3c 50 e8 31 be df 77 22 bd
       0.096738175 0.01033213 -0.17373776 -0.0396651
000150 d6 eb bd bd f4 99 10 bf 7d fa c4 be 4c 3c 16 3d
       -0.09273498 -0.56484914 -0.38472357 0.036678597
000160 2a 07 80 bc 93 43 0c 3d b0 84 54 be 8b 7b 15 3e
       -0.015628416 0.03424413 -0.20753741 0.14597909
000170 21 32 43 3e cf 7d 34 3d 6b 35 bf 3c f7 ba d5 3c
       0.19062091 0.044065293 0.023340901 0.026090128
000180 6e 14 87 bd 1c 6c 05 bd 0e 01 58 3c 59 fe ab 3d
       -0.065956935 -0.032573804 0.013183845 0.08398122
000190 16 d2 6b bd 8e 4e 28 3e ff 3d 17 3e e9 cd e1 bd
       -0.0575734 0.16436216 0.14769743 -0.11025602
0001a0 1f e2 e4 3e b3 e7 54 bd 11 3b 47 3e 58 6a b3 3c
       0.44703767 -0.051978778 0.19456126 0.021901295
0001b0 1d e8 02 be 8b 03 7d bd f5 5b 6d 3e 8a c9 4c 3c
       -0.12783857 -0.061770957 0.2317961 0.0124992225
0001c0 3a 03 29 3d f8 9c 8f bd 13 ed 2d 3e 64 b5 82 bd
       0.041262843 -0.07012361 0.16984968 -0.06382254
0001d0 91 8c f9 bd 99 39 d3 bc 3f 98 27 bd c9 0f 90 3e
       -0.12185014 -0.0257843 -0.040916678 0.28137043
0001e0 1d 65 79 3e 3f 39 91 3d 7e a1 79 be 48 35 64 bd
       0.24354978 0.07090997 -0.2437801 -0.055714875
0001f0 d4 91 7b bd 56 bd f0 3e 50 ce 53 be ec 28 9e 3d
       -0.06141837 0.47019452 -0.2068417 0.07722649
000200 d8 74 9c bd 56 65 58 3d cc 1f bc 3d 59 9f 09 bd
       -0.07639474 0.052831016 0.09185752 -0.03359923
000210 16 05 3f 3d 09 0b d5 bc dd 88 e0 3e 2e 34 83 bd
       0.04663571 -0.026006239 0.43854418 -0.06406437
000220 4f d7 c3 3e d4 ad 4b be 64 8f ed 3d bf d6 a1 3c
       0.38250205 -0.19890529 0.11599615 0.01975572
000230 2b 79 4a 3c d4 66 51 be d7 dc ae 3e d1 bb 63 3d
       0.01235799 -0.20449382 0.34152862 0.055599038
000240 0e 76 0d 3e 1d f4 88 bd f0 4f a5 3e 1c 1d 69 3e
       0.13814566 -0.06687186 0.3228755 0.2276501
000250 03 30 12 3e 9b f1 1c bd ec c5 74 bd fd f6 95 bd
       0.14276128 -0.03831635 -0.059759066 -0.073225
000260 14 f9 61 3c 47 56 a9 bc e3 c1 2e 3c d1 7e 8d 3d
       0.013792295 -0.020671023 0.010666343 0.06908954
000270 47 15 01 bd f6 cf ac 3b 28 c6 4e bd 51 c7 58 bd
       -0.031514432 0.0052738143 -0.050481945 -0.052924458
000280 18 dd 0e 3e d1 c0 d1 be 70 18 65 3e 43 d1 06 3d
       0.13951528 -0.4096742 0.22372603 0.03291441
000290 b3 0a e6 3c 5f 32 1e 3e 60 5b 8c be aa dd ac 3e
       0.028081274 0.15448903 -0.27413464 0.33762866
0002a0 01 75 9f bb 11 cd ca 3c 59 f2 bd 3b a9 1a 49 3d
       -0.004866243 0.024755986 0.0057967124 0.04909769
0002b0 eb e0 fd bc ba d7 25 be 6f 3f 51 3d c0 c8 c4 bc
       -0.030991038 -0.16195574 0.051085886 -0.024021506
0002c0 d9 21 94 bd d3 27 e1 3b 38 a3 3f 3c 6d 01 b7 bc
       -0.072330184 0.0068712025 0.011696629 -0.022339547
0002d0 dc e1 95 be 94 74 9c bd b2 ea b1 3c ee 4c 14 3d
       -0.2927388 -0.07639423 0.021718357 0.03620618
0002e0 0c 79 26 3d 8f f0 fb 3c e5 4f 17 3e 8f 78 f5 3d
       0.040642783 0.030754356 0.14776571 0.11985885
0002f0 8e b1 5a 3e a1 d6 35 bc 52 87 4b 3e 47 9c 46 3e
       0.21356794 -0.011098535 0.1987584 0.19395553
000300 88 e5 8d 3d 50 fa 90 3e 6b df 21 3e 35 3b 03 3e
       0.06928545 0.28315973 0.15807883 0.12815554
000310 70 a5 d4 3d df 8c 2c 3d 0d ef b5 3c 6f 91 71 bb
       0.10383117 0.042126533 0.022208715 -0.0036860367
000320 26 0d 03 b9 c0 ac 1e bc 63 ed 24 be ed bb 37 be
       -0.00012498032 -0.0096847415 -0.16106181 -0.17942782
000330 a8 07 2d 3e ac d4 a9 3c 0b 64 2d 3d f6 83 c2 3c
       0.16897452 0.020731293 0.042331737 0.023744565
000340 ca 88 63 3e d5 64 67 be 08 65 47 be f9 09 17 be
       0.2222015 -0.22597058 -0.19472134 -0.14749898
000350 47 52 33 bd 38 49 e2 bb 4b cd 96 be 72 19 0c 3f
       -0.043779638 -0.006905701 -0.294535 0.54726326
000360 c3 fe a8 bb 48 26 08 be 02 93 d2 3c a7 25 d4 3d
       -0.005157323 -0.13295853 0.025704864 0.10358744
000370 4e ac fc bc 5a 5e 08 be 6c 74 58 bd e3 ee 44 3d
       -0.03084388 -0.13317242 -0.052845404 0.048079383
000380 41 71 e8 3e 51 8c 1d 3d 04 1f 20 3d f4 92 3c be
       0.45398906 0.038463894 0.03909208 -0.18415433
000390 6b e6 8f 3e 57 92 5b 3e 6f 35 95 3c f2 8c e5 3c
       0.28105482 0.21442543 0.018213956 0.02802131
0003a0 a1 aa 6f bd 62 bc 8a 3a 97 0e ed 3d 8e ca 14 be
       -0.058512334 0.0010584707 0.115750484 -0.14530393
0003b0 a3 a4 2d bd 0d 56 8f 3c f9 9e 8d 3c 5d fc d0 bd
       -0.042393338 0.017497087 0.017287718 -0.102043845
0003c0 b0 20 91 bd 9a 6e f5 3d 13 56 80 bd d8 0a 0d bc
       -0.07086313 0.11983986 -0.06266417 -0.008608542
0003d0 d3 91 8d 3d 2c d0 91 bd b9 47 c9 bd fe 35 b6 bd
       0.069125794 -0.07119784 -0.09828133 -0.08897017
0003e0 e7 fb 41 3e bd 92 25 3d 5e b4 91 bd db 6d 9f bd
       0.1894375 0.040423144 -0.071144804 -0.07784625
0003f0 b0 bc 34 bd 8a ab f2 bb 87 b5 93 3c e4 7d 13 3d
       -0.04412526 -0.007405703 0.018030895 0.03600873

_advantage.bias f4 [3]
000000 bc 69 bd bb 4f 23 bf bb 65 d3 80 bb
       -0.005780427 -0.0058330665 -0.00393145

_out.weight f4 [3, 256]
000000 b0 db 7f 3c 60 14 11 bc 82 9e 07 bd 20 5f eb bb
       0.015616342 -0.008854955 -0.03311015 -0.0071829706
000010 f4 7a 11 bd 80 af 67 3d 66 02 60 bd 00 df dc ba
       -0.035517648 0.056563854 -0.054689787 -0.0016851127
000020 68 34 46 3c 38 a3 41 bd c4 64 be 3c 84 db 1a 3d
       0.012097456 -0.0472748 0.023241408 0.037807003
000030 28 86 43 bc e8 df 73 3d 30 de d3 3c 40 3f 16 bc
       -0.011933841 0.059539706 0.025862783 -0.009170353
000040 10 0c 9f 3c 40 96 8c bb f4 92 68 bd 28 44 3b 3c
       0.019414932 -0.004290372 -0.05678077 0.011429824
000050 70 30 a8 bc fc e2 1b 3d 20 83 e9 3b a8 ea cd bc
       -0.02053091 0.038058266 0.007126227 -0.025136307
000060 88 02 7e bd b0 43 50 bc 20 cb ec bc 38 e0 ea 3c
       -0.062014133 -0.01271145 -0.028905451 0.028671369
000070 a4 62 72 bd 38 01 50 bd 32 10 13 3d bc 0b 23 bd
       -0.059176102 -0.050782412 0.035904117 -0.039806113
000080 b0 62 98 bb dc 5c 95 bc ea 6c 50 bd 90 43 90 bb
       -0.0046504363 -0.018232755 -0.05088512 -0.0044025853
000090 88 6c 2e bc b0 f8 4a 3c f6 a7 5c 3d 18 ec 2f bd
       -0.010645993 0.012388393 0.053871118 -0.042949766
0000a0 e4 6d 35 3d 52 bb 08 3d 72 c8 4a 3d 74 02 f0 bc
       0.044294253 0.033381768 0.049507566 -0.029298045
0000b0 ec 65 d8 bc d0 f4 0d bc 00 60 19 39 94 ab b1 3c
       -0.026415788 -0.008664325 0.0001462698 0.02168826
0000c0 da 5b 3f bd a4 0c cd bc 50 58 6e bd c6 8e 50 3d
       -0.046718456 -0.025030442 -0.05818969 0.05091741
0000d0 44 94 91 3c 36 e3 4a 3d 80 ee d2 ba c2 24 3f 3d
       0.017770894 0.04953309 -0.0016092807 0.046665914
0000e0 78 76 3a bd d4 b6 55 3d c6 8d 2f 3d 6a 06 3e 3d
       -0.045523137 0.05217631 0.042859815 0.046392836
0000f0 82 e8 39 3d 70 3b 55 bd 22 55 59 3d 98 ab 66 bc
       0.045387752 -0.052058637 0.053059705 -0.014078997
000100 0e b3 10 bd 30 89 30 3c 58 15 39 bc a8 58 24 bc
       -0.03532701 0.010774896 -0.011296593 -0.010030903
000110 04 fc f4 bc d0 d8 67 3c c0 a8 01 bd 78 2f 10 bd
       -0.029905327 0.014150813 -0.031655073 -0.03520152
000120 18 8f 10 bd 80 27 3c 3a 58 f0 3c bc 40 2e 82 3c
       -0.035292715 0.0007177517 -0.011531912 0.015891194
000130 a0 b3 66 3c 10 9c d2 bb 72 d8 3b bd f2 52 1a 3d
       0.014080912 -0.0064272955 -0.045860715 0.03767676
000140 90 7d 76 3c 3a 0d 43 bd 00 e0 db b8 f0 90 a3 bc
       0.015044585 -0.047620036 -0.00010484457 -0.019966573
000150 d2 af 34 bd 32 76 38 bd 18 ee 80 3c 74 57 14 3d
       -0.044112988 -0.045034595 0.015738532 0.036216214
000160 c8 c5 fb 3c 80 da 28 3d d4 b9 4c 3d 80 0a 0e bc
       0.030733958 0.041224003 0.049981907 -0.008669496
000170 d0 29 fe bb 0e 92 22 3d 2c 59 9e bc 46 46 2d bd
       -0.0077564493 0.03969007 -0.01932963 -0.042303346
000180 28 b5 e9 3c fc cb cf 3c 0e 49 0b bd 70 de 7e bd
       0.028528765 0.025365822 -0.034005217 -0.06222385
000190 2a 1e 72 bd c0 82 10 bd 00 47 b6 bc e0 3e 9a 3c
       -0.059110798 -0.035280943 -0.022250652 0.01882881
0001a0 64 5d b6 bc 2e 3d 64 bd de a4 06 3d e8 9d 79 bd
       -0.022261329 -0.055722408 0.032872073 -0.060941607
0001b0 80 b2 76 ba 36 31 3e bd f6 82 07 bd a2 7f 77 bd
       -0.0009410754 -0.04643365 -0.03308388 -0.060424455
0001c0 78 8a 41 3d 00 0f 6c 3c 96 f9 18 bd 78 3c 2f 3c
       0.047251195 0.014407873 -0.0373474 0.010695569
0001d0 a2 5e 0e bd 84 b9 2e 3d 4e 4b 2d bd 18 4d 33 bd
       -0.034758218 0.04265739 -0.042308144 -0.043774694
0001e0 26 31 3d 3d e6 c9 24 3d 80 2b 6a 3a 1c c7 6e bd
       0.04618945 0.040231608 0.00089328736 -0.058295354
0001f0 52 4e 3d bd 7e e7 24 bd 80 24 25 bc 80 03 20 3a
       -0.04621727 -0.04025983 -0.010079503 0.0006104037
000200 e2 af 02 3d b0 14 d8 3b 0c 2c 34 3d ac 7e f4 bc
       0.031906016 0.006594263 0.04398732 -0.029845558
000210 4c e3 b6 3c 90 29 7c bd 48 61 bf 3c 66 62 7b bd
       0.02232518 -0.061563075 0.023361817 -0.061373137
000220 84 a8 99 3c 5c 1b 0a 3d 08 c9 99 3c 7c 78 42 3d
       0.018757112 0.0337175 0.018772617 0.047478184
000230 a4 9f 2d 3d d0 f0 e5 3b 90 cc b3 3c 42 21 16 bd
       0.042388573 0.0070172325 0.021948129 -0.03665281
000240 aa 40 28 3d bc ea 2a bd d0 a2 0f 3c ac fc 48 3d
       0.041077293 -0.041727766 0.008766845 0.04906909
000250 e0 af 1c 3c 90 f1 09 3d 30 ec e0 bb a8 5a 9f bc
       0.009563416 0.033677638 -0.0068640932 -0.019452408
000260 20 19 68 3d 08 ca bc 3c a0 82 6b 3c 20 f3 a5 3b
       0.056664586 0.023045555 0.014374405 0.005064383
000270 72 18 68 3d 38 e6 17 bc c0 94 56 3c f8 b6 49 bd
       0.056663938 -0.009271197 0.013096988 -0.04924676
000280 32 fc 69 bd aa dc 03 bd 6a 62 42 3d f2 11 1e 3d
       -0.057125278 -0.032192864 0.047457136 0.038591333
000290 fc f0 b2 3c f8 2b 80 bc 78 dc dd bc 52 f2 52 3d
       0.021843426 -0.015645966 -0.027082667 0.051500626
0002a0 e4 61 e1 3c a0 fc 2b bc 6c 56 90 bc 4a e2 4e bd
       0.027512498 -0.010497242 -0.017619334 -0.050508775
0002b0 40 2c 4a bd 68 8b c8 bc 58 9e b4 bc 7c 88 83 bc
       -0.049358606 -0.024480537 -0.02204816 -0.016056292
0002c0 e0 b8 f8 bb 00 e6 6d b9 e0 61 df bc 78 0a 1a bc
       -0.007590398 -0.00022687763 -0.02726835 -0.00940191
0002d0 6e 09 58 bd 00 41 eb 3c c0 cb 48 3d 9e 0b 1c 3d
       -0.052743368 0.028717518 0.049022436 0.038097017
0002e0 b0 35 3c 3d 0c 97 a6 bc 60 2f 61 bd 90 44 13 3c
       0.045949638 -0.020335697 -0.05497682 0.008988515
0002f0 08 68 fd 3c 60 b3 c2 bc c0 82 1b 3b 80 38 8e 3c
       0.030933395 -0.023767173 0.0023729056 0.017360926
000300 68 32 cc 3c 48 e0 59 3d 72 ec 2b 3d 34 a2 10 3d
       0.02492638 0.053192407 0.04197354 0.03531094
000310 0c 16 bc bc 1c d6 b6 bc 00 7f 25 3b 88 39 79 3c
       -0.022959732 -0.022318892 0.00252527 0.01521147
000320 60 f9 e9 3c dc 34 48 bd 58 c5 46 bd bc 53 30 3d
       0.028561294 -0.048878536 -0.048528045 0.043048605
000330 d8 23 26 3c 64 b7 6b bd b8 3e 00 3c 40 16 c8 3b
       0.010140382 -0.05754794 0.007827453 0.006106168
000340 80 60 ec ba c0 94 db bb ec 76 17 3d 10 68 e3 3b
       -0.001803413 -0.006701082 0.036978647 0.0069398955
000350 98 51 d8 3c 2e b0 18 bd a0 9d 9b 3c 70 50 f2 bb
       0.026406094 -0.037277393 0.01899606 -0.007394843
000360 60 1b 87 bb 90 ce 82 bc 68 fb 5e 3d 28 89 f6 bc
       -0.0041231364 -0.015967637 0.05443898 -0.030094698
000370 68 6f 1d bd 56 cd 05 bd c0 77 c9 bb 44 86 df bc
       -0.038436323 -0.032666527 -0.0061483085 -0.027285703
000380 80 b9 64 ba 9e 84 0c 3d 20 55 18 bc 08 07 31 bc
       -0.00087251514 0.03430616 -0.009297639 -0.010804899
000390 90 fe 43 bd d6 54 2e 3d 48 72 88 3c 8a 82 74 3d
       -0.04785019 0.042561375 0.016656056 0.059694804
0003a0 0c d0 7a 3d 44 51 0e 3d 10 66 95 bb a8 9e d7 3c
       0.061233565 0.03474547 -0.004559286 0.02632077
0003b0 30 94 54 bd 88 c6 45 3c 28 5c 9f bc d0 c7 3c bd
       -0.051899135 0.012071259 -0.019453123 -0.046088994
0003c0 94 e3 89 3c 00 95 4e 3a 20 ef 83 3b de c6 2a 3d
       0.01683215 0.0007880479 0.0040263087 0.04169356
0003d0 50 3c d5 bc b4 05 cc bc 34 6e 1c 3d ac 39 6a 3d
       -0.026029736 -0.024905063 0.038191035 0.057183906
0003e0 76 c6 30 bd 5c f3 1f 3d e6 9d 74 bd 58 ff cf bc
       -0.043158017 0.039050445 -0.059720896 -0.025390312
0003f0 80 f0 3a ba a8 1e 93 bc 12 7f 35 bd 20 32 23 bd
       -0.0007131174 -0.017958954 -0.044310637 -0.039842725

_out.bias f4 [3]
000000 e4 fc 98 3c ac 5b 63 bd c2 6c 49 bd
       0.018675275 -0.055507347 -0.049175985
