rl/deep_q_networks/dueling_ddqn/models/training_session/target.pth (torch, 287018 bytes, 9 tensors)

_fc1.weight f4 [256, 12]
000000 2b aa 9a 3c 06 8c 0d be d6 bc aa 3e c6 18 59 3b
       0.01887997 -0.13822946 0.33347195 0.0033126338
000010 ea 1e b3 bd 75 c3 39 3e 68 f1 03 3f 52 08 79 3e
       -0.08746131 0.18140967 0.5154023 0.2431958
000020 7f 09 04 3e ea 1d fa be ed 22 91 3e 0a fd 47 bf
       0.12894247 -0.48850948 0.2834696 -0.7812048
000030 27 db 61 3e 6b 04 79 3e 20 19 94 be 6d 6a 35 3b
       0.22056256 0.24318092 -0.2892542 0.0027681843
000040 8a 3a 11 3e d5 56 bd 3d 41 cb 97 bb 4e a2 46 3e
       0.14182487 0.092450775 -0.004632384 0.19397852
000050 86 54 26 3e a6 b2 bc bd 13 19 26 3e 95 ad 44 3e
       0.1624318 -0.09213762 0.16220503 0.19206841
000060 0b 9d a9 3c a0 70 3d 3e 51 53 02 3c 4b a5 4d 3d
       0.020704767 0.18499994 0.0079544345 0.050206464
000070 7c 3e 9f bd 5e f4 30 be 03 64 ae 3e 15 96 63 bc
       -0.0777559 -0.17280719 0.34060678 -0.013890763
000080 6e 22 90 3d ec 57 7b bb 29 ec b6 3e bf dc 43 3e
       0.07037817 -0.0038351966 0.3572705 0.19127177
000090 f8 a2 08 3c a6 07 bc 3e f6 0a 1e be 6f fb 0f 3e
       0.008339636 0.36724585 -0.15433869 0.14060758
0000a0 5d 35 11 3e 42 cd a5 3d 91 48 a1 bc 23 10 97 3d
       0.14180513 0.080957904 -0.019687923 0.07376125
0000b0 a2 8d 18 bd 0d a6 ba be 98 d5 4d 3b be 3e f1 be
       -0.037244447 -0.36454812 0.003140783 -0.4711818
0000c0 7e 2a 91 3e b0 96 0b bf 5c 95 59 be 89 d4 01 3b
       0.2835273 -0.54526806 -0.21248382 0.0019810519
0000d0 b6 cf 08 3e 11 d6 1d 3e 1b df 28 bf d7 7e f5 bd
       0.13360485 0.15413691 -0.6596543 -0.119870834
0000e0 31 3f 03 be 6a a3 de 3e d4 50 dc bc ab db 02 3e
       -0.12817074 0.4348405 -0.02689401 0.12779109
0000f0 8b f9 16 be d8 7c ee be 6d 6e 7e 3d 42 b5 21 3c
       -0.1474363 -0.46579623 0.06211703 0.009869875
000100 de 85 47 be ad 72 2f 3e 3b e3 23 bf 9f 10 27 bd
       -0.1948466 0.17133589 -0.640186 -0.040787335
000110 4c f2 86 be 8d 80 cd 3e 1d 67 96 be 00 d9 22 be
       -0.26356733 0.4013714 -0.29375544 -0.15903091
000120 84 f4 05 bd 52 6a eb bb fc f0 d8 bd 01 fc 66 3a
       -0.03270389 -0.007184305 -0.10592839 0.0008811355
000130 80 46 5d 3b 4d df f4 be 1d e0 87 bc bc dd 90 bc
       0.0033763945 -0.47826615 -0.016586358 -0.017683856
000140 79 1d c9 3d 30 6c 16 3f 1a f6 8f bc 29 96 80 3d
       0.098200746 0.5875883 -0.017573405 0.06278641
000150 f0 0e 82 bd be 7a 26 bd 67 e7 f4 3d c7 26 0f 3a
       -0.06350505 -0.0406444 0.11958199 0.00054607954
000160 49 c3 da bb df 9d 22 3f 3d 48 35 bf 9b f8 98 3d
       -0.006676112 0.6352214 -0.7081335 0.07469293
000170 c8 02 88 3c aa 43 02 bf a9 9f 11 3e ab d0 d9 be
       0.016602889 -0.508845 0.14221062 -0.42542014
000180 52 c3 d0 3e 04 58 2d 3d 5c fc 7b 3d 52 3f ac 39
       0.40774018 0.042320266 0.061519966 0.00032853574
000190 f7 e4 ae 3d b3 4b 64 be d0 73 bd 3d 92 7b 82 be
       0.08539765 -0.22294502 0.09250605 -0.25484902
0001a0 d6 3b c1 be db b6 e1 be b3 e1 61 bc b9 83 fb be
       -0.37740964 -0.4408482 -0.013786721 -0.49123934
0001b0 3b 55 16 be ad 06 64 3d 43 52 14 3e 16 0a 39 3c
       -0.1468095 0.05567043 0.14484505 0.011293909
0001c0 c7 e4 e7 bc 3f 44 bc 3d 2f 0d 1e bd 3b a6 cc 3b
       -0.028307332 0.091927044 -0.03858679 0.006245402
0001d0 a0 9e 60 be 02 d2 61 3d 5f 29 7c 3e dc fe 8b 3d
       -0.2193551 0.05513192 0.24625157 0.0683572
0001e0 d8 40 3a 3c 2c 7e ef 3e 55 0c 5d 3d 04 ee f2 bb
       0.011367999 0.4677595 0.05396684 -0.0074136276
0001f0 57 b9 45 be eb 1b a7 bc 7b 8e a2 be bb e7 93 bc
       -0.19308983 -0.020399055 -0.3174933 -0.018054834
000200 76 dc 0b bf e0 e7 ee be e7 91 66 bd 47 bb 49 bc
       -0.5463327 -0.46661282 -0.056291487 -0.012312717
000210 d6 74 13 be 05 7a a5 3e 24 f1 c5 3d a4 d1 a5 3c
       -0.14400038 0.32319656 0.096651345 0.020241566
000220 84 ad 8c be 19 34 20 3e ac 65 05 3f c0 ef 42 3e
       -0.27476132 0.15644874 0.52108264 0.1903677
000230 87 e0 c3 bd 80 70 f5 be 61 cb 7b bd 1d f7 ac be
       -0.095643096 -0.47937393 -0.061473254 -0.33782282
000240 a8 50 cd bd ed 61 57 3e 80 5f c9 be a9 c3 80 bc
       -0.100251496 0.2103345 -0.39330673 -0.015718298
000250 3c ce 71 3c d0 05 2f bf 38 03 0d 3f 99 8a b6 ba
       0.014758643 -0.68368244 0.55083036 -0.0013926803
000260 a7 f0 46 bd 78 a1 d6 3e df 61 b4 3d 93 2c 97 bd
       -0.048569348 0.41920066 0.0880773 -0.07381549
000270 08 e3 c5 bd 5c f8 0d 3f ba 02 12 3e 52 70 8d 3c
       -0.096624434 0.5545709 0.14258853 0.017265473
000280 91 87 86 be 33 21 54 3e 82 47 2a bf ce 58 88 3b
       -0.26275304 0.2071579 -0.6651536 0.004160977
000290 03 5f 13 be 00 a0 00 bf 64 bd 3e be f1 dd d0 3d
       -0.14391713 -0.5024414 -0.18626934 0.10198582
0002a0 7d 05 5d 3d b6 d9 5c 3e 26 f9 fc 3e 08 22 11 bc
       0.053960312 0.21567425 0.49408835 -0.008858211
0002b0 b6 bf c5 3d 8c 60 8b bd 5a 24 a9 3e 40 cd 68 3d
       0.096557066 -0.06805524 0.33035547 0.056836367
0002c0 21 ba 33 3e df 16 a8 3e 84 99 5c 3e e6 26 a5 3e
       0.17551471 0.3282995 0.21542937 0.3225624
0002d0 0f 39 6a 3e 5e bc 58 3e af b7 97 bd 96 fa 12 3b
       0.22873329 0.21165606 -0.07408082 0.0022427193
0002e0 10 4f 19 3e b7 1c 11 3d 71 8f 4e be b9 2d 14 bd
       0.14971566 0.035427775 -0.20171906 -0.036176417
0002f0 aa 67 c6 be e4 4d 13 bf 59 5b df bd 83 28 e3 be
       -0.38750964 -0.57540727 -0.10906095 -0.44366845
000300 07 aa de 3b ac e0 99 3d c2 70 af be 1c 72 95 3b
       0.006795171 0.07513556 -0.34265715 0.004560722
000310 88 c9 51 be b9 9b 8b bd a9 88 01 3f 72 71 91 3b
       -0.20487034 -0.06816811 0.5059915 0.0044385726
000320 e5 73 f4 3d 9e a0 a1 be 88 59 1f 3e 28 11 66 be
       0.11936168 -0.31567854 0.15561497 -0.22467482
000330 99 f9 bd bc a8 f7 9d bd fb cd df 3e 34 0d 73 ba
       -0.023190306 -0.07713252 0.43711838 -0.0009271682
000340 04 8e 8c bd 09 c1 a1 be da e9 05 be 82 d0 86 3d
       -0.06863025 -0.31592587 -0.13077489 0.065827385
000350 e4 bc 18 3e f0 12 b6 3d c7 b6 37 3e 24 f1 ef be
       0.14915806 0.08890331 0.17940818 -0.46863663
000360 c1 28 25 3e c9 1d 0f 3e 52 04 41 3e b7 48 19 3d
       0.16128828 0.13976206 0.18849304 0.037422862
000370 df 60 8f bb 96 1c ba 3e b4 27 63 be c7 f6 39 bc
       -0.0043755616 0.36349934 -0.22183114 -0.01135034
000380 9c bc 84 be c0 ec 4d be ef ff cd bd c0 b0 b5 3e
       -0.25925148 -0.20109844 -0.10058581 0.35486412
000390 ac 73 39 bc 27 3e 16 3e 13 2f 96 bb b0 b4 fe ba
       -0.011319082 0.14672147 -0.0045832484 -0.0019432511
0003a0 a5 e4 d2 bd f3 16 8e 3e 57 73 99 3e f7 82 22 bd
       -0.10297517 0.27751884 0.2997081 -0.03967568
0003b0 a7 e9 b6 bd 22 29 08 bf ca fd 51 3e 6a bf c1 3e
       -0.089312844 -0.53187764 0.20506969 0.3784135
0003c0 e7 df 11 be f6 3f 89 3e 55 57 0d 3e 96 42 5c 3b
       -0.14245568 0.2680661 0.13802846 0.0033609024
0003d0 f5 a1 99 bd 36 dc 44 3e 8e 90 ee 3e ff 6d b8 bc
       -0.07501594 0.19224629 0.4659466 -0.022513388
0003e0 a2 c9 76 3e 34 82 58 3d d0 b4 8b 3e 0c dc 6a 3f
       0.24100354 0.052858546 0.27286386 0.91742015
0003f0 f9 8f 8e 3a 18 69 08 3f 19 23 57 be 5a 9e 10 bc
       0.0010876647 0.5328536 -0.21009482 -0.008826816

_fc1.bias f4 [256]
000000 2e ed 8a bc 86 4c 80 bd d2 b7 37 be db 86 9d bd
       -0.0169588 -0.06264596 -0.17941216 -0.07691737
000010 50 32 a8 3b 9c 84 85 be 6d 1f 9f 3d 52 33 16 be
       0.005132951 -0.26077735 0.07769666 -0.14668015
000020 de ca a0 be 06 0d 40 3e ec 3b 8a be 5e 76 9c bc
       -0.31404775 0.18754968 -0.26998842 -0.01909941
000030 f8 11 1d be 71 59 d2 3d ca 36 2a be 05 0d aa be
       -0.15338886 0.10270966 -0.16622463 -0.33213058
000040 a8 65 f3 bc ef 60 bb bd af ea d5 be c5 cd 1d be
       -0.02971156 -0.09149348 -0.41780612 -0.15410526
000050 57 6f 2b be cd 16 4c be 49 ca 45 be 44 a3 6a 3e
       -0.16741692 -0.19930573 -0.19315447 0.22913843
000060 a9 06 9f be a9 c3 3f be a2 ed bc bd a4 8b 2d be
       -0.3105977 -0.18726982 -0.09225012 -0.169478
000070 2e 38 8d bd 19 81 23 3e 62 58 5a be 5e 08 d7 bd
       -0.06895481 0.15967216 -0.21322778 -0.10499643
000080 65 71 59 be 7a 42 75 be fb 95 2e be 35 49 cb bc
       -0.21234663 -0.2395114 -0.170494 -0.024815181
000090 1a a4 a8 bc 6c 74 f0 bc df c1 5c be 16 6b 9f bd
       -0.020586062 -0.02935239 -0.21558331 -0.07784097
0000a0 5f 58 71 be 50 9f aa 3d 8f 0e 61 3d de 3a 46 be
       -0.23568867 0.08331168 0.054945525 -0.19358394
0000b0 c9 fd 60 3e 10 98 ac 3d 1c f1 68 be a3 28 84 bc
       0.21971811 0.08427441 -0.22748226 -0.016132658
0000c0 0c d1 76 3e de d8 8b 3e cb ca 0e be e8 2e 5f be
       0.24103183 0.27313894 -0.13944547 -0.21795237
0000d0 91 9b c9 bd 78 8d 1d 3c a1 0e ac 3c f5 4a b5 bd
       -0.09844125 0.009616248 0.02100307 -0.088521875
0000e0 0d ea ce be 3f 5c 56 be eb a1 9a be 5d 1b b7 be
       -0.40412942 -0.20933627 -0.3020166 -0.35763064
0000f0 c6 43 40 bd 8d fd 6f bd e7 18 ba 3c db a3 8b 3e
       -0.046939634 -0.058591414 0.022716952 0.2727345
000100 b5 d2 2c be 35 48 28 be eb 61 79 be 38 77 39 3e
       -0.16877253 -0.16433795 -0.24353759 0.18111885
000110 07 19 66 be ac 6f 64 bd b4 79 39 3e e5 ca cb 3c
       -0.22470485 -0.05577056 0.18112832 0.024877021
000120 f7 31 55 3e 12 fa 05 be 1a cf 2a bd 29 4d 5d bc
       0.20819841 -0.13083676 -0.041701414 -0.013507166
000130 2f 69 af 3d ab 0b 08 be 40 ac 5a be 57 fa 7c 3d
       0.08564984 -0.13285701 -0.2135477 0.06176218
000140 5d 4d b5 bd 3a 2b b3 be fc b8 68 3d 14 11 a6 3d
       -0.088526465 -0.34993917 0.05681704 0.08108726
000150 72 aa 04 bd ff fc 07 3e d0 5e 4b 3e 00 3d 3f bc
       -0.03238911 0.13280104 0.19860387 -0.011672258
000160 70 fd a1 3d d7 5d 75 be e2 22 0a bd b9 94 88 be
       0.079096675 -0.23961578 -0.033724673 -0.26675966
000170 d1 71 27 be 30 2a 44 be 5a 9c 08 3a 58 36 15 3d
       -0.16352011 -0.19156718 0.00052112865 0.03642878
000180 9f e1 82 be 86 43 12 be bb 27 0f 3e 70 63 fe 3d
       -0.2556276 -0.1428357 0.1398 0.1242131
000190 cd 7d b4 bd c0 b1 36 3d bd 61 08 be b7 c8 ef bd
       -0.08813057 0.04460311 -0.13318534 -0.11708205
0001a0 f7 76 93 bd f3 d5 09 be 5f ec ee 3d bd ea 54 3c
       -0.07200425 -0.13460521 0.11666178 0.012995419
0001b0 5c 17 01 3e f9 89 b9 bc d0 94 9c bd 43 6d 27 bb
       0.12606567 -0.022648798 -0.07645571 -0.0025547303
0001c0 c4 00 71 be 0a de c8 bd 85 65 01 be 29 f1 40 3d
       -0.23535448 -0.098079756 -0.12636383 0.04710499
0001d0 2a af ba 3c 70 fa 29 3e ef 45 b3 bd 0f 5c 51 be
       0.022788603 0.1659944 -0.08753573 -0.20445274
0001e0 df 6b e4 bb 86 84 47 be b0 8d 30 bd 0d 27 3d 3e
       -0.006970867 -0.19484147 -0.043103874 0.18471928
0001f0 12 56 3d be 1f d9 86 be 20 74 d6 bd c5 76 60 be
       -0.18489864 -0.26337525 -0.10471368 -0.21920307
000200 e8 48 19 be 09 0e 84 bc 81 83 a2 be bc 95 7a bc
       -0.14969218 -0.016119974 -0.31740955 -0.0152944885
000210 7a 68 84 be c5 fb 95 3d 48 75 5d be 67 55 23 3d
       -0.2586096 0.07323412 -0.2162677 0.039876368
000220 ea 7e 30 be 43 1f 45 3e 10 d6 87 be b5 75 89 be
       -0.17235914 0.19250207 -0.26530504 -0.26847616
000230 c3 dd 2f be cc b9 13 3e ca f9 37 3e e4 d0 81 3d
       -0.17174439 0.14426345 0.1796638 0.06338671
000240 83 d8 1f 3c 6c c4 83 bd 87 6c 39 be 7a 4a 71 be
       0.00975621 -0.06433949 -0.18107806 -0.23563567
000250 20 04 8e be 9e 0d 82 bd 8c a3 84 be 07 a6 a5 bd
       -0.27737522 -0.063502535 -0.25906026 -0.08088308
000260 34 ea 66 be 14 56 19 be 5b 85 5c be df a4 68 be
       -0.22550279 -0.14974242 -0.21535246 -0.22719143
000270 fe 73 24 3d 46 e3 92 3d 7f 0b 87 3d 1e 2f 3e bb
       0.04014968 0.07172255 0.065939896 -0.0029019783
000280 ed 2d c3 bd cd f6 ac be c7 bc 8b be f5 83 23 be
       -0.09530244 -0.33782044 -0.27292463 -0.15968306
000290 af 14 7e bd 93 5e 6f be 0f 71 94 bd 65 c9 93 be
       -0.062031444 -0.23375921 -0.07248127 -0.2886459
0002a0 19 25 62 be b4 fe 39 be 88 d9 56 3d ca fa 21 be
       -0.22084464 -0.18163568 0.052453548 -0.15818325
0002b0 95 70 76 be 98 94 7e bd a3 0a ab bd a0 9e 8a be
       -0.24066384 -0.06215343 -0.08351638 -0.27074146
0002c0 2b 98 15 be c2 80 84 bd de 2c b3 3d 1d 9d 57 be
       -0.14608829 -0.06469871 0.08748792 -0.21056028
0002d0 f9 55 a3 3c 40 0f 83 be 9e e1 84 3d 13 53 a9 3c
       0.019938456 -0.25597572 0.064883456 0.020669496
0002e0 61 60 40 be 83 41 c0 3c 5f ba 1b 3c e2 29 9d bd
       -0.18786766 0.023468738 0.009504884 -0.07674004
0002f0 ec 61 1c bd d2 c8 9f be 29 09 7a be 5b 73 31 be
       -0.038179323 -0.312079 -0.24417557 -0.17329161
000300 5e d3 fb 3d ac 88 87 bd a8 31 3a bd 94 41 65 bd
       0.122961745 -0.06617865 -0.045457512 -0.055970743
000310 48 d0 80 3d b6 af 0d 3d a1 e9 ad be 57 82 9c be
       0.062897265 0.0345914 -0.33967307 -0.3056819
000320 ce 8f 2c 3d ec d6 ba 3c 20 11 96 bd 66 99 19 be
       0.04212933 0.02280756 -0.07327485 -0.14999923
000330 e6 39 4d bd e7 b7 3d 3e dc 3a 0b be 96 f1 c0 bd
       -0.050104044 0.18527184 -0.13596672 -0.09421079
000340 ab a3 10 bd 4d 3b 7d be 0f 45 c9 bd 31 40 d3 bd
       -0.035312336 -0.24729653 -0.09827625 -0.10314978
000350 c0 ac b2 3d 22 26 87 3c ec 96 0a 3d 14 9b 04 be
       0.08724356 0.016497675 0.033835337 -0.12949783
000360 d2 2e 73 be ec a4 9c 3d 9f d2 21 be 36 a9 5f 3e
       -0.2374833 0.07648644 -0.15803002 0.21841893
000370 3b 9c e0 3d 58 4d 74 be 1c 52 bf bd 9a aa 67 be
       0.109672986 -0.2385763 -0.09341833 -0.22623673
000380 90 7d 58 3d 73 98 c7 bd 2a fb 1a 3d 4b 8a 4b 3d
       0.05285412 -0.09745874 0.037837185 0.049692433
000390 89 68 43 be 15 c9 2a 3d 15 9a 51 be 28 09 72 bd
       -0.19082846 0.041695673 -0.20468934 -0.059090763
0003a0 34 2a 25 bd c0 5b 27 bb d6 91 bb 3d 36 c4 6e be
       -0.04032345 -0.0025536865 0.091586754 -0.23317036
0003b0 b9 a1 06 be c7 a1 ea 3d 99 64 6f be 0e b6 62 bd
       -0.1314763 0.11456638 -0.23378219 -0.055349402
0003c0 ac 81 b0 be 6d a8 ac bd 71 aa 22 be a9 fd 09 3e
       -0.34473932 -0.08430562 -0.1588533 0.1347567
0003d0 10 d8 c1 be 46 c5 98 be 0f c2 4e bd a1 d1 08 be
       -0.37860155 -0.29838008 -0.050478037 -0.13361217
0003e0 44 e4 6d 3e 4c 6b 07 be 5c fd 80 bb 73 da 50 be
       0.23231608 -0.13224524 -0.003936453 -0.20395832
0003f0 ce 4b 1a 3e 03 60 11 3e 94 1d 02 be b3 77 a1 3d
       0.1506798 0.14196782 -0.12706596 0.07884159

_fc2.weight f4 [256, 256]
000000 1c 8a 02 3d b7 59 78 bd 1f 40 52 bd 25 a5 8b bd
       0.031869993 -0.060632434 -0.051330682 -0.06818608
000010 9f 98 30 bd 59 d0 b1 bc 4d 3c c4 bb 88 9d 72 bc
       -0.0431143 -0.021705793 -0.0059886337 -0.014808066
000020 97 ca 00 bd 21 45 7b bc 33 dc d1 bc 5b 3a 3c 3d
       -0.031443205 -0.015336306 -0.025617694 0.04595409
000030 68 99 d7 bc 56 40 c3 bc e5 a8 81 bd fc ee e6 3b
       -0.026318267 -0.023834389 -0.06331042 0.007047532
000040 c4 cc 1d 3d dc 88 db 3b 4b 6d df bc 95 90 8f bc
       0.038525358 0.0066996645 -0.027273795 -0.017524997
000050 cb 75 5f 3d 2b b3 cc 3c c0 df 70 3d e6 30 56 3d
       0.054555696 0.024987778 0.058807135 0.052292727
000060 65 f3 42 bd af 15 ea 3c 1c f5 1e 3d ac dd bd bc
       -0.0475954 0.028574793 0.038807973 -0.02317699
000070 28 3e 3f bd 8a 78 6c bd 15 5a 81 bd 6f 9f 1e bd
       -0.046690136 -0.057732143 -0.0631601 -0.038726266
000080 7f 15 79 bd 09 0f 4c bc e7 c7 44 bc 50 c8 8a bd
       -0.060811516 -0.012454757 -0.012010551 -0.06776488
000090 42 26 77 bc 5d 2b 22 bd b6 ba b8 bc eb 0b 3b bd
       -0.015084805 -0.039592136 -0.022549968 -0.045665663
0000a0 c1 f5 81 3c f7 78 cc bc 22 0d 30 3b b8 f7 85 3d
       0.015864255 -0.024960024 0.0026863297 0.06541389
0000b0 5a d2 3c 3d c1 18 ad bc 32 7c ec bc 12 d3 92 3c
       0.046099044 -0.021129968 -0.028867815 0.017922912
0000c0 70 44 76 bd 65 40 87 bc 5c 07 06 3d bb b6 2b 3d
       -0.06012386 -0.016510198 0.032721862 0.041922312
0000d0 c7 52 45 bd 14 11 47 bc 82 ab f7 3c 48 3f 78 bd
       -0.048174646 -0.012150068 0.030233148 -0.060607225
0000e0 a4 2a 21 bd 5f 58 cd 3c ac a0 c0 3c 15 e6 9d bd
       -0.039347306 0.025066553 0.023514114 -0.077099
0000f0 42 57 cb bc 9f f1 46 bd 99 ce 3f 3d ba 3e 22 bd
       -0.024821881 -0.04857027 0.046827886 -0.039610602
000100 7f 7a 31 3c c3 9d 93 bd 85 fd 02 bd 66 40 61 bd
       0.010832428 -0.07207825 -0.031980056 -0.054993056
000110 35 89 14 3c 92 86 4a bd 6e 6c 4a bd fa 1c 64 3c
       0.009065916 -0.049444743 -0.049419813 0.013922924
000120 8b d0 ac 3d 46 d6 9b bc 9e d0 60 bd 49 06 39 3d
       0.08438214 -0.019023072 -0.054886453 0.04517201
000130 93 ce 77 bd cb 74 31 3c ad fb 4f bd 09 19 dc 3c
       -0.06049974 0.010831068 -0.050777126 0.026867406
000140 c0 b6 79 bd 63 12 43 bb 02 63 25 3c 0f 21 9d bd
       -0.0609653 -0.0029765598 0.010094406 -0.07672321
000150 64 23 30 3d b2 d7 05 3d 6f ad f1 3c f2 44 7c 3b
       0.0430025 0.032676406 0.029501645 0.0038493243
000160 68 58 1b bc 1e 72 a7 bc a3 8b 64 bd 31 e6 78 3b
       -0.009481527 -0.020440158 -0.05579723 0.0037979002
000170 4e 56 21 bd 19 c6 00 3d 4a e7 34 bd e6 40 91 bd
       -0.039388947 0.03143892 -0.044165887 -0.070924565
000180 a6 4e d3 3c 71 b1 2d bd 35 bc 9b 3d fa 22 88 3c
       0.025794338 -0.04240555 0.07604257 0.01661824
000190 ba 7b 46 bd 41 d1 94 bd 90 22 e9 bb 4f 15 6a bd
       -0.04845784 -0.072664745 -0.007114716 -0.057149228
0001a0 7b c5 8d bd 1b e5 8f bc a2 ce 40 3d ab 25 2c bd
       -0.06922432 -0.0175653 0.04707206 -0.04202811
0001b0 7c 27 09 3b 98 39 6d 3d f2 2b 63 bd 7d 70 a2 3c
       0.0020928076 0.057916254 -0.05546183 0.01982903
0001c0 2a 8f b6 bc ac 83 16 3d 28 cd 5d bc 5c b4 34 bd
       -0.022285063 0.036746666 -0.013537683 -0.044117317
0001d0 4d 56 93 3c fc 24 f2 bb 9d d8 59 bc 07 07 01 bd
       0.017985487 -0.007389663 -0.013296274 -0.031500842
0001e0 d7 fc 3f bd a7 e7 b7 3c 58 dc 19 bc 02 36 1a bd
       -0.046871986 0.022449328 -0.009390913 -0.037649162
0001f0 5b 1a 03 3b 3f d0 84 3c 39 1b d3 3b 22 a2 33 3d
       0.0020004723 0.01621258 0.006442454 0.043855794
000200 6c 61 b3 3a 67 60 21 bc b1 a8 2a bd 01 9d 87 bc
       0.001368565 -0.009849644 -0.041664783 -0.016554357
000210 5b b1 09 bd 11 28 27 bd 1d 20 d5 3c f0 08 78 3c
       -0.033616405 -0.040809695 0.02601629 0.01513885
000220 25 0b b9 bc 31 7f c7 3b 47 b3 7e bd 23 a5 1e 3c
       -0.022588322 0.0060881604 -0.06218269 0.009682926
000230 51 99 c0 3c c3 76 6c bd f5 7b 8b bc 31 ad 25 bc
       0.023510607 -0.057730448 -0.01702688 -0.010112093
000240 69 2c ef bc 12 8d 35 bd 98 63 5f bd 88 cc 10 bd
       -0.029195981 -0.04432399 -0.05453834 -0.035351306
000250 9a 7a ae bc f9 c4 73 3d 58 d4 64 bd 6b 66 0c bd
       -0.021298695 0.05951402 -0.05586657 -0.03427736
000260 85 56 2a 3c dc 1d 25 3c 0c c5 21 3d 1d 8a 64 bd
       0.010396604 0.01007792 0.03949456 -0.055795778
000270 e0 38 19 3d 68 aa 6e bd e9 cb f1 3c 79 ec 37 3b
       0.037407756 -0.05826798 0.029516177 0.0028064533
000280 3d 5f c9 bc c0 f2 89 3b 0a d6 d7 3c 64 76 80 bd
       -0.024581546 0.0042098463 0.026347179 -0.06272581
000290 7c 52 c6 bc 2a 6e a8 3c 16 01 e4 bc 29 e9 82 3d
       -0.024209253 0.020560343 -0.027832549 0.06392128
0002a0 7a 17 60 bc bb 03 bb bc e2 7c 98 bd ef 44 24 bd
       -0.013677472 -0.022828927 -0.074456945 -0.040104803
0002b0 08 95 d3 3c 0a e0 73 bb f0 1e cc bc 27 c8 4c 3c
       0.0258279 -0.0037212395 -0.024917096 0.012498892
0002c0 a9 66 e4 bc 05 73 5e 3d 11 aa 29 bd 13 52 e4 3c
       -0.027880983 0.05430891 -0.041421954 0.027871167
0002d0 19 6b 62 bd a5 2b 18 bd 49 e0 a8 3c 74 4c 7d bd
       -0.055277918 -0.037150998 0.02061476 -0.06184049
0002e0 ff 3b a0 bd cf f8 b3 bd fb 09 da 3b be 2a 93 bd
       -0.07823943 -0.08787691 0.006654022 -0.07185887
0002f0 ed 1c 44 bd 43 c9 a2 3c 30 1d f4 bb cd 1a f6 bb
       -0.04787915 0.01987136 -0.0074497685 -0.007510519
000300 04 cc b7 bc 31 37 82 bd 1d 69 2a 3c bc 0b 42 bd
       -0.02243615 -0.06358183 0.0104010375 -0.047374472
000310 32 3c f3 bc 05 4f bc 3b 48 af 41 bd 98 0b a4 3c
       -0.02969179 0.0057467245 -0.0472863 0.02002506
000320 08 9a af bc 09 c9 49 bd 98 e9 9c 3c 80 71 40 3c
       -0.021435753 -0.049263988 0.019154355 0.0117458105
000330 ea 7b 81 bd 66 c0 f9 3c 64 b8 c4 bc 7b 2e be 3c
       -0.06322463 0.03048725 -0.024013706 0.023215523
000340 c3 58 44 bd eb e2 96 bc a5 1c 0c 3d e1 24 9f bd
       -0.047936212 -0.01841875 0.034207005 -0.07770706
000350 1e ae af bc b9 10 3a 3d 86 00 13 3d 09 be 53 3d
       -0.02144533 0.045426104 0.03588917 0.051694904
000360 2a e6 70 3d 78 b1 a5 3b bc 1c 5f 3c 37 83 2c 3d
       0.05881325 0.0050565563 0.013617691 0.042117324
000370 4f 8d 17 bc d4 35 03 3c 6f 44 c7 3b 70 4f 9c bc
       -0.009249999 0.008008439 0.006081156 -0.019080848
000380 c7 00 e4 bc ca fa bc 3a d5 65 16 bd 04 eb a7 3c
       -0.027832402 0.0014418003 -0.03671821 0.020497806
000390 5d 4f c3 3c 8d 3c 2a 3d 5e 2a 16 bd 65 96 0b 3c
       0.023841554 0.041561652 -0.0366615 0.008519744
0003a0 c5 59 44 3c e0 1a 4a bd 44 c1 62 bc e2 30 b1 bc
       0.011984293 -0.049342036 -0.013840023 -0.021629754
0003b0 d4 51 04 3d e3 d6 7a bd be ec 7c bd 4a 32 75 bd
       0.0323046 -0.06124009 -0.061749212 -0.059862413
0003c0 22 38 7a 3d a0 c6 62 3c 95 0e ca 3b 50 30 f7 3c
       0.06108869 0.013841301 0.006166289 0.030174404
0003d0 ad f2 81 3d 23 5c f8 bc 0d 3c 8c bb 62 ef 69 3b
       0.06345115 -0.030317372 -0.0042796195 0.0035695662
0003e0 9d d3 92 bd 04 e4 a6 bd f5 7d d7 3b 79 f4 d6 3c
       -0.07169268 -0.08148959 0.0065762945 0.02623962
0003f0 46 c8 93 3c ce 02 3a 3d 1c c0 3a bd 0c 28 e7 3a
       0.018039834 0.04541283 -0.045593366 0.0017635836

_fc2.bias f4 [256]
000000 a4 87 75 bd 38 4a 73 be 64 20 56 3d 58 46 3d bd
       -0.05994381 -0.23758781 0.052276984 -0.046209663
000010 a8 ff 00 3c 15 69 86 bd 78 7b e7 3d ad fe b7 bc
       0.007873453 -0.065630116 0.11302847 -0.022460306
000020 34 42 1d bc d4 9e 8c bd 5b 6b 81 bd c5 40 13 be
       -0.009598304 -0.068662316 -0.063193046 -0.14380176
000030 58 d2 31 be 1e e3 b0 bd ed d6 f4 3c 4a e6 be bc
       -0.17365396 -0.08637069 0.02988764 -0.02330317
000040 ee ca 60 bd a6 5f 13 bd 89 63 c2 bd 12 43 8c 39
       -0.05488103 -0.03597989 -0.09491641 0.00026752852
000050 9d 76 9a bd 21 d9 00 3e 33 f1 ef bd 00 1d 68 bd
       -0.07542155 0.12582828 -0.11715927 -0.05666828
000060 26 d0 ee bd 86 3d 78 3c dc ae de bd f7 e5 2a bd
       -0.11660795 0.015151387 -0.108731955 -0.041723218
000070 45 c4 2d bc ce 7e 75 bd 4c 3b 31 3e ec ea fd bd
       -0.010605876 -0.059935383 0.17307776 -0.123983234
000080 fa 0a 09 3d 76 e9 ad bc ca 1a 19 be 55 85 55 bd
       0.033457734 -0.021229487 -0.14951625 -0.05212911
000090 0c da d2 bd 24 41 14 3d 65 70 d3 3c b6 6a 92 bc
       -0.102954954 0.036194935 0.02581043 -0.01787315
0000a0 70 ed 83 bd a3 52 14 bc e4 67 9e bb e6 a9 d7 bc
       -0.06441772 -0.009052905 -0.004834162 -0.026326131
0000b0 7a ec 8d bd b5 b1 92 3c 52 c7 19 be 11 06 b0 bb
       -0.0692987 0.017907003 -0.15017441 -0.005371817
0000c0 d0 f2 b9 bc 37 36 a2 3c 27 55 ab bd 39 12 8b bc
       -0.02269879 0.019801242 -0.08365851 -0.016976463
0000d0 d6 22 16 bd bb 09 c4 bd cb 83 af bd c4 e9 0c be
       -0.036654316 -0.095721684 -0.085700594 -0.1376105
0000e0 75 d6 36 bb 7e 86 73 bd 2f e6 0b bd 9b 7d ac bc
       -0.0027898822 -0.059454434 -0.034155067 -0.021055987
0000f0 80 d4 34 3c 4b 69 2a bd e8 8c e2 3c 0e fa 12 3d
       0.011036992 -0.04160432 0.02765508 0.035883002
000100 2f a4 bd 3c f9 f8 c7 bc 80 79 93 3d f5 44 65 3c
       0.023149578 -0.024410712 0.07200909 0.013993491
000110 b4 63 28 bc b1 58 01 3d 95 fa ee bd 17 6b df 3c
       -0.010277677 0.031578723 -0.116688885 0.027272744
000120 45 2a 85 bb 98 8f 45 3e fa c9 09 3d b7 04 8a bd
       -0.004063877 0.19293058 0.033639885 -0.067391805
000130 8a 5a 5e bd 5f 3b 85 3d 9c 16 31 be ab 97 07 bd
       -0.054285564 0.06505465 -0.17293781 -0.033103626
000140 fc 64 d8 bd e6 50 fe bc bb fe 95 bd c4 dd d9 bb
       -0.10566136 -0.031044435 -0.073239766 -0.006648751
000150 ec 0b bc bb 72 e4 d7 bd 36 db 88 bc 7f ef 98 bd
       -0.005738726 -0.10541619 -0.01670609 -0.07467555
000160 0d 8d dc 3c 9c d9 64 bc 95 7f a4 3c 9e d4 a8 bd
       0.026922727 -0.013967898 0.020080367 -0.082436785
000170 a5 51 2d be f9 bc 8a bd 04 86 53 3e ff 7c 52 bc
       -0.16925676 -0.06774325 0.20656592 -0.012847184
000180 89 ee 98 bd a0 43 76 bd 98 3e bb 3b 21 27 2d bd
       -0.07467372 -0.060123086 0.005714249 -0.042273644
000190 cc f2 11 3d 12 4f b2 bd 63 2b f6 bb 66 a6 bc bd
       0.03563194 -0.08706488 -0.0075124963 -0.092114255
0001a0 96 a5 6c bb a9 e9 5c 3c 9d 9a 05 be 50 45 db bd
       -0.003610944 0.013483443 -0.13047262 -0.1070658
0001b0 4b 74 8c bd 12 ee 10 bc fd c1 fd bb 9c 29 34 bd
       -0.068581186 -0.008845823 -0.0077440725 -0.043984994
0001c0 1c 4f ff bc 9a 73 31 be 40 ac 21 be ef d0 bb bd
       -0.031165652 -0.17329255 -0.15788364 -0.0917071
0001d0 92 6f 4b bd 0f 89 57 bd fc 9e 9b bd 20 c3 a9 bc
       -0.04966695 -0.052620944 -0.07598683 -0.020722926
0001e0 ed 7f 17 be cc f5 49 bd b3 08 f5 bd 52 c3 f6 bb
       -0.14794894 -0.049306676 -0.1196455 -0.007530608
0001f0 c1 57 03 3d 5b b5 99 3d dc ec e3 bd ca 56 65 3d
       0.03206611 0.07505294 -0.11129162 0.05599097
000200 a6 87 5e bc f6 97 8b bc dd 81 0b be c4 36 ff bc
       -0.013582146 -0.017040234 -0.13623758 -0.031154044
000210 ec c6 92 bd 13 e5 09 3d 56 ac 0e be 3f be 89 bc
       -0.071668476 0.033665728 -0.13932928 -0.01681435
000220 1a 55 2d bd 61 90 af bd b3 81 64 be 6c 57 96 bb
       -0.042317487 -0.0857246 -0.22315101 -0.004588058
000230 c4 fb 8c 3c a0 86 08 be 11 e7 75 bd 5b 68 fe 3c
       0.017209895 -0.13332605 -0.060034815 0.03105562
000240 a2 ee 1a be 80 f9 ef bc a2 88 3f bd e2 0a 2f be
       -0.15130094 -0.029293776 -0.046761163 -0.17093995
000250 81 fc 9f bd c3 34 1d bd 32 45 e5 bc 49 3a 52 3d
       -0.07811833 -0.038380396 -0.027987096 0.051325116
000260 7f 01 07 be a1 45 d6 3b 2a 89 f2 3c ce 0a 0a 3d
       -0.13184164 0.006539062 0.02960642 0.03370171
000270 f6 2b 4c be 44 9b cc bc 9a 78 b5 3c fe 31 91 bd
       -0.19938645 -0.02497638 0.022152234 -0.070896134
000280 5a d2 42 bc b9 28 83 bd 4d bc c3 bd 0a 63 89 bc
       -0.011890972 -0.064042516 -0.095574 -0.016770858
000290 91 c0 c4 bd dc 53 e2 bd 39 78 0e be 0b f3 4a be
       -0.096070416 -0.11051151 -0.13913049 -0.19819276
0002a0 54 bc 8b bd fa cc 1b bd 02 aa 6f 3c 62 7b 71 bd
       -0.0682303 -0.038037278 0.014627935 -0.058955558
0002b0 a2 3b 75 3c 96 fe c5 bd 6e 9a 9e bd 2b 95 9f bd
       0.014967831 -0.09667699 -0.07744299 -0.077921234
0002c0 da 1a ef bc 88 15 63 bd 54 74 20 3d 39 3e 97 bd
       -0.029187609 -0.055440456 0.03917344 -0.07384915
0002d0 f2 be 12 be 64 c1 ba bd e1 13 28 bd 98 05 53 bd
       -0.14330652 -0.091189176 -0.041034583 -0.051519006
0002e0 c7 0f 6d bd e5 22 93 bd a8 9d 9b bc 26 8d 43 bd
       -0.057876375 -0.0718439 -0.018996075 -0.04774203
0002f0 6f e1 f5 bc 64 53 8f bd fa 23 db bd 5f 67 01 be
       -0.030014722 -0.069983274 -0.10700221 -0.12637089
000300 a5 13 17 bd 6d 73 1f be 63 e0 60 be 2a 8a 6c bd
       -0.03688397 -0.15571375 -0.21960597 -0.05774895
000310 36 54 95 bd dd f6 7f bd fc 59 83 bd b7 b0 d7 bb
       -0.072914526 -0.062491287 -0.064136475 -0.0065823453
000320 8b d1 ba 3c e5 1c 00 3d b5 ad ce bd 2a 8d c2 bd
       0.022804996 0.031277556 -0.10091726 -0.09499581
000330 db 71 b6 bc ea da 1c bd a0 92 66 bd 43 1b 1c bd
       -0.022271087 -0.03829471 -0.056292176 -0.038111936
000340 f9 c0 79 3d 25 bd d5 bd 2a 8c 3d bd c3 46 93 bd
       0.06097505 -0.10436467 -0.04627625 -0.07191231
000350 fc 85 b9 bc 5d 73 4d bd 5a b5 39 bd 58 07 a7 bd
       -0.022646897 -0.050158847 -0.045338966 -0.081556976
000360 77 8d b5 3b 82 af dc bd cb e1 0f bd 01 21 a0 bd
       0.0055405456 -0.10775663 -0.035127442 -0.07818795
000370 2d 31 b5 bc 83 22 8d bc 06 27 45 bd 49 1f 8e bc
       -0.022118175 -0.01722837 -0.04813292 -0.017348902
000380 07 01 d3 bb 47 eb eb bc c7 db 86 bd 5c 16 fe bd
       -0.0064393315 -0.028798712 -0.06584888 -0.124066085
000390 eb 06 04 be dd e4 0b b9 e0 c6 93 bd aa c5 67 3c
       -0.12893264 -0.00013341331 -0.07215667 0.014146248
0003a0 32 d4 12 3d b9 06 96 bd 72 1e 7a bd c8 00 d7 bd
       0.035846896 -0.07325501 -0.06106419 -0.10498196
0003b0 da 66 9e bd fe 23 7b bd 75 f4 8f bc fe a2 93 3d
       -0.07734461 -0.06131362 -0.01757262 0.07208823
0003c0 ce be ff bc 6d a6 13 3d 81 83 83 bd 97 03 27 bd
       -0.031218912 0.036047388 -0.06421567 -0.040774908
0003d0 69 3c 3c 3e ef 61 a6 bd 8d 7d 8e bd a7 e8 21 be
       0.1838242 -0.08124148 -0.06957541 -0.15811406
0003e0 18 42 c2 3d c4 59 12 3e 21 7e 07 bd 7a 12 3e be
       0.09485263 0.14292055 -0.03307927 -0.18561736
0003f0 cb 8d cf bd 75 cf 4a bd f8 72 58 3e fc 45 4f bd
       -0.10134467 -0.049514253 0.21137607 -0.05060385

_value.weight f4 [1, 256]
000000 0d 16 e0 ba de 82 32 3e 4e a2 c6 3d dc 8e 53 3c
       -0.0017096415 0.17432734 0.09698926 0.012912478
000010 94 55 ae be 19 29 24 bf e5 d8 61 3d 01 5a 87 be
       -0.34049666 -0.6412521 0.055138487 -0.26435855
000020 4f e9 fb 3c 88 f2 cf 3c 50 3f 80 bc 2a d3 ac be
       0.030750899 0.025384203 -0.01565519 -0.33754855
000030 23 bc 46 3e d2 8e 19 3e 12 9f 96 be 9f 08 ac 3c
       0.19407706 0.14995888 -0.29418236 0.021000205
000040 28 26 81 bd e1 e5 1e 3c eb cf 64 3d 5f e3 f1 3d
       -0.06306106 0.009698362 0.05586235 0.11810946
000050 9d d1 4e be 08 6e 90 be d1 1c a9 3e d6 a0 23 bd
       -0.20197149 -0.28208947 0.33029798 -0.039948307
000060 59 03 c4 3e c4 e4 01 3c bf 21 cd be 48 c3 13 bd
       0.38283804 0.007928077 -0.4006481 -0.036074907
000070 d6 11 ff 3c 3b 97 74 be 0d ce 0f 3e f5 d8 3c be
       0.031136435 -0.23885815 0.14043446 -0.18442138
000080 0e 7b 5d ba a1 56 44 be a4 ec 4c 3e 8a 26 e0 be
       -0.00084488175 -0.19173671 0.20012146 -0.43779403
000090 b1 0d 3b bf b8 86 ff 3c 61 9f a9 bb 3d 8d e0 bd
       -0.73067766 0.031192169 -0.00517647 -0.10964439
0000a0 28 5b 36 bf 49 f5 dc bb 34 23 1d 3e 76 ae b3 3d
       -0.71232843 -0.0067431075 0.1534546 0.0877351
0000b0 6c 6e 0d 3d 6a ba 6e be f7 b4 d0 3d 1c 6b 13 3f
       0.034529135 -0.23313299 0.10190766 0.5758531
0000c0 3d 4b bc 3e 5c 71 2b be 7f e4 e9 3c 99 45 9d 3b
       0.36776152 -0.16742462 0.028551338 0.0047995565
0000d0 a1 60 cc bd 19 24 10 bf 01 39 10 be ad 3b 93 3e
       -0.09979368 -0.5630508 -0.14084245 0.28756467
0000e0 ed 75 a8 3c 28 bc 5e 3c f7 3e a9 bd f2 d3 4f 3e
       0.020564044 0.013594665 -0.08263963 0.20295694
0000f0 66 6a d1 bb cf 8a 58 3d 90 72 c2 39 67 cd 86 3d
       -0.0063908575 0.052866753 0.0003708792 0.06582146
000100 44 04 83 bd 4c ae 00 3f d1 0b 2c 3c 13 4b 09 3e
       -0.06397298 0.50265956 0.010500864 0.13407545
000110 73 17 0f 3c bf 57 1d 3c 99 49 c7 3e 87 ee bd bc
       0.008733618 0.00960344 0.38923338 -0.023185028
000120 5e 22 c0 bd 10 77 c8 3d 4e 5c 80 bf 08 7c 83 3b
       -0.09381555 0.09788334 -1.0028169 0.0040125884
000130 bf f2 58 be 5a ca 01 be 29 e7 e8 3e 62 ce 49 bb
       -0.2118635 -0.12674847 0.4548886 -0.003079318
000140 16 27 62 3d e2 e6 0b bc ea 24 dc be a1 0c b5 3b
       0.055213057 -0.0085389335 -0.42996913 0.005525187
000150 75 b8 75 be aa 63 10 bf bb b5 f6 be 21 8c 94 3d
       -0.23996146 -0.56402075 -0.48185524 0.0725329
000160 d2 3b ad bd 2c 19 35 bc 83 8b 9b 3d fe 7b e7 3e
       -0.084586754 -0.011053365 0.07594969 0.45211786
000170 82 e2 ad 3e d5 8a 66 3e 7d 61 c6 3d 72 e2 0e 3d
       0.33961874 0.22513898 0.09686563 0.034883924
000180 85 4b 71 bd c6 18 5a bc 83 09 54 3d a4 6b b1 3b
       -0.05890991 -0.0133115705 0.051766884 0.005414443
000190 2e c3 21 bd e8 67 4d 3e ef d4 8e bc 55 fc d8 be
       -0.03949278 0.20059168 -0.017435519 -0.42380014
0001a0 cc bc e6 3e 49 07 11 bd 52 d1 c6 3e 24 be fc 3c
       0.45065916 -0.03540734 0.38831574 0.030852385
0001b0 9a 1d da bc 8c ab 82 bd 47 fd 08 bd 7f cd 79 bc
       -0.026625443 -0.06380376 -0.03344467 -0.015246748
0001c0 54 b1 aa bb 0b 2b ac bd 43 30 bb 3e 50 0d 6d bb
       -0.0052091274 -0.08406647 0.36560258 -0.0036171265
0001d0 9f 0e 4e bf 04 1f b9 bc cf 22 12 be ca b0 af be
       -0.8049106 -0.022597797 -0.14271091 -0.34314567
0001e0 59 27 f8 3e 14 04 96 bd 0e c5 13 bf 07 f3 02 3d
       0.4846752 -0.073249966 -0.57722557 0.03197005
0001f0 62 34 01 3a 27 76 1a 3f 97 41 80 be e4 58 42 be
       0.0004928765 0.60336536 -0.2505004 -0.18979222
000200 5a 9a 46 3c 83 aa 13 3d d4 66 c3 be b8 97 bf bc
       0.012121761 0.036051285 -0.3816439 -0.023387775
000210 86 66 cc 3c cb 76 0d 3d eb 50 ed be c9 2f 9f bd
       0.02495123 0.034537118 -0.46350798 -0.07772786
000220 35 fb 06 3e f3 ab 78 be 9c df cf 3d a4 d3 01 bf
       0.13181765 -0.24284343 0.10150072 -0.5071356
000230 e5 ac ac 3d 35 01 bf be 32 2d 1f 3e 12 d3 46 b8
       0.084314145 -0.37305608 0.15544584 -4.7403453e-05
000240 eb 07 13 3f d6 7a af 3c 10 86 aa 3e b9 bd 1d 3f
       0.57433957 0.021420877 0.33305407 0.6161762
000250 2a 3b f9 3e 0d e9 2d be 7b 73 a5 be c0 4a 72 bd
       0.4867795 -0.16983433 -0.32314667 -0.05915332
000260 c6 c2 1e 3e b7 40 fb 3c 1d c3 80 be 5f a8 cc 3d
       0.15503988 0.030670507 -0.2514886 0.09993052
000270 72 09 f6 bd 22 73 ed bc 56 ee 02 bc f5 d4 98 3c
       -0.1201352 -0.028985564 -0.007991394 0.018656233
000280 e0 33 da 3d e7 1d 57 bf 7c a6 fd be 86 ed 17 bc
       0.106544256 -0.8403 -0.4954108 -0.009272939
000290 61 3e 46 be b7 22 df 3e 1e bb e1 be 23 98 e5 3e
       -0.19359733 0.43581173 -0.44088072 0.44842634
0002a0 43 1b d2 3c 15 9d 17 bd 91 af ab bc ae 61 07 bd
       0.025647765 -0.03701504 -0.02095774 -0.03305214
0002b0 e3 06 28 bd d1 71 ce bd 59 d4 50 bd 62 ca 08 be
       -0.041022193 -0.100803025 -0.05098376 -0.13358453
0002c0 8f 04 0e 3c 62 cf 99 be ab 71 d4 3a 6f d4 04 be
       0.008668079 -0.30041033 0.0016208192 -0.12971662
0002d0 50 ca 32 bf f6 39 21 be ec 9e 24 3d 8f 96 1b 3d
       -0.69839954 -0.15744767 0.040190622 0.03798538
0002e0 e5 6d 8b be 2f 44 2c bc b8 4b 08 bb 09 ef 12 3f
       -0.2723228 -0.010514303 -0.0020797085 0.5739599
0002f0 27 73 d2 3e 70 15 84 3e 78 ec 59 3e 55 c8 0a 3f
       0.4110348 0.25797606 0.21281612 0.5421193
000300 bf cf 07 3d 45 df 0c 3d fc 2b 6a 3e e2 06 48 3e
       0.033157106 0.034392614 0.22868341 0.19533876
000310 2a 58 16 be 51 f3 9c bc d9 6c f7 bd 58 e7 be bc
       -0.1468207 -0.019158991 -0.12081308 -0.023303673
000320 fd 7a 8d ba f4 7f 00 bd 37 b2 b8 be 98 9b 3b 3f
       -0.00107941 -0.031372026 -0.36073467 0.7328429
000330 e1 65 bc bc a0 30 0c bd d6 06 26 bd 3d 40 24 3d
       -0.022997798 -0.03422606 -0.040533863 0.040100325
000340 84 23 90 3d 35 9f e3 3b c5 5f 3f bf 2d a5 74 3f
       0.07038024 0.006946469 -0.7475551 0.9556454
000350 77 e9 10 3d 9f 93 4e bb c4 63 cb be d7 15 ee 3e
       0.0353789 -0.0031521094 -0.39724553 0.46501037
000360 bf 66 57 3c 4e f2 30 be 51 92 cd bc 28 f7 13 3e
       0.013147055 -0.17279932 -0.025094183 0.14449751
000370 c3 67 60 3b 6c a5 b6 bc da 7a 7e bb 9a 58 4f 3d
       0.0034241534 -0.022295676 -0.003883055 0.050621606
000380 bd ed e8 bd 60 bd 36 bc 39 a2 c0 bc c8 44 69 be
       -0.1137347 -0.011153549 -0.023514854 -0.22780144
000390 aa b4 03 3f ad 16 02 3e c2 13 1c bd cc 91 d4 bc
       0.51447546 0.12703963 -0.03810478 -0.025948428
0003a0 e3 d1 f7 be 7c 5a 7c 3e b5 f4 ff 3e e5 5f 77 be
       -0.48402318 0.24643892 0.49991384 -0.24157675
0003b0 a7 cf 36 be 53 1f 4b bd 4e fd 34 bd 29 7f 8e bd
       -0.1785265 -0.04959042 -0.044186883 -0.069578476
0003c0 5c 83 6f be a1 dd a8 bd 36 93 7f 3c 56 d5 e3 bc
       -0.23389953 -0.08245397 0.015599063 -0.027811687
0003d0 03 23 0a 3e dd 71 35 be af 58 be be 15 67 44 3d
       0.13489918 -0.17719217 -0.37177035 0.04794987
0003e0 1b cf 98 3e 88 0e c4 3d e4 09 41 3c b8 b4 08 be
       0.2984551 0.09573084 0.011782143 -0.13350189
0003f0 87 68 48 be 90 13 2d 3d 62 8a af 3d 08 23 2e bd
       -0.19571124 0.042254984 0.08571316 -0.042513877

_advantage.weight f4 [3, 256]
000000 13 ba 1c 3d 89 9f 91 3c e9 45 3e 3d fd 62 33 3d
       0.03826339 0.017776268 0.04645339 0.043795574
000010 77 d5 6c be 58 8b 85 be 83 45 c7 3b b6 09 ad bd
       -0.23128305 -0.26082873 0.0060812845 -0.08449118
000020 5c 0c bc 3b 63 ce eb 3b 30 da 92 3c 62 8f 3f 3e
       0.005738778 0.007196234 0.017926306 0.1870704
000030 ff 80 86 3d 08 e8 68 3e 8d 2b c8 3d 33 cc 91 3d
       0.06567573 0.22744763 0.09773932 0.07119026
000040 09 8d c1 bb 66 5d f1 bc e7 fc 80 bd 6a ea b6 3d
       -0.0059067053 -0.029463481 -0.06298237 0.0893143
000050 cf e6 d0 3c cc 40 26 be 58 4b 86 3e ee 15 34 3d
       0.025500683 -0.16235656 0.26229358 0.043966226
000060 35 28 d0 3d a2 48 13 be 62 ea 62 be fb 16 c6 bc
       0.10163919 -0.14383176 -0.22159722 -0.02418088
000070 ef 94 df bc e2 a3 c3 be ee 56 b5 bc 67 39 c3 3b
       -0.027292697 -0.3821097 -0.022136178 0.0059577706
000080 ac 99 dd bd 4a 3c e8 bd 14 4d 81 3d 5e b0 48 be
       -0.10820326 -0.11339624 0.063135296 -0.19598529
000090 34 be ec be 09 9c 3b 3c 41 14 3e 3e 2d 6f 2e 3c
       -0.46238863 0.011450776 0.18562414 0.010646624
0000a0 8d 58 92 be e4 5c bc bc 98 ed 42 3e 2e a6 f3 3b
       -0.28583184 -0.022993512 0.19035947 0.0074355816
0000b0 91 38 49 3d e8 93 c4 bd 35 5d d5 3c 7f b6 39 3e
       0.04912621 -0.095985234 0.026045421 0.18136023
0000c0 71 78 84 3e 87 32 7e bc 75 e4 5a bc 86 fd ba 3d
       0.2587314 -0.015514976 -0.013360132 0.09130387
0000d0 4d f6 80 bd 46 34 2c be d7 41 e2 bd 6c 1a 04 3e
       -0.06296978 -0.16816816 -0.11047714 0.12900704
0000e0 e9 09 e3 3c de 90 9b bd be 24 9a bc 04 fe 0d 3e
       0.027714686 -0.075959906 -0.018816348 0.1386643
0000f0 46 53 58 3c 8f d9 7f bd cb 75 bb 3d 00 95 a2 3d
       0.013203448 -0.06246334 0.091533266 0.07938576
000100 6a b6 ad 3c 31 de 0b 3c ad 15 9f 3d f1 3e 87 3e
       0.021205146 0.008536861 0.07767806 0.26415208
000110 79 93 f3 3d bf 30 b1 3c 1e bd 51 3e 2a 45 06 bd
       0.118933626 0.02162969 0.20482299 -0.032780804
000120 5d 75 06 bd 7a d7 11 bc c3 ae d1 be 9c 93 94 3c
       -0.03282677 -0.008901471 -0.40953645 0.018136792
000130 a5 9c 28 3d eb e0 94 3e 28 fb 49 3e b0 e2 ad 3d
       0.041165013 0.2907785 0.19724715 0.08490503
000140 46 c6 c2 3d 18 48 29 3c 4c 6a 32 be df 77 22 bd
       0.09510474 0.01033213 -0.17423362 -0.0396651
000150 40 18 b5 bd f4 99 10 bf 0f 8a c8 be 4c 3c 16 3d
       -0.08842516 -0.56484914 -0.3916783 0.036678597
000160 2a 07 80 bc 93 43 0c 3d b0 84 54 be ab 1f 16 3e
       -0.015628416 0.03424413 -0.20753741 0.14660518
000170 8b a0 44 3e cf 7d 34 3d d9 88 c1 3c f7 ba d5 3c
       0.19201867 0.044065293 0.023624824 0.026090128
000180 e6 94 84 bd 1c 6c 05 bd 0e 01 58 3c 1d 27 b0 3d
       -0.064737126 -0.032573804 0.013183845 0.0860121
000190 4b f9 64 bd b5 0d 2b 3e c9 77 19 3e 6e 4d ec bd
       -0.055901807 0.16704448 0.149871 -0.11538206
0001a0 1f e2 e4 3e b3 e7 54 bd e4 74 47 3e 22 e5 a9 3c
       0.44703767 -0.051978778 0.19478184 0.020739142
0001b0 1d e8 02 be df 61 80 bd f5 5b 6d 3e 8a c9 4c 3c
       -0.12783857 -0.062686674 0.2317961 0.0124992225
0001c0 3a 03 29 3d 4f a8 8f bd 72 b9 2d 3e ea b9 81 bd
       0.041262843 -0.07014524 0.16965273 -0.063342884
0001d0 b7 62 00 be 99 39 d3 bc f8 b7 04 bd c9 0f 90 3e
       -0.12537657 -0.0257843 -0.03240201 0.28137043
0001e0 85 84 7a 3e 3f 39 91 3d 2b 18 7a be 48 35 64 bd
       0.24464615 0.07090997 -0.24423282 -0.055714875
0001f0 d4 91 7b bd 95 a8 f1 3e be ea 51 be 54 a4 9b 3d
       -0.06141837 0.4719893 -0.20499703 0.075997025
000200 d8 74 9c bd 56 65 58 3d c9 1f c4 3d 59 9f 09 bd
       -0.07639474 0.052831016 0.09576375 -0.03359923
000210 16 05 3f 3d 09 0b d5 bc 17 a5 df 3e 2e 34 83 bd
       0.04663571 -0.026006239 0.4368064 -0.06406437
000220 4f d7 c3 3e c7 66 4c be d4 e4 ed 3d 81 20 97 3c
       0.38250205 -0.19961081 0.11615911 0.018448116
000230 c6 02 4e 3c 20 7d 50 be d7 dc ae 3e d2 6c 61 3d
       0.012573903 -0.20360231 0.34152862 0.05503542
000240 26 be 0e 3e 1d f4 88 bd f0 4f a5 3e dc 5c 66 3e
       0.13939723 -0.06687186 0.3228755 0.2249636
000250 1a da 10 3e 67 33 18 bd 82 1e 6d bd 12 6c 92 bd
       0.14145699 -0.037158396 -0.057890423 -0.07149519
000260 43 bf 71 3c 47 56 a9 bc e3 c1 2e 3c 9c b1 8d 3d
       0.014755073 -0.020671023 0.010666343 0.06918642
000270 c3 4a 0e bd f6 cf ac 3b 28 c6 4e bd 51 c7 58 bd
       -0.034739267 0.0052738143 -0.050481945 -0.052924458
000280 18 dd 0e 3e 3a 90 d0 be 34 7e 5f 3e 43 d1 06 3d
       0.13951528 -0.40735036 0.21825486 0.03291441
000290 93 83 ea 3c 94 fd 1d 3e bb 83 8b be aa dd ac 3e
       0.028627193 0.15428764 -0.2724894 0.33762866
0002a0 01 75 9f bb 11 cd ca 3c 59 f2 bd 3b a9 1a 49 3d
       -0.004866243 0.024755986 0.0057967124 0.04909769
0002b0 eb e0 fd bc b2 6d 29 be 6f 3f 51 3d 48 2b b5 bc
       -0.030991038 -0.16545752 0.051085886 -0.022115365
0002c0 d9 21 94 bd c9 99 d4 3b 38 a3 3f 3c 1e ba b6 bc
       -0.072330184 0.006488059 0.011696629 -0.022305544
0002d0 34 52 95 be 94 74 9c bd b2 ea b1 3c ee 4c 14 3d
       -0.29164279 -0.07639423 0.021718357 0.03620618
0002e0 0c d8 22 3d 8f f0 fb 3c e5 4f 17 3e a1 e7 f3 3d
       0.03975682 0.030754356 0.14776571 0.11909414
0002f0 a1 4c 5a 3e 3f 04 3a bc 52 87 4b 3e 1d 28 47 3e
       0.21318294 -0.011353551 0.1987584 0.19448896
000300 88 e5 8d 3d 37 ff 90 3e 03 7f 23 3e 93 ff 03 3e
       0.06928545 0.28319713 0.1596642 0.12890463
000310 70 a5 d4 3d df 8c 2c 3d 0d ef b5 3c 6f 91 71 bb
       0.10383117 0.042126533 0.022208715 -0.0036860367
000320 26 0d 03 b9 c0 ac 1e bc 77 76 25 be 03 f0 37 be
       -0.00012498032 -0.0096847415 -0.16158472 -0.17962651
000330 6d fa 2d 3e ac d4 a9 3c 0b 64 2d 3d f6 83 c2 3c
       0.16990061 0.020731293 0.042331737 0.023744565
000340 98 76 5d 3e d5 64 67 be 2c 66 44 be 48 d2 13 be
       0.21627271 -0.22597058 -0.191796 -0.14435685
000350 47 52 33 bd 38 49 e2 bb 4b cd 96 be 4e 56 0c 3f
       -0.043779638 -0.006905701 -0.294535 0.5481919
000360 c3 fe a8 bb 2b 8e 08 be 02 93 d2 3c 1a 8d dd 3d
       -0.005157323 -0.13335483 0.025704864 0.108179286
000370 4e ac fc bc 7c 33 04 be 6c 74 58 bd 75 8e 44 3d
       -0.03084388 -0.12910265 -0.052845404 0.04798742
000380 41 71 e8 3e 51 8c 1d 3d 04 1f 20 3d 6f f6 3d be
       0.45398906 0.038463894 0.03909208 -0.18551038
000390 97 c9 90 3e c4 a8 5d 3e ff 75 9d 3c f2 8c e5 3c
       0.282788 0.2164641 0.019221304 0.02802131
0003a0 dd ce 70 bd 90 24 ab 3b d5 aa eb 3d 54 61 15 be
       -0.05879103 0.0052228644 0.11507193 -0.14587909
0003b0 d7 ae 2e bd 0d 56 8f 3c f9 9e 8d 3c b1 c3 cc bd
       -0.04264721 0.017497087 0.017287718 -0.09998263
0003c0 a5 7f 94 bd 70 a5 f3 3d 13 56 80 bd d8 0a 0d bc
       -0.07250909 0.11896789 -0.06266417 -0.008608542
0003d0 b2 8d 90 3d 93 86 99 bd f5 cf c5 bd 8b f8 b5 bd
       0.07058276 -0.07496371 -0.09658805 -0.088852964
0003e0 44 2b 3e 3e 69 6c 14 3d 35 18 92 bd 00 a9 99 bd
       0.18571192 0.0362362 -0.071335234 -0.07502937
0003f0 4c e7 40 bd 8a ab f2 bb 68 a6 94 3c e4 7d 13 3d
       -0.047095582 -0.007405703 0.018145755 0.03600873

_advantage.bias f4 [3]
000000 75 90 ba bb 35 ba 8a bb 38 f7 b6 bb
       -0.00569349 -0.0042336234 -0.00558367

_out.weight f4 [3, 256]
000000 b0 db 7f 3c 60 14 11 bc 82 9e 07 bd 20 5f eb bb
       0.015616342 -0.008854955 -0.03311015 -0.0071829706
000010 f4 7a 11 bd 80 af 67 3d 66 02 60 bd 00 df dc ba
       -0.035517648 0.056563854 -0.054689787 -0.0016851127
000020 68 34 46 3c 38 a3 41 bd c4 64 be 3c 84 db 1a 3d
       0.012097456 -0.0472748 0.023241408 0.037807003
000030 28 86 43 bc e8 df 73 3d 30 de d3 3c 40 3f 16 bc
       -0.011933841 0.059539706 0.025862783 -0.009170353
000040 10 0c 9f 3c 40 96 8c bb f4 92 68 bd 28 44 3b 3c
       0.019414932 -0.004290372 -0.05678077 0.011429824
000050 70 30 a8 bc fc e2 1b 3d 20 83 e9 3b a8 ea cd bc
       -0.02053091 0.038058266 0.007126227 -0.025136307
000060 88 02 7e bd b0 43 50 bc 20 cb ec bc 38 e0 ea 3c
       -0.062014133 -0.01271145 -0.028905451 0.028671369
000070 a4 62 72 bd 38 01 50 bd 32 10 13 3d bc 0b 23 bd
       -0.059176102 -0.050782412 0.035904117 -0.039806113
000080 b0 62 98 bb dc 5c 95 bc ea 6c 50 bd 90 43 90 bb
       -0.0046504363 -0.018232755 -0.05088512 -0.0044025853
000090 88 6c 2e bc b0 f8 4a 3c f6 a7 5c 3d 18 ec 2f bd
       -0.010645993 0.012388393 0.053871118 -0.042949766
0000a0 e4 6d 35 3d 52 bb 08 3d 72 c8 4a 3d 74 02 f0 bc
       0.044294253 0.033381768 0.049507566 -0.029298045
0000b0 ec 65 d8 bc d0 f4 0d bc 00 60 19 39 94 ab b1 3c
       -0.026415788 -0.008664325 0.0001462698 0.02168826
0000c0 da 5b 3f bd a4 0c cd bc 50 58 6e bd c6 8e 50 3d
       -0.046718456 -0.025030442 -0.05818969 0.05091741
0000d0 44 94 91 3c 36 e3 4a 3d 80 ee d2 ba c2 24 3f 3d
       0.017770894 0.04953309 -0.0016092807 0.046665914
0000e0 78 76 3a bd d4 b6 55 3d c6 8d 2f 3d 6a 06 3e 3d
       -0.045523137 0.05217631 0.042859815 0.046392836
0000f0 82 e8 39 3d 70 3b 55 bd 22 55 59 3d 98 ab 66 bc
       0.045387752 -0.052058637 0.053059705 -0.014078997
000100 0e b3 10 bd 30 89 30 3c 58 15 39 bc a8 58 24 bc
       -0.03532701 0.010774896 -0.011296593 -0.010030903
000110 04 fc f4 bc d0 d8 67 3c c0 a8 01 bd 78 2f 10 bd
       -0.029905327 0.014150813 -0.031655073 -0.03520152
000120 18 8f 10 bd 80 27 3c 3a 58 f0 3c bc 40 2e 82 3c
       -0.035292715 0.0007177517 -0.011531912 0.015891194
000130 a0 b3 66 3c 10 9c d2 bb 72 d8 3b bd f2 52 1a 3d
       0.014080912 -0.0064272955 -0.045860715 0.03767676
000140 90 7d 76 3c 3a 0d 43 bd 00 e0 db b8 f0 90 a3 bc
       0.015044585 -0.047620036 -0.00010484457 -0.019966573
000150 d2 af 34 bd 32 76 38 bd 18 ee 80 3c 74 57 14 3d
       -0.044112988 -0.045034595 0.015738532 0.036216214
000160 c8 c5 fb 3c 80 da 28 3d d4 b9 4c 3d 80 0a 0e bc
       0.030733958 0.041224003 0.049981907 -0.008669496
000170 d0 29 fe bb 0e 92 22 3d 2c 59 9e bc 46 46 2d bd
       -0.0077564493 0.03969007 -0.01932963 -0.042303346
000180 28 b5 e9 3c fc cb cf 3c 0e 49 0b bd 70 de 7e bd
       0.028528765 0.025365822 -0.034005217 -0.06222385
000190 2a 1e 72 bd c0 82 10 bd 00 47 b6 bc e0 3e 9a 3c
       -0.059110798 -0.035280943 -0.022250652 0.01882881
0001a0 64 5d b6 bc 2e 3d 64 bd de a4 06 3d e8 9d 79 bd
       -0.022261329 -0.055722408 0.032872073 -0.060941607
0001b0 80 b2 76 ba 36 31 3e bd f6 82 07 bd a2 7f 77 bd
       -0.0009410754 -0.04643365 -0.03308388 -0.060424455
0001c0 78 8a 41 3d 00 0f 6c 3c 96 f9 18 bd 78 3c 2f 3c
       0.047251195 0.014407873 -0.0373474 0.010695569
0001d0 a2 5e 0e bd 84 b9 2e 3d 4e 4b 2d bd 18 4d 33 bd
       -0.034758218 0.04265739 -0.042308144 -0.043774694
0001e0 26 31 3d 3d e6 c9 24 3d 80 2b 6a 3a 1c c7 6e bd
       0.04618945 0.040231608 0.00089328736 -0.058295354
0001f0 52 4e 3d bd 7e e7 24 bd 80 24 25 bc 80 03 20 3a
       -0.04621727 -0.04025983 -0.010079503 0.0006104037
000200 e2 af 02 3d b0 14 d8 3b 0c 2c 34 3d ac 7e f4 bc
       0.031906016 0.006594263 0.04398732 -0.029845558
000210 4c e3 b6 3c 90 29 7c bd 48 61 bf 3c 66 62 7b bd
       0.02232518 -0.061563075 0.023361817 -0.061373137
000220 84 a8 99 3c 5c 1b 0a 3d 08 c9 99 3c 7c 78 42 3d
       0.018757112 0.0337175 0.018772617 0.047478184
000230 a4 9f 2d 3d d0 f0 e5 3b 90 cc b3 3c 42 21 16 bd
       0.042388573 0.0070172325 0.021948129 -0.03665281
000240 aa 40 28 3d bc ea 2a bd d0 a2 0f 3c ac fc 48 3d
       0.041077293 -0.041727766 0.008766845 0.04906909
000250 e0 af 1c 3c 90 f1 09 3d 30 ec e0 bb a8 5a 9f bc
       0.009563416 0.033677638 -0.0068640932 -0.019452408
000260 20 19 68 3d 08 ca bc 3c a0 82 6b 3c 20 f3 a5 3b
       0.056664586 0.023045555 0.014374405 0.005064383
000270 72 18 68 3d 38 e6 17 bc c0 94 56 3c f8 b6 49 bd
       0.056663938 -0.009271197 0.013096988 -0.04924676
000280 32 fc 69 bd aa dc 03 bd 6a 62 42 3d f2 11 1e 3d
       -0.057125278 -0.032192864 0.047457136 0.038591333
000290 fc f0 b2 3c f8 2b 80 bc 78 dc dd bc 52 f2 52 3d
       0.021843426 -0.015645966 -0.027082667 0.051500626
0002a0 e4 61 e1 3c a0 fc 2b bc 6c 56 90 bc 4a e2 4e bd
       0.027512498 -0.010497242 -0.017619334 -0.050508775
0002b0 40 2c 4a bd 68 8b c8 bc 58 9e b4 bc 7c 88 83 bc
       -0.049358606 -0.024480537 -0.02204816 -0.016056292
0002c0 e0 b8 f8 bb 00 e6 6d b9 e0 61 df bc 78 0a 1a bc
       -0.007590398 -0.00022687763 -0.02726835 -0.00940191
0002d0 6e 09 58 bd 00 41 eb 3c c0 cb 48 3d 9e 0b 1c 3d
       -0.052743368 0.028717518 0.049022436 0.038097017
0002e0 b0 35 3c 3d 0c 97 a6 bc 60 2f 61 bd 90 44 13 3c
       0.045949638 -0.020335697 -0.05497682 0.008988515
0002f0 08 68 fd 3c 60 b3 c2 bc c0 82 1b 3b 80 38 8e 3c
       0.030933395 -0.023767173 0.0023729056 0.017360926
000300 68 32 cc 3c 48 e0 59 3d 72 ec 2b 3d 34 a2 10 3d
       0.02492638 0.053192407 0.04197354 0.03531094
000310 0c 16 bc bc 1c d6 b6 bc 00 7f 25 3b 88 39 79 3c
       -0.022959732 -0.022318892 0.00252527 0.01521147
000320 60 f9 e9 3c dc 34 48 bd 58 c5 46 bd bc 53 30 3d
       0.028561294 -0.048878536 -0.048528045 0.043048605
000330 d8 23 26 3c 64 b7 6b bd b8 3e 00 3c 40 16 c8 3b
       0.010140382 -0.05754794 0.007827453 0.006106168
000340 80 60 ec ba c0 94 db bb ec 76 17 3d 10 68 e3 3b
       -0.001803413 -0.006701082 0.036978647 0.0069398955
000350 98 51 d8 3c 2e b0 18 bd a0 9d 9b 3c 70 50 f2 bb
       0.026406094 -0.037277393 0.01899606 -0.007394843
000360 60 1b 87 bb 90 ce 82 bc 68 fb 5e 3d 28 89 f6 bc
       -0.0041231364 -0.015967637 0.05443898 -0.030094698
000370 68 6f 1d bd 56 cd 05 bd c0 77 c9 bb 44 86 df bc
       -0.038436323 -0.032666527 -0.0061483085 -0.027285703
000380 80 b9 64 ba 9e 84 0c 3d 20 55 18 bc 08 07 31 bc
       -0.00087251514 0.03430616 -0.009297639 -0.010804899
000390 90 fe 43 bd d6 54 2e 3d 48 72 88 3c 8a 82 74 3d
       -0.04785019 0.042561375 0.016656056 0.059694804
0003a0 0c d0 7a 3d 44 51 0e 3d 10 66 95 bb a8 9e d7 3c
       0.061233565 0.03474547 -0.004559286 0.02632077
0003b0 30 94 54 bd 88 c6 45 3c 28 5c 9f bc d0 c7 3c bd
       -0.051899135 0.012071259 -0.019453123 -0.046088994
0003c0 94 e3 89 3c 00 95 4e 3a 20 ef 83 3b de c6 2a 3d
       0.01683215 0.0007880479 0.0040263087 0.04169356
0003d0 50 3c d5 bc b4 05 cc bc 34 6e 1c 3d ac 39 6a 3d
       -0.026029736 -0.024905063 0.038191035 0.057183906
0003e0 76 c6 30 bd 5c f3 1f 3d e6 9d 74 bd 58 ff cf bc
       -0.043158017 0.039050445 -0.059720896 -0.025390312
0003f0 80 f0 3a ba a8 1e 93 bc 12 7f 35 bd 20 32 23 bd
       -0.0007131174 -0.017958954 -0.044310637 -0.039842725

_out.bias f4 [3]
000000 e4 fc 98 3c ac 5b 63 bd c2 6c 49 bd
       0.018675275 -0.055507347 -0.049175985
